out-tss50/ckpt_iter_2500.pt (torch, 48135 bytes, 64 tensors)

transformer.wte.weight f4 [5, 4]
-0.34513265 -0.32470837 0.40567875 0.1833366 0.18481454 0.24767898 -0.105224416 -0.2861232
0.10634625 0.048821457 -0.16005431 0.05909796 0.111677326 0.06537098 -0.16841416 0.053165834
0.18618742 0.18027537 -0.17315763 -0.16767366
00000000: 3ab5 b0be 2d40 a6be 20b5 cf3e 97bc 3b3e
00000010: 0640 3d3e 8f9f 7d3e e67f d7bd bd7e 92be
00000020: 10cc d93d 02f9 473d 47e5 23be b410 723d
00000030: 15b7 e43d 38e1 853d c374 2cbe 6bc4 593d
00000040: eaa7 3e3e 1b9a 383e 3c50 31be a5b2 2bbe

transformer.wpe.weight f4 [256, 4]
0.12580705 0.102062084 -0.011030747 -0.084626116 0.108554795 0.10684366 -0.12298048 -0.049180858
0.053522546 0.020515714 -0.08673611 -0.024754925 0.05550981 0.05542621 -0.04911984 -0.025393918
0.058706097 0.066296734 -0.025834063 -0.05845864 0.010358214 -0.0021777907 -0.04451357 -0.030387666
0.06317199 0.0029013134 -0.06366036 -0.0042500338 0.030796343 -0.013530995 -0.02453689 0.021241037
0.04348882 -0.008577659 -0.01829097 0.009379468 -0.0048383875 -0.04622565 -0.021397244 0.0027848901
-0.0027372737 0.0054773567 -0.009523341 -0.0023711026 0.024577403 -0.008584331 -0.035965495 0.026643416
0.015445696 -0.012943902 0.011286004 0.006767218 0.0016699934 -0.0017678697 -0.029769832 -0.030381082
0.02638533 -0.0022850102 0.011750435 -0.0022595034 0.01947481 0.046042982 0.037764136 -0.029032517
0.020948425 -0.00072686566 -0.00063356024 -0.014155604 0.033169154 0.02668717 -0.044228595 -0.0097566005
0.0072976523 0.017560015 -0.015093162 -0.0174258 0.037332337 0.031478837 -0.06569666 -0.02224957
0.014382008 -0.006683319 -0.009390767 0.0040043034 -0.018717604 -0.03292625 -0.017423816 0.040137928
0.055712555 -0.002508803 -0.00861316 -0.010334784 -0.001995847 0.009984487 -0.024569977 0.013280192
-0.015638575 0.010603292 -0.041339576 0.014056318 0.039823014 -0.025171036 -0.020620005 0.00034751123
0.04371538 0.016122743 0.0025550511 -0.001217461 0.033958044 -0.027161656 -0.037669864 0.024177354
0.019096319 -0.02527412 -0.006416038 0.014049762 0.061118104 0.0057542515 -0.03294398 0.012699451
0.0317561 0.013721706 -0.034228217 -0.029869722 0.021490509 -0.011850178 0.017456168 -0.027946532
0.064605795 -0.01235426 0.0074780085 0.0036751062 -0.007765593 -0.014593841 0.0020120249 0.008654308
0.014735327 0.01921633 -0.013473351 0.0020857044 -0.010565895 -0.010897839 -0.013085954 0.03498702
-0.01516349 0.05339897 0.042393625 -0.022829108 0.047341768 0.036624942 0.0028441378 0.0013230711
0.021198161 0.053802427 0.009872962 0.0032025436 0.010242993 0.007930787 -0.030856444 0.024099695
0.01726643 0.018369196 -0.0052046143 0.031564772 0.0069709574 -0.031006198 0.015094055 -0.007989155
0.05378993 0.008745292 -0.0112014655 -0.033430967 0.028784987 0.031093495 -0.02594672 0.013166009
-0.028614637 -0.035834257 -0.009142893 -0.009726294 0.0062055476 -0.047191508 -0.036269262 0.0082121575
0.019943431 0.02411281 -0.030923095 0.019351326 0.021898221 0.00024115118 0.007536765 0.021068323
-0.004955768 -0.019681584 -0.0003782111 -0.010761522 0.075266935 0.04556214 0.047375347 -0.01798107
0.058797132 0.011815483 0.014142771 -0.014280698 -0.0029307634 0.02935377 2.3202863e-05 0.014013226
0.024769394 -0.026021987 -0.04030547 0.012427639 0.024618626 0.028366357 -0.049150012 0.02703621
-0.006558643 -0.026098449 -0.016825005 0.025400436 0.050360933 0.020999752 -0.012356102 -0.007278109
0.053228818 -0.031078454 -0.016975133 0.024070641 0.041822612 -0.0023174847 -0.01675229 -0.002055816
-0.010072716 0.01137253 0.0067834337 -0.0013200195 0.08235658 0.014709177 -0.007479102 0.011505861
-0.014165539 -0.0053761518 -0.030821431 0.0034164228 0.05391274 -0.02904604 -0.025702795 -0.02368571
0.016904475 -0.009008204 0.02632751 0.019009978 0.036407854 0.04549553 0.002190148 -0.015595437
00000000: 90d3 003e ed05 d13d 4eba 34bc 7550 adbd
00000010: fa51 de3d d9d0 da3d 31dd fbbd de71 49bd
00000020: 753a 5b3d 9210 a83c b4a2 b1bd d7ca cabc
00000030: 415e 633d 9806 633d e331 49bd e806 d0bc
00000040: ce75 703d 95c6 873d f5a1 d3bc 5472 6fbd
00000050: 80b5 293c 44b9 0ebb dc53 36bd 8eef f8bc
00000060: 5160 813d f623 3e3b 5d60 82bd de43 8bbb
00000070: 9d48 fc3c 1bb1 5dbc 9701 c9bc af01 ae3c
00000080: 5521 323d 4f89 0cbc f2d6 95bc 57ac 193c
00000090: 568b 9ebb 1b57 3dbd 4649 afbc b482 363b
000000a0: d563 33bb 667b b33b ca07 1cbc 8064 1bbb
000000b0: 8d56 c93c 4ba5 0cbc 8e50 13bd 4b43 da3c
000000c0: f20f 7d3c a912 54bc efe8 383c 8abf dd3b
000000d0: aee3 da3a ddb7 e7ba dddf f3bc bfe1 f8bc
000000e0: 0c26 d83c 1cc0 15bb e684 403c 2d14 14bb
000000f0: a389 9f3c 9197 3c3d 91ae 1a3d 9ad5 edbc
00000100: 089c ab3c 218b 3eba 8215 26ba e8ec 67bc
00000110: 61dc 073d 0d9f da3c 0b29 35bd 26da 1fbc
00000120: 2521 ef3b 05da 8f3c 4f49 77bc 8dc0 8ebc
00000130: cbe9 183d f4ef 003d f88b 86bd bb44 b6bc
00000140: 84a2 6b3c beff dabb bbdb 19bc 8836 833b
00000150: a955 99bc addd 06bd 64bc 8ebc ab67 243d
00000160: d932 643d bb6a 24bb 361e 0dbc 3a53 29bc
00000170: c2cc 02bb f995 233c fa46 c9bc 2a95 593c
00000180: 781c 80bc 6eb9 2d3c b053 29bd 794c 663c
00000190: 751d 233d 7d33 cebc 49eb a8bc 2b32 b639
000001a0: e60e 333d d813 843c a572 273b 3693 9fba
000001b0: 9717 0b3d 1f82 debc b74b 1abd 960f c63c
000001c0: e26f 9c3c ac0b cfbc a13d d2bb f930 663c
000001d0: fa56 7a3d 298e bc3b 44f0 06bd 5c11 503c
000001e0: af12 023d 02d1 603c e332 0cbd 59b1 f4bc
000001f0: dd0c b03c 4027 42bc 3d00 8f3c 20f0 e4bc
00000200: 0b50 843d 8669 4abc 150a f53b 0dda 703b
00000210: 8476 febb 011b 6fbc 2ddc 033b ccca 0d3c
00000220: 716c 713c 916b 9d3c 54bf 5cbc 50b0 083b
00000230: 931c 2dbc da8c 32bc 7866 56bc 8d4e 0f3d
00000240: 4970 78bc e1b8 5a3d f0a4 2d3d 1c04 bbbc
00000250: 71e9 413d 0904 163d b764 3a3b e66a ad3a
00000260: c4a7 ad3c ef5f 5c3d 34c2 213c c4e1 513b
00000270: 3ad2 273c 22f0 013c a7c6 fcbc b96c c53c
00000280: 5472 8d3c ff7a 963c 788b aabb 104a 013d
00000290: a16c e43b b600 febc 0e4d 773c f2e4 02bc
000002a0: d452 5c3d 6a48 0f3c 5a86 37bc e9ee 08bd
000002b0: 7ece eb3c c9b7 fe3c 378e d4bc 3fb6 573c
000002c0: 3e69 eabc f1c6 12bd 13cc 15bc 095b 1fbc
000002d0: e857 cb3b e24b 41bd 148f 14bd 498c 063c
000002e0: 6860 a33c 3a88 c53c 6e52 fdbc ac86 9e3c
000002f0: e663 b33c 87dd 7c39 f8f6 f63b 7a97 ac3c
00000300: ff63 a2bb 463b a1bc a24a c6b9 1851 30bc
00000310: 8d25 9a3d 5e9f 3a3d a70c 423d 094d 93bc
00000320: 43d5 703d ba95 413c 15b7 673c 97f9 69bc
00000330: 0d12 40bb 5177 f03c c5a3 c237 bb97 653c
00000340: 2fe9 ca3c 102c d5bc 5917 25bd 4c9d 4b3c
00000350: 00ad c93c 9060 e83c 8651 49bd 0b7b dd3c
00000360: e3e9 d6bb 6acc d5bc 98d4 89bc 9314 d03c
00000370: 4447 4e3d ac07 ac3c 3f71 4abc 347d eebb
00000380: 7606 5a3d 3e98 febc 6f0f 8bbc cb2f c53c
00000390: 304e 2b3d f1e0 17bb 193c 89bc deba 06bb
000003a0: 0808 25bc d953 3a3c 9147 de3b 8104 adba
000003b0: 91aa a83d c3fe 703c 4113 f5bb 1483 3c3c
000003c0: 9416 68bc 6e2a b0bb 3a7d fcbc 10e6 5f3b
000003d0: 9bd3 5c3d f6f1 edbc ab8e d2bc 8908 c2bc
000003e0: 417b 8a3c 2597 13bc caac d73c d0ba 9b3c
000003f0: 6720 153d 8559 3a3d 9688 0f3b 0184 7fbc

transformer.h.0.ln_1.weight f4 [4]
1.1595249 1.1258472 1.1387923 1.1292562
00000000: 506b 943f c31b 903f f2c3 913f 788b 903f

transformer.h.0.attn.c_attn.weight f4 [12, 4]
-0.0810543 -0.105299406 0.06969699 0.099995814 -0.050003275 -0.0766838 0.071863346 0.03609358
0.08759303 0.12246704 -0.1518051 -0.03751413 0.056930725 0.13897893 -0.10848469 -0.07274246
0.08770875 0.09812557 -0.1325577 -0.06417786 0.12378636 0.012870039 -0.03925202 -0.08206051
-0.13847889 -0.043891672 0.03878371 0.18026961 -0.097888306 -0.15285349 0.10577001 0.11304934
0.076478064 0.06720184 -0.13262795 -0.07717148 0.02941594 0.016874824 -0.06575189 -0.04974096
0.10208856 0.07831666 -0.06503175 -0.10368017 0.053885728 0.06855772 -0.069332816 -0.10894322
00000000: ccff a5bd 37a7 d7bd 4cbd 8e3d 9bca cc3d
00000010: 3cd0 4cbd 650c 9dbd 172d 933d ddd6 133d
00000020: f963 b33d 00d0 fa3d cc72 1bbe 6ba8 19bd
00000030: 3130 693d 7e50 0e3e 392d debd 00fa 94bd
00000040: a5a0 b33d 0ff6 c83d 35bd 07be af6f 83bd
00000050: b483 fd3d dbdc 523c bac6 20bd 570f a8bd
00000060: 69cd 0dbe c1c7 33bd abdb 1e3d 9998 383e
00000070: aa79 c8bd a085 1cbe f29d d83d 6a86 e73d
00000080: 88a0 9c3d 1ea1 893d 9fcf 07be 150c 9ebd
00000090: b3f9 f03c 123d 8a3c eda8 86bd 2dbd 4bbd
000000a0: cf13 d13d 7c64 a03d 5e2f 85bd 4556 d4bd
000000b0: 48b7 5c3d fd67 8c3d 5dfe 8dbd 9f1d dfbd

transformer.h.0.attn.c_proj.weight f4 [4, 4]
0.12711419 0.098168276 0.13927546 0.15565845 0.051241785 0.0022726762 0.053939894 0.08163957
-0.13470769 -0.04261709 -0.090622425 -0.14167616 -0.008324946 0.017114785 0.00053969177 -0.04437419
00000000: 392a 023e 730c c93d 3a9e 0e3e ee64 1f3e
00000010: e8e2 513d 2ef1 143b 14f0 5c3d a632 a73d
00000020: d0f0 09be 428f 2ebd 4098 b9bd 8e13 11be
00000030: 5b65 08bc 4e34 8c3c 1a7a 0d3a b6c1 35bd

transformer.h.0.ln_2.weight f4 [4]
1.3893561 1.4221312 1.3790585 1.3673488
00000000: 6cd6 b13f 6508 b63f fd84 b03f 4905 af3f

transformer.h.0.mlp.c_fc.weight f4 [16, 4]
0.14684606 -0.039271478 -0.057806183 -0.06489536 0.12960409 0.017734021 0.026235677 -0.09107542
-0.08713763 0.11215067 -0.008148677 0.05065865 0.082414806 -0.11809926 -0.033486176 0.02020196
-0.0016303498 0.073771924 -0.07604312 0.018895784 -0.047785565 0.11129249 -0.10453416 0.03555692
-0.37289995 -0.40779918 0.3558738 0.3474277 0.12645136 -0.08105377 -0.029234609 -0.025209196
-0.048026934 0.108275 -0.11543424 0.031330615 -0.21267779 0.042369694 0.09547434 0.11729994
-0.091449454 0.20170675 0.05705439 -0.093156934 0.035908364 -0.10983784 0.118992075 -0.03483451
0.09972507 -0.14364009 0.079662435 -0.09164753 0.11594737 -0.019847931 0.10824749 -0.13278806
-0.014772199 0.041993722 0.044230826 -0.033031102 0.16307507 -0.010104328 -0.05037137 -0.06400629
00000000: d05e 163e 21db 20bd 2dc6 6cbd dce7 84bd
00000010: efb6 043e f046 913c 34ec d63c c085 babd
00000020: 3775 b2bd 40af e53d 0782 05bc 727f 4f3d
00000030: 18c9 a83d 06de f1bd cd28 09bd 957e a53c
00000040: 76b1 d5ba bc15 973d 7fbc 9bbd 55cb 9a3c
00000050: ccba 43bd 51ed e33d 0116 d6bd 22a4 113d
00000060: beec bebe 0ecb d0be 1735 b63e 0be2 b13e
00000070: 777c 013e 85ff a5bd 6b7d efbc 8483 cebc
00000080: e4b7 44bd 48bf dd3d c968 ecbd 8854 003d
00000090: 35c8 59be d88b 2d3d 0d88 c33d f33a f03d
000000a0: da49 bbbd 378c 4e3e ddb1 693d 10c9 bebd
000000b0: a614 133d a9f2 e0bd 1eb2 f33d a2ae 0ebd
000000c0: a83c cc3d 6316 13be 0f26 a33d b3b1 bbbd
000000d0: d175 ed3d 2198 a2bc dcb0 dd3d 98f9 07be
000000e0: 1807 72bc 9c01 2c3d 622b 353d 9f4b 07bd
000000f0: 27fd 263e a08c 25bc 3652 4ebd bb15 83bd

transformer.h.0.mlp.c_proj.weight f4 [4, 16]
-0.114917256 -0.054885164 0.12651607 -0.032528587 0.02882386 0.054164253 0.2668789 -0.1128729
0.072081864 0.18353258 0.11787113 0.0241807 -0.01717047 -0.036127932 0.05258294 -0.08962592
0.044564687 0.0865929 0.012560827 0.05347004 -0.09348472 -0.14353094 0.22656636 0.06069117
-0.045383666 0.059693806 8.1692444e-05 0.1003087 0.10471086 0.058278 0.023454973 0.025161827
-0.10789535 -0.10663059 0.030680971 -0.03968028 -0.036052316 0.0002728139 -0.2834027 -0.05544304
-0.037872326 -0.048664454 0.0020779723 -0.022420574 -0.0052128597 0.030951092 0.08865782 -0.0733046
0.015984958 0.02645143 -0.026459297 -0.016138285 0.011557386 -0.0034292513 -0.15692441 0.0069702296
-0.018674921 -0.04687135 -0.087808326 -0.043331925 -0.072703324 -0.072446175 -0.02328847 -0.00015800662
00000000: bd59 ebbd 44cf 60bd 6e8d 013e b23c 05bd
00000010: 0420 ec3c 56db 5d3d 5aa4 883e e829 e7bd
00000020: a89f 933d f7ef 3b3e 6b66 f13d 9a16 c63c
00000030: 16a9 8cbc e2fa 13bd 3561 573d cb8d b7bd
00000040: 7689 363d 9e57 b13d edcb 4d3c 6703 5b3d
00000050: eb74 bfbd c6f9 12be 0301 683e 4e97 783d
00000060: 39e4 39bd 7e81 743d 4c52 ab38 a66e cd3d
00000070: a672 d63d eab4 6e3d a524 c03c 2d20 ce3c
00000080: 3df8 dcbd 2461 dabd a956 fb3c ca87 22bd
00000090: 98ab 13bd 7608 8f39 291a 91be 3e18 63bd
000000a0: 0320 1bbd 6154 47bd 972e 083b 5aab b7bc
000000b0: a3d0 aabb 258d fd3c 3b92 b53d b920 96bd
000000c0: e3f2 823c abb0 d83c 2bc1 d8bc 7034 84bc
000000d0: 315b 3d3c 4abd 60bb cbb0 20be 8666 e43b
000000e0: 26fc 98bc 2cfc 3fbd dad4 b3bd d17c 31bd
000000f0: 7be5 94bd a95e 94bd 76c7 bebc 94ae 25b9

transformer.h.1.ln_1.weight f4 [4]
1.1574888 1.1346382 1.1535385 1.159012
00000000: 9828 943f d33b 913f 26a7 933f 815a 943f

transformer.h.1.attn.c_attn.weight f4 [12, 4]
-0.10353914 -0.09344296 0.12520896 0.08555271 -0.11206758 -0.07838844 0.08899716 0.1196049
-0.13062626 -0.06949272 0.111379154 0.1509746 -0.14427947 -0.10781171 0.12651409 0.15874739
0.12680644 0.08707574 -0.048080154 -0.19706815 0.09878617 0.06913468 -0.099355094 -0.1250386
0.11864528 0.10453443 -0.091802835 -0.19331636 0.14583163 0.11930236 -0.12988009 -0.15284601
-0.08716167 -0.06281716 0.07307543 0.12638597 0.092639014 0.061245278 -0.08297907 -0.067142755
0.10332687 0.10768005 -0.12489714 -0.12795147 -0.07108322 -0.10698111 0.14120984 0.13211921
00000000: 540c d4bd 065f bfbd c736 003e 4236 af3d
00000010: b083 e5bd 1e8a a0bd 2544 b63d 6af3 f43d
00000020: e4c2 05be 3352 8ebd c11a e43d 1699 1a3e
00000030: ffbd 13be 63cc dcbd e98c 013e ad8e 223e
00000040: 8cd9 013e c454 b23d b2ef 44bd 3ccc 49be
00000050: 6750 ca3d 7c96 8d3d af7a cbbd 1e0a 00be
00000060: 4cfc f23d 2616 d63d 2003 bcbd b9f4 45be
00000070: e354 153e cc54 f43d 49ff 04be aa83 1cbe
00000080: d181 b2bd 48a6 80bd 92a8 953d 536b 013e
00000090: 86b9 bd3d 54dc 7a3d eef0 a9bd 2482 89bd
000000a0: 0a9d d33d 5c87 dc3d 12ca ffbd b605 03be
000000b0: 1494 91bd ea18 dbbd 5099 103e 424a 073e

transformer.h.1.attn.c_proj.weight f4 [4, 4]
-0.13391837 0.13010716 0.12986375 -0.1074851 -0.055026263 0.053776566 0.05053842 -0.044853292
0.15068074 -0.13828811 -0.15114991 0.13741578 0.024559636 -0.00483834 -0.01485911 0.005396017
00000000: e621 09be d03a 053e 01fb 043e 2621 dcbd
00000010: 3863 61bd d144 5c3d 6001 4f3d 16b8 37bd
00000020: 0d4c 1a3e 669b 0dbe 0bc7 1abe b9b6 0c3e
00000030: 4a31 c93c f08a 9ebb a073 73bc 12d1 b03b

transformer.h.1.ln_2.weight f4 [4]
1.1691014 1.2493035 1.1510634 1.2055874
00000000: 1da5 953f 2de9 9f3f 0c56 933f b050 9a3f

transformer.h.1.mlp.c_fc.weight f4 [16, 4]
0.08555448 -0.16298012 -0.06454586 0.18988156 0.1668534 -0.03301238 -0.02484335 -0.08600689
0.023431048 0.12687883 0.013738503 -0.09470866 -0.027955811 0.18037225 0.034121316 -0.10869733
0.13284251 -0.21293923 -0.060946085 0.06875991 -0.1605533 0.17101793 -0.042337097 0.054975264
-0.16892755 0.1426587 -0.054832138 0.10351351 0.10548578 0.033011973 0.032682914 -0.09107362
0.05131127 -0.14828143 -0.084617734 0.25716123 0.17517944 -0.0397622 -0.01740885 -0.0994786
0.14716569 -0.03090996 -0.01725156 -0.0716527 0.09325648 0.12038969 -0.010853645 -0.1538862
-0.0029735353 -0.14401142 -0.004345742 0.14387873 0.04135364 -0.16789794 0.12317695 -0.045038883
-0.026812967 0.02502634 -0.028249968 0.051754754 -0.0754297 0.1391904 -0.051095 -0.037964962
00000000: 3037 af3d 43e4 26be 9f30 84bd 5070 423e
00000010: 9edb 2a3e fd37 07bd 4884 cbbc 6124 b0bd
00000020: 78f2 bf3c 86ec 013e 7517 613c 9df6 c1bd
00000030: 9603 e5bc 81b3 383e cbc2 0b3d b59c debd
00000040: de07 083e be0c 5abe 9aa2 79bd ffd1 8c3d
00000050: 1668 24be 531f 2f3e aa69 2dbd be2d 613d
00000060: 58fb 2cbe 1f15 123e aa97 60bd e4fe d33d
00000070: ee08 d83d 9037 073d 85de 053d ce84 babd
00000080: c42b 523d 16d7 17be 104c adbd a3aa 833e
00000090: 3d62 333e b0dd 22bd 019d 8ebc 70bb cbbd
000000a0: 9ab2 163e e236 fdbc 2553 8dbc a7be 92bd
000000b0: 41fd be3d df8e f63d 7dd3 31bc 5894 1dbe
000000c0: a5df 42bb bb77 13be ba66 8ebb f254 133e
000000d0: 6f62 293d 70ed 2bbe 3244 fc3d b17a 38bd
000000e0: dea6 dbbc 0a04 cd3c 7a6c e7bc cbfc 533d
000000f0: e37a 9abd ee87 0e3e fe48 51bd 2681 1bbd

transformer.h.1.mlp.c_proj.weight f4 [4, 16]
0.0019633283 -0.10462578 0.02901485 0.08885311 -0.028429672 0.13818729 0.16740401 -0.05223825
0.05513292 -0.12321502 -0.06315114 -0.011490453 0.039500825 0.038916737 0.049714494 0.12150488
0.16197023 0.021273244 -0.048325658 -0.039417293 0.11699329 -0.027965266 -0.011356242 0.02257043
0.13576974 0.033282455 0.033809684 -0.002015307 0.12161661 0.13594025 -0.0020823902 -0.10090372
-0.049306225 -0.086597204 -0.12197103 -0.09624048 -0.13083525 -0.015315195 -0.0152224675 -0.12092106
-0.05463607 -0.113265626 -0.06757294 -0.022706829 -0.0023229616 -0.05012789 -0.010516413 -0.03614889
-0.07531839 0.04707295 0.051105354 0.024016973 -0.023746694 -0.026799053 -0.054003704 0.07913624
-0.09185787 0.058243558 0.029519064 0.012418012 -0.07410781 -0.041531403 -0.035414256 -0.004557066
00000000: 2fab 003b 0a46 d6bd 8db0 ed3c 9ff8 b53d
00000010: 58e5 e8bc f880 0d3e f56b 2b3e c6f7 55bd
00000020: 0fd3 613d 2858 fcbd 6355 81bd 7442 3cbc
00000030: 9ecb 213d 2867 1f3d 6da1 4b3d 8dd7 f83d
00000040: 86db 253e 3a45 ae3c 20f1 45bd 0774 21bd
00000050: 2e9a ef3d 6a17 e5bc 880f 3abc 9fe5 b83c
00000060: 3907 0b3e 2f53 083d 067c 0a3d 3e13 04bb
00000070: 2112 f93d ec33 0b3e b678 08bb 9ca6 cebd
00000080: 53f5 49bd e059 b1bd f3cb f9bd bb19 c5bd
00000090: adf9 05be 95ec 7abc a867 79bc 76a5 f7bd
000000a0: 12ca 5fbd cff7 e7bd ae63 8abd ac03 babc
000000b0: d43c 18bb e752 4dbd 084d 2cbc dc10 14bd
000000c0: 8740 9abd 91cf 403d d953 513d 3ebf c43c
000000d0: 6d88 c2bc b089 dbbc fd32 5dbd 2e12 a23d
000000e0: fb1f bcbd cc90 6e3d f7d1 f13c eb74 4b3c
000000f0: d6c5 97bd d51c 2abd 8a0e 11bd 7153 95bb

transformer.h.2.ln_1.weight f4 [4]
1.1271477 1.1312606 1.1366564 1.1366943
00000000: 6046 903f 26cd 903f f57d 913f 337f 913f

transformer.h.2.attn.c_attn.weight f4 [12, 4]
0.05350596 -0.03682423 0.015564986 -0.041618377 -0.03993816 -0.042184025 0.043464582 0.04644983
-0.057327572 -0.032310255 0.06506462 0.0031579963 0.06979929 0.049978457 -0.10346022 -0.050885223
0.016536932 -0.013878204 -0.003691618 0.021770189 0.0671601 0.04549485 -0.06825002 -0.0894375
0.0076463223 0.007984334 -0.02731685 -0.07067571 -0.1191995 -0.04785836 0.039576024 0.15066598
-0.04184899 -0.05278615 0.058711383 -0.021005906 -0.08082007 -0.109884515 0.09545901 0.09873065
0.0807528 0.091569275 -0.10657642 -0.11168102 0.06944681 0.0720679 -0.07081335 -0.1413941
00000000: 1129 5b3d 01d5 16bd 4804 7f3c 0878 2abd
00000010: 3296 23bd 28c9 2cbd eb07 323d 2d42 3e3d
00000020: 51d0 6abd c257 04bd 9940 853d 63f6 4e3b
00000030: eef2 8e3d 36b6 4c3d f4e2 d3bd 066d 50bd
00000040: 7678 873c 6861 63bc 13ef 71bb 6557 b23c
00000050: 3c8b 893d cf58 3a3d abc6 8bbd 022b b7bd
00000060: 008e fa3b b9d0 023c 96c7 dfbc 6dbe 90bd
00000070: de1e f4bd 2107 44bd 781a 223d 2f48 1a3e
00000080: d969 2bbd 4a36 58bd 597b 703d 9414 acbc
00000090: fe84 a5bd 220b e1bd 0380 c33d 4c33 ca3d
000000a0: b961 a53d ac88 bb3d bd44 dabd 05b9 e4bd
000000b0: 213a 8e3d 5698 933d 9706 91bd 9dc9 10be

transformer.h.2.attn.c_proj.weight f4 [4, 4]
-0.0937096 -0.14912277 0.14528562 0.15057743 0.016795658 -0.05237911 0.037290648 0.06007006
0.04152192 0.12695077 -0.120526835 -0.1256568 -0.040523943 0.013081387 -0.024995951 -0.019700665
00000000: d2ea bfbd a4b3 18be c1c5 143e f830 1a3e
00000010: 0c97 893c 7a8b 56bd 14be 183d 060c 763d
00000020: e412 2a3d 62ff 013e c6d6 f6bd 2dac 00be
00000030: 6ffc 25bd 5053 563c 4fc4 ccbc 4a63 a1bc

transformer.h.2.ln_2.weight f4 [4]
1.1950507 1.1826879 1.1064029 1.246427
00000000: 6cf7 983f 5162 973f 9c9e 8d3f ec8a 9f3f

transformer.h.2.mlp.c_fc.weight f4 [16, 4]
-0.03191925 0.042127162 0.012775252 -0.07452293 -0.046085738 -0.07016021 0.0018727648 0.10115437
0.083420195 0.029934386 0.0124803325 -0.09025747 -0.06076471 -0.0614308 0.010444075 0.15765922
-0.029286806 0.09641647 -0.039995626 -0.10270156 -0.09402796 -0.0883897 -0.0010915403 0.16170067
0.13116048 -0.06109145 0.10658161 -0.22606806 -0.10415146 -0.019176014 -0.05432863 0.16328341
-0.099312335 -0.10896647 -0.011984011 0.11539545 -0.084423944 -0.0012447675 -0.006014461 0.10970664
0.048990905 0.0439559 0.070472226 -0.16860522 -0.08027407 -0.087068215 -0.013387428 0.12868318
0.031022985 0.10930626 0.044245444 -0.105644226 0.219621 -0.21485204 -0.064183034 -0.0077372855
-0.095497884 0.15770233 -0.17490911 0.16731946 0.03482322 0.08993745 0.07113324 -0.16386689
00000000: c2bd 02bd 888d 2c3d 4a4f 513c 7a9f 98bd
00000010: 66c4 3cbd 28b0 8fbd 8f77 f53a 062a cf3d
00000020: 35d8 aa3d f538 f53c 4f7a 4c3c e9d8 b8bd
00000030: 6be4 78bd dd9e 7bbd a01d 2b3c 6b71 213e
00000040: e2ea efbc 0076 c53d 74d2 23bd 3255 d2bd
00000050: bb91 c0bd a905 b5bd 0412 8fba dc94 253e
00000060: ef4e 063e 073b 7abd 7647 da3d 637e 67be
00000070: 5c4d d5bd 0417 9dbc b387 5ebd c433 273e
00000080: 4464 cbbd d029 dfbd 9658 44bc 7354 ec3d
00000090: 76e6 acbd 7727 a3ba f514 c5bb e0ad e03d
000000a0: b0aa 483d 1a0b 343d be53 903d d9a6 2cbe
000000b0: bb66 a4bd d250 b2bd f156 5bbc 86c5 033e
000000c0: ea23 fe3c f6db df3d b63a 353d 005c d8bd
000000d0: 54e4 603e 2c02 5cbe 6572 83bd 0e89 fdbb
000000e0: 6594 c3bd b87c 213e 601b 33be cb55 2b3e
000000f0: cba2 0e3d 2031 b83d 4eae 913d b9cc 27be

transformer.h.2.mlp.c_proj.weight f4 [4, 16]
0.05932342 0.0023881255 0.02900585 0.030146962 0.10060843 0.02852109 0.04057119 0.07776448
0.007555856 0.095332675 0.08332169 0.016023347 0.08004878 -0.11358479 0.14232938 0.118458
-0.04801269 0.017143145 0.0040426604 0.03699773 -0.103089996 0.031465452 0.09613218 0.022764672
0.015930677 0.0054649315 -0.01178426 0.017481796 -0.028457144 0.10797526 -0.029395407 -0.028535295
-0.011412528 0.061055243 -0.11018797 0.052658625 0.009721902 0.063651666 -0.21159627 0.08401903
0.07084857 0.07405419 -0.09310724 0.08195491 -0.085641295 -0.10212556 0.0018601558 -0.10796806
-0.003651998 -0.057991624 0.00046094926 -0.052666698 -0.0015697334 -0.07008687 0.06511935 -0.13121288
-0.067020275 -0.055606946 0.059551183 -0.08122292 0.02611805 -0.0066483137 -0.086509004 0.07301212
00000000: 1dfd 723d 1982 1c3b ad9d ed3c c3f6 f63c
00000010: cb0b ce3d 10a5 e93c fa2d 263d fc42 9f3d
00000020: 1d97 f73b c73d c33d 90a4 aa3d 6543 833c
00000030: 9df0 a33d 249f e8bd cbbe 113e 1c9a f23d
00000040: f4a8 44bd c86f 8c3c 4b78 843b ef8a 173d
00000050: d920 d3bd ebe1 003d f3e0 c43d fa7c ba3c
00000060: 0d81 823c 2b13 b33b c512 41bc fc35 8f3c
00000070: f51e e9bc 2222 dd3d a3ce f0bc dac2 e9bc
00000080: 9dfb 3abc 1015 7a3d 3baa e1bd 92b0 573d
00000090: 9d48 1f3c ce5b 823d b1ac 58be 2b12 ac3d
000000a0: 0e19 913d b9a9 973d 02af bebd fad7 a73d
000000b0: b464 afbd 3527 d1bd 79d0 f33a 5c1e ddbd
000000c0: 5c56 6fbb a088 6dbd 90ab f139 09b9 57bd
000000d0: 83bf cdba b489 8fbd 4b5d 853d ab5c 06be
000000e0: ed41 89bd 1cc4 63bd f1eb 733d 3458 a6bd
000000f0: 85f5 d53c 19da d9bb a22b b1bd 6187 953d

transformer.ln_f.weight f4 [4]
1.507721 1.4768134 1.5103508 1.4668493
00000000: 00fd c03f 3908 bd3f 2d53 c13f b8c1 bb3f

lm_head.weight f4 [5, 4]
-0.34513265 -0.32470837 0.40567875 0.1833366 0.18481454 0.24767898 -0.105224416 -0.2861232
0.10634625 0.048821457 -0.16005431 0.05909796 0.111677326 0.06537098 -0.16841416 0.053165834
0.18618742 0.18027537 -0.17315763 -0.16767366
00000000: 3ab5 b0be 2d40 a6be 20b5 cf3e 97bc 3b3e
00000010: 0640 3d3e 8f9f 7d3e e67f d7bd bd7e 92be
00000020: 10cc d93d 02f9 473d 47e5 23be b410 723d
00000030: 15b7 e43d 38e1 853d c374 2cbe 6bc4 593d
00000040: eaa7 3e3e 1b9a 383e 3c50 31be a5b2 2bbe

exp_avg f4 [5, 4]
4.5217505e-05 -6.3962114e-05 -0.00019653453 0.00025435633 -0.01008844 -0.00939522 0.011659379 0.006587182
0.00025000496 0.0017280914 0.0013899992 -0.0035331293 0.008543046 0.0059813075 -0.012711932 -0.0011432278
0.001012198 0.0020532687 -0.0017907777 -0.0025743213
00000000: eda7 3d38 6623 86b8 d614 4eb9 215b 8539
00000010: fc49 25bc 69ee 19bc fb06 3f3c 4ad9 d73b
00000020: 1913 8339 2081 e23a a230 b63a 138c 67bb
00000030: 22f8 0b3c d8fe c33b b545 50bc 5cd8 95ba
00000040: bbab 843a 2290 063b 87b8 eaba f2b5 28bb

exp_avg_sq f4 [5, 4]
1.8360554e-06 1.0049499e-06 1.9519039e-06 2.5303807e-06 0.00048939144 0.00020818846 0.0010264107 6.6215645e-05
0.000282277 9.127694e-05 0.0006758872 3.7437727e-05 0.00038862048 0.00011742878 0.00096193794 3.0611496e-05
0.00040451865 0.00016033562 0.0008642426 4.8333022e-05
00000000: 626e f635 d1e1 8635 74fd 0236 9ccf 2936
00000010: 814a 003a 2a4d 5a39 a188 863a 41dd 8a38
00000020: 94fe 9339 ef6b bf38 062e 313a 7406 1d38
00000030: c2bf cb39 1944 f638 902a 7c3a d864 0038
00000040: 9315 d439 c41f 2839 578e 623a 30b9 4a38

exp_avg f4 [256, 4]
-0.00014563216 -2.6885766e-05 1.3111186e-05 8.0613565e-05 -5.54629e-08 -6.6142515e-05 -1.7462728e-06 2.3122568e-05
9.0621e-06 0.00016829585 4.1029056e-05 -0.0005498573 -9.2029984e-07 -2.6447842e-05 1.5294505e-05 -2.2669155e-05
-3.448473e-06 3.8583512e-05 -3.1884094e-05 2.6245625e-05 3.0022991e-05 4.564588e-05 2.0363232e-05 -0.000264559
-2.876846e-05 -0.00011398639 -2.7146583e-05 0.000121893005 -4.309022e-05 -7.15752e-05 -1.7528191e-05 8.3949424e-05
1.7837396e-05 7.2391567e-06 8.139454e-06 -1.5348598e-05 -3.0597217e-05 -7.76475e-05 -5.9341928e-05 0.00010897023
2.0156316e-05 4.9248636e-05 5.740419e-06 6.9545587e-07 7.42505e-06 7.885424e-06 -2.0863068e-05 -2.3009909e-05
-3.450882e-05 -9.215245e-06 -1.8694238e-05 6.1622544e-05 2.9751463e-05 8.3237275e-05 1.664926e-05 -8.7564076e-05
-1.0418024e-05 1.0887166e-05 1.4530268e-05 -6.672107e-06 9.101519e-06 -3.092627e-05 -8.106522e-05 0.00014012879
-2.0338797e-05 4.1635274e-05 4.2631276e-05 -2.8599634e-05 1.5340822e-05 5.9432037e-05 2.4131965e-05 -0.00018952465
2.2534443e-05 -5.3776144e-05 -7.523736e-05 0.00013418728 2.8094285e-06 3.160164e-05 -5.480801e-06 3.041573e-05
1.9845673e-05 -2.4501585e-05 8.468959e-06 -5.972264e-05 9.158252e-06 1.0019328e-05 2.33981e-05 -0.00016751161
-1.0113947e-05 3.4243712e-05 1.1933147e-05 -0.00010579606 8.810587e-06 7.684572e-06 -2.4584499e-05 -7.4046543e-06
2.1202473e-05 5.2871856e-05 2.8760594e-05 -3.513071e-05 2.2415845e-05 7.451889e-05 1.5187273e-05 -0.00019910916
2.9452592e-06 4.002762e-05 2.3279135e-05 -1.9320474e-05 -2.610417e-05 -5.6500274e-05 -4.890414e-05 0.0001376117
-1.0947429e-05 -1.4660395e-05 -4.4288154e-06 0.00013511717 -4.310113e-05 -0.00016964097 -8.236308e-05 0.0002641968
5.769311e-06 7.777334e-05 1.59697e-05 -2.8749733e-05 2.1464348e-05 -3.2817963e-05 -2.4211395e-05 7.648402e-06
2.5661584e-05 0.00011572031 6.696253e-05 -0.00017912219 -1.4792376e-05 -1.7016697e-05 -2.4663698e-06 2.5368969e-05
1.2655737e-05 1.6283375e-05 1.2110757e-05 -5.499534e-05 -1.4625473e-06 -2.7508504e-05 -5.1412928e-05 0.00018708373
4.4563174e-05 1.5838232e-05 4.6819196e-06 4.74838e-05 3.114802e-06 4.503742e-05 3.0238141e-05 -4.7950674e-05
-4.277562e-06 -7.099658e-05 -6.110498e-05 5.3208165e-05 2.5006862e-05 5.6897984e-06 5.600174e-05 -0.0001334845
1.2210186e-05 -7.336506e-05 -1.8535724e-05 6.775272e-05 -4.2025977e-06 -1.1338897e-05 -8.9977286e-05 0.0001357791
6.2928393e-06 -8.083286e-06 -7.097886e-05 6.219776e-05 -1.572172e-05 6.6863986e-06 -2.9297769e-06 -6.7612455e-05
4.0115183e-06 5.3140797e-05 3.5140445e-05 -6.800178e-05 -8.323481e-06 -5.6815734e-06 -3.8346143e-06 1.62428e-06
-2.937602e-05 1.710927e-07 1.3754429e-05 5.0427884e-06 -1.999034e-05 -5.9487294e-05 -2.3945164e-05 5.484536e-05
9.837044e-06 8.407793e-05 4.0054085e-05 -0.00014846792 -2.2317301e-05 -8.835869e-05 -7.962449e-05 0.00013338128
-1.2628601e-06 1.621099e-05 -3.2211392e-05 6.4792795e-05 -6.5729564e-06 1.3174284e-05 -3.444135e-06 -6.3998225e-05
7.1466943e-06 3.3346794e-05 1.8198334e-05 1.8429855e-05 -3.218942e-05 -2.1647716e-05 3.7244686e-06 5.4495766e-05
-1.0971452e-05 -1.1445247e-05 1.1319575e-05 8.435474e-05 -3.752597e-06 4.3104214e-05 1.3897067e-05 -6.9362245e-06
3.021416e-06 6.769572e-05 9.208562e-07 1.6746204e-05 -1.24645985e-05 -4.9534512e-05 -8.613367e-07 -1.8054707e-05
-9.313243e-06 -9.7217584e-05 1.7867314e-06 0.00013230772 1.9900875e-05 0.00014149473 5.1996212e-05 -0.00019749065
-2.5758776e-05 -2.8702278e-05 -2.1110165e-05 7.372445e-05 -7.385926e-06 4.963977e-05 3.8279945e-06 -0.00011663014
-1.8439454e-05 -1.608645e-05 -1.6842583e-05 3.480216e-05 -3.2570506e-06 -1.2204906e-05 -1.0256075e-05 -4.391864e-05
00000000: d6b4 18b9 be88 e1b7 1df8 5b37 140f a938
00000010: 1a36 6eb3 feb5 8ab8 7a61 eab5 56f7 c137
00000020: 6c09 1837 9378 3039 9d16 2c38 4c24 10ba
00000030: 860a 77b5 4fdc ddb7 b34c 8037 a429 beb7
00000040: 516c 67b6 bbd4 2138 49bb 05b8 0d2a dc37
00000050: e2d9 fb37 e473 3f38 b5d1 aa37 82b4 8ab9
00000060: cc53 f1b7 fa0b efb8 d8b8 e3b7 cfa0 ff38
00000070: c5bb 34b8 a51a 96b8 8109 93b7 010e b038
00000080: 84a1 9537 e2e7 f236 b08e 0837 ddc0 80b7
00000090: 8355 00b8 afd6 a2b8 e9e5 78b8 f286 e438
000000a0: 5c15 a937 5290 4e38 d39d c036 5daf 3a35
000000b0: b224 f936 a34b 0437 1903 afb7 6705 c1b7
000000c0: 90bd 10b8 2d9b 1ab7 92d1 9cb7 5a3b 8138
000000d0: c892 f937 ac8f ae38 03aa 8b37 9ba2 b7b8
000000e0: 13c9 2eb7 06a8 3637 07c7 7337 f6e0 dfb6
000000f0: bab2 1837 d4b6 01b8 8f01 aab8 89ef 1239
00000100: 3c9d aab7 89a1 2e38 fcce 3238 3fe9 efb7
00000110: 2ab0 8037 aa46 7938 006f ca37 23bb 46b9
00000120: 5908 bd37 b28d 61b8 c0c8 9db8 a0b4 0c39
00000130: 9d89 3c36 018c 0438 b9e7 b7b6 4825 ff37
00000140: 427a a637 c188 cdb7 e715 0e37 b27e 7ab8
00000150: 65a6 1937 b018 2837 0a47 c437 0ea6 2fb9
00000160: 12af 29b7 e8a0 0f38 7a34 4837 d4de ddb8
00000170: 2fd1 1337 fcec 0037 cf3a ceb7 7f75 f8b6
00000180: f7db b137 b9c2 5d38 e842 f137 5059 13b8
00000190: a909 bc37 0647 9c38 d7cc 7e37 f5c7 50b9
000001a0: 2ba7 4536 54e3 2738 9047 c337 6712 a2b7
000001b0: 47fa dab7 b5fa 6cb8 6c1e 4db8 dc4b 1039
000001c0: d9aa 37b7 ebf5 75b7 3c9b 94b6 3dae 0d39
000001d0: 7cc7 34b8 a7e1 31b9 58ba acb8 e583 8a39
000001e0: 0196 c136 3e1a a338 abf6 8537 952b f1b7
000001f0: 560e b437 05a6 09b8 9319 cbb7 a351 0037
00000200: d543 d737 deae f238 3c6e 8c38 bfd2 3bb9
00000210: c52c 78b7 14bf 8eb7 e983 25b6 72cf d437
00000220: fa53 5437 4898 8837 4e2f 4b37 ccaa 66b8
00000230: be4c c4b5 10c2 e6b7 36a4 57b8 e82b 4439
00000240: 58e9 3a38 58dc 8437 6219 9d36 5829 4738
00000250: e407 5136 90e6 3c38 eaa7 fd37 a51e 49b8
00000260: fa87 8fb6 00e4 94b8 7d25 80b8 d52b 5f38
00000270: d4c5 d137 ffea be36 69e3 6a38 f9f7 0bb9
00000280: 59da 4c37 91db 99b8 2a7d 9bb7 7716 8e38
00000290: 0a04 8db6 313c 3eb7 30b2 bcb8 ed5f 0e39
000002a0: 1427 d336 739d 07b7 7cda 94b8 2b70 8238
000002b0: 23e2 83b7 ba5b e036 2f9d 44b6 29cb 8db8
000002c0: ae9a 8636 7fe3 5e38 c463 1338 2d9c 8eb8
000002d0: 14a5 0bb7 58a4 beb6 16ab 80b6 d601 da35
000002e0: 866c f6b7 9ab5 3734 d3c2 6637 3935 a936
000002f0: eeb0 a7b7 ff81 79b8 d9dd c8b7 c209 6638
00000300: c809 2537 ff52 b038 bfff 2738 0eae 1bb9
00000310: 0a36 bbb7 364d b9b8 13fc a6b8 44dc 0b39
00000320: 8b7f a9b5 d6fc 8737 b81a 07b8 5ee1 8738
00000330: 448d dcb6 1e07 5d37 ca21 67b6 c936 86b8
00000340: a3cd ef36 d9dd 0b38 a0a8 9837 d099 9a37
00000350: 2003 07b8 1e98 b5b7 e2f1 7936 6292 6438
00000360: 0712 38b7 f604 40b7 34e9 3d37 9be7 b038
00000370: 20d5 7bb6 ccca 3438 7327 6937 b7bd e8b6
00000380: 88c3 4a36 ddf7 8d38 c230 7735 337a 8c37
00000390: 0b1f 51b7 47c3 4fb8 9b36 67b5 3074 97b7
000003a0: 1340 1cb7 4be1 cbb8 a0cf ef35 15bc 0a39
000003b0: cef0 a637 345e 1439 8216 5a38 7e15 4fb9
000003c0: 8d14 d8b7 acc5 f0b7 bc15 b1b7 839c 9a38
000003d0: 9fd4 f7b6 4c34 5038 3972 8036 5497 f4b8
000003e0: 6dae 9ab7 63f1 86b7 2c49 8db7 89f8 1138
000003f0: b493 5ab6 acc3 4cb7 8211 2cb7 4835 38b8

exp_avg_sq f4 [256, 4]
1.2529078e-07 6.4064466e-08 1.6404155e-07 1.9768966e-07 2.4896352e-08 4.5731156e-08 3.0137628e-08 1.8009501e-07
5.0280837e-09 8.896013e-08 2.2968473e-08 6.614282e-07 5.099576e-09 4.852116e-08 1.9863545e-08 1.6168406e-07
1.2493155e-08 3.6218797e-08 2.6637395e-08 1.7000235e-07 6.7210544e-09 5.8095868e-08 2.7171753e-08 2.2349478e-07
8.310698e-09 5.718138e-08 2.1270722e-08 2.2853813e-07 6.9548878e-09 5.0219086e-08 2.3686562e-08 1.9561216e-07
8.033492e-09 5.5825428e-08 1.9718962e-08 2.2881734e-07 4.712969e-08 9.9392324e-08 7.337483e-08 2.4706316e-07
9.264363e-09 5.662046e-08 2.541838e-08 2.074069e-07 1.0893982e-08 6.58305e-08 2.3954092e-08 2.326593e-07
7.721386e-09 5.82932e-08 2.6905623e-08 2.1374106e-07 1.49068e-08 5.5625414e-08 3.591372e-08 1.9889153e-07
7.240894e-09 6.291448e-08 3.0268694e-08 2.0299842e-07 6.951857e-09 5.6446396e-08 3.2580488e-08 2.1042244e-07
5.996328e-09 5.401401e-08 2.9304367e-08 1.8596708e-07 7.0424333e-09 5.2086836e-08 2.381566e-08 1.9456866e-07
5.5696914e-09 5.1488968e-08 2.4106978e-08 1.607922e-07 5.4806724e-09 4.4541164e-08 2.0824428e-08 1.5297081e-07
6.6639636e-09 5.698244e-08 2.6798295e-08 2.0266579e-07 1.5002888e-08 6.526149e-08 2.5133282e-08 2.2101598e-07
6.2590146e-09 4.9392344e-08 2.7351287e-08 1.9503842e-07 6.28509e-09 5.743613e-08 2.5700466e-08 1.7933041e-07
9.517234e-09 6.286779e-08 2.53577e-08 2.0950245e-07 9.076834e-09 5.347867e-08 2.4208967e-08 1.9043524e-07
7.470372e-09 6.496397e-08 2.7610232e-08 2.2223851e-07 7.198462e-09 5.1113727e-08 1.911263e-08 1.7849561e-07
7.877822e-09 5.9895044e-08 2.9359814e-08 2.6639424e-07 7.1198696e-09 5.53001e-08 1.9737303e-08 1.8763689e-07
5.5876948e-09 4.8321553e-08 2.0350946e-08 1.8830765e-07 7.162094e-09 4.315988e-08 3.124119e-08 1.6143137e-07
9.100881e-09 4.9061722e-08 2.7625191e-08 1.82082e-07 6.6122627e-09 6.084511e-08 2.6465873e-08 2.2578475e-07
6.174761e-09 5.7408357e-08 2.3994229e-08 2.0535215e-07 8.2120435e-09 6.5899e-08 3.2569353e-08 2.4954247e-07
7.706562e-09 6.760673e-08 3.903527e-08 2.3620855e-07 6.354941e-09 5.758997e-08 2.674222e-08 2.1870238e-07
7.4484867e-09 7.188603e-08 2.8551494e-08 2.3907722e-07 7.3099766e-09 5.5822486e-08 2.7516595e-08 2.0494093e-07
7.3076007e-09 5.5580287e-08 2.4919258e-08 1.8119825e-07 7.787567e-09 5.5244342e-08 3.3523424e-08 2.048941e-07
5.9510654e-09 4.31129e-08 2.6378807e-08 1.8771046e-07 7.287878e-09 5.675747e-08 2.541087e-08 2.0752398e-07
7.750659e-09 5.2082875e-08 2.6087692e-08 1.8403993e-07 7.247298e-09 5.2672426e-08 2.00008e-08 1.8674315e-07
8.576609e-09 6.870651e-08 2.4428218e-08 2.2000923e-07 1.2259093e-08 6.662313e-08 2.6316458e-08 2.3725907e-07
7.1933104e-09 6.8191866e-08 2.7680382e-08 2.4556812e-07 4.955024e-09 5.577507e-08 3.0170813e-08 2.0064772e-07
6.566804e-09 5.417704e-08 2.7280441e-08 2.0093255e-07 6.7444197e-09 5.397748e-08 2.5567306e-08 2.020079e-07
7.209e-09 6.975447e-08 2.494445e-08 2.3767639e-07 6.400636e-08 5.8448553e-08 5.582759e-08 2.2005963e-07
8.5208995e-09 5.4421346e-08 2.7710295e-08 2.4255243e-07 5.8744782e-09 5.2495402e-08 2.4086805e-08 1.7088573e-07
6.5888934e-09 5.023599e-08 2.0796842e-08 1.8350472e-07 6.2246537e-09 4.0467892e-08 1.9701545e-08 1.9240605e-07
1.1187283e-08 5.7631027e-08 2.6821327e-08 2.2673959e-07 5.756952e-09 4.8082864e-08 2.0614678e-08 1.8747066e-07
7.489951e-09 5.1916736e-08 1.9312562e-08 1.7352576e-07 5.6316094e-09 4.6528783e-08 2.1290457e-08 1.9804514e-07
9.2681125e-09 5.969758e-08 2.8016824e-08 2.0518014e-07 1.1716286e-08 6.012842e-08 3.4814345e-08 2.3310699e-07
00000000: ab87 0634 d093 8933 6623 3034 8544 5434
00000010: a8db d532 f069 4433 ac70 0133 2460 4134
00000020: 7ec3 ac31 590a bf33 354c c532 008d 3135
00000030: 5838 af31 9465 5033 66a0 aa32 609b 2d34
00000040: 7aa1 5632 fd8e 1b33 40d0 e432 e489 3634
00000050: 05ef e631 1585 7933 5167 e932 c7f9 6f34
00000060: d6c6 0e32 9897 7533 d0b6 b632 1564 7534
00000070: d7f7 ee31 78b0 5733 4d77 cb32 7609 5234
00000080: ac03 0a32 b5c4 6f33 7562 a932 d5b0 7534
00000090: a46b 4a33 8271 d533 3d92 9d33 1aa4 8434
000000a0: 1929 1f32 db2e 7333 9c57 da32 93b3 5e34
000000b0: 3d28 3b32 b35e 8d33 9bc3 cd32 e7d0 7934
000000c0: 04a7 0432 0d5e 7a33 171e e732 b280 6534
000000d0: 660c 8032 cae8 6e33 8e3f 1a33 e38e 5534
000000e0: 94cb f831 9a1b 8733 c800 0233 c8f7 5934
000000f0: 2edd ee31 786f 7233 a0ee 0b33 7bf0 6134
00000100: 4208 ce31 08fd 6733 fcb8 fb32 3eae 4734
00000110: e6f9 f131 15b6 5f33 3193 cc32 a0ea 5034
00000120: 865f bf31 b824 5d33 ce13 cf32 39a6 2c34
00000130: 8150 bc31 874d 3f33 67e1 b232 4c40 2434
00000140: d8f8 e431 dbbc 7433 1332 e632 599c 5934
00000150: b3df 8032 e225 8c33 ace4 d732 6950 6d34
00000160: e00e d731 7523 5433 1ef2 ea32 c16b 5134
00000170: 3cf4 d731 b1af 7633 ecc3 dc32 f88d 4034
00000180: 3d81 2332 ef01 8733 2cd2 d932 98f3 6034
00000190: 57f0 1b32 6bb0 6533 15f4 cf32 717a 4c34
000001a0: 0b57 0032 5282 8b33 8b2b ed32 75a0 6e34
000001b0: 5756 f731 2388 5b33 1e2d a432 80a8 3f34
000001c0: 0757 0732 a69f 8033 ea32 fc32 f204 8f34
000001d0: 09a3 f431 1a83 6d33 ca8a a932 3c79 4934
000001e0: e2fd bf31 1c8a 4f33 34d0 ae32 9d31 4a34
000001f0: 7216 f631 ca5e 3933 0d2e 0633 eb55 2d34
00000200: 195a 1c32 efb7 5233 704c ed32 5282 4334
00000210: 1432 e331 f4a9 8233 1257 e332 3d6f 7234
00000220: c629 d431 2891 7633 de1b ce32 c57e 5c34
00000230: f314 0d32 5c84 8d33 62e2 0b33 dbf8 8534
00000240: d165 0432 312f 9133 bca7 2733 83a0 7d34
00000250: a75a da31 d758 7733 c4b6 e532 74d4 6a34
00000260: 95ed ff31 c35f 9a33 6641 f532 865a 8034
00000270: 3c2b fb31 79c1 6f33 a25d ec32 bc0d 5c34
00000280: 5616 fb31 2cb7 6e33 070e d632 658f 4234
00000290: 15ca 0532 cc45 6d33 65fb 0f33 dd00 5c34
000002a0: 207a cc31 232b 3933 9c97 e232 758d 4934
000002b0: da68 fa31 80c5 7333 1847 da32 c2d3 5e34
000002c0: c227 0532 bab1 5f33 7117 e032 839c 4534
000002d0: e803 f931 f239 6233 39ce ab32 9183 4834
000002e0: 5358 1332 ce8b 9333 38d6 d132 ad3b 6c34
000002f0: 109c 5232 7412 8f33 810e e232 47c1 7e34
00000300: 0729 f731 e070 9233 cec5 ed32 a0d6 8334
00000310: da40 aa31 578d 6f33 2995 0133 a071 5734
00000320: 38a2 e131 49b0 6833 5356 ea32 ebbf 5734
00000330: 8bbc e731 ded4 6733 1a9f db32 82e7 5834
00000340: 09b3 f731 edcb 9533 6d45 d632 fd33 7f34
00000350: de73 8933 dd08 7b33 16c7 6f33 8849 6c34
00000360: 5063 1232 e7bc 6933 9507 ee32 2738 8234
00000370: 75d8 c931 4e77 6133 72e7 ce32 b67c 3734
00000380: 8564 e231 0ec3 5733 bda4 b232 6509 4534
00000390: a2e0 d531 ebce 2d33 283c a932 2c98 4e34
000003a0: 3132 4032 fc85 7733 b964 e632 b475 7334
000003b0: afce c531 ab83 4e33 2814 b132 8b4b 4934
000003c0: 27ad 0032 0efb 5e33 c6e4 a532 6652 3a34
000003d0: 2980 c131 f0d6 4733 36e2 b632 3ca6 5434
000003e0: 9739 1f32 1733 8033 a6a9 f032 7d4f 5c34
000003f0: c548 4932 f31f 8133 c786 1533 f64b 7a34

exp_avg f4 [12, 4]
-2.8249117e-06 3.5324765e-06 -4.105823e-06 3.2926964e-06 -5.470056e-07 -1.7414655e-07 3.5311953e-07 3.6163266e-07
6.8264435e-06 -8.519266e-06 7.530908e-06 -5.614689e-06 1.230951e-05 -8.330757e-06 -1.0302781e-06 -2.6795246e-06
-2.0328137e-06 1.2830562e-06 1.0743299e-06 -2.6674428e-07 4.1465395e-07 1.04601135e-07 -3.0762806e-07 -2.2278412e-07
4.7498056e-06 -1.974624e-06 -2.177944e-06 -3.7003497e-07 3.2799253e-06 -1.92968e-06 -1.8695598e-06 6.226672e-07
0.00017528339 0.00016501657 -0.00024643817 -9.2007605e-05 0.00018833848 0.00012720459 -0.00019722033 -0.000115474555
8.590107e-05 0.00014736774 -0.00018198336 -5.1153034e-05 3.1289273e-05 6.4740285e-05 -0.00012987042 3.3570326e-05
00000000: 9d93 3db6 7c0f 6d36 c0c4 89b6 18f8 5c36
00000010: f0d5 12b5 0afd 3ab4 6194 bd34 6a26 c234
00000020: b40e e536 f8ed 0eb7 02b2 fc36 d065 bcb6
00000030: f184 4e37 54c4 0bb7 1648 8ab5 e2d1 33b6
00000040: 796b 08b6 7a35 ac35 b231 9035 0e35 8fb4
00000050: 9b9d de34 15a1 e033 1428 a5b4 6f36 6fb4
00000060: 8560 9f36 c883 04b6 cb28 12b6 38a9 c6b4
00000070: b01c 5c36 a67f 01b6 96ed fab5 5d25 2735
00000080: 47cc 3739 4c08 2d39 5f34 81b9 35f4 c0b8
00000090: ba7c 4539 3962 0539 eecc 4eb9 ee2a f2b8
000000a0: c925 b438 ba86 1a39 c9d2 3eb9 278d 56b8
000000b0: 9a3c 0338 2dc5 8738 d32d 08b9 ddcd 0c38

exp_avg_sq f4 [12, 4]
2.1425181e-10 1.8401637e-10 2.3907046e-10 1.416704e-10 4.507589e-12 3.6810776e-12 6.240576e-12 2.8189647e-12
1.802856e-10 2.3090047e-10 2.1004401e-10 1.0040098e-10 6.1147987e-10 3.7323022e-10 8.4844554e-10 2.6261418e-10
1.0255906e-10 5.861387e-11 9.564825e-11 5.6930217e-11 2.3512416e-12 1.6104674e-12 1.978352e-12 2.1891304e-12
1.282424e-10 4.3598736e-11 6.916666e-11 7.6566004e-11 2.0480712e-10 1.5432003e-10 1.737304e-10 1.9805119e-10
1.7735094e-07 1.0606311e-07 2.5802393e-07 5.195405e-08 6.695289e-08 3.8668492e-08 8.972458e-08 2.1891674e-08
1.3798147e-07 9.3946696e-08 2.3030991e-07 4.2863466e-08 6.2754935e-07 3.586531e-07 9.162688e-07 1.9079329e-07
00000000: 8692 6b2f 0154 4a2f 2d6e 832f acc4 1b2f
00000010: c198 9e2c 3384 812c 1d92 db2c f45d 462c
00000020: e339 462f b4e0 7d2f 22f2 662f bac8 dc2e
00000030: 1215 2830 7c2f cd2f 0c38 6930 a95f 902f
00000040: 9e87 e12e ade4 802e 2e55 d22e ba61 7a2e
00000050: 3474 252c 34a7 e22b d236 0b2c de0b 1a2c
00000060: 0701 0d2f d0bf 3f2e 5e19 982e d45e a82e
00000070: 1430 612f 3aad 292f c304 3f2f 74c2 592f
00000080: db6d 3e34 d0c4 e333 8a86 8a34 1524 5f33
00000090: bec7 8f33 7514 2633 9cae c033 4d0c bc32
000000a0: 0f28 1434 bebf c933 1b4b 7734 e118 3833
000000b0: dd74 2835 e88c c034 83f5 7535 dcdc 4c34

exp_avg f4 [4, 4]
0.00023634463 0.00010292942 0.0001461463 0.0001640108 -0.0005237644 -0.00026122798 -0.0005427983 -0.0004559446
-0.0005040952 -0.00022418585 -0.00049013045 -0.00039830332 0.0008876022 0.00043881717 0.0009367657 0.0007930626
00000000: 47d3 7739 d0db d738 d93e 1939 50fa 2b39
00000010: 3c4d 09ba 6df5 88b9 944a 0eba d90b efb9
00000020: 4225 04ba 6e13 6bb9 197c 00ba 5ed3 d0b9
00000030: faad 683a 0b11 e639 4891 753a 88e5 4f3a

exp_avg_sq f4 [4, 4]
4.8755675e-07 1.0076715e-07 3.6758786e-07 2.5515766e-07 3.5238252e-06 7.815771e-07 2.8239212e-06 1.8996385e-06
1.4999634e-06 3.1028353e-07 1.2234154e-06 8.423534e-07 1.2260974e-05 2.6648027e-06 9.904654e-06 6.770778e-06
00000000: a5e0 0235 5465 d833 e458 c534 9afc 8834
00000010: db7a 6c36 92cd 5135 9982 3d36 15f7 fe35
00000020: 5a52 c935 0b95 a634 3c34 a435 161e 6235
00000030: 7bb4 4d37 f6d4 3236 2a2c 2637 8a30 e336

exp_avg f4 [16, 4]
0.00023982313 0.00013007213 -0.00020066719 -0.0001621949 0.00023713057 0.00011204564 -0.00021014996 -0.00013265247
-9.446958e-05 -8.9251305e-05 8.4791405e-05 9.458976e-05 3.4609788e-05 -1.0092252e-05 -4.8755297e-05 2.4060415e-05
3.1535685e-05 0.00012634869 -2.7217991e-05 -0.00012557239 -6.396052e-05 9.9051525e-05 6.889369e-05 -0.00010061796
0.00032497972 0.00018202339 -0.00023445374 -0.00026221276 0.00011415179 3.0493953e-05 -0.00011002804 -3.232401e-05
-4.586106e-05 2.5792411e-05 3.1931388e-05 -1.1389642e-05 3.5082918e-05 -1.8908115e-05 -5.1122925e-06 -1.0936221e-05
-0.00020250208 -0.0002034918 0.00013598452 0.000259888 -6.2419924e-05 -6.0112558e-05 -8.785287e-06 0.00012796384
-0.0001844796 -0.00012831815 4.9443486e-05 0.00025571504 -0.00025107185 -0.00019530498 0.000100942045 0.00033478625
-0.00014544219 -0.00013140742 0.00012449244 0.00014598071 0.000117725176 6.7091925e-05 -0.000101470454 -7.966927e-05
00000000: 0879 7b39 f963 0839 306a 52b9 dd12 2ab9
00000010: 41a6 7839 0cfa ea38 b35b 5cb9 a018 0bb9
00000020: f81d c6b8 6e2c bbb8 0ad2 b138 7e5e c638
00000030: fa29 1138 e451 29b7 9a7e 4cb8 59d5 c937
00000040: 2f45 0438 787c 0439 3152 e4b7 15ac 03b9
00000050: 8b22 86b8 e2b9 cf38 057b 9038 db02 d3b8
00000060: 0a62 aa39 88dd 3e39 b2d7 75b9 9a79 89b9
00000070: c764 ef38 44cd ff37 dbbe e6b8 a493 07b8
00000080: f05a 40b8 c85c d837 11ee 0538 2416 3fb7
00000090: ff25 1338 de9c 9eb7 428a abb6 b67a 37b7
000000a0: bd56 54b9 6a60 55b9 1197 0e39 9441 8839
000000b0: 71e7 82b8 5e21 7cb8 8564 13b7 082e 0639
000000c0: de70 41b9 248d 06b9 8a61 4f38 7e11 8639
000000d0: 4ba2 83b9 c8ca 4cb9 d9b0 d338 4086 af39
000000e0: d781 18b9 69ca 09b9 2f8a 0239 6612 1939
000000f0: 39e3 f638 b4b3 8c38 89cc d4b8 1d14 a7b8

exp_avg_sq f4 [16, 4]
2.1685138e-07 9.473424e-08 2.8925302e-07 7.4849446e-08 1.1270551e-07 6.189441e-08 1.2715577e-07 6.071867e-08
1.3142724e-07 7.769071e-08 2.3043143e-07 3.9755708e-08 6.703691e-08 2.0359366e-08 7.9918685e-08 1.8832514e-08
3.46284e-07 2.009026e-07 5.101111e-07 1.3538144e-07 3.8656057e-07 2.3684956e-07 6.0130014e-07 1.4504546e-07
4.914031e-07 3.5745256e-07 6.416254e-07 1.6837355e-07 5.2685554e-08 1.620639e-08 6.743077e-08 1.3699123e-08
1.8311205e-08 1.5590986e-08 2.8647198e-08 1.02865885e-08 4.5796366e-08 3.7900886e-08 8.821278e-08 1.4856967e-08
4.5234404e-07 3.1585873e-07 6.475345e-07 2.3496736e-07 2.0768267e-07 7.3290586e-08 2.1436517e-07 7.997281e-08
6.4231534e-07 2.2383607e-07 6.46516e-07 2.5768304e-07 6.422337e-07 3.1090875e-07 6.5808126e-07 3.43455e-07
1.835307e-07 1.1564034e-07 2.4517195e-07 9.096694e-08 7.21476e-08 3.061943e-08 9.767622e-08 2.3098384e-08
00000000: a7d7 6834 b370 cb33 a24a 9b34 ebbc a033
00000010: 8208 f233 d0ea 8433 5088 0834 7164 8233
00000020: 721e 0d34 ebd6 a633 826c 7734 ddbf 2a33
00000030: eef5 8f33 b8e2 ae32 c39f ab33 23c5 a132
00000040: e9e8 b934 b0b7 5734 91ee 0835 5e5d 1134
00000050: 7b88 cf34 b650 7e34 0869 2135 cbbd 1b34
00000060: f7e8 0335 e8e7 bf34 293c 2c35 2bca 3434
00000070: 6148 6233 3a36 8b32 75ce 9033 6159 6b32
00000080: c44a 9d32 f1ec 8532 db13 f632 e5b8 3032
00000090: a3b1 4433 77c8 2233 7d6f bd33 a23d 7f32
000000a0: b1d9 f234 4b93 a934 3bd2 2d35 564b 7c34
000000b0: 61ff 5e34 ed63 9d33 402c 6634 84bd ab33
000000c0: 936b 2c35 9757 7034 3e8c 2d35 b057 8a34
000000d0: f765 2c35 f9ea a634 00a7 3035 1964 b834
000000e0: 8910 4534 f355 f833 2da0 8334 9b59 c333
000000f0: 90ef 9a33 6b82 0333 12c2 d133 e269 c632

exp_avg f4 [4, 16]
-7.228508e-05 -5.248444e-05 1.0917618e-05 -2.0554244e-05 -2.6308977e-05 -2.4581685e-05 2.3800496e-05 -4.4225202e-05
-2.7152739e-05 4.8575224e-05 -6.2883973e-06 1.9776307e-05 -1.0348838e-05 -2.8339462e-05 5.902833e-06 -7.998056e-05
2.1777085e-05 -0.0001046173 -5.4370204e-05 0.00010260548 6.9129137e-06 -8.212943e-06 -0.00050574244 6.695142e-05
-2.4809858e-06 -9.657819e-05 -0.00029418358 -1.908417e-05 -2.9088318e-05 -0.0001696658 -7.28004e-05 -8.997689e-07
-0.00023646698 -0.00024205598 -4.4825388e-06 1.5751182e-05 -0.000117563985 -0.00012997497 4.578407e-05 -9.712339e-05
-0.0001401127 0.00017167859 -0.0001926403 9.439906e-05 -1.0087051e-05 -0.00016080803 -2.0127269e-05 -0.00028208742
0.0006159879 0.00058319804 -8.4102314e-05 6.3638494e-05 0.00018627665 0.00015682496 0.00033015967 0.00031603352
0.00017411915 -0.00034389 0.00029663893 -0.00012640383 0.00013880034 0.00043559514 2.7994805e-05 0.00070848456
00000000: c297 97b8 bd22 5cb8 d02a 3737 e76b acb7
00000010: 19b2 dcb7 c434 ceb7 2da7 c737 737e 39b8
00000020: 10c6 e3b7 40bd 4b38 ec00 d3b6 4ce5 a537
00000030: ec9f 2db7 88ba edb7 f310 c636 3cbb a7b8
00000040: efad b637 fc65 dbb8 900b 64b8 e62d d738
00000050: 7af5 e736 52ca 09b7 cd93 04ba 4568 8c38
00000060: 037f 26b6 058a cab8 a73c 9ab9 f116 a0b7
00000070: b002 f4b7 51e8 31b9 6bac 98b8 a687 71b5
00000080: 1ff4 77b9 68d0 7db9 b768 96b6 6821 8437
00000090: af8c f6b8 e449 08b9 4508 4038 b9ae cbb8
000000a0: 37eb 12b9 9f04 3439 7dff 49b9 1cf8 c538
000000b0: 8e3b 29b7 949e 28b9 fbd6 a8b7 22e5 93b9
000000c0: 407a 213a c2e1 183a 1660 b0b8 a875 8538
000000d0: 4253 4339 6171 2439 4819 ad39 4db1 a539
000000e0: c193 3639 224c b4b9 3486 9b39 458b 04b9
000000f0: ef8a 1139 9760 e439 63d6 ea37 98b9 393a

exp_avg_sq f4 [4, 16]
1.20011e-07 4.0366114e-08 6.3001258e-09 1.3502242e-08 3.8398863e-08 5.406699e-08 1.804469e-07 4.5108624e-08
4.972137e-08 6.756549e-08 1.1754126e-08 2.9265822e-08 1.2255469e-08 1.3057884e-08 3.6859142e-09 1.3694373e-07
1.1829522e-06 5.780771e-07 5.1706905e-08 8.78629e-08 3.2297163e-07 4.2095567e-07 1.9705085e-06 3.708696e-07
4.0512205e-07 7.263809e-07 2.0770057e-07 2.4760962e-07 7.9799406e-08 1.9984975e-07 2.4241846e-08 1.4266744e-06
3.2963973e-07 2.0559328e-07 1.9495705e-08 2.4764166e-08 9.541708e-08 1.318151e-07 6.471522e-07 9.3562164e-08
1.2033942e-07 2.1484205e-07 1.330681e-07 8.53727e-08 3.119934e-08 8.797557e-08 7.718557e-09 4.012358e-07
3.5124153e-06 1.6864556e-06 1.4515815e-07 2.6445298e-07 9.899807e-07 1.2892656e-06 4.577581e-06 1.1032685e-06
1.2414703e-06 2.0630664e-06 6.001601e-07 7.8545247e-07 2.633925e-07 6.021533e-07 7.8289276e-08 4.2091046e-06
00000000: 5fdc 0034 035f 2d33 7e78 d831 7df7 6732
00000010: ffeb 2433 4937 6833 dec0 4134 75bd 4133
00000020: 398d 5533 8518 9133 31ef 4932 3964 fb32
00000030: 1f8c 5232 2e55 6032 4a4b 7d31 ce0a 1334
00000040: eec5 9e35 282d 1b35 5814 5e33 24af bc33
00000050: e264 ad34 b5ff e134 143d 0436 ee1b c734
00000060: 8d7f d934 84fc 4235 4c04 5f34 35ef 8434
00000070: 305e ab33 4896 5634 623c d032 297c bf35
00000080: 57f9 b034 0dc1 5c34 8277 a732 fab8 d432
00000090: 18e8 cc33 0f89 0d34 f6b7 2d35 58ec c833
000000a0: a636 0134 55af 6634 7be1 0e34 2356 b733
000000b0: 0900 0633 15ed bc33 939a 0432 6e69 d734
000000c0: d6b6 6b36 2c5a e235 c5dc 1b34 24fa 8d34
000000d0: 7adf 8435 d40a ad35 1f99 9936 0414 9435
000000e0: 98a0 a635 3673 0a36 b01a 2135 e2d7 5235
000000f0: 6468 8d34 a9a3 2135 fc1f a833 ef3b 8d36

exp_avg f4 [12, 4]
4.513012e-06 -1.0403977e-06 -3.290743e-06 3.4523804e-08 1.0139008e-06 -4.6572018e-07 -7.061119e-07 1.782007e-07
6.5658246e-06 8.694197e-07 -5.8568808e-06 -1.4196187e-06 8.726699e-06 -3.333635e-06 -6.15777e-06 8.9866603e-07
-8.3392456e-07 6.683951e-07 4.6344812e-07 -5.3594596e-07 -7.8309864e-07 -3.4095045e-08 1.1597771e-06 -3.6020597e-07
-4.3544223e-06 -3.6834667e-06 4.81727e-06 3.1196346e-06 -2.42501e-06 -1.8495895e-06 3.1094214e-06 1.354903e-06
-4.7290847e-05 -1.7591246e-05 8.242644e-05 -1.7539123e-05 0.00013612084 1.7998715e-05 -0.00016380059 9.941512e-06
0.00012880025 -1.3445364e-05 -0.00014453047 3.005366e-05 -0.00014096085 -1.0269277e-05 0.00015743484 -6.4336414e-06
00000000: 7a6e 9736 cba3 8bb5 89d6 5cb6 5347 1433
00000010: 5e15 8835 1808 fab4 a48b 3db5 6f57 3f34
00000020: 0150 dc36 1162 6935 3986 c4b6 ba89 beb5
00000030: e368 1237 6ab7 5fb6 d79e ceb6 dc3b 7135
00000040: dcda 5fb5 c36b 3335 d3cf f834 eddd 0fb5
00000050: 2136 52b5 e66f 12b3 a3a9 9b35 5562 c1b4
00000060: 341c 92b6 7a31 77b6 09a4 a136 ea5a 5136
00000070: 5bbd 22b6 693f f8b5 74ab 5036 1dda b535
00000080: 295a 46b8 ea90 93b7 5cdc ac38 fb20 93b7
00000090: a9bb 0e39 f2fb 9637 e3c1 2bb9 78ca 2637
000000a0: 8e0e 0739 6693 61b7 1a8d 17b9 be1b fc37
000000b0: e4ce 13b9 354a 2cb7 1815 2539 8fe0 d7b6

exp_avg_sq f4 [12, 4]
8.145596e-11 9.644763e-11 2.0229624e-10 5.5967554e-11 4.14363e-11 4.3730568e-11 7.046161e-11 2.207351e-11
1.7569356e-10 1.3334969e-10 3.5664863e-10 1.2471804e-10 1.4443291e-10 1.6860159e-10 2.4188337e-10 1.0381821e-10
2.2120113e-11 3.5822054e-11 5.0220827e-11 5.0431586e-11 1.1264233e-11 1.3094836e-11 2.6311618e-11 8.247629e-12
6.15083e-11 5.9123755e-11 1.1987182e-10 5.845886e-11 7.40791e-11 9.368854e-11 1.6766313e-10 7.8328004e-11
1.4715978e-07 1.0942332e-07 3.658128e-07 2.128246e-08 9.684489e-08 7.4889925e-08 2.1412606e-07 1.8734434e-08
1.0870718e-07 8.4376424e-08 2.512653e-07 1.799132e-08 7.1016316e-08 5.303022e-08 1.5125717e-07 1.280587e-08
00000000: a11f b32e 3017 d42e 546d 5e2f dd25 762e
00000010: 203d 362e 3e54 402e 5cf2 9a2e 2029 c22d
00000020: 572d 412f 9a9e 122f d511 c42f 0221 092f
00000030: 40ce 1e2f 2161 392f 0ffa 842f 754c e42e
00000040: 1192 c22d 0c8c 1d2e a0df 5c2e ebcc 5d2e
00000050: 9829 462d e65d 662d 7f70 e72d 0518 112d
00000060: 1842 872e b703 822e ebcc 032f 6a8d 802e
00000070: d3e6 a22e f605 ce2e fa58 382f bf3e ac2e
00000080: f902 1e34 1bfc ea33 ee64 c434 a0d0 b632
00000090: 0bf9 cf33 2cd3 a033 86ea 6534 75ed a032
000000a0: 6772 e933 6e32 b533 a4e5 8634 558b 9a32
000000b0: a281 9833 58c3 6333 4169 2234 d000 5c32

exp_avg f4 [4, 4]
8.654553e-05 -5.2535735e-05 -0.00011835678 0.000116391835 0.00040102194 -0.00031495868 -0.0004977441 0.00056877953
0.00040758768 -0.0003818801 -0.0005335768 0.0005585046 -0.00084865943 0.0007341554 0.0010686131 -0.0011874716
00000000: c77f b538 d159 5cb8 5036 f8b8 6417 f438
00000010: 4140 d239 0a21 a5b9 0b7b 02ba 261a 153a
00000020: 7eb1 d539 1437 c8b9 bcdf 0bba 9c68 123a
00000030: 9278 5eba 5674 403a b510 8c3a efa4 9bba
