out-tss50/ckpt_iter_4000.pt (torch, 48135 bytes, 64 tensors)

transformer.wte.weight f4 [5, 4]
-0.37863117 -0.36892745 0.4005744 0.22364618 0.14874819 0.33589968 -0.113339774 -0.26557696
0.058064293 0.06559124 -0.15194558 0.10242578 0.09672263 0.0026148239 -0.15980217 0.10304213
0.24561101 0.038462944 -0.15446003 -0.124413125
00000000: f2db c1be 0fe4 bcbe 1618 cd3e 8103 653e
00000010: 7251 183e 0bfb ab3e af1e e8bd b4f9 87be
00000020: d3d4 6d3d b354 863d 9f97 1bbe 9bc4 d13d
00000030: 8416 c63d 775d 2b3b 2ea3 23be c107 d33d
00000040: 7481 7b3e 528b 1d3d c52a 1ebe 4fcc febd

transformer.wpe.weight f4 [256, 4]
0.14241165 0.039327167 -0.083466455 -0.06487991 0.11030608 0.066077456 -0.1453186 -0.019371383
0.0397468 -0.024499193 -0.1070542 0.008834256 0.03620525 0.021057418 -0.06943349 -0.0046526534
0.05209431 0.03715632 -0.057128746 -0.031600956 -0.0011211368 -0.01266124 -0.047799483 -0.00672322
0.0647455 -0.0023142234 -0.050679572 0.0017436508 0.03772467 -0.010927159 -0.02288374 0.0025776548
0.039955106 -0.011092596 -0.0010740006 0.016818147 -0.015057036 -0.034124143 -0.040169645 0.0037825124
-0.013333456 -0.007466396 0.0023652324 -0.0073260292 0.0104758665 -0.026663862 -0.04006387 0.024252102
0.012324633 -0.0121938875 0.014596505 0.0029013397 -0.009361351 -0.018714804 -0.021058124 -0.008469431
0.02061644 -0.0058063297 0.025701588 0.011495751 0.0009708373 0.00065898866 0.0036440785 0.010578433
0.026358936 0.0030912107 0.02746427 -0.019824559 0.021080554 -0.0035194547 -0.043913305 0.007426305
-0.015337249 -0.0009283203 -0.01283359 0.010386502 0.044113904 0.007843883 -0.07871381 -0.0062663006
0.01192524 -0.0034520775 -0.0050046216 -0.003445255 -0.02350811 -0.020733174 -0.015193267 0.0318364
0.032848652 -0.019859402 -0.017218065 0.0065592667 0.0012730925 0.0094655445 0.0025053655 0.009296661
-0.044424564 -0.0069454177 -0.027077863 0.029031122 0.05099704 -0.011986805 -0.0123789245 0.0036331755
0.042311836 0.027017478 0.01028419 0.00371928 0.050779164 -0.015773013 -0.007968633 0.016955797
0.01464001 -0.0041849655 0.0060641784 -0.009352966 0.0710586 0.007962124 -0.023862513 0.01610509
0.020671291 -0.008355342 -0.03837634 -0.011154907 0.014185315 -0.0063105244 0.014740446 -0.015917158
0.044244718 -0.031647515 0.015501029 0.026821686 0.005035567 -0.006054378 -0.010262041 0.009375147
0.007632299 0.0143455975 -0.021606132 0.01852647 -0.007843077 -0.0011084768 -1.5350954e-05 0.023148049
-0.0172091 0.026940398 0.021915425 0.006667907 0.034704488 0.0058579408 -0.0036715306 0.024100387
0.0039701583 0.019397765 0.0011154325 0.023559323 -0.012505903 -0.0038800866 -0.003741992 0.013239113
0.033997346 0.013036 -0.014481758 0.048348375 0.008798773 -0.03037134 0.0048892116 -0.0078501925
0.042022794 -0.007479692 -0.023564508 -0.019291038 0.02244073 -0.005387819 -0.019546898 0.036105055
-0.023163231 -0.03326953 -0.011216246 0.007109608 0.013618282 -0.03634565 -0.028775278 0.0027756407
0.008553653 0.014826158 -0.029696994 0.032352116 0.03173084 -0.0026650566 0.010254334 0.031761017
0.008469226 -0.017712256 -0.0011207027 -0.011439673 0.056421917 0.006156952 0.026514139 0.027627999
0.030181326 -0.014267908 0.00028050947 0.0083949035 -0.004608299 0.0016316182 -0.0077744196 0.038850565
0.021629488 -0.0047134743 -0.029348457 0.0032460063 0.027136903 0.015159943 -0.037486013 0.025542717
-0.0031763648 -0.008152009 0.001930549 0.017798707 0.03752791 0.011225487 -0.023048965 0.01682397
0.037442934 -0.03279906 -0.014170728 0.024190174 0.0143002905 -0.015662223 -0.016968131 0.020592185
-0.012717524 -0.009437764 0.015326113 0.017540025 0.07006621 -0.019321775 -0.0076097883 0.025680818
-0.006721313 -0.01901269 -0.0069592074 -0.0018546951 0.068105415 -0.03595141 -0.0163465 -0.011031068
0.030301824 -0.015121294 0.014076473 0.028864492 0.03333934 0.025157383 0.011754641 -0.007274492
00000000: 5cd4 113e 8615 213d 76f0 aabd c2df 84bd
00000010: 27e8 e13d 9e53 873d 66ce 14be bcb0 9ebc
00000020: 8acd 223d 88b2 c8bc 3b3f dbbd 8ebd 103c
00000030: f54b 143d 9b80 ac3c 2533 8ebd 4975 98bb
00000040: d860 553d 3a31 183d d5ff 69bd 0170 01bd
00000050: 1cf3 92ba 1771 4fbc 64c9 43bd 754e dcbb
00000060: 4a99 843d 3aaa 17bb 6295 4fbd 368b e43a
00000070: 2f85 1a3d d407 33bc ae76 bbbc dfed 283b
00000080: f7a7 233d b8bd 35bc 7bc5 8cba 36c6 893c
00000090: c9b1 76bc c2c5 0bbd ed88 24bd 07e4 773b
000000a0: 9174 5abc aba8 f4bb 0402 1b3b 300f f0bb
000000b0: f8a2 2b3c 2c6e dabc 031a 24bd 58ac c63c
000000c0: 42ed 493c dfc8 47bc 2e26 6f3c 6724 3e3b
000000d0: 5a60 19bc ca4f 99bc 1682 acbc 5ec3 0abc
000000e0: cfe3 a83c 0643 bebb 238c d23c ad58 3c3c
000000f0: ca7f 7e3a fbbf 2c3a 7ed1 6e3b 2a51 2d3c
00000100: b2ee d73c e995 4a3b c0fc e03c 1d67 a2bc
00000110: 20b1 ac3c a7a6 66bb 70de 33bd 5d58 f33b
00000120: 1649 7bbc 855a 73ba fa43 52bc 262c 2a3c
00000130: c8b0 343d a183 003c b534 a1bd 8a55 cdbb
00000140: 1562 433c 403c 62bb cffd a3bb cac9 61bb
00000150: 1494 c0bc 9ed8 a9bc 2eed 78bc e366 023d
00000160: 4f8c 063d 2fb0 a2bc e60c 8dbc 1eef d63b
00000170: e5dd a63a 5f15 1b3c 0f31 243b 0651 183c
00000180: 88f6 35bd 6396 e3bb 65d2 ddbc add2 ed3c
00000190: 46e2 503d 4e64 44bc f9d0 4abc 921a 6e3b
000001a0: 2d4f 2d3d c253 dd3c 057f 283c 2abf 733b
000001b0: d0fd 4f3d 6836 81bc df8e 02bc e2e6 8a3c
000001c0: a7dc 6f3c 0922 89bb 04b6 c63b 2f3d 19bc
000001d0: 2c87 913d 9273 023c 517b c3bc d2ee 833c
000001e0: d756 a93c d8e4 08bc 8230 1dbd 12c3 36bc
000001f0: 8669 683c 84c8 cebb e981 713c b364 82bc
00000200: f339 353d d3a0 01bd 07f8 7d3c 27b9 db3c
00000210: 6601 a53b ce63 c6bb 1f22 28bc 379a 193c
00000220: 5d18 fa3b cc09 6b3c 58ff b0bc d3c4 973c
00000230: 4080 00bc 4f4a 91ba ecc5 80b7 faa0 bd3c
00000240: 19fa 8cbc 1cb2 dc3c fa87 b33c 757e da3b
00000250: 4b26 0e3d f8f3 bf3b 109e 70bb 2d6e c53c
00000260: 1a18 823b 10e8 9e3c b433 923a 7bff c03c
00000270: 8fe5 4cbc 0d49 7ebb 353c 75bb dde8 583c
00000280: cd40 0b3d f294 553c e544 6dbc f208 463d
00000290: bb28 103c 51cd f8bc ae35 a03b 189e 00bc
000002a0: 1820 2c3d 3418 f5bb 5b0a c1bc 3d08 9ebc
000002b0: 9fd5 b73c 4d8c b0bb d120 a0bc e5e2 133d
000002c0: d1c0 bdbc a145 08bd 58c4 37bc b7f7 e83b
000002d0: 371f 5f3c 2ddf 14bd 22ba ebbc 86e7 353b
000002e0: 9f24 0c3c 6ae9 723c 1c47 f3bc a783 043d
000002f0: 33f8 013d 3ba8 2ebb cb01 283c d717 023d
00000300: 82c2 0a3c 4b19 91bc 8be4 92ba 776d 3bbc
00000310: ab1a 673d 42c0 c93b 2e34 d93c 1d54 e23c
00000320: d43e f73c f2c3 69bc 5811 9339 c78a 093c
00000330: 3701 97bb 06dc d53a 8fc0 febb c521 1f3d
00000340: 5330 b13c 7d73 9abb 2d6c f0bc f3ba 543b
00000350: 364e de3c 6961 783c ef8a 19bd f63e d13c
00000360: 8f2a 50bb 0190 05bc 7a0a fd3a 98ce 913c
00000370: deb6 193d 1beb 373c 2fd1 bcbc 6cd2 893c
00000380: c35d 193d 4f58 06bd 572c 68bc 792a c63c
00000390: c44b 6a3c 104e 80bc c000 8bbc f1b0 a83c
000003a0: 295d 50bc daa0 1abc 611a 7b3c 19b0 8f3c
000003b0: e07e 8f3d b348 9ebc 885b f9bb 9460 d23c
000003c0: 763e dcbb 80c0 9bbc 100a e4bb 3e19 f3ba
000003d0: da7a 8b3d c941 13bd 18e9 85bc a7bb 34bc
000003e0: 883b f83c 4ebf 77bc 02a1 663c 3a75 ec3c
000003f0: d58e 083d db16 ce3c 8a96 403c dd5e eebb

transformer.h.0.ln_1.weight f4 [4]
1.1612895 1.1278598 1.156396 1.2221318
00000000: 22a5 943f b65d 903f c904 943f d16e 9c3f

transformer.h.0.attn.c_attn.weight f4 [12, 4]
-0.09699841 -0.07048236 0.09911643 0.055309106 -0.056941025 -0.049077824 0.086878076 0.0017598757
0.13312413 0.1627117 -0.23091727 -0.025138043 0.10480854 0.15018833 -0.15439473 -0.068790086
0.08296476 0.08942895 -0.12275523 -0.06609095 0.13452153 0.033984248 -0.059674464 -0.09478886
-0.18531474 -0.12944815 0.031177713 0.2835261 -0.122022554 -0.18761948 0.08316758 0.1746922
0.07214204 0.049861513 -0.1323165 -0.015062773 0.043640207 -0.00081911683 -0.10720886 0.07970891
0.08858477 0.07625684 -0.033317495 -0.19179724 0.036109354 0.07053367 -0.03070805 -0.19887725
00000000: 1aa7 c6bd 0e59 90bd 8efd ca3d cd8b 623d
00000010: fe3a 69bd d405 49bd 22ed b13d a1ab e63a
00000020: b151 083e e59d 263e 9475 6cbe 4cee cdbc
00000030: dca5 d63d f8ca 193e a719 1ebe d1e1 8cbd
00000040: 6ee9 a93d 8626 b73d 1867 fbbd b15a 87bd
00000050: 03c0 093e 1133 0b3d 366d 74bd a920 c2bd
00000060: 26c3 3dbe 0e8e 04be 6768 ff3c 552a 913e
00000070: f6e6 f9bd 521f 40be c453 aa3d 83e2 323e
00000080: 35bf 933d 963b 4c3d fa7d 07be d9c9 76bc
00000090: 13c0 323d 00ba 56ba 5290 dbbd 6d3e a33d
000000a0: ef6b b53d 8c2c 9c3d ed77 08bd 7f66 44be
000000b0: 67e7 133d f573 903d 738f fbbc 7aa6 4bbe

transformer.h.0.attn.c_proj.weight f4 [4, 4]
0.10929643 0.08420785 0.1392318 0.1461527 0.027649913 -0.029794991 0.061092146 0.09314825
-0.15219963 -0.08646577 -0.084780924 -0.11893564 0.009684609 0.048750985 -0.014679482 -0.06429955
00000000: cfd6 df3d 2a75 ac3d c892 0e3e 0ea9 153e
00000010: 1282 e23c a014 f4bc c23b 7a3d 82c4 be3d
00000020: 38da 1bbe f714 b1bd 9fa1 adbd 8794 f3bd
00000030: 32ac 1e3c 1daf 473d 3682 70bc 7caf 83bd

transformer.h.0.ln_2.weight f4 [4]
1.3321487 1.5470946 1.4045242 1.4986027
00000000: d983 aa3f 3207 c63f 73c7 b33f 37d2 bf3f

transformer.h.0.mlp.c_fc.weight f4 [16, 4]
0.052492127 -0.07459114 -0.00278444 0.033837453 0.03607458 -0.020686112 0.051475607 0.038291868
-0.08319632 0.15190534 -0.031360324 0.052412342 0.06514913 -0.21788776 -0.1096975 0.27592432
0.023664283 0.044883735 -0.025211269 -0.07063764 -0.023498222 0.0047935275 -0.033436 0.0006106703
-0.36351296 -0.50965434 0.3637323 0.44423476 0.0678805 -0.09773791 -0.05145162 0.14907248
-0.02280175 0.09083089 -0.11097437 0.04472546 -0.1974543 0.09027074 0.045953315 0.15104045
-0.08645164 0.24599907 0.04574121 -0.13339506 0.014770135 -0.1143526 0.12067651 -0.007891466
0.07403867 -0.108037226 0.084303044 -0.09016378 0.07683497 -0.060662955 0.13935402 -0.09794964
-0.068953805 -0.004019261 0.09799674 -0.009435316 0.049720027 -0.07082846 0.03112031 0.032644775
00000000: fc01 573d 3dc3 98bd 277b 36bb 2499 0a3d
00000010: f0c2 133d ec75 a9bc 16d8 523d efd7 1c3d
00000020: d562 aabd 138d 1b3e af73 00bd 53ae 563d
00000030: e86c 853d f81d 5fbe 15a9 e0bd f445 8d3e
00000040: 99db c13c 02d8 373d dd87 cebc 78aa 90bd
00000050: 587f c0bc 0613 9d3b 30f4 08bd 6415 203a
00000060: 5f1e babe b578 02bf 1f3b ba3e bd72 e33e
00000070: ee04 8b3d d02a c8bd efbe 52bd 75a6 183e
00000080: bcca babc 8c05 ba3d 8846 e3bd 0b32 373d
00000090: 7631 4abe dedf b83d 8b39 3c3d 59aa 1a3e
000000a0: 8f0d b1bd 2ee7 7b3e 235b 3b3d b798 08be
000000b0: 70fe 713c b231 eabd 3f25 f73d 354b 01bc
000000c0: 96a1 973d 9f42 ddbd 13a7 ac3d caa7 b8bd
000000d0: a75b 9d3d b879 78bd d2b2 0e3e d299 c8bd
000000e0: a737 8dbd 01b4 83bb 84b2 c83d 9596 1abc
000000f0: 3aa7 4b3d 830e 91bd 05f0 fe3c 87b6 053d

transformer.h.0.mlp.c_proj.weight f4 [4, 16]
-0.08213896 -0.003537479 0.07872335 -0.065773584 0.07369715 0.05180079 0.2618318 -0.10624027
0.05302249 0.12792157 0.1934262 0.027350755 0.039933983 0.056046482 0.06682699 -0.05216275
0.023404218 0.04398398 0.14101721 0.11867151 -0.082394876 -0.08877426 0.225631 0.067807175
0.02463859 0.07874532 0.05078177 0.05885234 0.006264704 -0.030125393 -0.0013524332 -0.000104503386
-0.11944505 -0.09348808 0.029887138 -0.120788716 -0.03422702 -0.0061337613 -0.32599527 -0.09833384
-0.05220266 -0.057208788 0.014016695 -0.016818114 -0.00072091096 0.048869316 0.115312494 -0.078581624
0.019464979 0.028681995 -0.079807326 -0.034254465 0.010640338 -0.017585846 -0.13040736 0.0021655934
-0.040577345 -0.04863201 -0.11223298 -0.029852813 -0.044259634 -0.04526004 -0.017829217 0.005457447
00000000: 7938 a8bd 0dd5 67bb b539 a13d 4db4 86bd
00000010: 88ee 963d 112d 543d d10e 863e 8094 d9bd
00000020: 1c2e 593d dffd 023e 8511 463e b10e e03c
00000030: d191 233d ff90 653d 97dc 883d 9ca8 55bd
00000040: 34ba bf3c 8c28 343d d166 103e 0c0a f33d
00000050: a5be a8bd 47cf b5bd d00b 673e 7dde 8a3d
00000060: ded6 c93c 3a45 a13d 8c00 503d 270f 713d
00000070: 2548 cd3b 87c9 f6bc 2144 b1ba d428 dbb8
00000080: 9b9f f4bd ae76 bfbd dfd5 f43c 1360 f7bd
00000090: a231 0cbd b8fd c8bb dae8 a6be 4163 c9bd
000000a0: 75d2 55bd c353 6abd 48a6 653c 24c6 89bc
000000b0: 84fb 3cba 312b 483d f528 ec3d 67ef a0bd
000000c0: 0575 9f3c 81f6 ea3c 0672 a3bd 694e 0cbd
000000d0: d054 2e3c 3110 90bc 8289 05be a1ec 0d3b
000000e0: 6e34 26bd 5c32 47bd 68da e5bd e38d f4bc
000000f0: 9749 35bd 9762 39bd 940e 92bc 62d4 b23b

transformer.h.1.ln_1.weight f4 [4]
1.1754298 1.1622055 1.1669928 1.2983339
00000000: 7c74 963f 26c3 943f 0560 953f ce2f a63f

transformer.h.1.attn.c_attn.weight f4 [12, 4]
-0.14183559 -0.13761345 0.24460407 -0.0052362205 -0.16122605 -0.11413051 0.21434784 0.015508184
-0.13863651 -0.14255096 0.24524836 0.041247793 -0.15779482 -0.15842538 0.25156143 0.03978054
0.18523964 0.16963756 -0.026567869 -0.28289902 0.1488214 0.11355996 -0.103718944 -0.1858279
0.16790837 0.15152921 -0.090574786 -0.24490938 0.19247092 0.15996401 -0.14872071 -0.19534557
-0.09437472 -0.07169368 0.044245582 0.30971417 0.093412645 0.069252215 -0.07849759 -0.11410134
0.10386747 0.116989255 -0.10617267 -0.24323472 -0.07659307 -0.11333861 0.13516538 0.18325847
00000000: 593d 11be 8aea 0cbe 7d79 7a3e 9a94 abbb
00000010: 7118 25be 42bd e9bd 007e 5b3e 0a16 7e3c
00000020: bbf6 0dbe e1f8 11be 6322 7b3e 72f3 283d
00000030: f794 21be 433a 22be a9cc 803e ebf0 223d
00000040: 76af 3d3e 78b5 2d3e dca4 d9bc 24d8 90be
00000050: a364 183e 2092 e83d 996a d4bd ab49 3ebe
00000060: 2cf0 2b3e 792a 1b3e 467f b9bd 86c9 7abe
00000070: 1917 453e 9bcd 233e 3e4a 18be ab08 48be
00000080: 8847 c1bd 23d4 92bd db3a 353d db92 9e3e
00000090: 214f bf3d 1bd4 8d3d 58c3 a0bd f7ad e9bd
000000a0: 78b8 d43d 1098 ef3d 0f71 d9bd 8612 79be
000000b0: d4dc 9cbd 131e e8bd cb68 0a3e 1ca8 3b3e

transformer.h.1.attn.c_proj.weight f4 [4, 4]
-0.17312016 0.13888165 0.14276901 -0.11852835 -0.100313365 0.04713277 0.058633573 -0.041764066
0.12248945 -0.13957761 -0.14672655 0.1400536 0.07697588 -0.008301979 -0.029359808 0.010405563
00000000: 6946 31be fe36 0e3e 0a32 123e febe f2bd
00000010: 1871 cdbd 4b0e 413d c229 703d cc10 2bbd
00000020: c0db fa3d 6fed 0ebe 7c3f 16be 366a 0f3e
00000030: 88a5 9d3d 0605 08bc fb83 f0bc 187c 2a3c

transformer.h.1.ln_2.weight f4 [4]
1.1566612 1.3048364 1.1651472 1.2664331
00000000: 790d 943f e104 a73f 8b23 953f 7b1a a23f

transformer.h.1.mlp.c_fc.weight f4 [16, 4]
0.04909336 -0.20112245 -0.05318299 0.2692352 0.15584111 -0.03888438 -0.032633305 -0.03834857
0.03079917 0.10563569 0.018328244 -0.099386536 -0.030031968 0.17685111 0.050432537 -0.14314345
0.10424607 -0.26528457 -0.05574221 0.17330052 -0.15120508 0.2331575 -0.036072977 -0.030261526
-0.16642325 0.19296283 -0.04816193 0.041063733 0.11524603 0.036625676 0.014047808 -0.07760418
0.019448165 -0.18718652 -0.07428825 0.33339074 0.15308405 -0.05385853 -0.017886361 -0.041128904
0.15266214 -0.012319323 -0.018456532 -0.096843764 0.029091347 0.037572484 0.04347395 -0.089112096
-0.0276086 -0.1791613 0.008980766 0.19232738 0.028663132 -0.21045628 0.17301795 -0.09785
-0.029418526 0.091125906 -0.06074017 0.07059595 -0.056936182 0.13587937 -0.046672497 -0.070928074
00000000: 1e16 493d 0bf3 4dbe 68d6 59bd 32d9 893e
00000010: d094 1f3e 3a45 1fbd 80aa 05bd 6413 1dbd
00000020: 8a4e fc3c 8657 d83d 1d25 963c 2b8b cbbd
00000030: 9a05 f6bc 7518 353e 5992 4e3d 3294 12be
00000040: f77e d53d 61d3 87be f251 64bd b175 313e
00000050: 81d5 1abe d7c0 6e3e 42c1 13bd 05e7 f7bc
00000060: db6a 2abe 0c98 453e 7245 45bd 7232 283d
00000070: 1c06 ec3d ce04 163d c728 663c f1ee 9ebd
00000080: c251 9f3c d3ad 3fbe 7024 98bd 31b2 aa3e
00000090: 11c2 1c3e c39a 5cbd 6b86 92bc c876 28bd
000000a0: 7753 1c3e fcd6 49bc 2732 97bc 0656 c6bd
000000b0: fa50 ee3c 9be5 193d be11 323d 6780 b6bd
000000c0: 6e2b e2bc 0f76 37be 1024 133c 78f1 443e
000000d0: f2ce ea3c da81 57be 9e2b 313e 9565 c8bd
000000e0: 1fff f0bc 38a0 ba3d afca 78bd 9c94 903d
000000f0: ea35 69bd f623 0b3e a92b 3fbd bd42 91bd

transformer.h.1.mlp.c_proj.weight f4 [4, 16]
-0.055831216 -0.07438432 0.11119091 0.17974234 -0.05442432 0.15317592 0.15883751 0.021874579
-0.011182414 -0.084254526 -0.034864873 0.043121617 -0.0133412825 0.08282027 -0.0026032054 0.1573085
0.17447929 -0.011553222 -0.039451003 0.002152701 0.10494881 0.05000748 0.05258529 0.0030948778
0.16448207 -0.0009782611 0.003760081 -0.009780201 0.15053609 0.15630502 0.010790767 -0.076464415
-0.10760983 -0.10434003 -0.1349123 -0.12054192 -0.18902701 -0.06289331 -0.061637726 -0.13274403
-0.12020909 -0.12999247 -0.090019695 -0.042227443 -0.012805295 -0.05974336 -0.033032987 -0.06077075
-0.07556633 0.050486375 0.03575689 -0.008470007 -0.022886833 -0.053969435 -0.065802716 0.07078462
-0.09500056 0.06022581 0.03342679 0.007164546 -0.08275964 -0.05726681 -0.025192471 -0.016361361
00000000: 46af 64bd ce56 98bd 0fb8 e33d 600e 383e
00000010: 09ec 5ebd 26da 1c3e 4da6 223e 5132 b33c
00000020: 7236 37bc a38d acbd 78ce 0ebd 4ba0 303d
00000030: 6595 5abc ac9d a93d 8a9a 2abb 7b15 213e
00000040: b3aa 323e ba49 3dbc 6097 21bd 5414 0d3b
00000050: 67ef d63d a5d4 4c3d ac63 573d 6fd3 4a3b
00000060: fd6d 283e ff38 80ba b16b 763b 233d 20bc
00000070: 2226 1a3e 6c0e 203e c2cb 303c 6099 9cbd
00000080: 8b62 dcbd 3ab0 d5bd 7326 0abe afde f6bd
00000090: 4c90 41be 35ce 80bd d777 7cbd 0dee 07be
000000a0: 2f30 f6bd bf1c 05be 3f5c b8bd aff6 2cbd
000000b0: 4dcd 51bc 74b5 74bd 994d 07bd c0ea 78bd
000000c0: 85c2 9abd cdca 4e3d d175 123d c9c5 0abc
000000d0: 2b7d bbbc 0e0f 5dbd 93c3 86bd 87f7 903d
000000e0: a78f c2bd 57af 763d 88ea 083d 91c4 ea3b
000000f0: e37d a9bd 9a90 6abd 7160 cebc 4308 86bc

transformer.h.2.ln_1.weight f4 [4]
1.126064 1.1488991 1.1546682 1.314133
00000000: dd22 903f 200f 933f 2bcc 933f 8335 a83f

transformer.h.2.attn.c_attn.weight f4 [12, 4]
0.045713965 -0.058809277 0.03394247 -0.06064162 -0.049542725 -0.034401752 0.056711216 0.011588661
-0.11980035 -0.08021919 0.14803806 -0.06421238 0.102115445 0.09693689 -0.16213867 0.0059945458
-0.004765113 -0.02423814 -0.009404724 0.049236216 0.062679246 0.048278414 -0.064272255 -0.092530236
-0.038364217 -0.018592171 0.014966547 -0.047759738 -0.09030821 -0.027075885 -0.0022401712 0.14867915
-0.038251795 -0.0725611 0.0816688 -0.23783748 -0.06961328 -0.097915046 0.078180864 0.15408553
0.071434066 0.0780506 -0.08694994 -0.19406207 0.058523003 0.049771473 -0.043700796 -0.2832729
00000000: 913e 3b3d ffe1 70bd 4207 0b3d 5963 78bd
00000010: 50ed 4abd dae8 0cbd 054a 683d 5ede 3d3c
00000020: e359 f5bd f549 a4bd 4a97 173e c881 83bd
00000030: e721 d13d d986 c63d ae07 26be e56d c43b
00000040: aa24 9cbb 108f c6bc 4616 1abc eaab 493d
00000050: fa5d 803d 96bf 453d 2ca1 83bd 7e80 bdbd
00000060: cc23 1dbd 9c4e 98bc 3f36 753c b79f 43bd
00000070: 83f3 b8bd 3fce ddbc d6cf 12bb 593f 183e
00000080: eaad 1cbd ea9a 94bd f941 a73d ab8b 73be
00000090: 6891 8ebd af87 c8bd 4a1d a03d 99c8 1d3e
000000a0: 064c 923d fed8 9f3d cf12 b2bd 35b8 46be
000000b0: d1b5 6f3d 2cdd 4b3d 9bff 32bd 2509 91be

transformer.h.2.attn.c_proj.weight f4 [4, 4]
-0.046572644 -0.11394858 0.11118349 0.12364213 0.053753782 -0.040032916 0.029457329 0.064322285
0.12569156 0.16210613 -0.15314421 -0.13837223 -0.072692834 0.011995342 -0.025937008 -0.037389673
00000000: f5c2 3ebd e05d e9bd 2bb4 e33d 1638 fd3d
00000010: ed2c 5c3d 8ef9 23bd 7f50 f13c 67bb 833d
00000020: 4ab5 003e 26ff 253e d6d1 1cbe 73b1 0dbe
00000030: fbdf 94bd 1c88 443c d979 d4bc ea25 19bd

transformer.h.2.ln_2.weight f4 [4]
1.1941649 1.2076062 1.0997492 1.2668337
00000000: 65da 983f d792 9a3f 95c4 8c3f 9b27 a23f

transformer.h.2.mlp.c_fc.weight f4 [16, 4]
-0.03020941 0.04801989 0.0013971736 -0.047107488 -0.032473307 -0.09563535 0.008073549 0.079908654
0.09710109 0.041586246 0.005755265 -0.122501925 -0.04987104 -0.07512212 0.0048089167 0.18436083
-0.042322382 0.10049041 -0.017618569 -0.15153094 -0.09020057 -0.09802608 -0.0026459221 0.19306536
0.12467425 -0.0627508 0.13523076 -0.27421308 -0.110988714 -0.04385934 -0.04012846 0.18190946
-0.091556266 -0.11383012 -0.014651157 0.13953798 -0.086665764 -0.016364664 0.007682583 0.08715924
0.032116648 0.058789548 0.07057306 -0.15930003 -0.07536757 -0.099707395 -0.010740489 0.14319295
0.012177558 0.1305169 0.04179324 -0.09411332 0.20345765 -0.22869195 -0.07927104 0.11364402
-0.1019684 0.14095157 -0.15562892 0.15819898 0.026722278 0.11310397 0.060306426 -0.15385954
00000000: b979 f7bc 81b0 443d 5e21 b73a c8f3 40bd
00000010: bb02 05bd 77dc c3bd eb46 043c 26a7 a33d
00000020: f0dc c63d 5756 2a3d a996 bc3b 4ae2 fabd
00000030: 9345 4cbd a0d9 99bd 1e94 9d3b 16c9 3c3e
00000040: 3c5a 2dbd ebcd cd3d d154 90bc ed2a 1bbe
00000050: 14bb b8bd e6c1 c8bd 3567 2dbb edb2 453e
00000060: 3755 ff3d 7e83 80bd ef79 0a3e a865 8cbe
00000070: 0d4e e3bd daa5 33bd bd5d 24bd 7946 3a3e
00000080: da81 bbbd c41f e9bd 680b 70bc 0be3 0e3e
00000090: d27d b1bd 300f 86bc 2dbe fb3b 8b80 b23d
000000a0: bf8c 033d 4fcd 703d 9c88 903d 8c1f 23be
000000b0: 505a 9abd 6433 ccbd e0f8 2fbc 2ca1 123e
000000c0: 6184 473c 39a6 053e 632f 2b3d 7cbe c0bd
000000d0: 3457 503e 392e 6abe db58 a2bd 32be e83d
000000e0: cfd4 d0bd 9c55 103e 305d 1fbe eafe 213e
000000f0: aee8 da3c 0ea3 e73d df03 773d 5b8d 1dbe

transformer.h.2.mlp.c_proj.weight f4 [4, 16]
0.118731946 -0.0066782464 0.04157329 0.021105004 0.12409426 0.026409462 0.1042258 0.045873784
0.009564126 0.08421975 0.1460103 0.009591957 0.15027888 -0.11466868 0.12520812 0.18437771
-0.08562085 0.049401745 -0.017565822 0.08060222 -0.117764674 0.07065459 0.09095685 0.095540576
0.046159655 0.039588574 -0.03544241 0.0560316 -0.06100953 0.105770126 0.001663602 -0.055157874
-0.019482989 0.06296517 -0.10455469 0.045801595 -0.009278047 0.059629817 -0.20874389 0.051635254
0.071720384 0.06462934 -0.0872113 0.07832068 -0.09159931 -0.110648766 -0.06830377 -0.10782214
-0.010171129 -0.06189064 -0.0062936507 -0.055412963 -0.0004663256 -0.07525367 0.016575972 -0.12031257
-0.072710514 -0.053518556 0.025011215 -0.08444205 0.015757991 -0.008031765 -0.061634287 0.04409719
00000000: bc29 f33d 31d5 dabb c148 2a3d 67e4 ac3c
00000010: 2225 fe3d a858 d83c 5674 d53d 26e6 3b3d
00000020: dab2 1c3c 677b ac3d b983 153e 9527 1d3c
00000030: b5e2 193e 6ad7 eabd 8f36 003e 83cd 3c3e
00000040: fc59 afbd 7c59 4a3d 33e6 8fbc c712 a53d
00000050: 9b2e f1bd 5bb3 903d 9647 ba3d c7aa c33d
00000060: e811 3d3d a127 223d 0f2c 11bd 6481 653d
00000070: 21e5 79bd 029e d83d 380d da3a 39ed 61bd
00000080: ca9a 9fbc e2f3 803d c520 d6bd 749a 3b3d
00000090: f302 18bc 653e 743d f5c0 55be 7d7f 533d
000000a0: 23e2 923d 635c 843d d79b b2bd 9866 a03d
000000b0: 6b98 bbbd d29b e2bd d9e2 8bbd dbd1 dcbd
000000c0: cfa4 26bc 0a81 7dbd f83a cebb b4f8 62bd
000000d0: 2a7d f4b9 991e 9abd 55ca 873c 7066 f6bd
000000e0: 40e9 94bd 4636 5bbd 52e4 cc3c f4ef acbd
000000f0: e716 813c aa97 03bc 3c74 7cbd 419f 343d

transformer.ln_f.weight f4 [4]
1.6008952 1.5305551 1.5779077 1.4502395
00000000: 22ea cc3f 3be9 c33f e1f8 c93f 73a1 b93f

lm_head.weight f4 [5, 4]
-0.37863117 -0.36892745 0.4005744 0.22364618 0.14874819 0.33589968 -0.113339774 -0.26557696
0.058064293 0.06559124 -0.15194558 0.10242578 0.09672263 0.0026148239 -0.15980217 0.10304213
0.24561101 0.038462944 -0.15446003 -0.124413125
00000000: f2db c1be 0fe4 bcbe 1618 cd3e 8103 653e
00000010: 7251 183e 0bfb ab3e af1e e8bd b4f9 87be
00000020: d3d4 6d3d b354 863d 9f97 1bbe 9bc4 d13d
00000030: 8416 c63d 775d 2b3b 2ea3 23be c107 d33d
00000040: 7481 7b3e 528b 1d3d c52a 1ebe 4fcc febd

exp_avg f4 [5, 4]
0.0009061356 0.00065023097 -0.0011326562 -0.00033738202 0.0078109563 0.0012167146 -0.011771317 0.002160762
-0.002581151 -0.0019084158 0.0072263917 -0.0010647554 -0.011435532 -0.0014273203 0.017960439 -0.0044634016
0.0070380387 0.008690826 -0.011061575 -0.006809151
00000000: bb89 6d3a 4374 2a3a a375 94ba a6e2 b0b9
00000010: 0df3 ff3b 2b7a 9f3a 7bdc 40bc 929b 0d3b
00000020: 8728 29bb cf23 faba 5ecb ec3b 438f 8bba
00000030: 195c 3bbc ec14 bbba c521 933c ba41 92bb
00000040: 599f e63b f763 0e3c 9c3b 35bc 4c1f dfbb

exp_avg_sq f4 [5, 4]
3.6170804e-06 2.3511243e-06 2.7663452e-06 3.011139e-06 0.00053175155 0.00015655257 0.0011075825 8.045327e-05
0.00037486298 7.8463585e-05 0.0007975949 9.0627254e-05 0.00044471357 8.856189e-05 0.0009418568 8.7627144e-05
0.00066980254 0.00019244992 0.0011577887 9.419954e-05
00000000: f8bc 7236 02c8 1d36 73a5 3936 f912 4a36
00000010: 3e65 0b3a 4328 2439 4d2c 913a 05b9 a838
00000020: 4289 c439 d18c a438 b015 513a 230f be38
00000030: 7228 e939 4dba b938 f1e6 763a 77c4 b738
00000040: b095 2f3a 62cc 4939 f1c0 973a fe8c c538

exp_avg f4 [256, 4]
-3.147599e-05 0.0005346363 7.784192e-05 -0.00047294958 4.1647992e-05 -2.1550673e-05 2.611307e-05 -0.00023322628
0.00015871567 1.3053441e-05 2.9349525e-05 -0.00030450893 6.772768e-05 -1.2494942e-05 -7.911104e-05 -0.00013216572
1.928384e-05 -2.6406774e-06 -2.5472418e-05 6.829941e-05 7.504223e-05 -1.9350884e-05 0.00010199942 -0.00021753437
0.00016442357 0.00022273278 4.9153372e-05 -0.00019785724 5.376715e-06 1.2842631e-05 6.5784855e-07 0.00010142998
4.3780838e-05 -0.0003957419 8.573114e-05 0.00017481062 -1.4295108e-05 -4.9973078e-05 8.264808e-05 0.00010087838
7.892898e-05 -3.5316218e-06 5.926649e-06 9.490092e-05 -0.00014235925 7.6021366e-05 0.00018782784 -4.743839e-05
-0.00010034889 6.0146784e-05 -8.579401e-05 0.0001225104 -2.1474527e-05 0.00030279302 -2.2554565e-05 -0.0002593881
-2.1443988e-05 0.000111047186 1.9989457e-05 0.00014979951 0.000103089944 -3.2739616e-05 5.3916145e-05 -0.00015842917
-3.0151173e-06 -5.2223568e-05 1.294083e-05 4.387759e-05 -1.0070593e-05 -3.8242266e-05 8.227109e-06 -3.9874878e-05
3.8051265e-05 6.984277e-05 3.9785904e-05 9.017887e-05 0.00013426061 2.4901914e-05 2.2581891e-05 -0.000108724395
0.00013095356 8.724561e-06 9.1383656e-05 -0.00031485202 -5.241814e-05 0.00016116319 5.5221067e-06 -0.00016942182
-8.831386e-06 -5.9509654e-05 3.8442857e-05 0.00016495449 5.1489787e-05 -0.00011857976 -3.1311905e-05 5.7041274e-05
-8.105385e-05 8.2649785e-06 3.1012565e-05 8.754888e-05 1.7268572e-05 -4.0366504e-05 0.00010574708 -6.2247425e-05
-2.9755882e-05 -5.8494816e-06 1.2783858e-05 8.704853e-05 0.00012131441 6.047565e-05 -5.166488e-05 -0.00013474099
1.9975612e-06 2.5791282e-05 1.5547042e-05 2.1364194e-05 2.2434662e-05 -1.8705237e-05 -3.8498125e-05 -0.000105627856
3.639623e-05 0.00012341225 8.113086e-05 -0.0002782491 -3.2774857e-05 0.00014055533 0.00011049279 -0.00021472064
-1.662968e-05 9.78978e-05 7.138017e-05 -0.00017822234 -1.6626875e-05 7.633749e-05 2.6393489e-05 1.830937e-05
1.6685448e-05 0.00011110936 0.00011939192 -0.0003085902 -7.503871e-05 0.0003467392 3.5522655e-05 -0.00020423488
-2.9086546e-05 -0.00014200847 -4.6980913e-05 0.00010590472 1.9124163e-05 2.2791239e-05 3.351634e-06 5.759678e-05
-0.00011367102 6.40471e-05 7.09251e-05 -2.1443462e-05 -2.5209742e-05 0.00013898296 6.177078e-06 -0.00023123968
7.0779475e-05 -0.000101053076 5.994021e-05 4.7680405e-06 3.450242e-06 0.0001630437 -5.6866837e-05 -7.963337e-05
-6.641701e-05 3.608883e-05 -3.399526e-06 -6.41275e-05 1.35881455e-05 -7.384745e-05 3.999271e-05 -6.154595e-05
4.0747555e-06 1.2525861e-05 -9.061217e-05 4.180843e-05 3.0624284e-05 1.9693724e-05 1.8993613e-05 -2.4439236e-05
-5.243741e-05 5.508097e-05 2.6432299e-05 7.074496e-05 3.8652826e-05 0.00013534463 6.929238e-05 -6.0714152e-05
-6.7045216e-06 3.0141657e-06 3.3380056e-05 -9.218206e-05 -3.788316e-05 0.00010886424 -4.8419493e-05 -3.2755263e-05
1.0760525e-05 -5.634965e-05 -6.802451e-05 6.0077495e-05 5.549547e-05 7.4951335e-05 -9.010986e-05 -0.00010262257
-3.1278523e-05 -4.5949565e-07 2.9978477e-05 -9.300702e-06 -6.25361e-05 -0.00018476816 -5.21873e-05 0.0001166919
3.3818837e-05 -5.249843e-05 4.4725693e-05 -2.8081293e-05 5.9936872e-05 7.325949e-05 -7.1671866e-06 -0.00023442032
4.072055e-05 1.5942918e-05 -5.009157e-06 -0.00011872873 2.2638358e-05 6.486688e-05 -3.5278405e-05 6.8654895e-06
0.00013748888 -9.658035e-06 -8.4416215e-06 3.1751173e-05 -0.00014390243 -2.7513192e-05 2.262316e-05 7.182779e-05
-3.0745497e-05 -0.00016315255 2.4841784e-05 -4.77229e-05 4.514774e-05 0.00023117203 -6.5221655e-05 -3.459845e-05
1.333473e-05 -1.5702175e-05 7.2805815e-05 -1.8438142e-05 -5.6360557e-05 0.00026439864 4.769013e-05 -0.00020059603
00000000: 1605 04b8 d626 0c3a 103f a338 38f6 f7b9
00000010: 31af 2e38 b8c7 b4b7 640d db37 348e 74b9
00000020: ea6c 2639 1a00 5b37 a033 f637 7fa6 9fb9
00000030: 0509 8e38 5ea1 51b7 6be8 a5b8 f795 0ab9
00000040: bbc3 a137 7e36 31b6 9aad d5b7 f73b 8f38
00000050: fe5f 9d38 b553 a2b7 86e8 d538 f019 64b9
00000060: 1e69 2c39 608d 6939 082a 4e38 e677 4fb9
00000070: a169 b436 ae76 5737 0297 3035 ceb6 d438
00000080: 51a1 3738 947b cfb9 8eca b338 5e4d 3739
00000090: 05d5 6fb7 2f9a 51b8 5a53 ad38 ab8e d338
000000a0: ac86 a538 cd00 6db6 87dd c636 8b05 c738
000000b0: 4546 15b9 a96d 9f38 a7f3 4439 95f8 46b8
000000c0: 6672 d2b8 1e46 7c38 4fec b3b8 2376 0039
000000d0: 3224 b4b7 31c0 9e39 8f33 bdb7 7bfe 87b9
000000e0: 9de2 b3b7 01e2 e838 08af a737 8013 1d39
000000f0: fe31 d838 e551 09b8 0524 6238 0220 26b9
00000100: 5257 4ab6 a10a 5bb8 711c 5937 3409 3838
00000110: def4 28b7 5266 20b8 2a07 0a37 533f 27b8
00000120: 3c99 1f38 8d78 9238 cadf 2638 6a1e bd38
00000130: 4fc8 0c39 74e4 d037 3e6e bd37 f702 e4b8
00000140: 9450 0939 b45f 1237 3aa5 bf38 b912 a5b9
00000150: 8ddb 5bb8 eafd 2839 894a b936 d3a6 31b9
00000160: 842a 14b7 019a 79b8 b43d 2138 a2f7 2c39
00000170: bdf6 5738 06ae f8b8 e754 03b8 9a3f 6f38
00000180: 74fb a9b8 d0a9 0a37 7d13 0238 729a b738
00000190: fadb 9037 344f 29b8 88c4 dd38 d58a 82b8
000001a0: 459c f9b7 aa46 c4b6 417a 5637 d38d b638
000001b0: 2e6a fe38 3ca7 7d38 beb2 58b8 4249 0db9
000001c0: d70d 0636 5b5a d837 056b 8237 4237 b337
000001d0: 1232 bc37 31e9 9cb7 0c79 21b8 8684 ddb8
000001e0: 28a8 1838 3968 0139 cc24 aa38 f6e1 91b9
000001f0: bc77 09b8 0962 1339 5db8 e738 a226 61b9
00000200: f77f 8bb7 7b4e cd38 f0b1 9538 32e1 3ab9
00000210: f179 8bb7 6117 a038 9667 dd37 1397 9937
00000220: baf7 8b37 6203 e938 0d62 fa38 47ca a1b9
00000230: 1a5e 9db8 8cca b539 29fe 1438 e227 56b9
00000240: e2fe f3b7 1ce8 14b9 5f0d 45b8 2a19 de38
00000250: d46c a037 d02f bf37 a2ec 6036 1294 7138
00000260: aa62 eeb8 0651 8638 a0bd 9438 7ce1 b3b7
00000270: 8279 d3b7 f4bb 1139 b244 cf36 ee78 72b9
00000280: 716f 9438 75ec d3b8 4f68 7b38 28fd 9f36
00000290: b58a 6736 b6f6 2a39 4d84 6eb8 d700 a7b8
000002a0: 5c49 8bb8 165e 1738 6923 64b6 307c 86b8
000002b0: a4f8 6337 8cde 9ab8 d8bd 2738 3b12 81b8
000002c0: e2b9 8836 2a26 5237 0a07 beb8 765b 2f38
000002d0: 9372 0038 f333 a537 7954 9f37 dc02 cdb7
000002e0: 3ef0 5bb8 be06 6738 eeba dd37 e95c 9438
000002f0: 281f 2238 4ceb 0d39 1051 9138 53a7 7eb8
00000300: 67f7 e0b6 f946 4a36 9001 0c38 de51 c1b8
00000310: bce4 1eb8 0b4e e438 0916 4bb8 b262 09b8
00000320: 1a88 3437 fa58 6cb8 61a8 8eb8 b8fb 7b38
00000330: cfc3 6838 312f 9d38 5df9 bcb8 1337 d7b8
00000340: 0f31 03b8 9ab0 f6b4 4a7a fb37 360a 1cb7
00000350: d025 83b8 53be 41b9 b0e3 5ab8 7db8 f438
00000360: b3d8 0d38 c331 5cb8 d997 3b38 1e90 ebb7
00000370: ba64 7b38 e4a2 9938 aa7d f0b6 bace 75b9
00000380: 5ccb 2a38 28bd 8537 5514 a8b6 00fe f8b8
00000390: 81e7 bd37 2409 8838 e6f7 13b8 1b5e e636
000003a0: e42a 1039 f208 22b7 7da0 0db7 902c 0538
000003b0: 84e4 16b9 21cc e6b7 dec6 bd37 40a2 9638
000003c0: baf4 00b8 ee13 2bb9 5363 d037 132a 48b8
000003d0: 045d 3d38 c566 7239 9cc7 88b8 ce1d 11b8
000003e0: 3bb8 5f37 2ab8 83b7 53af 9838 9cab 9ab7
000003f0: b064 6cb8 fc9e 8a39 e306 4838 1657 52b9

exp_avg_sq f4 [256, 4]
4.1597738e-07 2.043048e-06 1.3119617e-07 6.2342615e-06 1.9600135e-07 5.498926e-07 2.8769392e-08 9.836109e-07
2.3423515e-07 6.306303e-07 4.039682e-08 7.1492593e-07 1.3747665e-07 5.280561e-07 5.8054113e-08 6.2978205e-07
7.987565e-08 3.8160692e-07 4.263078e-08 5.685463e-07 1.275615e-07 4.1225e-07 4.3333316e-08 5.755153e-07
6.379779e-08 4.0956144e-07 3.2442358e-08 4.3328313e-07 8.204803e-08 3.277027e-07 5.3782095e-08 3.383007e-07
9.528385e-08 3.2705313e-07 4.715978e-08 3.3666512e-07 1.0171252e-07 2.937485e-07 4.6072966e-08 2.4668543e-07
6.9591366e-08 3.8325155e-07 4.3392006e-08 4.2686264e-07 3.3277553e-07 2.1308009e-07 1.02658184e-07 2.9332045e-07
9.465461e-08 3.1075012e-07 4.3781057e-08 3.4507406e-07 7.783878e-08 3.468427e-07 6.0617204e-08 4.101974e-07
5.6806925e-08 2.9704924e-07 4.168949e-08 3.602755e-07 6.754956e-08 2.9428918e-07 4.6152564e-08 3.487639e-07
5.9204524e-08 2.3401618e-07 4.286653e-08 3.530303e-07 5.4964662e-08 2.6817906e-07 3.2427838e-08 3.1427086e-07
5.6294226e-08 3.083845e-07 5.6294088e-08 3.3883248e-07 4.31668e-08 2.1775587e-07 2.5960617e-08 3.1382226e-07
5.5240882e-08 2.6778602e-07 4.7139253e-08 3.7940745e-07 5.2288595e-08 3.2738066e-07 4.0738186e-08 3.6002126e-07
6.115259e-08 2.6276865e-07 4.245283e-08 2.747372e-07 5.1645223e-08 2.893353e-07 3.6201737e-08 3.1297023e-07
8.62643e-08 2.8323083e-07 3.1356905e-08 3.0772972e-07 5.3703594e-08 3.0107546e-07 4.245824e-08 3.0207437e-07
5.0935643e-08 2.5884054e-07 1.04429766e-07 3.2312292e-07 6.0449885e-08 3.0516424e-07 3.739267e-08 3.4250257e-07
5.4544763e-08 2.691886e-07 3.749086e-08 3.1995046e-07 4.973432e-08 2.649584e-07 3.861454e-08 3.0279628e-07
5.046238e-08 2.122423e-07 3.432488e-08 3.2894494e-07 5.916108e-08 3.400603e-07 4.9414975e-08 3.9369664e-07
6.009476e-08 2.1898637e-07 4.2202803e-08 2.9009405e-07 1.0707624e-07 2.5395454e-07 5.8413107e-08 3.287752e-07
5.2037933e-08 2.6055548e-07 5.226241e-08 2.979779e-07 6.8212e-08 2.8234194e-07 5.315082e-08 2.629172e-07
5.147514e-08 2.9311713e-07 4.9122082e-08 3.8827548e-07 5.971675e-08 2.9628822e-07 2.9738919e-08 3.3768788e-07
4.410752e-08 2.803671e-07 5.0200025e-08 3.361553e-07 6.616341e-08 2.8193475e-07 5.7323675e-08 3.2112658e-07
4.6623015e-08 2.4860353e-07 4.1799975e-08 2.8726117e-07 5.7250503e-08 2.3255618e-07 4.412397e-08 3.3683713e-07
4.5737554e-08 2.7207798e-07 3.7859476e-08 3.1205713e-07 4.943843e-08 2.2339533e-07 4.2361762e-08 2.75139e-07
6.03899e-08 2.755593e-07 4.952878e-08 3.188007e-07 7.532457e-08 2.1746652e-07 3.9107483e-08 3.5942952e-07
4.179353e-08 2.5969646e-07 2.7116466e-08 2.965954e-07 5.0590923e-08 2.7030043e-07 4.3951644e-08 2.9237472e-07
5.4843618e-08 2.6034803e-07 3.395189e-08 3.2301864e-07 5.3955194e-08 2.6435626e-07 4.510669e-08 3.0264042e-07
5.4910235e-08 2.7911338e-07 3.970854e-08 2.8890815e-07 5.4962506e-08 2.74132e-07 3.453531e-08 3.108091e-07
4.1989818e-08 2.6640217e-07 3.337455e-08 3.0250195e-07 5.00956e-07 2.5006022e-07 3.437111e-08 2.9574898e-07
1.17877754e-07 2.7703047e-07 6.223958e-08 3.7571547e-07 5.1395205e-08 2.519025e-07 3.7791718e-08 3.0611787e-07
5.7544288e-08 2.2395454e-07 3.547166e-08 2.8243548e-07 5.0149193e-08 2.6412965e-07 3.2208057e-08 2.947799e-07
5.9489892e-08 2.8061808e-07 4.345447e-08 3.217645e-07 6.6562954e-08 2.2346006e-07 4.6585523e-08 2.901228e-07
6.802052e-08 2.4427885e-07 5.708411e-08 2.9927483e-07 5.244981e-08 2.2110999e-07 2.6230648e-08 2.882496e-07
4.6060297e-08 3.1659914e-07 4.5763873e-08 3.3656585e-07 5.6317184e-08 2.9838415e-07 4.158161e-08 4.2066816e-07
00000000: 7f53 df34 4c1b 0936 eede 0c34 e62f d136
00000010: 7174 5234 559c 1335 9020 f732 9d04 8435
00000020: 1182 7b34 9648 2935 c680 2d33 56e9 3f35
00000030: 4b9d 1334 bdbf 0d35 2c57 7933 4b0e 2935
00000040: 1a88 ab33 a8df cc34 0a19 3733 349e 1835
00000050: d7f7 0834 3553 dd34 7c1d 3a33 1c7d 1a35
00000060: 3501 8933 b2e1 db34 c056 0b33 fb9d e834
00000070: 6232 b033 1eef af34 0afe 6633 b29f b534
00000080: da9e cc33 d795 af34 ba8c 4a33 e7be b434
00000090: 0d6d da33 7db4 9d34 c3e1 4533 3070 8434
000000a0: 4272 9533 b1c1 cd34 045e 3a33 8e2b e534
000000b0: 52a8 b234 02cb 6434 ef74 dc33 a879 9d34
000000c0: ec44 cb33 2cd5 a634 c809 3c33 9e42 b934
000000d0: 5228 a733 b335 ba34 a92c 8233 1a39 dc34
000000e0: e0fb 7333 237a 9f34 140e 3333 e36b c134
000000f0: c30f 9133 ccfe 9d34 4839 4633 bf3d bb34
00000100: 1048 7e33 e145 7b34 401c 3833 1d88 bd34
00000110: 4912 6c33 40fa 8f34 c946 0b33 0fb9 a834
00000120: 28c8 7133 0b90 a534 01c8 7133 c8e8 b534
00000130: 6666 3933 47d0 6934 0000 df32 677b a834
00000140: fe41 6d33 3bc4 8f34 2876 4a33 5db1 cb34
00000150: eb93 6033 dbc2 af34 1cf8 2e33 f248 c134
00000160: fe52 8333 a612 8d34 6155 3633 987f 9334
00000170: 86d0 5d33 f155 9b34 3b7c 1b33 4d06 a834
00000180: 4d40 b933 f30e 9834 48ad 0633 0d36 a534
00000190: baa7 6633 7fa3 a134 545b 3633 c92c a234
000001a0: 55c4 5a33 c6f6 8a34 df42 e033 ad79 ad34
000001b0: add0 8133 74d5 a334 ad99 2033 32e1 b734
000001c0: 9a44 6a33 0085 9034 a305 2133 a8c5 ab34
000001d0: 779b 5533 9b3f 8e34 23d9 2533 0190 a234
000001e0: f9bb 5833 b8e4 6334 9b6c 1333 d999 b034
000001f0: 4c18 7e33 8891 b634 573c 5433 415d d334
00000200: 720d 8133 8422 6b34 7942 3533 39be 9b34
00000210: c9f1 e533 3f57 8834 e4e1 7a33 8582 b034
00000220: 5080 5f33 79e2 8b34 2177 6033 c5f9 9f34
00000230: f27b 9233 c894 9734 f247 6433 1127 8d34
00000240: 8415 5d33 b65d 9d34 4dfa 5233 2d74 d034
00000250: a13d 8033 8b11 9f34 9374 ff32 784b b534
00000260: bb70 3d33 5c85 9634 839b 5733 d578 b434
00000270: b815 8e33 d15c 9734 0c34 7633 4d67 ac34
00000280: 8c3e 4833 cf77 8534 8f87 3333 e038 9a34
00000290: 98e3 7533 8eb4 7934 d182 3d33 8bd6 b434
000002a0: f970 4433 1d12 9234 ef9a 2233 ce88 a734
000002b0: 2156 5433 71de 6f34 40f1 3533 d1b6 9334
000002c0: b3af 8133 95f0 9334 78b9 5433 a227 ab34
000002d0: 1fc2 a133 be80 6934 22f7 2733 9ef7 c034
000002e0: 7980 3333 696c 8b34 bded e832 c33b 9f34
000002f0: 4f49 5933 cf1d 9134 58c5 3c33 adf7 9c34
00000300: 328d 6b33 f6c5 8b34 7fd2 1133 586b ad34
00000310: 5dbc 6733 d9ec 8d34 55bb 4133 957a a234
00000320: 71d6 6b33 0dd9 9534 008c 2a33 3c1b 9b34
00000330: ea0f 6c33 6a2c 9334 fa53 1433 47dd a634
00000340: 4b58 3433 0906 8f34 b557 0f33 8d67 a234
00000350: 6f79 0635 0440 8634 6f9f 1333 6ec7 9e34
00000360: fb23 fd33 c7ba 9434 92a8 8533 f1b5 c934
00000370: a0bd 5c33 373d 8734 6f50 2233 8558 a434
00000380: 9d26 7733 2878 7034 8159 1833 a3a1 9734
00000390: 9f63 5733 b4cd 8d34 2255 0a33 3e42 9e34
000003a0: d481 7f33 dba7 9634 b2a2 3a33 fabe ac34
000003b0: 5ff1 8e33 3cf0 6f34 5315 4833 2dc2 9b34
000003c0: ad12 9233 6e25 8334 a52c 7533 05ac a034
000003d0: 2d45 6133 406a 6d34 ce51 e132 b9c0 9a34
000003e0: d5d3 4533 0ef9 a934 e98d 4433 42b1 b434
000003f0: 66e1 7133 9b31 a034 7797 3233 31d8 e134

exp_avg f4 [12, 4]
-2.8463878e-06 -3.4518467e-07 -1.0113426e-06 4.420534e-06 -6.1742526e-07 -1.5385665e-06 2.290982e-06 -3.917186e-07
-1.6489388e-05 1.6551285e-05 -6.7047386e-06 8.9677515e-06 -1.9423029e-05 3.579179e-05 -8.98183e-06 -7.189194e-06
-3.3538794e-07 -5.4946923e-07 9.377835e-07 -2.4442184e-07 7.857555e-08 7.995079e-08 -2.200029e-07 2.783998e-08
1.0673707e-06 3.2736293e-06 -2.922489e-06 -2.9186515e-06 -3.0743174e-06 2.4754476e-07 -8.1457745e-07 1.7319156e-06
-7.228445e-05 -5.20302e-05 0.00019135031 -6.833866e-05 -0.00061221607 -0.00029542332 0.0008434339 7.454644e-05
0.0003087378 0.00017652613 -0.0005341968 5.0648367e-05 0.0010091247 0.00038432842 -0.0013082161 -9.474976e-05
00000000: 9204 3fb6 d251 b9b4 78bd 87b5 1954 9436
00000010: 24bd 25b5 be80 ceb5 c5be 1936 654d d2b4
00000020: b152 8ab7 9dd7 8a37 44f9 e0b6 3374 1637
00000030: a3ee a2b7 241f 1638 abb0 16b7 b53a f1b6
00000040: 5e0f b4b4 3d7f 13b5 febb 7b35 1539 83b4
00000050: 5ebd a833 69b1 ab33 f039 6cb4 c324 ef32
00000060: 9442 8f35 86b0 5b36 fb1f 44b6 0dde 43b6
00000070: 5f50 4eb6 4be6 8434 56a9 5ab5 2b74 e835
00000080: 6b97 97b8 003b 5ab8 35a5 4839 0a51 8fb8
00000090: 207d 20ba 0ce3 9ab9 e419 5d3a d155 9c38
000000a0: 16de a139 df19 3939 5709 0cba 456f 5438
000000b0: 9b44 843a b07f c939 7378 abba 64b4 c6b8

exp_avg_sq f4 [12, 4]
2.3390187e-10 1.9604372e-10 2.795699e-10 2.8676725e-10 2.9093979e-11 2.6214142e-11 5.0139837e-11 4.5850258e-11
5.1661644e-09 3.083863e-09 4.587301e-09 6.4395294e-09 9.252995e-09 4.844827e-09 1.0803967e-08 8.859174e-09
5.0517198e-11 2.3217794e-11 6.723221e-11 2.7934141e-11 8.682851e-12 3.3759649e-12 2.938373e-11 5.469433e-12
1.0959086e-09 8.632205e-10 7.040345e-10 2.9908678e-09 1.474585e-09 1.7044817e-09 1.051748e-09 5.2987708e-09
5.8313765e-07 1.3960398e-07 1.0917645e-06 4.8362768e-08 1.3908743e-06 3.8012612e-07 2.467735e-06 1.142287e-07
1.2875688e-06 2.892602e-07 2.753618e-06 9.1809085e-08 4.951988e-06 1.0258694e-06 9.001815e-06 2.151736e-07
00000000: c396 802f 678d 572f f7b1 992f e7a6 9d2f
00000010: d1e9 ff2d 0095 e62d 7084 5c2e cda6 492e
00000020: 1082 b131 e4eb 5331 549e 9d31 b342 dd31
00000030: 1af7 1e32 8d77 a631 599c 3932 0f33 1832
00000040: 4f2d 5e2e d339 cc2d 5fd8 932e 18b6 f52d
00000050: 16c0 182d fa8f 6d2c 243b 012e 4670 c02c
00000060: db9e 9630 be47 6d30 0686 4130 e787 4d31
00000070: 59aa ca30 1e43 ea30 188d 9030 7b10 b631
00000080: ea88 1c35 0de6 1534 be88 9235 6db7 4f33
00000090: 14ae ba35 2314 cc34 5d9b 2536 e44d f533
000000a0: 87d0 ac35 9f4b 9b34 ccca 3836 9428 c533
000000b0: 4129 a636 9bb0 8935 8006 1737 780a 6734

exp_avg f4 [4, 4]
0.00012251743 7.659282e-05 -1.1138509e-05 1.1417607e-05 0.0017136874 0.0009986588 0.00090940506 0.0007828733
0.00048570547 0.000365549 0.0002589064 0.00011648987 -0.0023420576 -0.0014304458 -0.0012754203 -0.0010363504
00000000: 0678 0039 75a0 a038 88df 3ab7 408e 3f37
00000010: cf9d e03a 6ee5 823a 2465 6e3a bd39 4d3a
00000020: 49a6 fe39 28a7 bf39 d4bd 8739 064c f438
00000030: 357d 19bb cc7d bbba 012c a7ba 26d6 87ba

exp_avg_sq f4 [4, 4]
1.5565109e-06 6.335081e-07 5.490844e-07 3.4791995e-07 1.1412197e-05 4.293659e-06 4.0257105e-06 2.768397e-06
1.1805848e-06 4.6999136e-07 5.4470314e-07 3.218665e-07 1.8780158e-05 7.053657e-06 6.602999e-06 4.479483e-06
00000000: 4fe9 d035 580e 2a35 cb64 1335 c1c9 ba34
00000010: 0377 3f37 4012 9036 9714 8736 b3c8 3936
00000020: 9674 9e35 1f53 fc34 b737 1235 ffcc ac34
00000030: 158a 9d37 74ae ec36 548f dd36 774e 9636

exp_avg f4 [16, 4]
1.0373483e-05 -0.00011391479 -4.648896e-05 0.00014590098 0.00028607974 0.00019465372 -0.0004345855 -4.580098e-05
0.0007627601 -8.168595e-05 -0.00085948326 0.00014010757 0.0008417264 0.00049569295 -0.00095220585 -0.00041053013
0.00015812108 0.00082360697 -4.4182234e-06 -0.0009725046 -0.00032364015 -0.00013511271 0.0003791963 9.1650654e-05
-0.0004916175 0.00017091467 0.0003197316 4.8844653e-05 8.469846e-05 5.896135e-05 -6.57285e-05 -8.287579e-05
9.9486424e-05 -1.9422083e-05 0.00015507729 -0.00025978306 0.00031412582 0.00010421197 -0.0003951718 -3.290245e-05
0.0008374179 -4.059571e-05 -0.0007160084 -0.00014061292 0.00066254433 5.0711893e-05 -0.00060239714 -0.00015279207
0.0005163943 0.00036342393 -0.0005273575 -0.0003690061 0.00028779265 4.6603516e-05 -0.00021121284 -0.00014416748
0.00023449228 8.029937e-05 -0.00020934579 -0.00011537918 0.0007741576 0.00015954782 -0.0010708574 0.00011650559
00000000: c509 2e37 8ae5 eeb8 24fd 42b8 fffc 1839
00000010: f9fc 9539 f61b 4c39 14d9 e3b9 6e1a 40b8
00000020: f7f3 473a cf4e abb8 f24e 61ba d7e9 1239
00000030: 4da7 5c3a 64f1 013a 749d 79ba 6c3c d7b9
00000040: 4ecd 2539 54e7 573a 4040 94b6 aeef 7eba
00000050: 3fae a9b9 0bad 0db9 dece c639 9234 c038
00000060: e4df 00ba 8f37 3339 a6a1 a739 8cde 4c38
00000070: 24a0 b138 444d 7738 b8d7 89b8 9acd adb8
00000080: 5ea3 d038 9bec a2b7 3e9c 2239 7e33 88b9
00000090: 41b1 a439 608c da38 102f cfb9 bd00 0ab8
000000a0: 2a86 5b3a 5045 2ab8 83b2 3bba 7e71 13b9
000000b0: 99ae 2d3a 7bb3 5438 30ea 1dba cf36 20b9
000000c0: a35e 073a ef89 be39 5d3e 0aba 2977 c1b9
000000d0: e0e2 9639 2578 4338 0479 5db9 aa2b 17b9
000000e0: 0be2 7539 6566 a838 d583 5bb9 baf7 f1b8
000000f0: d6f0 4a3a 4b4c 2739 035c 8cba 7654 f438

exp_avg_sq f4 [16, 4]
6.3911153e-07 1.2334147e-07 9.260198e-07 1.5780958e-07 1.8649197e-07 7.320725e-08 2.4382058e-07 7.6427106e-08
3.5725911e-06 1.4917532e-06 8.50638e-06 1.2888097e-06 1.485834e-06 2.9563748e-07 3.1983577e-06 5.5973004e-07
6.547664e-07 6.309666e-07 1.0209228e-06 6.0093276e-07 2.7224485e-07 1.9346477e-07 4.8944787e-07 1.4389975e-07
5.9189404e-07 5.308659e-07 9.0082546e-07 3.9840108e-07 5.26956e-07 1.28822e-07 9.585258e-07 1.6384968e-07
7.8780045e-07 1.3742965e-07 1.8493032e-06 2.3168933e-07 4.1666183e-07 1.2573616e-07 1.5929586e-06 2.606846e-07
3.1374932e-06 1.5361218e-06 5.313666e-06 1.3198469e-06 3.656182e-07 5.0453313e-08 4.4472796e-07 7.92118e-08
4.4211285e-07 9.377602e-08 5.5457105e-07 1.1146946e-07 3.3266957e-07 7.250468e-08 3.4723152e-07 1.0027256e-07
1.6963541e-07 6.4882215e-08 2.4986704e-07 7.042971e-08 3.6931746e-07 4.65701e-08 5.614334e-07 5.986617e-08
00000000: 698f 2b35 d86f 0434 9993 7835 5e72 2934
00000010: 863e 4834 1c36 9d33 72e6 8234 3f20 a433
00000020: a6c0 6f36 4038 c835 a0b6 0e37 2afb ac35
00000030: de6c c735 1bb8 9e34 5ea3 5636 5b40 1635
00000040: 34c3 2f35 b25f 2935 a406 8935 c94f 2135
00000050: 0c29 9234 31bb 4f34 9a62 0335 dd82 1a34
00000060: a6e2 1e35 d480 0e35 41d0 7135 d4e3 d534
00000070: 2474 0d35 5252 0a34 b2a6 8035 a8ee 2f34
00000080: 3c79 5335 6090 1334 9335 f835 47c6 7834
00000090: 91b1 df34 1802 0734 a4cd d535 38f4 8b34
000000a0: b98d 5236 be2c ce35 0b4c b236 9825 b135
000000b0: 2f4a c434 01b2 5833 f2c2 ee34 261b aa33
000000c0: 875b ed34 ea61 c933 d5dd 1435 fc60 ef33
000000d0: c299 b234 dfb3 9b33 236b ba34 6c55 d733
000000e0: 0725 3634 6055 8b33 7725 8634 243f 9733
000000f0: 9b46 c634 5e04 4833 69b5 1635 c68f 8033

exp_avg f4 [4, 16]
-6.776657e-05 -4.6340033e-06 -4.7060523e-05 -0.00051330635 6.938738e-05 -2.5806445e-05 0.00019413918 -0.00025962037
-0.00013859924 -3.427801e-05 0.0001936491 5.6159963e-05 0.0001025114 0.00014684492 7.477735e-05 -3.1865882e-05
0.00021764978 -0.00010783917 -0.00014326297 0.00054695224 0.00028166774 6.626154e-05 -0.000584521 0.00050584105
0.0006124152 -0.00064067286 -0.0007340677 -0.0004947878 -8.231452e-05 -0.0003076588 -0.00063566933 3.364984e-05
5.5016524e-05 -1.9268942e-05 -3.6358488e-05 0.00045012057 8.137049e-05 9.727468e-06 0.00010394178 0.00018551505
0.000106609645 -0.00013275743 4.7864338e-05 -8.542083e-05 1.91384e-05 -2.1277356e-06 -0.00011501471 1.8323271e-05
-0.00014432905 0.00017401685 8.6124244e-05 -0.0003790392 -0.00052041357 -6.8643974e-05 0.00010260972 -0.00035432866
-0.00072271284 0.00079657463 0.00019827852 0.00061180134 3.4714227e-05 0.00021952695 0.00070927304 4.4500033e-05
00000000: e61d 8eb8 c97d 9bb6 da62 45b8 688f 06ba
00000010: 1184 9138 eb7a d8b7 d791 4b39 a81d 88b9
00000020: f354 11b9 bcc5 0fb8 490e 4b39 4d8d 6b38
00000030: 64fb d638 62fa 1939 c9d1 9c38 bba7 05b8
00000040: eb38 6439 b727 e2b8 dc38 16b9 5861 0f3a
00000050: ceac 9339 e5f5 8a38 8a3a 19ba 6b9a 043a
00000060: 7d8a 203a d4f2 27ba 736e 40ba a6b4 01ba
00000070: 45a0 acb8 444d a1b9 0ca3 26ba 3e23 0d38
00000080: 8bc1 6638 bda3 a1b7 a17f 18b8 29fe eb39
00000090: 73a5 aa38 2833 2337 51fb d938 d186 4239
000000a0: 9e93 df38 cd34 0bb9 f1c1 4838 f523 b3b8
000000b0: 678b a037 38ca 0eb6 0d34 f1b8 edb4 9937
000000c0: 0957 17b9 4b78 3639 9a9d b438 c8b9 c6b9
000000d0: 5d6c 08ba f4f4 8fb8 2d30 d738 30c5 b9b9
000000e0: 7074 3dba 38d1 503a fce8 4f39 4b61 203a
000000f0: 1e9a 1138 d130 6639 82ee 393a 8ca5 3a38

exp_avg_sq f4 [4, 16]
1.7490572e-07 1.9997145e-08 1.3427059e-07 4.0154086e-06 1.4497367e-07 1.8530207e-08 2.1339429e-06 1.1107504e-06
8.569168e-07 4.7293548e-07 6.1610695e-07 3.9641353e-07 2.3716184e-07 4.0425186e-07 5.1211197e-07 6.1573665e-08
2.964002e-07 9.0612744e-08 4.3633918e-07 5.391359e-06 8.265535e-07 4.0231292e-08 6.887814e-06 1.5940713e-06
1.9869094e-06 1.3507515e-06 2.8297895e-06 1.1062469e-06 4.6006153e-07 6.770737e-07 1.1915564e-06 1.5222464e-07
5.543745e-08 1.5801094e-08 7.927821e-08 1.0307756e-06 1.7756047e-07 5.1190163e-09 7.12801e-07 2.7449713e-07
2.1295668e-07 2.3998305e-07 6.265747e-07 1.321967e-07 7.3466516e-08 8.998209e-08 1.430705e-07 3.2752677e-08
5.879667e-07 1.5355465e-07 6.827475e-07 1.2829763e-05 1.4782595e-06 8.937596e-08 1.1981566e-05 3.6983115e-06
4.497541e-06 2.8777808e-06 3.5218166e-06 2.3433706e-06 1.0296537e-06 1.6726686e-06 2.7109404e-06 2.3985825e-07
00000000: b8cd 3b34 30c6 ab32 052c 1034 19bc 8636
00000010: 0faa 1b34 5b2c 9f32 dc34 0f36 1815 9535
00000020: e006 6635 c2e7 fd34 8c62 2535 a9d2 d434
00000030: 8da6 7e34 f407 d934 1178 0935 7b3a 8433
00000040: ef20 9f34 e296 c233 0042 ea34 6ce7 b436
00000050: 53e0 5d35 c6ca 2c33 df1d e736 dff3 d535
00000060: d856 0536 784b b535 6ae7 3d36 5b7a 9435
00000070: 60fe f634 26c0 3535 91ed 9f35 3173 2334
00000080: 1f1a 6e33 f9ba 8732 a83f aa33 2e59 8a35
00000090: 73a7 3e34 58e3 af31 5057 3f35 995e 9334
000000a0: 16a9 6434 05d7 8034 e331 2835 f4f1 0d34
000000b0: a5c4 9d33 2d3c c133 eb9e 1934 f3ab 0c33
000000c0: c4d4 1d35 c8e0 2434 0d46 3735 6a3f 5737
000000d0: 9c68 c635 f4ee bf33 6f04 4937 8230 7836
000000e0: 95e9 9636 e61f 4136 5958 6c36 cd42 1d36
000000f0: a232 8a35 7580 e035 9aed 3536 dec5 8034

exp_avg f4 [12, 4]
-3.4835e-05 2.972043e-05 1.2289339e-05 -9.473414e-06 -1.3448184e-06 4.525738e-06 -6.375554e-06 3.9090587e-06
-2.4054301e-05 9.977964e-06 1.942807e-05 -4.3197615e-06 -4.659081e-06 4.7189824e-06 -1.1273056e-06 2.0530767e-06
1.0309737e-05 -7.103584e-06 5.118239e-07 -3.2764133e-06 -2.1867936e-06 -5.9316176e-07 -5.0798343e-07 3.7006255e-06
1.92771e-05 4.8108764e-06 -8.280956e-06 -1.7124292e-05 -1.1255939e-06 3.579643e-06 7.275785e-07 -4.2094207e-06
-0.0007170519 -0.00044806575 0.0013312942 -0.00018934181 -2.8627226e-06 -1.9207284e-05 1.1541646e-05 1.1171339e-05
0.00015587936 8.3009065e-05 -0.00026061028 2.4692343e-05 3.5994482e-05 4.1298135e-05 -6.2478786e-05 -1.644912e-05
00000000: cc1b 12b8 2350 f937 4f2e 4e37 01f0 1eb7
00000010: 9c7f b4b5 cbdb 9736 98ed d5b6 8f2a 8336
00000020: 38c8 c9b7 0767 2737 76f9 a237 78f2 90b6
00000030: 3355 9cb6 c057 9e36 ed4d 97b5 97c7 0936
00000040: fcf7 2c37 525b eeb6 4564 0935 5ae0 5bb6
00000050: d4c0 12b6 c439 1fb5 5b5c 08b5 4358 7836
00000060: 42b5 a137 1d6d a136 6fee 0ab7 23a6 8fb7
00000070: 1d13 97b5 cc39 7036 d04e 4335 a63e 8db6
00000080: 8af8 3bba 5eea eab9 d27e ae3a 0e8a 46b9
00000090: 331d 40b6 541f a1b7 fea2 4137 896c 3b37
000000a0: 8c73 2339 2715 ae38 85a2 88b9 6722 cf37
000000b0: c8f8 1638 8937 2d38 0b07 83b8 37fc 89b7

exp_avg_sq f4 [12, 4]
1.408578e-08 8.491851e-09 3.1961207e-08 2.15697e-08 4.8827326e-10 3.9404555e-10 1.1362872e-09 5.6153715e-10
3.750395e-09 2.0100603e-09 6.6144246e-09 5.0321316e-09 1.2725462e-09 1.0352476e-09 3.0027587e-09 1.7856043e-09
7.886758e-09 1.6129088e-09 3.4129988e-09 2.0991193e-08 9.494163e-10 2.4166313e-10 8.625961e-10 1.6127292e-09
2.379798e-09 6.679607e-10 1.6699274e-09 5.232006e-09 1.8308366e-09 5.481533e-10 1.0817693e-09 2.8504157e-09
2.3988239e-06 9.3190886e-07 7.603731e-06 2.8034296e-07 4.039588e-07 1.5482753e-07 1.1386709e-06 4.6062812e-08
6.8016226e-07 2.5538023e-07 2.0407033e-06 8.0848274e-08 3.1471174e-07 1.2411365e-07 9.2856067e-07 4.3480927e-08
00000000: eafd 7132 8ee3 1132 b845 0933 4648 b932
00000010: 2d37 0630 fba0 d82f 8d2b 9c30 aa5a 1a30
00000020: d3dc 8031 5b21 0a31 1845 e331 19e7 ac31
00000030: bde5 ae30 8948 8e30 1759 4e31 5e69 f530
00000040: 547e 0732 2fad dd30 1c8a 6a31 1f50 b432
00000050: 9e7c 8230 10db 842f ce1b 6d30 dda6 dd30
00000060: d989 2331 8e9b 3730 5983 e530 36c5 b331
00000070: d6a0 fb30 dcac 1630 60ad 9430 0be1 4331
00000080: 7bfb 2036 4a28 7a35 8d23 ff36 0b82 9634
00000090: addf d834 ab3e 2634 6fd4 9835 99d6 4533
000000a0: 6594 3635 311b 8934 04f3 0836 cf9e ad33
000000b0: a7f5 a834 1a44 0534 3442 7935 c9bf 3a33

exp_avg f4 [4, 4]
-7.526319e-05 0.00019607277 0.00029493237 -0.0002479614 -0.00061641907 0.0010192512 0.0012482535 -0.0015220433
-0.00038026395 0.000600064 0.0008104877 -0.0008946324 0.0010498103 -0.0016873532 -0.0021976116 0.0024949263
00000000: 9ed6 9db8 e298 4d39 27a1 9a39 d100 82b9
00000010: 2f97 21ba 6598 853a 709c a33a 4c7f c7ba
00000020: 2a5e c7b9 9d4d 1d3a e976 543a c485 6aba
00000030: ca99 893a 2e2a ddba ce05 10bb eb81 233b
