out-tss50/ckpt_iter_1000.pt (torch, 48135 bytes, 64 tensors)

transformer.wte.weight f4 [5, 4]
0	0xbe92c0f1	-0.28662828
1	0xbe9a06ab	-0.30083212
2	0x3eae4903	0.3404008
3	0x3e5c3127	0.21503125
4	0x3e407ae0	0.18796873
5	0x3e4e9b4a	0.20176426
6	0xbe1a7796	-0.15084681
7	0xbe22b0e6	-0.15887794
8	0x3e0a99c6	0.13535222
9	0x3df0aebd	0.11752079
10	0xbe18b8f8	-0.1491431
11	0xbe0fb689	-0.14034475
12	0x3e00a270	0.12561965
13	0x3e09e5de	0.13466594
14	0xbe2a8490	-0.16652131
15	0xbe05cfaf	-0.13067506
16	0x3e46ce31	0.19414593
17	0x3e3dd78c	0.18539256
18	0xbe4986ca	-0.19680324
19	0xbe324844	-0.1741038

transformer.wpe.weight f4 [256, 4]
0	0x3c834577	0.016024334
1	0xbb9d12ca	-0.0047934996
2	0xbcc95ca9	-0.024580317
3	0xbc01df40	-0.007926762
4	0x3d84cb2b	0.06484064
5	0x3ddd3d16	0.10802667
6	0xbd2d6075	-0.042328317
7	0xbdb2fe06	-0.087398574
8	0x3d785596	0.060628496
9	0x3daa4dec	0.08315644
10	0xbd146f2d	-0.036238838
11	0xbdaa7e22	-0.08324839
12	0x3d3f2e9e	0.046675317
13	0x3d5e9a2e	0.054346256
14	0xbd16c753	-0.036811184
15	0xbd32b9d6	-0.04363426
16	0x3cf108d4	0.029423155
17	0x3d2d739a	0.042346574
18	0xbcd5b530	-0.026087373
19	0xbd83836f	-0.06421553
20	0x3cc7ceaa	0.024390537
21	0x3d096aae	0.033549003
22	0x38b29cf1	8.516934e-05
23	0xbd19e2df	-0.037569877
24	0x3d345850	0.044029534
25	0x3d0a1194	0.03370817
26	0xbd234908	-0.03986457
27	0xbd6cf3b7	-0.057849612
28	0x3cafd3cd	0.0214633
29	0x3cd35e91	0.025801929
30	0xbb8a8b86	-0.0042280583
31	0xbd1aca27	-0.037790444
32	0x3d4cb69c	0.049978837
33	0x3c743d56	0.014907202
34	0x3be46aa5	0.006970721
35	0xbc8b30fc	-0.016991131
36	0x3c2ec4c1	0.010667027
37	0xbb55cb31	-0.0032622332
38	0xbcca8ebb	-0.024726262
39	0xbc0372db	-0.008022989
40	0x3d232806	0.03983309
41	0x3cbe83c7	0.023256196
42	0xbca80b8e	-0.020513322
43	0xbd1177a9	-0.035514507
44	0x3ca3c00b	0.019989034
45	0x3b223b5b	0.0024754617
46	0x3bcf7623	0.0063312217
47	0xbce3bd01	-0.027800085
48	0x3c9cbd32	0.019133184
49	0x3c68d317	0.014210484
50	0x3d26c34f	0.040713605
51	0xbd316027	-0.04330459
52	0x3ccb8e01	0.024847986
53	0x3c9b44fc	0.018953793
54	0xbcc0fa98	-0.023556992
55	0xbd18d3db	-0.037311416
56	0x3c8d8fb6	0.01728044
57	0x3bb1113a	0.005403665
58	0xbb9b7d9d	-0.004745199
59	0xbbdd95ef	-0.0067622582
60	0x3c5a5c1f	0.013327627
61	0x3ca9781c	0.020687155
62	0x3be485b4	0.0069739465
63	0xbca1c661	-0.019747915
64	0x3cfc595b	0.030804327
65	0x3c680ba8	0.014162935
66	0x3bff451b	0.0077902204
67	0xbcf3ab38	-0.02974473
68	0x3d208bc6	0.0391958
69	0x3cf31b16	0.029676002
70	0xbc12d4c1	-0.008961857
71	0xbd310f7c	-0.043227658
72	0x3cbb95ce	0.02289858
73	0x3d238325	0.03991999
74	0x3c0da871	0.008646117
75	0xbd4f4f4a	-0.050612725
76	0x3c1c0e95	0.009524961
77	0x3c9df1a3	0.01928026
78	0xbd6481b6	-0.055787764
79	0xbcca7684	-0.024714716
80	0x3bb284ad	0.005447945
81	0x3c475dc3	0.012168351
82	0x3b5072c7	0.0031806694
83	0xbd48b30d	-0.04899888
84	0x3ce86e13	0.0283728
85	0x3cbdbf51	0.023162516
86	0x3c17ea1c	0.009272125
87	0xbbefba62	-0.0073159197
88	0x3d1dfec9	0.03857306
89	0x3cfb3159	0.03066318
90	0x3c1fce25	0.0097537385
91	0xbd0c76e2	-0.034293063
92	0x3b877baf	0.0041346173
93	0x3b5504e7	0.0032504143
94	0xbc635b64	-0.01387677
95	0x3bc72c49	0.0060782772
96	0xb9eb9552	-0.00044933945
97	0x3ceca8c8	0.028889075
98	0xbc74b921	-0.014936716
99	0xbc5c65e6	-0.013452029
100	0x3bcca57c	0.006245313
101	0xbb67eb2f	-0.0035387983
102	0xbc3d0f92	-0.011539357
103	0x3c68c63a	0.014207417
104	0xbc71598f	-0.014730825
105	0x3c56c5a5	0.013108646
106	0x3b5986be	0.0033191885
107	0xbd2309c9	-0.039804254
108	0x3c980d7d	0.01856112
109	0xb9829a9e	-0.0002491073
110	0xbcd5086c	-0.026004992
111	0x3b054871	0.0020337368
112	0x3cd217ae	0.025646057
113	0x3c58819d	0.013214496
114	0x3c6f39f3	0.0146012185
115	0xbd0684bd	-0.032841433
116	0x3d10f54a	0.035390176
117	0x3c998e56	0.018744629
118	0xbc6ad835	-0.014333774
119	0xbd033e79	-0.032042
120	0x3d30cf2f	0.043166336
121	0x3be37eb4	0.0069425944
122	0xbc9e572b	-0.019328674
123	0xbd0b92c8	-0.03407553
124	0x3d04c43d	0.03241371
125	0xbccc282d	-0.024921501
126	0xbcb113e1	-0.021615924
127	0xbd306565	-0.043065447
128	0x3c205f4a	0.009788344
129	0x3cb95531	0.02262363
130	0xbb2a43bf	-0.0025980321
131	0x3c6185b5	0.013764788
132	0x3c950f20	0.018195689
133	0xbaeb05dc	-0.0017930823
134	0xbbaec8d7	-0.0053340006
135	0xbcb36a71	-0.021901341
136	0x3ca1060b	0.019656202
137	0x3c0d6e98	0.008632325
138	0xbc4998c0	-0.012304485
139	0xbd3cbc08	-0.046077758
140	0x3cbb8904	0.022892483
141	0xbb48c60d	-0.0030635626
142	0xbcaf21ec	-0.02137848
143	0xbb4a3e22	-0.0030859788
144	0x3ba6514c	0.0050756093
145	0x3c83fec3	0.01611269
146	0xbc22d799	-0.009939098
147	0x3c4d4856	0.012529453
148	0x3b1c5d10	0.002385918
149	0x3cf7b420	0.030237257
150	0x3bb9f2f7	0.0056747156
151	0xbbe22c8c	-0.006902283
152	0x3cd776b3	0.026301717
153	0xbbb41ad3	-0.0054963618
154	0xbd1d376f	-0.038382944
155	0x3c0bd59f	0.008534818
156	0x3bbdbc6a	0.005790283
157	0xbc80a5b7	-0.015704019
158	0xbcde7709	-0.02715637
159	0x3ba3b249	0.0049956185
160	0x3c9cc782	0.019138101
161	0x3d567dc3	0.05236603
162	0x3c9811b1	0.018563123
163	0xbcd26b22	-0.02568585
164	0xbc9e432a	-0.019319136
165	0x3cc7ecda	0.024404932
166	0x3cd851d5	0.026406208
167	0xbcfe7678	-0.03106235
168	0x3d1afa81	0.037836555
169	0xbc4eb067	-0.0126153
170	0xbce3af33	-0.027793502
171	0xbcec0eb0	-0.028815597
172	0x3b975a7d	0.0046189413
173	0x3cb01a4b	0.021496912
174	0xbcfe7907	-0.03106357
175	0xbb322835	-0.002718461
176	0xbb9bcc69	-0.004754592
177	0x3bb1659b	0.0054137236
178	0xbc972af1	-0.018453093
179	0xbba3ff4d	-0.0050047995
180	0x3c251bfa	0.010077471
181	0xbb6df9d6	-0.0036312244
182	0xbd05508c	-0.03254752
183	0xbd1021ac	-0.035188362
184	0x3b896e5e	0.004194065
185	0x3d51e4ae	0.051243477
186	0x3af1fead	0.001846274
187	0xbd00f8f3	-0.031487416
188	0x3c7c7964	0.015409801
189	0xba0567a2	-0.000508899
190	0x3bce7690	0.006300755
191	0x3cef58e8	0.029217198
192	0x3d2091c5	0.039201517
193	0x3c9149f7	0.017735464
194	0xbc9702e3	-0.018433994
195	0x3b19a6d2	0.002344538
196	0x3c1b6aa8	0.009485878
197	0x3d415423	0.04719938
198	0x3c37b70d	0.011213076
199	0xbcc9dbf6	-0.024641018
200	0x3bf8f77d	0.0075978623
201	0xbb822edc	-0.003972871
202	0x39983000	0.00029027462
203	0xbc4527d0	-0.012033418
204	0x3c5ddd3c	0.013541516
205	0x3d263e73	0.0405869
206	0xbc16fa15	-0.009214898
207	0xbca6b6de	-0.02035087
208	0x3cc7790c	0.024349712
209	0x3c87c8d2	0.01657525
210	0xbcfeafdb	-0.031089714
211	0xbcce2565	-0.025164315
212	0x3d02ee6f	0.03196567
213	0x3ca814ba	0.020517696
214	0xbc79b5d7	-0.015241108
215	0x3c97be5d	0.01852339
216	0x3c9b4a0e	0.01895621
217	0xbb325826	-0.0027213185
218	0xbc873b34	-0.016507722
219	0xbc32ea35	-0.010920097
220	0x3ce2261f	0.027606068
221	0x3a82f9d1	0.0009992664
222	0xbcd2d5e4	-0.025736757
223	0xbcb5cad0	-0.022191435
224	0x3cbb87d8	0.022891924
225	0xbb0fc4d5	-0.002193739
226	0xbc2e5aeb	-0.010641794
227	0x3c48f492	0.012265341
228	0x3cf5809b	0.02996855
229	0x3cf82499	0.030290889
230	0xbc7572f5	-0.014981021
231	0xbc9edcae	-0.019392338
232	0x3bff8a50	0.0077984706
233	0xbc46424e	-0.012100769
234	0xbbc7de58	-0.0060995035
235	0xbccdc70d	-0.025119329
236	0x3c11f215	0.0089078145
237	0x3c41e4e8	0.011834361
238	0xbcbc6d8d	-0.023001457
239	0x3c38253d	0.011239347
240	0x3afac848	0.0019133175
241	0x3cf5aa2f	0.029988376
242	0xbc3e9176	-0.01163136
243	0xbc5f867f	-0.013642906
244	0x3d0be520	0.034154058
245	0xbb4ea70a	-0.0031532669
246	0xbc434ebd	-0.011920628
247	0xbd3c9e27	-0.046049263
248	0x3ccc8035	0.024963478
249	0x3a721166	0.000923416
250	0x3cad699a	0.021168519
251	0xbbced8d9	-0.0063124713
252	0xbc160c73	-0.009158242
253	0xb99b55b2	-0.00029627752
254	0xbc949593	-0.018137729
255	0xbbcf8aa6	-0.006333667

transformer.h.0.ln_1.weight f4 [4]
0	0x3f99e5e7	1.2023286
1	0x3f95ac9e	1.1693304
2	0x3f97b00b	1.1850599
3	0x3f94d0a7	1.1626176

transformer.h.0.attn.c_attn.weight f4 [12, 4]
0	0xbde9973b	-0.11405798
1	0xbe178558	-0.1479696
2	0x3de6fb2b	0.11278375
3	0x3df0ca34	0.11757317
4	0xbd3cdf41	-0.04611135
5	0xbd906c9d	-0.07051966
6	0x3d8b330e	0.06796847
7	0x3cd08a06	0.02545644
8	0x3dbdb8c2	0.092637554
9	0x3e031c59	0.12803783
10	0xbe23125d	-0.15924974
11	0xbd098f78	-0.033584088
12	0x3dbce52e	0.092234
13	0x3e184ba3	0.14872603
14	0xbe104c31	-0.14091565
15	0xbda564e5	-0.08075885
16	0x3dd7956e	0.10526548
17	0x3e058e4a	0.1304256
18	0xbe11375c	-0.14181274
19	0xbdd98217	-0.10620516
20	0x3e0dae80	0.13836098
21	0x3c80a7ae	0.015704956
22	0xbd3de2d6	-0.046358906
23	0xbdb4272f	-0.08796536
24	0xbe03d6a5	-0.12874849
25	0xbd148cae	-0.036266975
26	0x3d46d8fc	0.048546776
27	0x3e1e482c	0.15457219
28	0xbdef4581	-0.11683179
29	0xbe32ebd3	-0.17472772
30	0x3e0c9223	0.13727622
31	0x3df3c5be	0.11902951
32	0x3e002bd0	0.12516713
33	0x3e00f786	0.12594423
34	0xbe376a5a	-0.17911664
35	0xbe0a1dc0	-0.13487911
36	0x3d9d3111	0.07675374
37	0x3d58ce0f	0.052930888
38	0xbdf42892	-0.11921801
39	0xbdbe538c	-0.09293279
40	0x3df9c24e	0.12195264
41	0x3db789a8	0.08961803
42	0xbdaa5a8d	-0.083180524
43	0xbdf4cdec	-0.11953339
44	0x3e0d7b40	0.13816547
45	0x3e255ea3	0.16149382
46	0xbe43f6c4	-0.19137102
47	0xbe1f5fe5	-0.15563925

transformer.h.0.attn.c_proj.weight f4 [4, 4]
0	0x3df1a01f	0.11798119
1	0x3d9e0cfc	0.0771732
2	0x3dd437c6	0.103622004
3	0x3e187ddb	0.1489176
4	0x3e018432	0.12648085
5	0x3d9e0678	0.077160776
6	0x3dc9975d	0.098433234
7	0x3e323cb5	0.1740597
8	0xbe0163e4	-0.12635761
9	0xbd3b0f43	-0.04566885
10	0xbdad6d0b	-0.08468064
11	0xbe1edea7	-0.15514623
12	0xbdbccea0	-0.09219098
13	0xbd2e727f	-0.04258966
14	0xbd4fcba8	-0.05073133
15	0xbdf94a20	-0.12172341

transformer.h.0.ln_2.weight f4 [4]
0	0x3f9a0290	1.2032032
1	0x3f9ed607	1.2409066
2	0x3fa33ee0	1.2753563
3	0x3f9b41c1	1.2129441

transformer.h.0.mlp.c_fc.weight f4 [16, 4]
0	0x3e032b4a	0.12809482
1	0xbd95d2f1	-0.073156245
2	0x3c991905	0.018688688
3	0xbdeb90ac	-0.11502203
4	0x3dff36b0	0.12461603
5	0x3c3a7843	0.011381212
6	0x3dda0f7c	0.10647485
7	0xbe378a53	-0.1792386
8	0xbd85fc74	-0.06542292
9	0x3dc75baa	0.097342804
10	0xbd07750b	-0.033070605
11	0x3d998217	0.07495516
12	0x3df42fe7	0.11923199
13	0xbdeb7537	-0.11496966
14	0xbda6ba00	-0.081409454
15	0x3d11d9be	0.035608046
16	0xbd00791c	-0.0313655
17	0x3da40a0d	0.080097295
18	0xbd98e978	-0.07466406
19	0x3d32f3c1	0.043689493
20	0xbd648d6f	-0.055798944
21	0x3e21dbee	0.15806553
22	0xbe1b739c	-0.1518082
23	0x3d890db2	0.06692065
24	0xbe509242	-0.20368293
25	0xbe629d3c	-0.22130293
26	0x3e55dc0e	0.20884725
27	0x3e087f24	0.1332975
28	0x3e1a45ca	0.15065685
29	0xbdad6d03	-0.08468058
30	0xbcd7c69d	-0.026339823
31	0xbd6b15b6	-0.057393752
32	0xbdb5f3e7	-0.08884411
33	0x3df314db	0.11869212
34	0xbdf45045	-0.11929373
35	0x3d73d05d	0.059524883
36	0xbde5be54	-0.11217943
37	0x3d89f057	0.06735294
38	0x3d444b04	0.047923103
39	0x3cab08d7	0.020878239
40	0xbddc5ec6	-0.10760264
41	0x3e41a63e	0.18911073
42	0x3dbc1543	0.09183743
43	0xbdd7c399	-0.10535354
44	0x3d7758c6	0.060387395
45	0xbd81653a	-0.063181356
46	0x3d9e02d0	0.0771538
47	0xbd0f7a2e	-0.03502863
48	0x3ddfe178	0.109316766
49	0xbdf5af64	-0.11996344
50	0x3d4c7b29	0.049922142
51	0xbd95f435	-0.073219694
52	0x3e0303d6	0.12794432
53	0xbd0800ab	-0.033203762
54	0x3dcd039e	0.100104555
55	0xbdcf6396	-0.101264164
56	0xba265a02	-0.00063458097
57	0x3cb8b519	0.022547292
58	0x3c9ccdf0	0.019141167
59	0x3c566aac	0.013086956
60	0x3e0da3bb	0.1383199
61	0xbd489780	-0.048972607
62	0x3cb1565e	0.021647628
63	0xbdb5b48d	-0.08872328

transformer.h.0.mlp.c_proj.weight f4 [4, 16]
0	0xbdc84a02	-0.09779741
1	0xbd080234	-0.033205226
2	0x3da23e9c	0.07922098
3	0xbdd06a73	-0.101765536
4	0x3d279153	0.040910076
5	0x3d70048d	0.05859809
6	0x3e22ea2e	0.15909645
7	0xbdd3ccaf	-0.10341775
8	0x3d7760ea	0.06039516
9	0x3ddec0c8	0.10876614
10	0x3e0fa513	0.14027815
11	0xbd0b7a9b	-0.034052473
12	0xbd81ed42	-0.063440815
13	0xbd0bb795	-0.034110624
14	0x3c383852	0.011243897
15	0xbd8e65f9	-0.069530435
16	0x3d9b1cc1	0.07573844
17	0x3dcee311	0.10101903
18	0xbd271761	-0.04079378
19	0x3d788a79	0.060678933
20	0xbd9b50af	-0.075837485
21	0xbe12b519	-0.14326896
22	0x3e1a05b2	0.15041235
23	0x3dcad36d	0.099036075
24	0xbd792c5d	-0.060833324
25	0xbb5c2171	-0.0033589269
26	0xbd992e2c	-0.0747951
27	0x3d402fdc	0.046920642
28	0x3d899cbe	0.06719349
29	0x3d63f7c9	0.05565623
30	0xbb2e99a6	-0.0026641875
31	0x3d6e404c	0.058166787
32	0xbdacc150	-0.08435309
33	0xbe231a75	-0.15928061
34	0x3d48a2b2	0.048983283
35	0x3dcb68dd	0.099321105
36	0x3d5c8f0a	0.05384735
37	0x3dced493	0.10099139
38	0xbdf9c6b6	-0.12196104
39	0xbba4af5e	-0.005025788
40	0x3d4a4018	0.04937753
41	0xbd09448d	-0.03351264
42	0xbe0ca956	-0.13736472
43	0xbd38ae40	-0.045088053
44	0xbd79240e	-0.0608254
45	0xbd7f6528	-0.06235233
46	0xbb4914be	-0.003068253
47	0xbd322681	-0.04349375
48	0x3d12c9e3	0.035837065
49	0x3db6e53a	0.0893044
50	0xbd1dbaac	-0.038508102
51	0xbd28f5eb	-0.04125015
52	0xbc7d713d	-0.015468893
53	0xbce6674d	-0.02812543
54	0xbe177c72	-0.14793566
55	0x3c79d731	0.01524906
56	0xbd1d5cac	-0.038418457
57	0xbcfe7fd9	-0.031066822
58	0x3c82cd55	0.01596705
59	0xbc2349d4	-0.009966332
60	0xbc0bae97	-0.008525512
61	0x3caff1f8	0.021477684
62	0x3bba4192	0.005684086
63	0x3c67b928	0.014143266

transformer.h.1.ln_1.weight f4 [4]
0	0x3f94c30e	1.1622026
1	0x3f933faf	1.150381
2	0x3f9505ba	1.1642373
3	0x3f8f78e4	1.1208768

transformer.h.1.attn.c_attn.weight f4 [12, 4]
0	0xbdd3ccdf	-0.103418104
1	0xbdc30484	-0.09522346
2	0x3e16f4c6	0.14741811
3	0x3d76ad6b	0.060223978
4	0xbe1083a7	-0.14112721
5	0xbddc595d	-0.10759232
6	0x3df665fa	0.12031169
7	0x3e05d5ba	0.13069811
8	0xbe1534b0	-0.1457088
9	0xbddad64b	-0.106854044
10	0x3e124f41	0.14288045
11	0x3e1b0041	0.15136816
12	0xbdf9d71e	-0.121992335
13	0xbdd1e4c9	-0.102487154
14	0x3dee26a1	0.11628462
15	0x3e0e9413	0.13923673
16	0x3e1b3ed4	0.15160686
17	0x3dc72354	0.09723535
18	0xbdc2e22c	-0.09515795
19	0xbe30b3e4	-0.17256123
20	0x3dedee0a	0.11617668
21	0x3dc86007	0.09783941
22	0xbe0d6027	-0.1380621
23	0xbdfe7cac	-0.12426123
24	0x3e0bd7d0	0.13656545
25	0x3de6ac46	0.11263327
26	0xbe0d0bfe	-0.13774106
27	0xbe200e83	-0.15630536
28	0x3e0368d6	0.1283296
29	0x3dcc1715	0.0996534
30	0xbe060bfd	-0.1309051
31	0xbdd27fd7	-0.1027829
32	0xbded24a6	-0.11579256
33	0xbdbd6ee6	-0.09249668
34	0x3deaecb5	0.114709295
35	0x3dbf0a1b	0.09328099
36	0x3df022d9	0.11725397
37	0x3def9d4f	0.11699926
38	0xbddfde1b	-0.10931035
39	0xbd87016d	-0.06592069
40	0x3decf7d5	0.11570708
41	0x3e04c56c	0.12965935
42	0xbe1742c5	-0.14771564
43	0xbdc2aa06	-0.09505086
44	0xbda75ab1	-0.08171595
45	0xbe09519f	-0.13410042
46	0x3e230c3c	0.15922636
47	0x3df9cdaa	0.121974304

transformer.h.1.attn.c_proj.weight f4 [4, 4]
0	0xbdcdecb9	-0.10054917
1	0x3dca1c90	0.09868729
2	0x3dd07cc7	0.101800494
3	0xbd9fb6c8	-0.07798535
4	0xbdb06b46	-0.08614211
5	0x3de7cc01	0.113182075
6	0x3dab7890	0.08372605
7	0xbda01d80	-0.07818127
8	0x3dfc4153	0.12317147
9	0xbde29c24	-0.11064938
10	0xbdf63a58	-0.12022847
11	0x3ddb0133	0.10693588
12	0x3dbed0e7	0.09317189
13	0xbdb9dd9d	-0.090754725
14	0xbdad9ed8	-0.08477563
15	0x3d9e2f27	0.07723837

transformer.h.1.ln_2.weight f4 [4]
0	0x3f921710	1.1413288
1	0x3f9ab198	1.2085447
2	0x3f96153f	1.1725234
3	0x3f9589e5	1.1682707

transformer.h.1.mlp.c_fc.weight f4 [16, 4]
0	0x3e068ae7	0.13138925
1	0xbdd7396f	-0.105090015
2	0xbdd2641c	-0.102730006
3	0x3dabb9e6	0.08385067
4	0x3e120b31	0.14262082
5	0xbca35216	-0.019936603
6	0x3af3e844	0.0018608649
7	0xbdebb2e1	-0.11508728
8	0x3bef47a2	0.0073022405
9	0x3e13055e	0.14357516
10	0x3d38fb1d	0.045161355
11	0xbe0d3e1f	-0.13793229
12	0xbce14fdc	-0.0275039
13	0x3e4f0dbd	0.20220084
14	0x3d5dc46a	0.054142393
15	0xbe1e101b	-0.15435831
16	0x3e0c4791	0.13699175
17	0xbe07a13e	-0.13245103
18	0xbda6baff	-0.081411354
19	0xbcced262	-0.025246803
20	0xbe02c8ac	-0.12771863
21	0x3e31662c	0.17324132
22	0xbd36ba66	-0.044611357
23	0x3bcbc39b	0.0062183863
24	0xbe048f0a	-0.1294519
25	0x3e13d02a	0.14434877
26	0xbd8c58fd	-0.06852911
27	0x3d43cbdc	0.047801837
28	0x3db0bb9f	0.08629536
29	0x3d5514d6	0.052021824
30	0x3d8382a6	0.064214036
31	0xbe090b0d	-0.13383122
32	0x3dc5d056	0.096588776
33	0xbda9682d	-0.08271823
34	0xbdf3b5df	-0.118999235
35	0x3df30b67	0.11867409
36	0x3e17c6a8	0.14821875
37	0xbcfc26d4	-0.030780233
38	0x3c6593fd	0.014012334
39	0xbe0578ff	-0.13034438
40	0x3db99995	0.090624966
41	0xbd01365d	-0.031545985
42	0x3d0177c6	0.031608365
43	0xbd86c0c8	-0.06579739
44	0x3d018023	0.03161634
45	0x3da4ba9e	0.08043407
46	0x3d5ebda3	0.05438007
47	0xbdfb2c2a	-0.12264283
48	0x3d2d55a7	0.042318013
49	0xbdbcfed2	-0.092282906
50	0xbd347bb2	-0.044063278
51	0x3d3e761f	0.046499368
52	0x3d8c804c	0.06860408
53	0xbda935f7	-0.08262246
54	0x3d8e818c	0.06958303
55	0xbd94f2e4	-0.0727289
56	0xbd221912	-0.03957469
57	0x3c8b9c32	0.017042253
58	0xbcf55ec1	-0.029952409
59	0x3d609b91	0.05483586
60	0xbdcef977	-0.101061754
61	0x3e066fff	0.1312866
62	0xbcba2caa	-0.022726376
63	0xbd326f5d	-0.043563236

transformer.h.1.mlp.c_proj.weight f4 [4, 16]
0	0xbdc150ff	-0.09439277
1	0xbd4f7ad4	-0.050654247
2	0x3db9efa2	0.090789095
3	0x3df206c2	0.11817695
4	0xbdc5b07a	-0.09652801
5	0x3df8e2d7	0.12152641
6	0x3e0a102d	0.13482733
7	0x3ca2203a	0.019790757
8	0xbd4ec957	-0.05048498
9	0xbd9523d8	-0.07282227
10	0xbd06a536	-0.0328724
11	0x3d1eeffe	0.038803093
12	0xbd76c8ff	-0.06025028
13	0xbc92dd7a	-0.017927874
14	0x3c587ff5	0.013214101
15	0x3e0fa8c1	0.14029218
16	0x3de6fc6f	0.11278617
17	0x3d5f2f50	0.05448848
18	0xbca05421	-0.019571366
19	0xbcc22641	-0.023699882
20	0x3dbb22f8	0.09137529
21	0xbd1ab9ac	-0.037774727
22	0xbd3d4cb8	-0.046215743
23	0x3d6fe363	0.058566462
24	0x3d884a40	0.06654787
25	0x3d8317e1	0.06401039
26	0x3d66f9a1	0.05639041
27	0x3d0fee3c	0.035139307
28	0x3d4cf2fb	0.05003641
29	0x3da7dca6	0.08196382
30	0xbd158a74	-0.036508992
31	0xbdbab586	-0.09116654
32	0x3dc91603	0.098186515
33	0xbd9a43a7	-0.07532435
34	0xbe297400	-0.16548157
35	0xbe0fa3a8	-0.14027274
36	0xbb9c07ef	-0.004761688
37	0xbb659c33	-0.003503573
38	0x3cc48ff3	0.023994422
39	0xbe22a3b3	-0.15882759
40	0x3da833d1	0.08213008
41	0xbddaca58	-0.10683125
42	0xbd6f08d5	-0.058358032
43	0xbd9ed495	-0.077553906
44	0x3d6adb57	0.057338085
45	0xbd8034bd	-0.06260059
46	0x3cfed63b	0.031108012
47	0xbd493d52	-0.049130745
48	0xbda439c7	-0.08018833
49	0x3ce72328	0.028215006
50	0x3d811fdf	0.06304907
51	0x3d433340	0.047656298
52	0xbd140434	-0.03613682
53	0xbb649815	-0.0034880687
54	0xbcc417b8	-0.023937091
55	0x3db0a8da	0.08625956
56	0xbda6cd04	-0.081445724
57	0x3d323a72	0.04351277
58	0x3c9051d2	0.01761714
59	0x3cf09e48	0.02937235
60	0xbd4f5ffe	-0.050628655
61	0xbc0194c8	-0.007909007
62	0xbcee580b	-0.029094717
63	0x3be35133	0.00693717

transformer.h.2.ln_1.weight f4 [4]
0	0x3f954404	1.1661382
1	0x3f948038	1.1601629
2	0x3f972303	1.180756
3	0x3f8cd84d	1.100351

transformer.h.2.attn.c_attn.weight f4 [12, 4]
0	0x3d37b751	0.04485256
1	0xbd17e5ca	-0.03708438
2	0x3d26172d	0.040549446
3	0xbda339eb	-0.07970031
4	0xbdd0ed81	-0.1020155
5	0xbde4779d	-0.11155627
6	0x3df1e263	0.11810758
7	0x3d80ad16	0.062830135
8	0xbdf7855c	-0.12085983
9	0xbde6819b	-0.11255189
10	0x3e084597	0.13307796
11	0x3d833e04	0.06408313
12	0x3dd400f4	0.10351744
13	0x3dca9baa	0.09892972
14	0xbe2ad184	-0.16681486
15	0xbd42256f	-0.04739898
16	0x3c6ceb63	0.014460417
17	0xbca4e699	-0.020129489
18	0xbc082449	-0.008309432
19	0x3d0a1b00	0.033717155
20	0x3e02076c	0.12698144
21	0x3dc12418	0.094307125
22	0xbe0a0397	-0.13477932
23	0xbdd32af0	-0.10310924
24	0x3dc5bd12	0.09655203
25	0x3daff602	0.08591844
26	0xbded9bb0	-0.11601961
27	0xbe0c96aa	-0.13729349
28	0xbe247bfb	-0.1606292
29	0xbd9f8340	-0.07788706
30	0x3daadcf5	0.083429255
31	0x3e184757	0.14870964
32	0xbb0418bd	-0.0020156347
33	0xbcaa7c6b	-0.02081128
34	0x3c008f67	0.00784669
35	0x3c915b78	0.017743811
36	0xbe086a9d	-0.1332192
37	0xbe10af75	-0.14129432
38	0x3e1c181e	0.15243575
39	0x3d7db8b9	0.061943743
40	0x3e083d45	0.13304622
41	0x3e0ce6a7	0.13759862
42	0xbe2e8350	-0.17042279
43	0xbdb99092	-0.09060778
44	0x3dfd03ca	0.12354238
45	0x3deeaa62	0.11653592
46	0xbe01dfc9	-0.12683024
47	0xbdfb6ec0	-0.12276983

transformer.h.2.attn.c_proj.weight f4 [4, 4]
0	0xbcd1edcb	-0.025626084
1	0xbdc6bc41	-0.09703875
2	0x3dc80e3e	0.097683415
3	0x3dd7d853	0.105393074
4	0x3b6382c9	0.0034715405
5	0xbdca784a	-0.098862246
6	0x3d9e3d3b	0.077265225
7	0x3ddcbc16	0.10778062
8	0x3c8605ee	0.01636025
9	0x3dbedb0e	0.09319125
10	0xbdb308be	-0.08741902
11	0xbdc94eaf	-0.09829461
12	0x3c2395c7	0.00998444
13	0x3dcad18b	0.099032484
14	0xbdd90f91	-0.10598672
15	0xbdc3582f	-0.09538304

transformer.h.2.ln_2.weight f4 [4]
0	0x3f95e62d	1.1710869
1	0x3f938a64	1.1526608
2	0x3f8ea973	1.1145462
3	0x3f973e68	1.181592

transformer.h.2.mlp.c_fc.weight f4 [16, 4]
0	0xbcf824ef	-0.030291049
1	0x3be52658	0.0069930963
2	0x3c83fbe2	0.016111318
3	0xbceecde2	-0.029150907
4	0xbd293946	-0.041314386
5	0xbd39701e	-0.04527294
6	0xbc467933	-0.012113857
7	0x3d796b3f	0.060893293
8	0x3de37438	0.11106151
9	0x3d96511b	0.073396884
10	0xbc88bbc8	-0.016691104
11	0xbdee93c1	-0.116492756
12	0xbd7b62d9	-0.061373565
13	0xbcffbb2d	-0.031217182
14	0x3b31f56a	0.0027154335
15	0x3db2c6c6	0.08729319
16	0xbd9889a2	-0.074481264
17	0x3cba1674	0.022715785
18	0xbb4ba60a	-0.0031074309
19	0x3be256ba	0.0069073113
20	0xbda203b8	-0.079108655
21	0xbd431acc	-0.047632977
22	0xbcc9695d	-0.024586374
23	0x3da1e780	0.07905483
24	0x3dee232e	0.11627804
25	0xbd5259a5	-0.051355023
26	0x3dd8497c	0.10560891
27	0xbe50c36b	-0.20387046
28	0xbdace39c	-0.084418505
29	0x3c8ef23f	0.017449496
30	0xbda14871	-0.07875145
31	0x3dae380f	0.08506786
32	0xbdb13ada	-0.08653803
33	0xbd92bc4f	-0.07164823
34	0xbd208946	-0.039193414
35	0x3d427753	0.047477078
36	0xbd9d880f	-0.07691967
37	0x3c73efc0	0.014888704
38	0xbbf8d3e7	-0.00759362
39	0x3d5a9ee9	0.053374205
40	0x3d1c3dae	0.03814476
41	0x3d05ffec	0.03271477
42	0x3d9cdaf3	0.07658949
43	0xbe0ca2ff	-0.13734053
44	0xbd7f5f8b	-0.062346976
45	0xbd48a747	-0.048987653
46	0xbd2498f2	-0.040184923
47	0x3d739f6f	0.05947822
48	0x3d65ef9d	0.056136716
49	0x3de6dae7	0.11272221
50	0x3ce66a74	0.028126933
51	0xbdb99762	-0.09062077
52	0x3e5cde31	0.21569134
53	0xbe21cccf	-0.15800785
54	0xbd90e290	-0.07074463
55	0xbdbdcc12	-0.09267439
56	0xbd6a8ccd	-0.057263184
57	0x3e442959	0.19156398
58	0xbe53855d	-0.20656343
59	0x3d9cea41	0.07661868
60	0x3cd73508	0.026270404
61	0x3d97f1e3	0.07419183
62	0x3da5302e	0.0806583
63	0xbe0455b5	-0.1292332

transformer.h.2.mlp.c_proj.weight f4 [4, 16]
0	0x3c9a938c	0.018869184
1	0xbd11f283	-0.035631668
2	0x3d325585	0.04353859
3	0xbc4f1376	-0.012638917
4	0x3d8638d3	0.06553807
5	0xbc95d1b9	-0.01828848
6	0xbc9779a9	-0.01849063
7	0x3cc9c8f0	0.024631947
8	0xbd118b50	-0.03553325
9	0x3d7c9b6b	0.061671656
10	0x3d38cdd1	0.045118157
11	0xbce2defa	-0.027694214
12	0x3d9d5052	0.076813355
13	0xbdd554b4	-0.104165465
14	0x3de6aae7	0.11263066
15	0x3da9a1b6	0.08282797
16	0xbc0923f6	-0.00837039
17	0xbd291af5	-0.041285474
18	0x3d82f2e6	0.063939855
19	0xbca836a8	-0.020533875
20	0xbd9c913e	-0.0764489
21	0xbcded5e8	-0.027201608
22	0x3de115b2	0.10990466
23	0xbd65912c	-0.05604665
24	0xbd29fbbc	-0.04149984
25	0xbd31bfcb	-0.0433958
26	0x3d5e2070	0.054230154
27	0xbd2654a9	-0.040608082
28	0x3d7bd6e0	0.061484218
29	0x3db8d279	0.090245195
30	0xbcc3b9f6	-0.023892384
31	0x3d5ae878	0.053444356
32	0xbc6b0bbb	-0.0143460585
33	0x3d44aff9	0.048019383
34	0xbdd88f70	-0.105742335
35	0x3d15e79f	0.036597844
36	0x3d104ed6	0.035231434
37	0x3d457548	0.04820755
38	0xbe3e9d34	-0.18614656
39	0x3ddee5be	0.108836636
40	0x3d66465f	0.056219455
41	0x3d9deaa1	0.077107675
42	0xbda220b8	-0.07916397
43	0x3d92e7e3	0.07173135
44	0xbda7634f	-0.081732385
45	0xbd8d5b32	-0.0690216
46	0x3d5adb0e	0.053431563
47	0xbdc4b16a	-0.096041515
48	0x3c3cd278	0.011524789
49	0xbc57b766	-0.013166284
50	0xbd17fa99	-0.037104223
51	0xbb0e669e	-0.0021728645
52	0x3b8d69f3	0.0043156086
53	0xbc9718f8	-0.018444523
54	0x3d87e5ed	0.06635652
55	0xbda864a8	-0.08222324
56	0xbc9c9dd7	-0.019118233
57	0xbc220879	-0.009889715
58	0x3d2a5963	0.041589152
59	0xbd0bbd71	-0.034116212
60	0xbc303a53	-0.010756093
61	0xbd02e886	-0.031960033
62	0xbdded17e	-0.10879801
63	0x3d4bb9e0	0.04973781

transformer.ln_f.weight f4 [4]
0	0x3fb3f285	1.4058386
1	0x3fb3c02b	1.404302
2	0x3fb86a99	1.4407531
3	0x3fb01c0a	1.3758557

lm_head.weight f4 [5, 4]
0	0xbe92c0f1	-0.28662828
1	0xbe9a06ab	-0.30083212
2	0x3eae4903	0.3404008
3	0x3e5c3127	0.21503125
4	0x3e407ae0	0.18796873
5	0x3e4e9b4a	0.20176426
6	0xbe1a7796	-0.15084681
7	0xbe22b0e6	-0.15887794
8	0x3e0a99c6	0.13535222
9	0x3df0aebd	0.11752079
10	0xbe18b8f8	-0.1491431
11	0xbe0fb689	-0.14034475
12	0x3e00a270	0.12561965
13	0x3e09e5de	0.13466594
14	0xbe2a8490	-0.16652131
15	0xbe05cfaf	-0.13067506
16	0x3e46ce31	0.19414593
17	0x3e3dd78c	0.18539256
18	0xbe4986ca	-0.19680324
19	0xbe324844	-0.1741038

exp_avg f4 [5, 4]
0	0x3887633e	6.455787e-05
1	0xb9041e3e	-0.00012599767
2	0xb979e923	-0.0002383334
3	0x399dd292	0.0003010226
4	0xbc11eb8c	-0.008906256
5	0xbc01db75	-0.007925858
6	0x3c36536f	0.011128291
7	0x3bbf46a0	0.0058372766
8	0x3b111b81	0.0022141638
9	0x3b46fc05	0.0030362618
10	0xbb41e49d	-0.0029585727
11	0xbb22caec	-0.002484019
12	0x3bb5ac39	0.005544212
13	0x3bb4d481	0.0055184965
14	0xbbee6743	-0.0072754933
15	0xbb7d61ac	-0.0038662953
16	0x3a63138a	0.00086622743
17	0xba55a301	-0.00081495947
18	0xba48d62e	-0.000766131
19	0x3a2afee0	0.00065229647

exp_avg_sq f4 [5, 4]
0	0x3699eaea	4.587103e-06
1	0x36a6bfa1	4.969494e-06
2	0x36aeffc4	5.215379e-06
3	0x36a61ec0	4.9507653e-06
4	0x39e771ac	0.00044144446
5	0x39d3270c	0.00040274148
6	0x3a255532	0.00063069456
7	0x398b4a3d	0.00026567458
8	0x39ad8d0d	0.00033102222
9	0x399fa248	0.00030447752
10	0x39fb4828	0.0004792821
11	0x394e64a4	0.00019683182
12	0x39bd6036	0.00036120572
13	0x39adafb1	0.00033128032
14	0x3a08d58d	0.000521981
15	0x39609c10	0.00021420442
16	0x39dae0fa	0.0004174782
17	0x39be8e4e	0.0003634565
18	0x3a190d79	0.00058384944
19	0x39808c1b	0.0002451845

exp_avg f4 [256, 4]
0	0xb7853ab9	-1.588218e-05
1	0x363a9119	2.7800618e-06
2	0xb72a4674	-1.0149193e-05
3	0x3820605a	3.8236707e-05
4	0xb9626599	-0.00021590888
5	0xb91fd6a5	-0.00015243383
6	0x38927b23	6.9847585e-05
7	0x39169b83	0.00014363047
8	0x367c2bce	3.7576424e-06
9	0xb5ee10fa	-1.7737323e-06
10	0xb5da7cbb	-1.6278567e-06
11	0x34bc100e	3.502941e-07
12	0x3609ac2d	2.051481e-06
13	0xb5678478	-8.6246973e-07
14	0xb63d964c	-2.825068e-06
15	0x35b27830	1.3297013e-06
16	0x367ce07e	3.7681598e-06
17	0xb7290eb5	-1.0076609e-05
18	0xb6af01d5	-5.2156197e-06
19	0x36a92998	5.0414346e-06
20	0xb61d8c26	-2.34764e-06
21	0x368be610	4.1693056e-06
22	0x35a8cf8b	1.2577378e-06
23	0xb5315d52	-6.607344e-07
24	0x36d27841	6.272487e-06
25	0xb5db9074	-1.6358813e-06
26	0x36817c83	3.8589947e-06
27	0xb6c920de	-5.994093e-06
28	0x371ee282	9.470272e-06
29	0xb56abd74	-8.7447484e-07
30	0x349cab2e	2.9181814e-07
31	0x3623c960	2.4406108e-06
32	0x363c62f2	2.8071777e-06
33	0xb61e20a4	-2.3562834e-06
34	0x353602fa	6.7804615e-07
35	0x36c12ffc	5.7574343e-06
36	0xb61aeea7	-2.3086702e-06
37	0x36145222	2.2101526e-06
38	0xb6794afc	-3.7147538e-06
39	0xb635e749	-2.7105727e-06
40	0x35efcd1d	1.7866583e-06
41	0xb4d04372	-3.8792092e-07
42	0x36e2686e	6.747482e-06
43	0xb734dc0a	-1.0780068e-05
44	0x35fed63e	1.8986827e-06
45	0xb599edbd	-1.1468579e-06
46	0xb5f05d6d	-1.7908584e-06
47	0xb66cc6fa	-3.528256e-06
48	0xb34ec97a	-4.8146354e-08
49	0xb3919bad	-6.780406e-08
50	0x368f1801	4.2645265e-06
51	0xb6e83151	-6.91988e-06
52	0xb5760d26	-9.1661275e-07
53	0x36ae2c23	5.1907423e-06
54	0x367401a5	3.635979e-06
55	0xb68cf9c3	-4.201401e-06
56	0xb5f3712a	-1.8137846e-06
57	0xb651395a	-3.117681e-06
58	0x36806f95	3.827687e-06
59	0x36835d84	3.914991e-06
60	0x369bd8ec	4.644613e-06
61	0xb4de6e83	-4.143113e-07
62	0xb66e6c17	-3.552768e-06
63	0x370a8bc0	8.257979e-06
64	0xb6a9a85f	-5.0561935e-06
65	0xb6dc5576	-6.56646e-06
66	0xb6e15290	-6.715134e-06
67	0x36a680f5	4.962198e-06
68	0x363bfc4c	2.8012028e-06
69	0xb6b8cd7e	-5.5075498e-06
70	0xb5d12406	-1.5582198e-06
71	0x36a62e6b	4.9525893e-06
72	0x348a696f	2.5781216e-07
73	0xb6d736a2	-6.4138594e-06
74	0xb67f3ecb	-3.8034511e-06
75	0x35e01b3d	1.6697228e-06
76	0xb465148f	-2.1334766e-07
77	0xb52ab803	-6.359771e-07
78	0xb6afc37d	-5.2381642e-06
79	0x3775bd91	1.4647275e-05
80	0x3381fe79	6.053319e-08
81	0x35405f2f	7.1664084e-07
82	0xb6626a23	-3.3738404e-06
83	0x3687499e	4.0318837e-06
84	0x3694c27f	4.433386e-06
85	0xb5bbafce	-1.3983752e-06
86	0xb5c1c089	-1.4435656e-06
87	0x36f1df28	7.2083385e-06
88	0x35c5912b	1.4719893e-06
89	0x361b6ff3	2.3161963e-06
90	0xb60e624a	-2.121686e-06
91	0xb67ddb47	-3.7827574e-06
92	0xb685d2a0	-3.988229e-06
93	0xb6293e86	-2.5219356e-06
94	0x35bb3b63	1.394987e-06
95	0x34b9f376	3.4636076e-07
96	0xb43fd982	-1.786739e-07
97	0x35ab17cc	1.2747419e-06
98	0xb5f48678	-1.8218552e-06
99	0xb4e8f023	-4.338809e-07
100	0xb635c45b	-2.7085396e-06
101	0x368940f1	4.0904783e-06
102	0x36897fb2	4.097784e-06
103	0x351cbe34	5.839131e-07
104	0x350f136b	5.329991e-07
105	0x36a24ed3	4.8371526e-06
106	0xb705b0c3	-7.968573e-06
107	0x374555f6	1.1762129e-05
108	0xb6244baf	-2.4481958e-06
109	0xb590e9c9	-1.0796876e-06
110	0x36450fad	2.9364412e-06
111	0xb66a5895	-3.4920279e-06
112	0xb442f01d	-1.815501e-07
113	0xb58fc207	-1.07108e-06
114	0x36972fab	4.5057e-06
115	0xb601b1f0	-1.9326071e-06
116	0xb5c36676	-1.4558452e-06
117	0x3427e7b8	1.5637386e-07
118	0x3403dbe0	1.2280316e-07
119	0xb60cd54b	-2.0985779e-06
120	0x36775498	3.6855108e-06
121	0xb6587bae	-3.22585e-06
122	0x364014dc	2.8622371e-06
123	0xb687da00	-4.048692e-06
124	0x36c3e326	5.8378964e-06
125	0xb609894e	-2.0494513e-06
126	0xb5f85989	-1.8503498e-06
127	0xb487219e	-2.517017e-07
128	0xb6034424	-1.9560184e-06
129	0xb6114617	-2.1647481e-06
130	0xb63e7484	-2.8380027e-06
131	0x370370c1	7.834461e-06
132	0xb52678bb	-6.2015505e-07
133	0x356f001e	8.903461e-07
134	0x36aaa94a	5.0861026e-06
135	0xb736684f	-1.0872332e-05
136	0x34415745	1.8006274e-07
137	0xb539737d	-6.908593e-07
138	0xb703c3c8	-7.853792e-06
139	0x36f01583	7.1550617e-06
140	0x361cb0b2	2.3348662e-06
141	0xb6b2607f	-5.316047e-06
142	0xb73a827f	-1.1116847e-05
143	0x371a3a0b	9.1926295e-06
144	0xb4375783	-1.707504e-07
145	0xb5a58929	-1.2333377e-06
146	0xb5f4bd62	-1.8234534e-06
147	0x36192b0a	2.2823829e-06
148	0x34725e21	2.257225e-07
149	0x352ca02d	6.430808e-07
150	0x36c39e86	5.8299074e-06
151	0xb6c1ca64	-5.7754096e-06
152	0xb5986412	-1.1354007e-06
153	0x35ac3038	1.2829032e-06
154	0x3580b071	9.588094e-07
155	0xb605c2a8	-1.993185e-06
156	0x35922773	1.0889329e-06
157	0x354249d4	7.2378066e-07
158	0xb5193d4a	-5.708613e-07
159	0xb59f5d65	-1.1873605e-06
160	0xb6489d00	-2.9893708e-06
161	0x35becff9	1.4216631e-06
162	0xb60d88a4	-2.1090173e-06
163	0xb5503ae9	-7.7571764e-07
164	0xb630fcb7	-2.6373143e-06
165	0xb4bcf33c	-3.5194705e-07
166	0xb68c393e	-4.178989e-06
167	0x36d8479f	6.4456394e-06
168	0xb56aafd9	-8.7427685e-07
169	0xb39612dc	-6.98835e-08
170	0x354f3a16	7.7198035e-07
171	0x369234e9	4.3572986e-06
172	0xb51d6e99	-5.8648e-07
173	0x35110ac4	5.4032375e-07
174	0xb5713c6d	-8.986743e-07
175	0x33bdc416	8.836666e-08
176	0xb5c93629	-1.499143e-06
177	0xb694a7af	-4.4302647e-06
178	0xb709b59f	-8.208123e-06
179	0x36efc3c4	7.145545e-06
180	0xb63b9aa0	-2.7955175e-06
181	0x3587416d	1.0077325e-06
182	0x35f16400	1.7985003e-06
183	0xb6ab3b39	-5.1030916e-06
184	0x369ce157	4.6753953e-06
185	0xb62a40bb	-2.5369652e-06
186	0xb70da91e	-8.443631e-06
187	0x3666433f	3.4311813e-06
188	0x35a3bc2b	1.219921e-06
189	0xb61b1893	-2.3111104e-06
190	0xb618afa6	-2.2752006e-06
191	0xb650484c	-3.1036498e-06
192	0x362af49d	2.5474358e-06
193	0xb532ef0c	-6.6658026e-07
194	0xb6937591	-4.394628e-06
195	0x3594f801	1.1099038e-06
196	0xb5d03548	-1.5512715e-06
197	0x354e5613	7.6866235e-07
198	0xb6849895	-3.9516694e-06
199	0x36c4cfe8	5.8654587e-06
200	0x350dfbba	5.2892904e-07
201	0x3537ecb8	6.8517284e-07
202	0xb4cf2998	-3.8587018e-07
203	0x36e48149	6.8099803e-06
204	0xb5a96c7b	-1.2623053e-06
205	0xb627e45e	-2.5017866e-06
206	0xb60df9a8	-2.1155956e-06
207	0x369fe97b	4.76575e-06
208	0xb660c9ae	-3.3495994e-06
209	0x369c601b	4.6603504e-06
210	0xb5fdf72d	-1.8921907e-06
211	0x3618f308	2.2791228e-06
212	0xb55b5480	-8.170682e-07
213	0xb5f65732	-1.8353805e-06
214	0xb6f21f69	-7.2158186e-06
215	0x36fada8e	7.4760237e-06
216	0x3667539d	3.4470352e-06
217	0x3598befd	1.1380467e-06
218	0x36357ee6	2.7044966e-06
219	0xb6869619	-4.010985e-06
220	0xb599db7a	-1.1463264e-06
221	0xb5fa840d	-1.8664883e-06
222	0xb5c269bf	-1.4484903e-06
223	0x35f9e4db	1.8618551e-06
224	0xb655adb3	-3.184058e-06
225	0xb60437df	-1.9702054e-06
226	0xb5b5fbe6	-1.3558863e-06
227	0x3575ef15	9.161752e-07
228	0xb5e2e18f	-1.6903958e-06
229	0x366f8c1a	3.5695325e-06
230	0x361d5931	2.344674e-06
231	0xb6b526e2	-5.398747e-06
232	0xb628d889	-2.515999e-06
233	0x370928fc	8.175379e-06
234	0x36dd0312	6.5866707e-06
235	0xb743314e	-1.1634385e-05
236	0xb64095f7	-2.869752e-06
237	0xb69a4420	-4.5974884e-06
238	0xb6368a9c	-2.7200795e-06
239	0x36d6b56f	6.3988186e-06
240	0x35379f68	6.840478e-07
241	0x350410d9	4.919835e-07
242	0x3711922e	8.676709e-06
243	0xb5ec8ee4	-1.7624957e-06
244	0x35ad784e	1.2924518e-06
245	0xb617a9d7	-2.2599613e-06
246	0x35a7da30	1.250597e-06
247	0x358e1877	1.0586945e-06
248	0x3425173a	1.5375272e-07
249	0x35f5b8da	1.8307721e-06
250	0xb5fc0de6	-1.8779508e-06
251	0x3685c062	3.986105e-06
252	0xb53b8c61	-6.9867207e-07
253	0x3639a23a	2.7661576e-06
254	0xb60f1187	-2.1318863e-06
255	0xb62c63fb	-2.5688194e-06

exp_avg_sq f4 [256, 4]
0	0x336e99f2	5.5553706e-08
1	0x32501468	1.2111833e-08
2	0x32b4e9cb	2.1061075e-08
3	0x32edbb3d	2.7675577e-08
4	0x352cfabb	6.4439854e-07
5	0x34f331ff	4.5298654e-07
6	0x33d698c6	9.992941e-08
7	0x35e9577a	1.7385312e-06
8	0x32de2d1e	2.5864718e-08
9	0x326956de	1.3582136e-08
10	0x32181c5c	8.854013e-09
11	0x345975b5	2.0252521e-07
12	0x30963443	1.092879e-09
13	0x2fc02b82	3.495551e-10
14	0x3060bfe3	8.176341e-10
15	0x30672f17	8.410423e-10
16	0x2fb6587a	3.3168474e-10
17	0x2fc1f3be	3.5279685e-10
18	0x2fd3078d	3.8386042e-10
19	0x3054e79a	7.7454276e-10
20	0x2fdf9af3	4.0673562e-10
21	0x2fc04bc5	3.4978434e-10
22	0x2fba4e5c	3.388888e-10
23	0x30258d39	6.022734e-10
24	0x2fa69638	3.030196e-10
25	0x2fab37f3	3.1144473e-10
26	0x2fa0eca0	2.9271963e-10
27	0x3011b023	5.3001e-10
28	0x309d3c65	1.1440419e-09
29	0x303d7bbb	6.893363e-10
30	0x3010276b	5.244291e-10
31	0x310e3142	2.069172e-09
32	0x2f729d1a	2.2065585e-10
33	0x2fb4f01f	3.2912426e-10
34	0x2fa0a3f4	2.9220326e-10
35	0x3010a99b	5.262792e-10
36	0x2fc6ec46	3.6183873e-10
37	0x2f9f074c	2.8927116e-10
38	0x2fb17e1d	3.228572e-10
39	0x3046137a	7.205966e-10
40	0x2f426ce3	1.7682882e-10
41	0x2f862ce5	2.4406357e-10
42	0x2f8318c1	2.384635e-10
43	0x2fffe6fd	4.6548357e-10
44	0x2f89bd00	2.5054447e-10
45	0x2fc4e51c	3.5814984e-10
46	0x2f9cd28c	2.8525837e-10
47	0x301ca040	5.69802e-10
48	0x2f9ac029	2.8148975e-10
49	0x2fa21154	2.947994e-10
50	0x2ff0c50f	4.3795764e-10
51	0x2ffb7074	4.5736537e-10
52	0x310d6f9b	2.058164e-09
53	0x3078b2fb	9.047622e-10
54	0x308ffec2	1.0477026e-09
55	0x312d4e8b	2.521946e-09
56	0x2f7c8565	2.2966658e-10
57	0x2fa92e4c	3.0773817e-10
58	0x2fd9f11d	3.964339e-10
59	0x30270e63	6.077469e-10
60	0x2f8caa3e	2.5586816e-10
61	0x2faf9277	3.1936384e-10
62	0x2fb1d0c8	3.234446e-10
63	0x301b0f74	5.641063e-10
64	0x2f8c362b	2.550434e-10
65	0x2fb61306	3.3119124e-10
66	0x2fce3cb5	3.7514317e-10
67	0x305287d9	7.6590606e-10
68	0x2fedbfc3	4.3246304e-10
69	0x2fb9d21e	3.38006e-10
70	0x2fccd98e	3.7261966e-10
71	0x308028ad	9.324786e-10
72	0x2f978eab	2.7568112e-10
73	0x2fac19cf	3.1304956e-10
74	0x2fe3dbe8	4.1447312e-10
75	0x301a2c7f	5.6088106e-10
76	0x2fd9af1b	3.959649e-10
77	0x2fa00be7	2.9112288e-10
78	0x2fa6fb03	3.037358e-10
79	0x30647405	8.311079e-10
80	0x2f2d66c8	1.5770774e-10
81	0x2f615230	2.049283e-10
82	0x2fa8cdfd	3.0705385e-10
83	0x2fe5d31e	4.1804865e-10
84	0x2f9ac15c	2.8149827e-10
85	0x2fb601ab	3.3106792e-10
86	0x2fb3f0ec	3.2731096e-10
87	0x303f715c	6.964649e-10
88	0x2f4ec238	1.8804591e-10
89	0x2f5d6779	2.0136594e-10
90	0x2fa06b8e	2.9180253e-10
91	0x300bea15	5.0900556e-10
92	0x2f23b378	1.4888524e-10
93	0x2fc3c053	3.5606948e-10
94	0x301bad10	5.663461e-10
95	0x302c8668	6.276424e-10
96	0x318ca85f	4.093678e-09
97	0x30a2bd51	1.1840858e-09
98	0x301766c9	5.5079546e-10
99	0x31de851e	6.476184e-09
100	0x2f7bac1e	2.2889465e-10
101	0x3011d0e3	5.304754e-10
102	0x2fb11628	3.2211855e-10
103	0x30522c54	7.646055e-10
104	0x2fb36f98	3.2639202e-10
105	0x2f9b0be5	2.8202787e-10
106	0x2f932f91	2.6772942e-10
107	0x2fe71511	4.2033624e-10
108	0x30959eb6	1.0886285e-09
109	0x2ff7013d	4.4929918e-10
110	0x2fcd4665	3.73393e-10
111	0x30fd84e5	1.8445944e-09
112	0x2f6c2ad8	2.1479296e-10
113	0x2f92097d	2.6563987e-10
114	0x2f95bb26	2.723592e-10
115	0x3001b38f	4.7185095e-10
116	0x2f892ca4	2.4951874e-10
117	0x2f860f4a	2.4385322e-10
118	0x2f9947c4	2.788153e-10
119	0x301670b3	5.472984e-10
120	0x2f583601	1.9664272e-10
121	0x2f8c71a9	2.5546612e-10
122	0x2f841a87	2.402951e-10
123	0x30012b66	4.69916e-10
124	0x2f35c8c4	1.653318e-10
125	0x2f8d9304	2.5752211e-10
126	0x2f9ed7b6	2.8893304e-10
127	0x2fd8a3e4	3.9406622e-10
128	0x2f7f8a3d	2.3241227e-10
129	0x2fda8120	3.9745718e-10
130	0x2f9f50bc	2.8979297e-10
131	0x302ac44a	6.2124583e-10
132	0x2f633cc7	2.0667122e-10
133	0x2fb8782f	3.35548e-10
134	0x2fe343ba	4.1339182e-10
135	0x30478155	7.257957e-10
136	0x2f2173d4	1.4684015e-10
137	0x2f78c518	2.262549e-10
138	0x2fa6c276	3.0333397e-10
139	0x2fd98520	3.956666e-10
140	0x2f5c2cce	2.0024801e-10
141	0x2fc1c4e1	3.5246386e-10
142	0x2fd71607	3.9123924e-10
143	0x301d09bb	5.7130095e-10
144	0x2f89563a	2.4981422e-10
145	0x2fb50827	3.29295e-10
146	0x2fbd4288	3.4426173e-10
147	0x30567097	7.8012746e-10
148	0x2f86a861	2.4494098e-10
149	0x2f9aa9e3	2.8133149e-10
150	0x2ff4f494	4.4557125e-10
151	0x307281b1	8.822339e-10
152	0x2f5f4ba9	2.0308612e-10
153	0x2ff0ba41	4.3788087e-10
154	0x2fa24c84	2.9521996e-10
155	0x304ef280	7.5286977e-10
156	0x2f7a5857	2.2768752e-10
157	0x2fae95a1	3.1756733e-10
158	0x2fce142a	3.748551e-10
159	0x300a0a53	5.021878e-10
160	0x2f3812df	1.6741407e-10
161	0x2f5054cb	1.8947614e-10
162	0x2f9a0688	2.8017078e-10
163	0x301959cf	5.57887e-10
164	0x2f50b5a7	1.8982026e-10
165	0x2f77e82b	2.2547002e-10
166	0x2fa94d5e	3.0795894e-10
167	0x3042dab3	7.088758e-10
168	0x2f8aa60f	2.5220045e-10
169	0x2f8a87a6	2.5198438e-10
170	0x2ff87be4	4.5198967e-10
171	0x300dd0c9	5.15922e-10
172	0x2f917abd	2.6462557e-10
173	0x2f8c458d	2.551527e-10
174	0x2fc2dffa	3.544754e-10
175	0x30034c48	4.7765925e-10
176	0x2f88b5b7	2.4867372e-10
177	0x2fb45998	3.280547e-10
178	0x2fce1193	3.748367e-10
179	0x3055f041	7.783037e-10
180	0x3016dd9e	5.488462e-10
181	0x2f88e0b0	2.4897906e-10
182	0x2f90c5d7	2.633402e-10
183	0x309772ed	1.101936e-09
184	0x2f1ac2d1	1.4075431e-10
185	0x2f66124c	2.0924878e-10
186	0x2fa1f13c	2.9457137e-10
187	0x2ffeb4ba	4.6330745e-10
188	0x2fdd1c58	4.0219805e-10
189	0x2fda9a3b	3.9763556e-10
190	0x2fbc4e8b	3.425281e-10
191	0x30d3f1ba	1.5420973e-09
192	0x2f70f1cc	2.1913776e-10
193	0x2fb229b3	3.240764e-10
194	0x2fae588d	3.1713335e-10
195	0x3003642e	4.7799886e-10
196	0x2fa21411	2.9481886e-10
197	0x2f84727f	2.4092014e-10
198	0x2f9d26a0	2.8585578e-10
199	0x2ff54b1a	4.4618603e-10
200	0x2f43f4ab	1.782207e-10
201	0x2f9ce8c0	2.8541614e-10
202	0x2f9af478	2.8186142e-10
203	0x30194ed1	5.577308e-10
204	0x2f91e1fd	2.653592e-10
205	0x2f7178eb	2.1961781e-10
206	0x2fbca985	3.4317452e-10
207	0x300afe80	5.0565774e-10
208	0x2fea5d45	4.2630624e-10
209	0x301770a6	5.5093563e-10
210	0x2ff7fc4e	4.5108312e-10
211	0x301aeb4a	5.635924e-10
212	0x2f7e5c52	2.3133964e-10
213	0x2f91c764	2.6517022e-10
214	0x2fd15820	3.8079495e-10
215	0x30427782	7.074662e-10
216	0x339b4338	7.229977e-08
217	0x2fb0ed78	3.2182945e-10
218	0x31bc96da	5.48867e-09
219	0x33306144	4.1066656e-08
220	0x2f46b4eb	1.807227e-10
221	0x2f890fc6	2.4931363e-10
222	0x2fbab54c	3.3962022e-10
223	0x303cd62c	6.869836e-10
224	0x2f53088b	1.9193373e-10
225	0x2f7b3d68	2.2850133e-10
226	0x2fc52ac8	3.586449e-10
227	0x3028b26f	6.1371613e-10
228	0x2f31018d	1.6098607e-10
229	0x2f553cf1	1.9393888e-10
230	0x2fcc345b	3.7144585e-10
231	0x3004de03	4.833682e-10
232	0x2f47dbd1	1.8177039e-10
233	0x2f6807ea	2.1103089e-10
234	0x2fce7500	3.7554315e-10
235	0x302797d0	6.0969985e-10
236	0x2f94c3ff	2.7060307e-10
237	0x306816f8	8.443375e-10
238	0x300c99af	5.11501e-10
239	0x3030b3a2	6.42837e-10
240	0x2f5782e9	1.9600645e-10
241	0x2f773fee	2.2487232e-10
242	0x2fe3a4a1	4.1408035e-10
243	0x304485ca	7.149451e-10
244	0x2f2f42c6	1.593988e-10
245	0x2f4db20e	1.8707899e-10
246	0x2fad3ca0	3.1511593e-10
247	0x30011be8	4.6969584e-10
248	0x2f286581	1.5315572e-10
249	0x2f881b3e	2.4757613e-10
250	0x2f88b974	2.4870028e-10
251	0x2fd75b33	3.9173073e-10
252	0x2f75f905	2.237109e-10
253	0x2fab1189	3.1117178e-10
254	0x30459e38	7.1893025e-10
255	0x3046eed5	7.237138e-10

exp_avg f4 [12, 4]
0	0x35eb47b6	1.7529735e-06
1	0x33c193e6	9.0141654e-08
2	0xb64b456e	-3.028977e-06
3	0x359f623a	1.1875011e-06
4	0xb6611dec	-3.354503e-06
5	0xb6970262	-4.500428e-06
6	0xb36bc9f4	-5.4898877e-08
7	0x370269ba	7.77322e-06
8	0x3722a4bc	9.694308e-06
9	0x374fe504	1.2391483e-05
10	0xb64217cc	-2.8922104e-06
11	0xb79e3266	-1.8858536e-05
12	0x377f663b	1.5222987e-05
13	0x37bf6df0	2.2820168e-05
14	0x3602d868	1.9497475e-06
15	0xb824ff85	-3.9338618e-05
16	0xb548cc6f	-7.4803296e-07
17	0xb55cf92b	-8.2318974e-07
18	0x35f85bda	1.8504172e-06
19	0xb4926d32	-2.727407e-07
20	0x360d6726	2.1070678e-06
21	0x3630c004	2.6337812e-06
22	0xb5ac718e	-1.2848047e-06
23	0xb663e80f	-3.3960712e-06
24	0xb71273d2	-8.729245e-06
25	0xb722ed53	-9.711209e-06
26	0x36d90503	6.4676874e-06
27	0x37450f2c	1.17456475e-05
28	0xb7661a6b	-1.3715219e-05
29	0xb77d5e81	-1.51019785e-05
30	0x36f6d2f6	7.3559304e-06
31	0x37b0bdb8	2.106918e-05
32	0x3794351d	1.7667708e-05
33	0x369dd489	4.703707e-06
34	0xb78e3a37	-1.6954828e-05
35	0xb6abf875	-5.1251213e-06
36	0x3344eafd	4.5848527e-08
37	0xb6141e3a	-2.2071313e-06
38	0xb7987e78	-1.8178704e-05
39	0x37a78d47	1.9973739e-05
40	0x3760a54a	1.3389925e-05
41	0x36951733	4.443247e-06
42	0xb806c155	-3.2128144e-05
43	0x376d7e9d	1.415578e-05
44	0x387e9696	6.0698563e-05
45	0x38622bbd	5.3923333e-05
46	0xb89d3e37	-7.497932e-05
47	0xb822960a	-3.8763545e-05

exp_avg_sq f4 [12, 4]
0	0x31e56df2	6.6772765e-09
1	0x31d68877	6.243734e-09
2	0x31be7706	5.543259e-09
3	0x31ef174a	6.958463e-09
4	0x2f4a5d04	1.8404839e-10
5	0x2f5baf44	1.9980201e-10
6	0x2f1c3a7b	1.4208894e-10
7	0x2f9f88a6	2.9019026e-10
8	0x31063ed4	1.953528e-09
9	0x31061119	1.9509285e-09
10	0x30c7d27b	1.4538978e-09
11	0x31367f0d	2.6556706e-09
12	0x32f86337	2.8916118e-08
13	0x330783c6	3.1551984e-08
14	0x32e60c01	2.6780983e-08
15	0x330f46bd	3.3359118e-08
16	0x31ead2c3	6.834257e-09
17	0x31a3bb84	4.7652424e-09
18	0x31fc7704	7.347696e-09
19	0x3190adb5	4.2107e-09
20	0x2ee9fd56	1.0640615e-10
21	0x2ec4ac97	8.943706e-11
22	0x2ef6fbf3	1.123154e-10
23	0x2ebae794	8.499437e-11
24	0x314b0e07	2.9548362e-09
25	0x30c274e7	1.4148583e-09
26	0x3127a1ac	2.4393598e-09
27	0x30e6737c	1.6767525e-09
28	0x32ff530e	2.9723676e-08
29	0x327bf288	1.4665268e-08
30	0x32e56900	2.6706857e-08
31	0x32875681	1.5755406e-08
32	0x339e1a6c	7.3622545e-08
33	0x32937627	1.7166782e-08
34	0x3354abd3	4.951637e-08
35	0x32a40f53	1.9099081e-08
36	0x319d9154	4.5858233e-09
37	0x31a61edf	4.8347455e-09
38	0x31cffc61	6.053185e-09
39	0x319c0a38	4.5413593e-09
40	0x32e09f43	2.6149456e-08
41	0x3230d265	1.02923865e-08
42	0x329f4174	1.85398e-08
43	0x31e31a6b	6.609573e-09
44	0x33ba00ff	8.661481e-08
45	0x332fa5be	4.0896104e-08
46	0x338a1e3a	6.431624e-08
47	0x32ca9066	2.358156e-08

exp_avg f4 [4, 4]
0	0x386c9d3f	5.641323e-05
1	0x382660b3	3.9667542e-05
2	0x3815b2b9	3.5690817e-05
3	0x390290cf	0.00012451712
4	0xb82b4b54	-4.083973e-05
5	0xb82cdcf6	-4.121378e-05
6	0xb83fafe5	-4.5701763e-05
7	0xb7a1baa4	-1.9279607e-05
8	0xb8d6094c	-0.00010206047
9	0xb89f4b3c	-7.595724e-05
10	0xb8c01c1b	-9.1605085e-05
11	0xb9547354	-0.00020260859
12	0x38b9f8ed	8.8678535e-05
13	0x38a77bbe	7.986229e-05
14	0x38a95222	8.0738464e-05
15	0x38a3e487	7.815012e-05

exp_avg_sq f4 [4, 4]
0	0x33bc4162	8.766325e-08
1	0x32390884	1.07703535e-08
2	0x3393d60c	6.884156e-08
3	0x34083a13	1.2687114e-07
4	0x341e96cb	1.4769755e-07
5	0x32f78029	2.8812865e-08
6	0x33a9b23a	7.902095e-08
7	0x3407f286	1.2661084e-07
8	0x338514c3	6.197072e-08
9	0x3290a220	1.6837532e-08
10	0x33203d6c	3.7308766e-08
11	0x33c3236c	9.086838e-08
12	0x34de2c42	4.1382924e-07
13	0x339a55ae	7.186769e-08
14	0x33ef493a	1.11426246e-07
15	0x348b706f	2.5972574e-07

exp_avg f4 [16, 4]
0	0xb5a9eff0	-1.2661312e-06
1	0x36b382c3	5.3498384e-06
2	0xb7f55717	-2.924683e-05
3	0x37c830d5	2.3864597e-05
4	0xb50f0e18	-5.329216e-07
5	0x3702950a	7.783305e-06
6	0xb8c62b60	-9.449455e-05
7	0x38ad7e16	8.272768e-05
8	0xb6aa0dab	-5.067986e-06
9	0xb77f27a6	-1.5208416e-05
10	0x37919495	1.7354536e-05
11	0x36682882	3.4594273e-06
12	0xb7bbf834	-2.2407716e-05
13	0xb7c5a052	-2.3558885e-05
14	0x3852ed5e	5.0288967e-05
15	0xb61933d8	-2.2828954e-06
16	0x36ba1271	5.545379e-06
17	0x35a8878b	1.2556424e-06
18	0x37805fc9	1.5303393e-05
19	0xb7b30af7	-2.1343569e-05
20	0x3736ead0	1.0902717e-05
21	0x35229e7e	6.058034e-07
22	0x37f041b4	2.8640825e-05
23	0xb822a36c	-3.877601e-05
24	0x380c34fa	3.342794e-05
25	0x37c5e0cb	2.3588907e-05
26	0xb8d7357b	-0.000102619604
27	0x382beda6	4.0990904e-05
28	0xb758b308	-1.2916287e-05
29	0xb6f07359	-7.1659856e-06
30	0x371b6f0e	9.264577e-06
31	0x373b6aa5	1.1170899e-05
32	0xb63b32f1	-2.7894823e-06
33	0xb7604e4d	-1.3369671e-05
34	0x37ad2c16	2.0643736e-05
35	0xb67c2a09	-3.7575394e-06
36	0xb673841c	-3.628672e-06
37	0xb75e0d6d	-1.3235357e-05
38	0xb7ad7a06	-2.0680029e-05
39	0x3817edc4	3.6222642e-05
40	0x3756417c	1.2770641e-05
41	0x370ffa67	8.5817655e-06
42	0xb8b3bcb9	-8.5705375e-05
43	0x387cf932	6.0313563e-05
44	0xb6c7bd4f	-5.9527006e-06
45	0xb6f45fb3	-7.2829075e-06
46	0xb73a4e89	-1.1104749e-05
47	0x37c6721f	2.3656581e-05
48	0xb71342e7	-8.77746e-06
49	0xb7202f8f	-9.547816e-06
50	0xb7632981	-1.3539918e-05
51	0x38020c05	3.100561e-05
52	0xb68b22c6	-4.146571e-06
53	0xb61c1faa	-2.3264242e-06
54	0xb7d6294c	-2.5530018e-05
55	0x3800ba50	3.0691095e-05
56	0x358ef327	1.0650591e-06
57	0x35bb40e5	1.3951473e-06
58	0xb64d71dc	-3.0613655e-06
59	0x34ff96cf	4.760718e-07
60	0xb68a59b6	-4.123164e-06
61	0xb43cc2de	-1.7579757e-07
62	0xb73bb63a	-1.11884965e-05
63	0x377af58c	1.4958332e-05

exp_avg_sq f4 [16, 4]
0	0x31cff532	6.0523684e-09
1	0x31993f5a	4.4600883e-09
2	0x3191b5de	4.2407313e-09
3	0x32087549	7.942909e-09
4	0x328feb96	1.6754523e-08
5	0x3286e880	1.5705382e-08
6	0x328874e5	1.5885641e-08
7	0x333c2c5e	4.3812513e-08
8	0x316320a5	3.3051404e-09
9	0x312c009e	2.5029645e-09
10	0x315aaf7d	3.1822929e-09
11	0x312556bd	2.4059965e-09
12	0x3205049a	7.742665e-09
13	0x31d5cb79	6.222248e-09
14	0x321d7dcb	9.167205e-09
15	0x32011ae7	7.514905e-09
16	0x3169777b	3.397388e-09
17	0x3147fb32	2.91011e-09
18	0x31277a1e	2.4371114e-09
19	0x319f0462	4.6280073e-09
20	0x3289b7be	1.6032455e-08
21	0x3269d4d7	1.3610779e-08
22	0x324e1f20	1.1997855e-08
23	0x32af0cb3	2.0378456e-08
24	0x33c85736	9.329089e-08
25	0x33883bbf	6.343861e-08
26	0x33b0a6b2	8.2259604e-08
27	0x33a9cfcb	7.907473e-08
28	0x31c0eee8	5.615096e-09
29	0x3185c6d1	3.8934123e-09
30	0x31961daa	4.368947e-09
31	0x31b825c3	5.359398e-09
32	0x31407a69	2.800926e-09
33	0x313beea9	2.7347744e-09
34	0x3129ac82	2.4690796e-09
35	0x3148d841	2.9226757e-09
36	0x31ba18e8	5.416144e-09
37	0x3174706b	3.5570575e-09
38	0x31af30f2	5.0987348e-09
39	0x31f891a8	7.234309e-09
40	0x32453667	1.1479279e-08
41	0x328a4589	1.6096935e-08
42	0x3284dbe4	1.5466817e-08
43	0x330cccfc	3.2782722e-08
44	0x30a0e7f8	1.1707462e-09
45	0x30a51477	1.2011147e-09
46	0x3086bd84	9.803647e-10
47	0x31262467	2.4176872e-09
48	0x312a1ccb	2.4754623e-09
49	0x312b1706	2.4896862e-09
50	0x31105fab	2.1009139e-09
51	0x3197ac38	4.4142574e-09
52	0x31194d46	2.2308355e-09
53	0x30fbfe67	1.8334959e-09
54	0x30dc21ad	1.6016678e-09
55	0x31ad4393	5.042645e-09
56	0x2e92b27a	6.671015e-11
57	0x2e792b4a	5.6654494e-11
58	0x2ea7fd61	7.63929e-11
59	0x2ebfb593	8.7179285e-11
60	0x312cb762	2.5133535e-09
61	0x30fc6255	1.8363361e-09
62	0x30e81d77	1.6888596e-09
63	0x314fe171	3.0250613e-09

exp_avg f4 [4, 16]
0	0xb7eb3a86	-2.8041435e-05
1	0xb895c219	-7.141027e-05
2	0x37368eea	1.088132e-05
3	0x3791947e	1.7354494e-05
4	0x370b26a9	8.294047e-06
5	0x37079a99	8.082622e-06
6	0xb7370301	-1.0908349e-05
7	0xb707be0c	-8.090876e-06
8	0x374033d4	1.1456159e-05
9	0xb63d427b	-2.8201891e-06
10	0xb8651753	-5.4619577e-05
11	0xb76b4c1e	-1.4024814e-05
12	0xb78d3167	-1.6831515e-05
13	0xb828911c	-4.0189465e-05
14	0xb542e6fe	-7.260677e-07
15	0xb7ca9776	-2.4150806e-05
16	0xb85f3cfb	-5.3224136e-05
17	0xb8dec4e9	-0.00010622462
18	0x3781f6ef	1.5492986e-05
19	0x3722ad57	9.696311e-06
20	0x35aa1eee	1.2674989e-06
21	0xb721864b	-9.627615e-06
22	0x37aae6e2	2.0373092e-05
23	0xb805bc64	-3.1885123e-05
24	0x36d619b0	6.3806874e-06
25	0x3727762f	9.981492e-06
26	0xb885252f	-6.34886e-05
27	0xb7372c10	-1.0917909e-05
28	0xb7b7c852	-2.1908581e-05
29	0xb86dd428	-5.670279e-05
30	0x3490edbd	2.6995068e-07
31	0xb84e7f3a	-4.9232716e-05
32	0x38251b92	3.9364742e-05
33	0x38e2d367	0.000108158965
34	0xb7f96afc	-2.9732932e-05
35	0xb8107409	-3.444034e-05
36	0xb8221fb1	-3.8653325e-05
37	0xb8a18124	-7.7011326e-05
38	0x37ddde09	2.6448646e-05
39	0x36016cbc	1.928579e-06
40	0xb86d6501	-5.659927e-05
41	0x373a92d7	1.1120653e-05
42	0x38926f8e	6.982601e-05
43	0x3816f154	3.598754e-05
44	0x381da094	3.7581267e-05
45	0x389074fe	6.8882466e-05
46	0x35eed0ba	1.7793129e-06
47	0x3800c620	3.0702096e-05
48	0x37f51fe1	2.922112e-05
49	0x387e944a	6.0696424e-05
50	0x36ca14cc	6.02249e-06
51	0xb6bcdabf	-5.628302e-06
52	0x37d8b161	2.5831805e-05
53	0x3890709f	6.8874324e-05
54	0xb7a83648	-2.0052437e-05
55	0x37b64824	2.1729684e-05
56	0x38162ace	3.5802652e-05
57	0xb71c0040	-9.298383e-06
58	0x38681481	5.5332206e-05
59	0xb7380b52	-1.096989e-05
60	0xb6a790b8	-4.9938353e-06
61	0x37b4c4fe	2.1549404e-05
62	0x335b875a	5.1113012e-08
63	0x37f9e08e	2.978768e-05

exp_avg_sq f4 [4, 16]
0	0x32498f81	1.1732369e-08
1	0x3300b447	2.9966284e-08
2	0x31c3754f	5.6885834e-09
3	0x31856f37	3.883453e-09
4	0x31912190	4.223871e-09
5	0x3294efa7	1.7338449e-08
6	0x33ba694e	8.680455e-08
7	0x3208f32b	7.971532e-09
8	0x3245ef12	1.15212675e-08
9	0x31ab1ab8	4.9797926e-09
10	0x32827377	1.51865e-08
11	0x31602360	3.2616398e-09
12	0x31f08f4c	7.0012103e-09
13	0x32593328	1.2642694e-08
14	0x2e84b15d	6.034171e-11
15	0x322cfb30	1.0068831e-08
16	0x3277767c	1.44042325e-08
17	0x331b6d2c	3.618804e-08
18	0x31b23955	5.1869997e-09
19	0x319409dd	4.3084882e-09
20	0x31957bef	4.3505604e-09
21	0x32a0a84a	1.870298e-08
22	0x341aabf6	1.4404927e-07
23	0x323ddddc	1.1051693e-08
24	0x321072d8	8.408016e-09
25	0x31e66e22	6.7064017e-09
26	0x328a3524	1.608948e-08
27	0x31622cc4	3.2912775e-09
28	0x31e16a49	6.560445e-09
29	0x325bd5d3	1.2796096e-08
30	0x2f394df2	1.6853344e-10
31	0x32634256	1.3228222e-08
32	0x325e574b	1.2941949e-08
33	0x335b4048	5.1048374e-08
34	0x31632f26	3.3059648e-09
35	0x31636913	3.3092575e-09
36	0x31652e1d	3.3350098e-09
37	0x3276cdd4	1.43658845e-08
38	0x3383981c	6.1278314e-08
39	0x31cc5419	5.946742e-09
40	0x31f76925	7.2005997e-09
41	0x3144df98	2.8648852e-09
42	0x32c7380b	2.3192134e-08
43	0x312c1335	2.5040212e-09
44	0x31a3677c	4.755689e-09
45	0x328e4cce	1.6565902e-08
46	0x2ed4506e	9.654931e-11
47	0x323c0b15	1.094556e-08
48	0x330e2397	3.309432e-08
49	0x33772039	5.7538475e-08
50	0x31bbf5ac	5.470346e-09
51	0x321c4485	9.095975e-09
52	0x323a5881	1.0846748e-08
53	0x334908ac	4.6806846e-08
54	0x342ac349	1.5903528e-07
55	0x32fa4696	2.913593e-08
56	0x328376a5	1.530436e-08
57	0x3252e3e0	1.2275422e-08
58	0x326317e6	1.3218573e-08
59	0x31f3e93a	7.0987456e-09
60	0x326ef207	1.3908454e-08
61	0x32c401f0	2.2818284e-08
62	0x2f0d61b2	1.2858584e-10
63	0x33019c70	3.0177432e-08
