out-tss50/ckpt_iter_3500.pt (torch, 48135 bytes, 64 tensors)

transformer.wte.weight f4 [5, 4]
000000 f7 5c c2 be d3 12 b3 be 8f d0 cc 3e 73 8b 5a 3e
       -0.37961552 -0.349753 0.40002868 0.21342258
000010 62 47 1e 3e 75 51 a6 3e aa 79 e1 bd 71 92 89 be
       0.15456918 0.32484022 -0.11009534 -0.26869538
000020 87 be 90 3d a0 f6 66 3d b5 cc 1d be f1 8c ce 3d
       0.0706759 0.056387544 -0.15410121 0.10085476
000030 a1 af c8 3d 64 0f ba 3c cf 21 23 be 09 21 b9 3d
       0.097991236 0.022712417 -0.15930866 0.09039504
000040 fc 18 74 3e 2d 8b 8f 3d 81 5d 26 be e9 24 0d be
       0.23837656 0.070089675 -0.16246606 -0.13783611

transformer.wpe.weight f4 [256, 4]
000000 46 a0 11 3e 5d 50 4f 3d 89 79 90 bd b4 1b 8c bd
       0.14221296 0.05061375 -0.07054431 -0.068412215
000010 dc 32 e2 3d cf b3 91 3d 46 cc 0d be a9 78 c3 bc
       0.11044857 0.07114374 -0.13847455 -0.023861246
000020 9b 6b 3e 3d d5 be 79 bc 0a e7 c9 bd 72 67 2a 3b
       0.04648934 -0.015243252 -0.0985852 0.00260016
000030 24 fb 0d 3d bf 0c 00 3d 22 75 69 bd c1 07 66 bc
       0.034663334 0.031262156 -0.056996472 -0.014039935
000040 1f e1 7a 3d ad 71 54 3d 5f cf 21 bd 40 01 68 bd
       0.06124985 0.051866222 -0.039504405 -0.056641817
000050 0d 2b 98 3b 6c f7 62 bc ff 84 52 bd 27 4c 41 bc
       0.004643804 -0.013852935 -0.051396366 -0.011797941
000060 56 d1 8f 3d 1f 34 7a bb 03 1d 30 bd 30 3f c5 3b
       0.070223495 -0.003817804 -0.042996418 0.0060194954
000070 7e 0e 07 3d 17 a0 4c bc e4 3d 90 bc f8 65 43 3c
       0.032972805 -0.01248934 -0.017607637 0.011926167
000080 25 c0 22 3d b9 35 b8 bc 54 5f 26 ba 96 48 d4 3c
       0.039734025 -0.022486554 -0.00063466025 0.025913518
000090 8a 78 94 bc bd ad 20 bd 2d 13 25 bd da 62 9c 3b
       -0.018123884 -0.03922819 -0.04030149 0.004772526
0000a0 bb 4c 5d bb b2 8c 94 bb 89 6a 9e 3b a4 8a 58 bc
       -0.0033767659 -0.0045333738 0.0048344773 -0.013216648
0000b0 cd e2 08 3c e7 12 ab bc d7 c0 15 bd 8f 97 c4 3c
       0.008354855 -0.020883037 -0.03656086 0.02399805
0000c0 ce ad 62 3c 14 f6 5d bc ae 30 95 3c 47 9c 1d 3b
       0.013835384 -0.013547439 0.018211689 0.0024049447
0000d0 28 a5 17 bc e6 6a 5c bc e7 81 ec bc a7 62 9c bb
       -0.009255685 -0.013453221 -0.028870536 -0.0047725025
0000e0 e5 e2 bf 3c 9e cf 83 3b 2f 33 d2 3c d9 e0 25 3b
       0.023423621 0.0040225526 0.025659172 0.0025311022
0000f0 1b fb 55 3a db 05 05 3c 0c 7b 1f 3c 39 7a 96 ba
       0.0008162723 0.008119072 0.0097339265 -0.0011480517
000100 2f cf df 3c e8 63 ac 3b 1f cd c5 3c 84 85 86 bc
       0.027320473 0.005260933 0.02414566 -0.016421087
000110 a3 69 de 3c 8d 6b 08 3c 70 d0 18 bd 6e 09 cb bb
       0.02714998 0.008326423 -0.037308156 -0.0061961925
000120 b5 04 13 bb 6f 36 cd 3b b2 d3 ab bb 57 2b 61 39
       -0.0022433226 0.0062625925 -0.005243742 0.00021473817
000130 27 a8 4f 3d 92 71 81 3c 4c 26 95 bd 53 d7 60 bc
       0.050697472 0.015801225 -0.07282695 -0.013723212
000140 1b 5f 86 3c ca 37 e4 bb c8 d7 bb 3b 0d eb 88 ba
       0.016402772 -0.0069646584 0.0057325102 -0.0010446027
000150 2b c7 8e bc 11 db 90 bc 1c 9d f6 bb 11 07 e8 3c
       -0.017428955 -0.017682584 -0.007526053 0.028323682
000160 b7 a6 eb 3c a7 be 59 bc ff 8a a3 bc 7e 41 9b 3b
       0.02876602 -0.013290084 -0.01996374 0.004738032
000170 62 30 c4 3a 0f a6 8b 3c a8 b1 d2 3a 6f 81 98 3b
       0.0014968032 0.017046956 0.0016074674 0.0046541016
000180 f6 68 46 bd a6 27 3b 3b 88 71 19 bd 46 fe f3 3c
       -0.048439942 0.0028557568 -0.037461787 0.029784333
000190 99 6b 60 3d 5b 88 2f bc 31 32 29 bc 56 e1 bc bb
       0.054790113 -0.010713662 -0.010326908 -0.005764167
0001a0 c3 01 16 3d ad fc e6 3c cf 52 bf 3b 33 c8 66 3b
       0.036622774 0.028196657 0.005838729 0.0035214543
0001b0 bc cf 63 3d b3 31 8f ba 68 eb 30 bc 57 dd b7 3b
       0.055618033 -0.0010924846 -0.010798313 0.0056111026
0001c0 62 87 44 3c 04 24 06 bc 92 dd bf 3b 8e 4e c8 bb
       0.011995168 -0.008187298 0.0058552707 -0.00611288
0001d0 97 71 a0 3d ba b1 f6 3b 8c b1 cd bc dd 80 7f 3c
       0.078341655 0.007528511 -0.025109075 0.015594688
0001e0 4f 04 e9 3c ae eb e5 bb 49 b2 21 bd f2 7d 87 bc
       0.028444437 -0.0070166206 -0.039476667 -0.016539548
0001f0 e6 6a 72 3c 9f 1f d0 bb 87 4f 8c 3c fc fe 91 bc
       0.014795994 -0.006351426 0.017127765 -0.017821781
000200 d9 fc 3c 3d 7e 77 ac bc bd e7 c9 3c c5 3b 8d 3c
       0.04613957 -0.021053072 0.024646634 0.017240414
000210 87 3a 83 3b f1 1f 29 39 fa 3e be 3a fa 42 35 3b
       0.0040047797 0.00016128995 0.0014514618 0.002765833
000220 d0 49 61 3c a5 75 a5 3c c3 85 95 bc af d8 1b 3c
       0.013750508 0.020197699 -0.01825226 0.009512111
000230 e5 75 5a bc 4c 73 21 3b d0 10 f2 b9 0c 36 b8 3c
       -0.013333772 0.0024635373 -0.00046170363 0.022486709
000240 41 65 90 bc a8 b9 1c 3d c0 cb c7 3c 1c 40 66 ba
       -0.017626407 0.038262993 0.024389148 -0.0008783357
000250 48 ef 11 3d 52 70 2c 3c 44 f5 ae bb fb 10 e3 3c
       0.035628587 0.010524826 -0.0053392965 0.027718058
000260 8a a2 65 3c 5c 13 eb 3c b0 5b ab 3a 05 40 7f 3c
       0.014015803 0.028695755 0.001307359 0.015579228
000270 06 b8 4b bb 51 19 9d bb 9d 5c e1 bb 27 1e 4f 3c
       -0.0031085028 -0.0047942777 -0.0068774954 0.012641466
000280 1d 4b 22 3d 22 af 40 3c 89 36 4f bc e4 cf 3f 3d
       0.039622415 0.011760505 -0.01264728 0.04682912
000290 f3 5b 7b 3c c1 91 ea bc 94 2e f9 b9 2d be 58 bc
       0.015341747 -0.028633954 -0.00047527684 -0.013228935
0002a0 0e 7e 15 3d db ab 6f bb 7c b8 9c bc ec 8a b2 bc
       0.03649717 -0.003657094 -0.019130938 -0.021794759
0002b0 4e 99 b8 3c 37 d7 d2 bb 77 6c e2 bc 21 18 2b 3d
       0.022534039 -0.006434347 -0.02763961 0.041771058
0002c0 58 dd de bc 90 e0 0d bd 61 ea 15 bc 2d f1 d7 3b
       -0.027205154 -0.034637988 -0.009150119 0.0065900297
0002d0 78 02 1d 3c bc 90 1b bd 9a 86 1a bd 2e 8a 27 3c
       0.009583108 -0.037979826 -0.037726022 0.010225816
0002e0 1c 06 88 3b 17 76 9b 3c 23 0e ef bc 52 00 18 3d
       0.004151119 0.018977208 -0.029181546 0.03710968
0002f0 41 29 19 3d 76 6c ef bb 21 5f 91 3b 3e 30 0c 3d
       0.03739286 -0.0073066307 0.004436389 0.034225695
000300 48 12 b1 3b 75 f7 58 bc 7c 2b 2e 3a a4 11 2d bc
       0.0054037906 -0.013242592 0.0006644053 -0.010563288
000310 4e dd 8d 3d ab 58 a8 3c 01 43 d7 3c d2 a0 50 3c
       0.06926976 0.020550093 0.026277067 0.012733655
000320 88 23 f1 3c a7 4a 28 bc 3d 58 ee ba b0 f5 05 3c
       0.029435888 -0.010271705 -0.0018184256 0.008176252
000330 f4 47 14 bc 44 27 4c 3b b9 78 42 bc ff d4 42 3d
       -0.009050358 0.0031151334 -0.011869603 0.04756641
000340 d4 a5 a9 3c c8 ee 95 bb 0a 9d bb bc 83 13 70 3b
       0.020708956 -0.004575584 -0.02290203 0.0036632724
000350 96 2e 0d 3d 39 bd cb 3c ce d8 24 bd 63 8e a8 3c
       0.034468256 0.024870502 -0.040245824 0.020575708
000360 c1 ff e4 bb 37 dc 03 bc 65 58 64 3c f4 1d 6f 3c
       -0.006988496 -0.008048109 0.0139370905 0.014594544
000370 2c 21 25 3d a5 0b 01 3c ed 9d 90 bc 45 29 98 3c
       0.04031484 0.007876311 -0.01765343 0.018574366
000380 c9 74 36 3d 6b 23 c1 bc 9c f6 22 bc 4b be 8b 3c
       0.04454497 -0.023576459 -0.009946492 0.017058512
000390 2e 46 d3 3c 6c 22 7b bc d9 55 ba bc b5 12 96 3c
       0.0257903 -0.015328031 -0.022746013 0.018319467
0003a0 06 7f 87 bc bc 3e 8b bb 4b 6b 76 3c 89 28 6b 3c
       -0.016540062 -0.004249422 0.015040229 0.014352926
0003b0 e1 0e a3 3d 7f ab 50 bc 09 85 dd bb ad df b1 3c
       0.07961822 -0.0127362 -0.006760244 0.021713102
0003c0 70 3d 14 3b d9 0a bf bc b0 8a 34 bc 68 f7 0d 3c
       0.0022619627 -0.023320602 -0.011019394 0.008664943
0003d0 99 43 94 3d ed 81 0d bd 3e c1 6e bc 5a 58 b2 bc
       0.07239456 -0.034547735 -0.01457244 -0.021770645
0003e0 35 e9 2e 3d 71 02 1a bb b8 2f c9 3c 36 b0 70 3c
       0.042702872 -0.002349999 0.024558887 0.014690449
0003f0 f6 94 11 3d cb b6 d4 3c ac c4 a6 3b f7 15 c1 bb
       0.03554245 0.025966069 0.005089363 -0.005892511

transformer.h.0.ln_1.weight f4 [4]
000000 bf 53 95 3f 14 35 91 3f 66 90 93 3f 5c 55 9a 3f
       1.1666182 1.1344323 1.1528442 1.20573

transformer.h.0.attn.c_attn.weight f4 [12, 4]
000000 c7 d2 b3 bd d2 6f 9f bd 5e 38 a9 3d 28 ae 8f 3d
       -0.08780437 -0.07785 0.08262704 0.070156395
000010 cb e7 74 bd e2 7f 78 bd 8e 8b ba 3d cf 3b f3 3b
       -0.059791368 -0.060668834 0.09108649 0.007422901
000020 ab 5a 0b 3e 9d a0 1d 3e 02 81 6d be 08 0f b4 bc
       0.13608806 0.153933 -0.23193744 -0.021979824
000030 ae 26 e6 3d 0c 69 1f 3e 44 35 2c be 27 46 81 bd
       0.11237846 0.15567416 -0.16817194 -0.063122086
000040 93 ae 9e 3d c0 6b b4 3d c4 b2 f1 bd ab cd 81 bd
       0.07748141 0.08809614 -0.11801675 -0.06338056
000050 55 3b 0a 3e 1b 6e ec 3c 45 71 7b bd 88 4f bc bd
       0.13499196 0.028861096 -0.06138732 -0.09194857
000060 b0 07 42 be 0b 2f fc bd 9a a0 15 3d c1 8b 8f 3e
       -0.18948245 -0.1231366 0.036530115 0.2803631
000070 18 b6 07 be 14 73 47 be d4 11 c8 3d 82 ba 36 3e
       -0.13253057 -0.19477493 0.097690254 0.17844585
000080 26 51 a0 3d 55 2d 64 3d 36 10 0a be 39 6a 21 bd
       0.07827978 0.055707294 -0.13482746 -0.039407942
000090 e4 7f 1f 3d 24 e7 01 bb 1e 2d c8 bd b3 b5 5d 3d
       0.038940325 -0.0019821608 -0.097742304 0.05412836
0000a0 71 26 c7 3d 76 a7 aa 3d 3c f0 3a bd d4 a1 2e be
       0.09724129 0.08332722 -0.04563926 -0.1705392
0000b0 a4 62 32 3d dd 1b 9e 3d 93 27 27 bd 44 93 3f be
       0.043551102 0.07720158 -0.040809225 -0.18708521

transformer.h.0.attn.c_proj.weight f4 [4, 4]
000000 2b a4 f1 3d f7 e2 b9 3d 79 ba 11 3e 0d 2e 1d 3e
       0.11798891 0.09076493 0.1423129 0.15349598
000010 3f 7e 20 3d cf 34 8d bc 33 c6 85 3d d4 23 c7 3d
       0.039182898 -0.017237095 0.06531944 0.097236305
000020 15 7a 15 be b2 a4 8f bd 40 89 a7 bd 3b f1 f9 bd
       -0.14597352 -0.07013835 -0.08180475 -0.12204214
000030 4f fb 49 3b d2 e8 1c 3d a1 21 47 bc 6b 28 7a bd
       0.0030819958 0.038307972 -0.012154014 -0.0610737

transformer.h.0.ln_2.weight f4 [4]
000000 46 eb ae 3f 5a 85 c1 3f 5d 9d b2 3f 5e 42 b9 3f
       1.366555 1.5118821 1.3954273 1.4473379

transformer.h.0.mlp.c_fc.weight f4 [16, 4]
000000 b3 9a d4 3d eb 8f ae bd ca 68 37 bd 1c 8e 06 3d
       0.10381069 -0.08523544 -0.04477767 0.03285037
000010 82 2b 90 3d 5f b4 83 bc ff 8e ef 3c 5d 9f 8e 3c
       0.070395485 -0.016077219 0.02924299 0.017409975
000020 cf 9a af bd d6 ff 16 3e 69 c7 e9 bc 74 a4 5b 3d
       -0.08574449 0.14746031 -0.028537469 0.05362363
000030 9d c5 9f 3d c7 06 37 be da e7 dd bd 7c fb 62 3e
       0.078013636 -0.17873679 -0.10835238 0.22166246
000040 40 41 3d 3d 21 0b 84 3d 1c bb 66 bd 41 d6 95 bd
       0.046204805 0.06447435 -0.056330785 -0.07316256
000050 3f bd 24 bd 00 22 23 3d ad ce 24 bd 3b 5f 6d bb
       -0.04021954 0.039827347 -0.040236164 -0.0036220092
000060 c7 bc c3 be f8 b5 f0 be 57 34 be 3e 80 f6 d2 3e
       -0.38229963 -0.4701383 0.37149307 0.4120369
000070 2e 1d a2 3d a9 f2 e0 bd 40 55 28 bd 8b d7 e8 3d
       0.07915722 -0.10983784 -0.041096926 0.113692366
000080 34 35 3a bd 40 9d 95 3d 74 c6 b5 bd 52 b5 13 3d
       -0.045460895 0.07305384 -0.088757426 0.036061592
000090 85 da 4c be 8c 9f b1 3d fa 1a 3d 3d 96 07 21 3e
       -0.20005234 0.08673009 0.046168305 0.1572555
0000a0 e7 03 bd bd e3 57 74 3e 3f 68 47 3d 9e 79 f8 bd
       -0.0922926 0.23861651 0.0486834 -0.12132572
0000b0 c1 da 01 3d 78 31 c4 bd 6f 0a d9 3d 71 b8 c2 bc
       0.03170276 -0.09579748 0.10597693 -0.02376959
0000c0 9a 64 a0 3d f5 e9 07 be b5 95 a9 3d b1 fd 9a bd
       0.07831688 -0.13272841 0.082805075 -0.07567919
0000d0 51 49 b0 3d 6f 4a 11 bd 2b ae 02 3e 2f 9b e6 bd
       0.08607734 -0.035471376 0.12761752 -0.11260068
0000e0 a6 df 4b bd 26 f3 88 3c c0 68 a9 3d 68 2a 00 bd
       -0.049773835 0.016717505 0.082719326 -0.03129044
0000f0 41 50 da 3d 1e c9 66 bd a9 07 84 bc a7 52 0a 3c
       0.106598385 -0.056344144 -0.016116934 0.008442557

transformer.h.0.mlp.c_proj.weight f4 [4, 16]
000000 8f bd be bd 00 63 11 bc f8 b1 d1 3d 90 4c 8a bd
       -0.09313499 -0.008873701 0.10239023 -0.067528844
000010 c1 7d 6a 3d cc 81 75 3d 74 1b 8d 3e 9d 2b e4 bd
       0.057248835 0.059938237 0.27560008 -0.11141131
000020 20 e1 6b 3d 31 82 19 3e 52 ce 43 3e 99 3f 04 3d
       0.057587743 0.1499107 0.19121674 0.032287214
000030 39 a1 d1 3c 07 96 3d 3d 1f 0e a0 3d d5 26 84 bd
       0.025589572 0.046285655 0.078151934 -0.06452719
000040 3a 88 d8 3c 03 33 42 3d 1e 78 fd 3d 91 48 d1 3d
       0.026432145 0.04741193 0.12376426 0.10218919
000050 64 7f a2 bd cf 93 c7 bd f8 78 5d 3e f0 cc 76 3d
       -0.07934454 -0.09744989 0.21628177 0.060254037
000060 93 10 9c 3c 5c 18 95 3d 3e 63 10 3d f1 a5 68 3d
       0.019050872 0.07280037 0.035250895 0.05679888
000070 f1 e3 65 3c 7e ee d5 bc 22 c7 b9 bb 54 a1 96 3b
       0.014031396 -0.026114698 -0.0056694904 0.0045968685
000080 ea 2d f0 bd 74 f9 c4 bd c4 98 1c 3d bb 30 c9 bd
       -0.117275074 -0.09617892 0.038231626 -0.09823748
000090 e9 2d 0f bd d3 0b 09 ba 79 df a3 be 02 1f ae bd
       -0.034955893 -0.0005227897 -0.32006434 -0.08502008
0000a0 cd 77 3c bd fa 63 62 bd ef a2 da 3c 0c db 9e bc
       -0.04601269 -0.055271126 0.02668902 -0.019391559
0000b0 0d bf 8c bb 10 79 4d 3d eb 25 f1 3d 25 39 a2 bd
       -0.004295236 0.050164282 0.117748104 -0.07921056
0000c0 ae 9b c8 3c de 87 16 3d cc 77 a7 bd 91 50 cd bc
       0.024488296 0.036750667 -0.08177146 -0.025062831
0000d0 95 a0 e4 3b 51 75 9b bc 46 a7 01 be 22 9b 24 3c
       0.0069771507 -0.01897684 -0.12661466 0.010046752
0000e0 c0 e4 2c bd 2c bc 40 bd 48 fe ec bd d4 d2 d8 bc
       -0.04221034 -0.047054455 -0.11571938 -0.026467718
0000f0 27 f5 29 bd 73 01 3f bd 9a 0b 97 bc 19 68 2b 3c
       -0.04149356 -0.04663224 -0.01843815 0.0104618305

transformer.h.1.ln_1.weight f4 [4]
000000 78 e1 96 3f ad f0 94 3f 7c c6 95 3f a5 38 a4 3f
       1.1787558 1.1635948 1.1701198 1.2829787

transformer.h.1.attn.c_attn.weight f4 [12, 4]
000000 7b 63 20 be fa 67 1b be 18 d5 86 3e dd 30 99 bb
       -0.15662949 -0.15176383 0.26334453 -0.0046750144
000010 ac e3 20 be 32 2f da bd 32 f9 4e 3e 01 54 bf 3c
       -0.1571185 -0.10653533 0.20212248 0.023355486
000020 76 ef 17 be 26 76 0e be 7a 77 7c 3e e4 81 44 3d
       -0.14837441 -0.13912258 0.24654952 0.047975436
000030 6f 03 25 be 78 33 13 be f6 f4 6c 3e a7 d2 74 3d
       -0.16114591 -0.14375103 0.2314032 0.059771206
000040 fe 03 55 3e 84 d0 31 3e 4b 5d f3 bc d5 fd 98 be
       0.20802304 0.17364699 -0.029707571 -0.29881158
000050 8b 70 15 3e 35 c0 e4 3d 13 c9 d6 bd 88 39 3b be
       0.14593713 0.11169473 -0.104875706 -0.18283665
000060 d2 f1 37 3e 6c ad 22 3e e7 a8 cf bd 8d 9e 80 be
       0.17963341 0.15886468 -0.101396374 -0.25120965
000070 ad 72 3e 3e c6 b9 1c 3e 58 c3 11 be af 55 44 be
       0.18598433 0.15305242 -0.14234674 -0.1917331
000080 2d 20 c7 bd 4e 12 a1 bd 82 17 5e 3d 58 90 91 3e
       -0.09722934 -0.078648195 0.054221638 0.28430438
000090 df 10 c7 3d 2b fa 95 3d d6 5f a7 bd 83 f1 ef bd
       0.09720015 0.073231064 -0.08172576 -0.117159866
0000a0 e4 c1 db 3d c7 25 fa 3d d4 8f e6 bd 89 0d 6f be
       0.10730341 0.12214237 -0.11257902 -0.23345007
0000b0 29 6a a1 bd 23 eb eb bd 09 93 0d 3e b2 5e 3b 3e
       -0.078815766 -0.11519458 0.1382562 0.18297842

transformer.h.1.attn.c_proj.weight f4 [4, 4]
000000 9e 75 31 be 11 6c 15 3e f5 ca 19 3e 9b ad 00 be
       -0.17330024 0.14592005 0.15018828 -0.12566225
000010 d4 70 b4 bd 53 58 4f 3d 4c b1 6e 3d 51 29 35 bd
       -0.08810583 0.050621342 0.058274552 -0.044228856
000020 f1 30 00 3e fb 75 0b be 6f 4a 13 be 1e 30 0a 3e
       0.1251867 -0.13619225 -0.14383863 0.13494918
000030 c6 36 86 3d 84 eb 26 bc 7a 55 ed bc 74 b5 44 3c
       0.06553416 -0.010187987 -0.028971422 0.012006152

transformer.h.1.ln_2.weight f4 [4]
000000 db 0c 95 3f 8f f6 a5 3f 6b 92 94 3f 79 89 a0 3f
       1.1644548 1.2965869 1.1607183 1.2541953

transformer.h.1.mlp.c_fc.weight f4 [16, 4]
000000 9c 28 7a 3d 5c b9 48 be ef 75 6a bd 3a 66 82 3e
       0.061073884 -0.19601959 -0.057241376 0.25468618
000010 1e f9 26 3e 66 3c 27 bd 59 7b 15 bd 94 f7 1e bd
       0.16305968 -0.040829085 -0.036494587 -0.038810328
000020 62 b6 25 3d 91 7d f4 3d f7 61 d1 3b 62 f9 d2 bd
       0.040457137 0.119380124 0.006389852 -0.10301472
000030 8f 03 e1 bc 83 ca 33 3e 4f cf 2b 3d d4 ac 00 be
       -0.027467517 0.17557721 0.04194575 -0.12565929
000040 5b e1 ee 3d 83 33 88 be 65 5c 72 bd 22 40 21 3e
       0.11664077 -0.266018 -0.059170146 0.15747121
000050 c7 3b 1f be 16 60 64 3e 76 b7 07 bd 0f a3 ba bc
       -0.15550147 0.22302279 -0.033133946 -0.02278283
000060 a0 e3 2c be 28 26 3c 3e a8 4d 3d bd 44 36 40 3d
       -0.16883707 0.1837393 -0.046216637 0.04692675
000070 d1 1f df 3d a7 73 bf 3c 63 67 a8 3c a1 af 85 bd
       0.108947404 0.023370577 0.020557111 -0.06527639
000080 19 e3 f7 3c 1b b2 36 be e7 37 a1 bd c5 b4 a3 3e
       0.030259656 -0.1784138 -0.07871991 0.31973854
000090 b5 aa 28 3e be fb 5d bd c0 a8 c4 bc 24 e7 3d bd
       0.1647137 -0.05419516 -0.024006248 -0.04636301
0000a0 61 cc 12 3e 8d 1f 19 bd a3 8b 74 bc 37 a1 80 bd
       0.14335777 -0.037383605 -0.01492587 -0.06280749
0000b0 c4 bb d7 3d 60 eb e3 3d db ca c7 bb df 9f 39 be
       0.1053386 0.111288786 -0.0060971803 -0.18127392
0000c0 8a 10 ab bc e1 7b 2f be aa 47 84 3b 1d 9e 40 3e
       -0.02088191 -0.171371 0.0040368633 0.18810315
0000d0 25 21 ee 3c 9e bf 56 be d1 8f 23 3e c9 7c 93 bd
       0.029068539 -0.20971534 0.1597283 -0.07201535
0000e0 07 15 de bc 42 75 3d 3d e9 05 1f bd e6 8a 62 3d
       -0.027109636 0.046254404 -0.038823996 0.055308245
0000f0 51 c7 66 bd e5 62 16 3e ff 7f 41 bd dd 45 a9 bd
       -0.056342427 0.14686163 -0.047241207 -0.082652785

transformer.h.1.mlp.c_proj.weight f4 [4, 16]
000000 c7 c2 85 bd ec 10 b2 bd 2e aa db 3d f7 12 3a 3e
       -0.065312915 -0.08694634 0.107258186 0.18171297
000010 bf 65 90 bd 19 98 1f 3e 1a ce 25 3e 00 63 24 3c
       -0.070506565 0.15585364 0.16191903 0.010033369
000020 34 10 93 bc 0b b0 c9 bd fd ab 47 bd 93 9e 1c 3d
       -0.017952062 -0.09848031 -0.048748005 0.038237166
000030 df af a2 bc 1a a1 a6 3d 46 1d a1 ba af bb 21 3e
       -0.019859252 0.081361964 -0.0012292049 0.15794252
000040 77 33 3a 3e 28 79 c7 bb 52 c1 62 bd 97 36 d9 bc
       0.18183695 -0.006087441 -0.055360146 -0.026515288
000050 e0 f7 f4 3d c9 37 c2 3c 6e d9 1b 3d b4 54 37 38
       0.11961341 0.023708241 0.038049154 4.3709486e-05
000060 8b 40 2b 3e a2 f0 a5 3b 47 af cf 3b 1a 55 aa bc
       0.1672384 0.005064086 0.0063380334 -0.020792533
000070 89 7c 20 3e 37 dd 1d 3e 3b c8 36 3c 3e a4 c4 bd
       0.15672506 0.15416418 0.011156137 -0.09601639
000080 9b 45 da bd 49 5e ce bd 5a b2 f4 bd c0 54 c2 bd
       -0.106578074 -0.10076577 -0.1194808 -0.09488821
000090 d7 03 47 be 82 8e 14 bd 14 e0 2b bd 9c a9 fc bd
       -0.19435059 -0.03626872 -0.041961744 -0.12337038
0000a0 a7 07 e8 bd 88 ac 01 be d9 20 aa bd 23 d9 f2 bc
       -0.113295846 -0.12663472 -0.083070464 -0.029644554
0000b0 2f 70 98 bc 57 0f 71 bd e3 39 da bc 3b 4f 2c bd
       -0.01860818 -0.05885252 -0.02663893 -0.042067748
0000c0 64 6e 96 bd 62 eb 4c 3d ca 0a 1d 3d d6 24 39 bb
       -0.07345274 0.050029166 0.038340367 -0.0028250716
0000d0 62 6a 9f bc 76 47 59 bd b2 98 8b bd e9 85 93 3d
       -0.019459907 -0.053046666 -0.06816234 0.07203276
0000e0 bb ea bf bd 0a 26 76 3d 50 b2 08 3d 13 b3 16 3c
       -0.09370943 0.06009487 0.033373177 0.009197968
0000f0 94 5a a1 bd 6f 69 57 bd 65 c7 ec bc 76 81 7d bc
       -0.078786045 -0.052590784 -0.028903672 -0.01547276

transformer.h.2.ln_1.weight f4 [4]
000000 6e 20 8f 3f b7 a0 90 3f 23 7b 91 3f 86 be a4 3f
       1.1181772 1.1299046 1.1365703 1.2870643

transformer.h.2.attn.c_attn.weight f4 [12, 4]
000000 c5 0e 80 3d e8 f5 3e bd af ee 63 3c 53 ac 4e bd
       0.06252817 -0.046621233 0.013911887 -0.05045731
000010 fc e5 59 bd c7 64 68 bd 95 d1 9c 3d 14 0d d5 ba
       -0.053197846 -0.056736734 0.07657162 -0.0016254508
000020 71 e6 db bd 5e 75 96 bd 62 f2 07 3e 47 8c 52 bd
       -0.107373126 -0.07346605 0.13276055 -0.05140331
000030 40 b2 eb 3d 89 70 d9 3d c3 ab 30 be 79 42 53 3a
       0.11508608 0.106171675 -0.17253022 0.00080589164
000040 1a 1a 32 bc 95 60 3e bd 8b 2a 84 3c 8d 39 e6 3c
       -0.010870481 -0.046478827 0.016133567 0.028103614
000050 da 9c a6 3d 44 0b 81 3d 4c d2 a5 bd fe ca e0 bd
       0.08135386 0.06300977 -0.080967516 -0.10976218
000060 c2 de fb bb 62 ea 95 3b ff e4 ee bb 95 5d a6 bd
       -0.007686467 0.0045750597 -0.007290482 -0.08123318
000070 9f 72 ef bd 5b f5 51 bd ba a1 d9 3c 62 88 2a 3e
       -0.11691784 -0.05125938 0.026566375 0.16653588
000080 66 48 23 bd f3 a0 87 bd c4 bf 9d 3d a6 3f 49 be
       -0.039863966 -0.066224955 0.07702592 -0.19653186
000090 bf 86 94 bd 45 2e c6 bd ff 9f a1 3d d9 5f 28 3e
       -0.07252263 -0.09676794 0.07891845 0.16442813
0000a0 62 89 97 3d e8 1b a1 3d 4b 8c b6 bd a6 41 48 be
       0.073992506 0.07866651 -0.089134775 -0.19556293
0000b0 25 ba 78 3d 91 90 5b 3d cc f6 44 bd 99 b8 87 be
       0.060724396 0.053604666 -0.048086926 -0.26508024

transformer.h.2.attn.c_proj.weight f4 [4, 4]
000000 1a ed 70 bd 2a e9 00 be f7 28 fc 3d 1b 74 08 3e
       -0.058819868 -0.12588945 0.12312501 0.1332554
000010 7c e6 45 3d c4 a5 20 bd e3 9c dc 3c c7 07 70 3d
       0.04831551 -0.039220586 0.026930278 0.058601167
000020 14 16 cb 3d 87 49 1b 3e 34 ef 12 be 89 1f 0c be
       0.099163204 0.15164767 -0.14349061 -0.13683905
000030 a1 7c 80 bd 0d 8e 54 3c 67 35 d2 bc 8e 4a 00 bd
       -0.06273771 0.012973321 -0.02566023 -0.0313211

transformer.h.2.ln_2.weight f4 [4]
000000 8a fe 98 3f 53 e6 99 3f 94 03 8d 3f 9c 2a a2 3f
       1.1952679 1.2023414 1.1016717 1.2669253

transformer.h.2.mlp.c_fc.weight f4 [16, 4]
000000 36 25 df bc 54 45 4c 3d 93 04 90 3b e6 37 8a bd
       -0.027239423 0.049870804 0.0043950765 -0.06748943
000010 6e dc 0c bd d0 a4 a2 bd 78 1a b9 39 17 05 c3 3d
       -0.034389906 -0.07941592 0.0003530567 0.09522455
000020 f4 33 c3 3d a9 d7 18 3d fb e4 c0 3b 4c 9b e6 bd
       0.09531394 0.037315045 0.0058866716 -0.11260089
000030 5a 52 57 bd 2c 22 90 bd dd b2 8f 3b 94 b1 3e 3e
       -0.05256877 -0.07037768 0.004385336 0.18622428
000040 3e 3a 09 bd 44 db cb 3d 7e b2 92 bc 57 45 30 be
       -0.03350281 0.09953931 -0.017907377 -0.17213951
000050 9f e6 c2 bd 3e 1a cf bd fb 21 a8 3a 7b 64 43 3e
       -0.09516644 -0.10112427 0.001282751 0.19081299
000060 16 cb ed 3d 2d 3d 9e bd 34 3b 02 3e 9d b5 6b be
       0.11611001 -0.07726512 0.12717897 -0.23018499
000070 4a 83 dd bd 7d eb 1e bd ee c2 35 bd 1b 56 3a 3e
       -0.10816057 -0.038798798 -0.044375353 0.18196909
000080 55 f0 c6 bd 7c 30 f3 bd bb 3c 21 bc e7 fa 0b 3e
       -0.097138084 -0.11874482 -0.009841139 0.1366993
000090 49 96 b2 bd 56 7e 91 bc fd 90 b6 3b 4d 83 c9 3d
       -0.08720071 -0.017760437 0.005571483 0.09839497
0000a0 f3 b4 27 3d 07 90 5b 3d c5 49 8f 3d 96 5d 2d be
       0.04094405 0.053604152 0.06996492 -0.16930231
0000b0 03 bd a1 bd 6f 68 cd bd 55 be 14 bc 5e 23 13 3e
       -0.07897379 -0.10029685 -0.009078582 0.1436896
0000c0 3e 7e b5 3c 83 a2 fe 3d 06 5a 2c 3d f1 ab db bd
       0.022154924 0.124333404 0.04207804 -0.107261546
0000d0 69 9f 56 3e 4e ec 68 be 5a 67 b0 bd e1 c3 fd 3d
       0.20959248 -0.22746393 -0.08613463 0.123908766
0000e0 74 c6 cf bd 86 83 0c 3e 74 0e 20 be 4f 11 23 3e
       -0.10145274 0.13722047 -0.15630513 0.15924571
0000f0 72 c8 04 3d 8f 12 d7 3d b3 48 81 3d b7 48 27 be
       0.032417722 0.10501587 0.063126944 -0.16336332

transformer.h.2.mlp.c_proj.weight f4 [4, 16]
000000 7e f1 e9 3d 2e 08 b3 bb 11 a9 34 3d 5d 10 97 3c
       0.11423014 -0.0054636216 0.044106547 0.01844042
000010 a0 6d f3 3d 4e 95 cd 3c 52 95 dd 3d 4a 4c 1c 3d
       0.11886144 0.025095608 0.10819496 0.038158692
000020 f1 4c 19 3c 82 ce a8 3d b2 a8 19 3e 6f c3 10 3c
       0.009356723 0.08242513 0.15005758 0.0088356575
000030 31 b2 16 3e 21 2a ef bd 38 66 f4 3d 08 ff 3e 3e
       0.14716412 -0.11677957 0.11933559 0.18651974
000040 81 ef c0 bd 05 8b 4e 3d a6 69 b2 bc 8e db a3 3d
       -0.09420682 0.050425548 -0.021778893 0.08000861
000050 c6 8f 03 be a6 f7 8c 3d c2 bb 9d 3d 3d bf bf 3d
       -0.12847814 0.06883173 0.077018276 0.09362648
000060 54 af 39 3d 9b 73 21 3d 93 8d 43 bd dd 51 63 3d
       0.04533322 0.03941689 -0.047742438 0.055497993
000070 65 0d 93 bd fd 85 e2 3d 15 91 4d 3a 80 e0 8b bd
       -0.07180289 0.110607125 0.00078417483 -0.06829929
000080 f0 6a 0c ba 46 e2 5c 3d 67 c9 c6 bd 0d 2a 29 3d
       -0.0005356511 0.05392673 -0.09706383 0.04129987
000090 b9 5d 0d 3c 85 fd 62 3d 17 0c 49 be 52 f6 58 3d
       0.008628302 0.055417556 -0.19633518 0.052969284
0000a0 7f 44 87 3d 23 58 79 3d b3 93 99 bd db 39 95 3d
       0.066048615 0.06087507 -0.074988745 0.07286426
0000b0 4d 20 9a bd 1e 42 df bd 4e fb 4c bd de 37 be bd
       -0.07525692 -0.10901283 -0.05004435 -0.092879996
0000c0 59 53 00 bc 0f d0 7d bd 00 82 41 bb 0f f4 6a bd
       -0.007832372 -0.061966 -0.002952695 -0.05736166
0000d0 3b 48 62 3b 23 54 9b bd 34 3d f0 3c 0a 32 00 be
       0.0034527916 -0.07584407 0.029326059 -0.12519088
0000e0 09 bb 95 bd c2 cc 60 bd 7b 49 10 3d 8d 4f af bd
       -0.07311065 -0.054882772 0.035226326 -0.08560095
0000f0 76 ef ae 3c 04 f6 15 bc c1 bd 8a bd e7 be 5b 3d
       0.021354418 -0.009152893 -0.06774474 0.053648856

transformer.ln_f.weight f4 [4]
000000 10 8c cb 3f 6d 22 c2 3f fd 0b c7 3f 35 6c ba 3f
       1.5902119 1.5166756 1.5550534 1.4564272

lm_head.weight f4 [5, 4]
000000 f7 5c c2 be d3 12 b3 be 8f d0 cc 3e 73 8b 5a 3e
       -0.37961552 -0.349753 0.40002868 0.21342258
000010 62 47 1e 3e 75 51 a6 3e aa 79 e1 bd 71 92 89 be
       0.15456918 0.32484022 -0.11009534 -0.26869538
000020 87 be 90 3d a0 f6 66 3d b5 cc 1d be f1 8c ce 3d
       0.0706759 0.056387544 -0.15410121 0.10085476
000030 a1 af c8 3d 64 0f ba 3c cf 21 23 be 09 21 b9 3d
       0.097991236 0.022712417 -0.15930866 0.09039504
000040 fc 18 74 3e 2d 8b 8f 3d 81 5d 26 be e9 24 0d be
       0.23837656 0.070089675 -0.16246606 -0.13783611

exp_avg f4 [5, 4]
000000 a8 9e 83 37 4e ae 0a 39 2d dc f8 39 fc 54 a4 b9
       1.5690297e-05 0.00013225639 0.0004746629 -0.00031343836
000010 80 c7 b3 3b 32 4c e2 ba 02 1a c5 bb 17 12 15 3b
       0.0054864287 -0.001726514 -0.0060150633 0.0022746378
000020 33 07 c8 3b 3c ed 20 3b eb 69 06 bc cb 58 55 3a
       0.006104374 0.0024555465 -0.008203964 0.00081385364
000030 ed 05 a9 39 5e f7 99 b8 81 6e 40 3b 7f 78 1d bb
       0.00032238607 -7.341684e-05 0.002936274 -0.002402812
000040 b4 31 3b bc 75 fd a7 3a 66 35 25 3c ed 56 24 ba
       -0.011425424 0.0012816625 0.010083532 -0.00062690565

exp_avg_sq f4 [5, 4]
000000 98 5d 93 36 4f 70 2b 36 41 b1 8c 36 1e 30 91 36
       4.391837e-06 2.5546358e-06 4.19296e-06 4.3269383e-06
000010 88 d2 03 3a 14 f0 02 39 6d 20 69 3a d4 9d 9a 38
       0.0005028625 0.00012487202 0.00088930764 7.37269e-05
000020 b5 6e cb 39 97 24 89 38 47 c9 4a 3a 52 9d 94 38
       0.0003880166 6.5394845e-05 0.0007735681 7.086493e-05
000030 06 21 d0 39 26 bc bb 38 df 89 59 3a 71 53 b0 38
       0.00039697456 8.9519e-05 0.00082984375 8.407876e-05
000040 94 ef 14 3a 36 0a 35 39 c7 48 75 3a 6d a8 95 38
       0.0005681452 0.00017265309 0.0009356853 7.1362454e-05

exp_avg f4 [256, 4]
000000 78 57 09 38 9e 02 0c b8 74 19 22 39 03 35 ba 38
       3.2744807e-05 -3.338104e-05 0.00015459006 8.879045e-05
000010 92 00 7a 3a 2a 7c 70 3a d9 52 8a b6 a8 8e ab ba
       0.0009536828 0.00091737753 -4.122365e-06 -0.001308878
000020 c9 86 a4 38 fa 85 52 39 ce 44 7b 37 0f c6 b0 b9
       7.845235e-05 0.00020077071 1.4976786e-05 -0.000337169
000030 3f 9c d3 37 26 8e 5b b9 a2 ac 5e b8 7e be 31 38
       2.5225918e-05 -0.00020938422 -5.30897e-05 4.2377498e-05
000040 6f a2 b4 b7 f4 34 01 39 86 14 d9 37 1d f5 34 b9
       -2.1533311e-05 0.00012322125 2.5877973e-05 -0.0001725745
000050 3e 24 cc b7 4f 01 0d 39 91 6e e3 36 31 6a d8 b8
       -2.4335572e-05 0.00013447295 6.777999e-06 -0.00010319462
000060 d0 b8 e4 37 96 80 02 38 1f 41 12 b6 62 7f 31 b9
       2.7265778e-05 3.111417e-05 -2.17936e-06 -0.00016927489
000070 74 44 a7 b7 da 11 cb b5 65 8c 32 37 e8 8f 6f b8
       -1.9939827e-05 -1.5129874e-06 1.0642315e-05 -5.7116064e-05
000080 ee 05 5e b7 d5 f3 c9 b7 29 c0 26 38 3c 60 a6 38
       -1.3233612e-05 -2.407461e-05 3.9756447e-05 7.933422e-05
000090 19 e8 24 38 0f 22 13 b8 e9 9a b3 b7 df 59 14 39
       3.9316805e-05 -3.507925e-05 -2.1410598e-05 0.0001414786
0000a0 a4 b4 f6 37 ec d6 a6 38 e0 21 73 38 26 ff 2e b8
       2.9409603e-05 7.955529e-05 5.7967263e-05 -4.172246e-05
0000b0 85 be a1 b8 ae 38 3e b8 70 bc 38 38 f2 6f e5 38
       -7.712565e-05 -4.5352317e-05 4.4044515e-05 0.00010940422
0000c0 3c 2c 80 b7 96 5c de 38 1a 99 3e 38 aa b2 fe b8
       -1.5279387e-05 0.000106030304 4.5442117e-05 -0.000121449426
0000d0 a9 ed 0e 37 44 f6 91 38 fc d5 57 b8 2f 7d 91 38
       8.519194e-06 6.960009e-05 -5.1459283e-05 6.937456e-05
0000e0 ca c1 bf 37 2d 89 4b 39 0c 0e fd 37 0d 5a 9d b9
       2.2859214e-05 0.0001941069 3.0166491e-05 -0.00030012467
0000f0 44 86 4b 38 09 a9 34 b9 12 70 f2 b8 dd 9f 73 38
       4.8524016e-05 -0.00017229108 -0.00011560334 5.80846e-05
000100 79 88 22 37 a3 b6 0c 39 a8 bb 21 b8 1e 02 f0 b8
       9.6877275e-06 0.00013419478 -3.856016e-05 -0.00011444486
000110 a6 71 3d b8 af 74 14 39 ef db 93 38 56 ec 28 b8
       -4.5166955e-05 0.00014157848 7.050472e-05 -4.0274426e-05
000120 f3 b2 ce b7 27 55 75 39 12 70 8a 38 1b 07 57 b8
       -2.4640443e-05 0.00023396742 6.6012275e-05 -5.1266612e-05
000130 5c 32 a5 37 39 c4 6f b8 4a c2 2e 38 0c a8 4c 38
       1.9692983e-05 -5.7164787e-05 4.166578e-05 4.8793896e-05
000140 1a 22 3b 37 b6 d8 74 38 e5 26 8b 36 cb 24 e9 b8
       1.11540085e-05 5.837596e-05 4.1470507e-06 -0.00011117159
000150 5f 26 02 38 df d3 bd b8 39 4c 78 38 c3 63 cf 38
       3.103015e-05 -9.051686e-05 5.9198795e-05 9.889111e-05
000160 11 c8 3f 38 6c df b2 b8 0a 73 a6 b7 39 fe 92 37
       4.5724275e-05 -8.529317e-05 -1.9842311e-05 1.7522938e-05
000170 44 54 13 38 fb ff 73 b8 92 03 3e b7 9f 6e 41 38
       3.512601e-05 -5.8174115e-05 -1.1325714e-05 4.611781e-05
000180 a0 f5 7d 35 b5 5e 50 b8 e4 16 fa b8 63 1d a4 38
       9.4607276e-07 -4.9679267e-05 -0.00011925193 7.825603e-05
000190 d9 bb dd b8 b5 81 44 b9 d4 ff 80 b8 e5 70 11 39
       -0.000105730905 -0.00018740336 -6.151167e-05 0.00013870334
0001a0 26 8d db 37 c6 04 51 35 d2 4e 52 b8 b6 f1 f9 b7
       2.6172562e-05 7.7865514e-07 -5.014131e-05 -2.9795669e-05
0001b0 3a 90 2d b7 59 4d f6 38 59 20 3b b7 96 2f 11 b9
       -1.0345184e-05 0.00011744601 -1.11536e-05 -0.00013846005
0001c0 d8 0c a7 37 a1 4d 9e 38 24 4a e6 b6 5c 12 6e b8
       1.9913932e-05 7.5484866e-05 -6.8631653e-06 -5.676072e-05
0001d0 6a 93 08 b8 28 f0 50 39 2b 32 36 38 c0 e7 99 b8
       -3.2562217e-05 0.00019925891 4.3438904e-05 -7.338775e-05
0001e0 79 61 6b 37 65 20 19 38 92 2d 9c b8 d1 19 01 b7
       1.4029786e-05 3.6508212e-05 -7.447148e-05 -7.69501e-06
0001f0 eb 6e 78 b6 18 c0 ee 38 d3 d3 32 b7 bb ed a4 b8
       -3.7019443e-06 0.000113845046 -1.0658946e-05 -7.86441e-05
000200 eb f6 1b 38 13 43 81 b8 4f 6b 78 b8 0b 5d 6e b7
       3.718484e-05 -6.163693e-05 -5.9227747e-05 -1.4207569e-05
000210 aa 29 d2 37 66 c0 cf b5 52 09 4f 38 fb 1d 3b 36
       2.5053352e-05 -1.5478697e-06 4.9361326e-05 2.7882622e-06
000220 ab 6a 0b b8 9b 77 47 39 6b c6 a2 b7 3c 00 87 b9
       -3.3239525e-05 0.00019022675 -1.94043e-05 -0.0002574938
000230 f8 37 51 b8 9d 38 f0 38 b9 61 11 37 25 6d fc b8
       -4.9881608e-05 0.00011454637 8.665426e-06 -0.00012036626
000240 b9 aa 50 b8 97 b2 96 b8 5a 61 ef b7 03 9e f7 38
       -4.9750062e-05 -7.185822e-05 -2.8536353e-05 0.0001180731
000250 ec 39 bb b7 ca d7 4b b9 f6 ec b4 b8 99 db 86 39
       -2.231911e-05 -0.00019439976 -8.627206e-05 0.00025722085
000260 e7 0f a0 b8 c0 3a a0 b6 7a b7 a4 b4 77 1d 3c 39
       -7.6323566e-05 -4.775211e-06 -3.0680877e-07 0.00017940054
000270 e8 8e cf b7 18 df a4 b8 93 fb a6 b5 fb 1e 15 39
       -2.4742869e-05 -7.861684e-05 -1.2441182e-06 0.00014221288
000280 b5 4f 59 37 41 6c ee 37 75 ae 06 b8 3f b7 74 38
       1.2952766e-05 2.842222e-05 -3.2110565e-05 5.8344795e-05
000290 08 37 63 b7 92 5f 24 b9 d9 b9 d0 38 40 9c d9 38
       -1.3543067e-05 -0.00015675862 9.95283e-05 0.0001037647
0002a0 1c 0b 0c b8 90 2d 66 39 6c e6 3a b6 25 f0 fd b8
       -3.3388947e-05 0.00021951483 -2.7850283e-06 -0.000121087105
0002b0 c6 69 21 38 e8 bf 01 b8 bd f4 b6 b7 03 55 b8 38
       3.84839e-05 -3.0934723e-05 -2.1810056e-05 8.7896384e-05
0002c0 2c 19 86 b8 1b 51 8a b7 1a a1 83 38 fe 75 85 b8
       -6.3943065e-05 -1.648865e-05 6.276574e-05 -6.363912e-05
0002d0 ff 6a b4 37 1d 3a ce 38 83 3a 1f 37 ec b9 c3 b7
       2.1507496e-05 9.83367e-05 9.490762e-06 -2.3332388e-05
0002e0 7e 28 8f 38 2c 80 3d 38 2b 9c 0a b7 87 b6 89 b8
       6.8263136e-05 4.518048e-05 -8.261802e-06 -6.5666674e-05
0002f0 7a 25 8f b5 0f 89 6b b9 51 74 3f b8 5c 15 2a b8
       -1.0665237e-06 -0.00022462405 -4.5646277e-05 -4.055105e-05
000300 ca f9 59 b6 d3 5c e8 38 81 87 15 38 b7 64 34 b9
       -3.2480916e-06 0.00011079912 3.5650566e-05 -0.00017203657
000310 e9 6c de 37 b4 f7 46 38 e3 ae 48 b6 06 65 ba b8
       2.6515178e-05 4.743757e-05 -2.990412e-06 -8.887988e-05
000320 46 06 a4 b8 9f 00 f0 b8 4a fc b5 b7 e3 2c b1 38
       -7.821298e-05 -0.000114442075 -2.1694363e-05 8.4483785e-05
000330 72 95 bb 37 e7 9b 81 38 a9 b6 a1 b8 1a b3 c0 38
       2.2361728e-05 6.1802384e-05 -7.711101e-05 9.188634e-05
000340 cf cd a1 36 27 26 1f b9 21 92 74 37 b1 08 79 39
       4.822133e-06 -0.00015177634 1.4577557e-05 0.00023749728
000350 37 b8 56 b7 b8 21 0c b8 7f 09 fb 37 39 fd 0b 37
       -1.2798285e-05 -3.3410004e-05 2.9925954e-05 8.344004e-06
000360 be 8c c5 b7 98 9b c1 b7 4c d8 0e b8 75 17 1e 39
       -2.3549768e-05 -2.3079847e-05 -3.405688e-05 0.00015076793
000370 4b d5 9e b7 26 9c 11 38 96 0e 17 37 36 35 a8 38
       -1.893439e-05 3.471612e-05 9.003697e-06 8.0207756e-05
000380 22 24 cd b7 43 39 b3 35 43 69 4a 37 33 14 5d 38
       -2.445473e-05 1.3353205e-06 1.2064646e-05 5.2709318e-05
000390 1a 97 d0 36 b9 36 f5 37 27 43 2a 37 9c 5d be b8
       6.2164736e-06 2.9231758e-05 1.0148425e-05 -9.077342e-05
0003a0 25 6f 43 38 b7 ec de 38 92 fe ea b6 cf 82 3e 38
       4.6595134e-05 0.000106298765 -7.0033793e-06 4.5421355e-05
0003b0 66 aa ba 37 a1 04 40 39 a5 85 15 37 43 c7 14 b8
       2.2252276e-05 0.00018312271 8.912209e-06 -3.5471527e-05
0003c0 61 c2 32 b8 8b a0 f5 b7 8e 89 fb b6 a4 8d 0a 39
       -4.2619537e-05 -2.9281035e-05 -7.4963964e-06 0.00013213471
0003d0 ac 18 0e b8 71 98 86 37 3e c7 d2 b8 a5 13 a3 b7
       -3.3878416e-05 1.604503e-05 -0.00010050692 -1.9440262e-05
0003e0 7a 2f ce b6 b1 59 a4 b8 8b 9b 95 b7 b7 e9 43 b8
       -6.1448054e-06 -7.836836e-05 -1.7834614e-05 -4.6709287e-05
0003f0 e0 9b d3 b5 e0 05 36 b8 ea 0d 31 35 d8 e1 96 38
       -1.5766091e-06 -4.3397653e-05 6.5957886e-07 7.194624e-05

exp_avg_sq f4 [256, 4]
000000 e5 08 d6 34 8a d9 a1 34 6a b5 bc 34 50 f1 2d 36
       3.9867078e-07 3.0146867e-07 3.5149725e-07 2.5919471e-06
000010 85 fd 9e 35 8b 5e c1 35 51 b8 0b 33 c3 69 2f 36
       1.1845701e-06 1.4407136e-06 3.2531094e-08 2.6138594e-06
000020 2f 50 7a 34 02 b0 12 35 0b e8 1e 33 c8 09 5b 35
       2.3312235e-07 5.4645363e-07 3.6998284e-08 8.159809e-07
000030 5b be 38 33 9e 25 e9 34 eb 6d 03 33 04 40 11 35
       4.3013966e-08 4.3427002e-07 3.0600784e-08 5.4109864e-07
000040 b9 03 d3 32 47 cd 47 34 8b b0 07 33 7f c7 ea 34
       2.4565326e-08 1.8607999e-07 3.1592702e-08 4.373105e-07
000050 2c 28 43 33 77 41 ac 34 dc 48 12 33 07 df d0 34
       4.543851e-08 3.2085129e-07 3.405954e-08 3.8905293e-07
000060 28 f0 45 33 28 60 7e 34 cc d7 09 33 33 9a ba 34
       4.6086058e-08 2.3690575e-07 3.2094064e-08 3.4757394e-07
000070 e6 61 5c 33 5e f8 94 34 2b 7c 34 33 65 53 cf 34
       5.131178e-08 2.774786e-07 4.2022446e-08 3.8617432e-07
000080 fa 6f 3d 33 bb 2e bb 34 62 60 28 33 26 5a 9e 34
       4.4106834e-08 3.4865465e-07 3.9203208e-08 2.9495385e-07
000090 c1 c7 4c 33 72 3c 6c 34 12 10 27 33 ae 0d 9b 34
       4.7679126e-08 2.2001203e-07 3.8897333e-08 2.8880953e-07
0000a0 e6 c6 74 33 4c 88 81 34 52 98 2a 33 0e 20 e9 34
       5.6991574e-08 2.4127291e-07 3.9719744e-08 4.3422955e-07
0000b0 10 02 30 33 c6 8c 3d 34 e7 6d ea 32 88 49 8a 34
       4.098007e-08 1.765321e-07 2.7291163e-08 2.5758004e-07
0000c0 3b 9c 27 33 e0 d1 a6 34 2a 17 29 33 50 58 b0 34
       3.902481e-08 3.1072614e-07 3.9369446e-08 3.284681e-07
0000d0 f4 02 fa 32 51 35 5a 34 fd 4a 1b 33 54 21 b3 34
       2.9105173e-08 2.0322229e-07 3.615695e-08 3.3365598e-07
0000e0 e6 41 2f 33 7e 08 9b 34 09 e5 43 33 24 a3 a8 34
       4.0805297e-08 2.887718e-07 4.561028e-08 3.141114e-07
0000f0 67 84 68 33 ae d8 94 34 5d 94 6e 33 12 3f be 34
       5.413713e-08 2.7724803e-07 5.554863e-08 3.5436148e-07
000100 ef 94 0a 33 57 47 8d 34 69 ac 26 33 4e 37 c8 34
       3.2266083e-08 2.6315203e-07 3.8806693e-08 3.7293142e-07
000110 e3 db d2 32 26 b8 5c 34 b5 de 0f 33 f9 53 9a 34
       2.454721e-08 2.055609e-07 3.3497333e-08 2.8745833e-07
000120 66 43 03 33 c9 9e 9b 34 c4 ee 26 33 61 9c b0 34
       3.0562113e-08 2.898653e-07 3.8867043e-08 3.2896335e-07
000130 b6 a8 63 33 c2 db 88 34 83 be 09 33 3c 3a b6 34
       5.3005998e-08 2.549187e-07 3.2071068e-08 3.3942513e-07
000140 ae 30 18 33 a9 cc 64 34 a3 92 24 33 3d fa 91 34
       3.543453e-08 2.130861e-07 3.831759e-08 2.7190427e-07
000150 dd b7 27 33 66 0e b4 34 3b fe 2b 33 8e 39 91 34
       3.904994e-08 3.353809e-07 4.004526e-08 2.705023e-07
000160 14 85 e8 32 27 bf 53 34 ce ea 2d 33 df bc 92 34
       2.7068872e-08 1.9720447e-07 4.0493255e-08 2.733204e-07
000170 bf 62 ba 32 35 ad 6e 34 1b 1a 09 33 0d 6d 89 34
       2.1698154e-08 2.222849e-07 3.192154e-08 2.5597583e-07
000180 0b 10 2d 33 62 e4 62 34 1b 0a 0d 33 8c c1 92 34
       4.0294292e-08 2.1130975e-07 3.283831e-08 2.7335443e-07
000190 c7 c0 ff 32 01 e6 4d 34 07 36 09 33 19 68 99 34
       2.9773572e-08 1.9175788e-07 3.1946936e-08 2.8574212e-07
0001a0 8a 44 ce 32 78 b1 7f 34 87 a3 eb 32 0e e4 a9 34
       2.4012724e-08 2.3813288e-07 2.7431964e-08 3.1644635e-07
0001b0 a2 04 d4 32 2c 45 47 34 d1 18 00 33 f3 a3 92 34
       2.4682155e-08 1.8558484e-07 2.9824893e-08 2.7313908e-07
0001c0 92 f9 00 33 15 b3 7b 34 8e e9 22 33 f2 f5 a8 34
       3.0029305e-08 2.3441346e-07 3.793098e-08 3.1471387e-07
0001d0 db 69 0f 33 18 e9 5f 34 4b b9 fe 32 6b fe 9f 34
       3.3391057e-08 2.0853292e-07 2.9653753e-08 2.980117e-07
0001e0 9e 22 fc 32 6c c2 48 34 9d 8d ec 32 63 ea 8a 34
       2.9352403e-08 1.8697182e-07 2.7538414e-08 2.5875042e-07
0001f0 28 9c 06 33 ed e9 72 34 01 cc fb 32 76 3d 9b 34
       3.134133e-08 2.2623108e-07 2.9313016e-08 2.8915719e-07
000200 2c c1 03 33 38 61 66 34 de f7 1d 33 84 d1 84 34
       3.0676503e-08 2.1455787e-07 3.6779845e-08 2.473936e-07
000210 d4 0b de 32 d9 f1 8e 34 78 ab 2b 33 8c 18 95 34
       2.584958e-08 2.6625528e-07 3.996999e-08 2.7771273e-07
000220 24 02 f7 32 14 24 6a 34 c5 f9 05 33 09 f9 a4 34
       2.8755558e-08 2.1806073e-07 3.119364e-08 3.0728577e-07
000230 6f 1d 10 33 ab 87 77 34 b7 a3 10 33 08 e7 9f 34
       3.3554382e-08 2.3053023e-07 3.367651e-08 2.9784155e-07
000240 cf 77 5d 33 d4 07 7f 34 8f 4b 3c 33 13 01 af 34
       5.1564538e-08 2.3751574e-07 4.384088e-08 3.2597072e-07
000250 00 80 e8 32 38 c3 8a 34 86 ff e4 32 24 1e aa 34
       2.7066562e-08 2.5846543e-07 2.6658892e-08 3.1686898e-07
000260 db 4a 18 33 79 03 7d 34 b3 c6 c7 33 48 6a a7 34
       3.545834e-08 2.3563724e-07 9.302803e-08 3.1183504e-07
000270 43 84 00 33 b2 e1 7c 34 db 59 03 33 11 2f 9b 34
       2.9922614e-08 2.3551436e-07 3.0582537e-08 2.8905245e-07
000280 45 d9 d7 32 19 92 65 34 ff 50 0a 33 82 c9 9a 34
       2.5128097e-08 2.1380437e-07 3.2204294e-08 2.8831352e-07
000290 68 27 0f 33 d0 8f 81 34 ed 5c 2a 33 49 30 ae 34
       3.3330622e-08 2.413276e-07 3.9665725e-08 3.2445158e-07
0002a0 94 d4 3d 33 83 35 94 34 38 2d 40 33 96 e3 b3 34
       4.419833e-08 2.7606083e-07 4.474461e-08 3.350694e-07
0002b0 04 82 d6 32 2e 2d 3a 34 50 df 19 33 7d 7b 8b 34
       2.4972003e-08 1.7339036e-07 3.582619e-08 2.5980617e-07
0002c0 9f 20 0a 33 d5 1a 4b 34 2a 3a 2b 33 42 a8 7e 34
       3.2160298e-08 1.891561e-07 3.986694e-08 2.3716805e-07
0002d0 97 8b eb 32 20 ba 7b 34 a2 63 f7 32 31 70 a1 34
       2.7421079e-08 2.3443909e-07 2.8799892e-08 3.0070217e-07
0002e0 78 e8 23 33 93 0d 83 34 c8 34 d5 32 15 5f 9e 34
       3.8162824e-08 2.4410528e-07 2.4820466e-08 2.9498975e-07
0002f0 b1 f3 f3 32 19 2d 57 34 19 7d 30 33 7b aa 84 34
       2.8399741e-08 2.0039842e-07 4.109197e-08 2.4710957e-07
000300 28 85 11 33 39 8a cb 34 cb 83 17 33 69 af bc 34
       3.388155e-08 3.7912267e-07 3.5277292e-08 3.5145356e-07
000310 db 7a 0a 33 07 52 61 34 8d d8 ff 32 32 e2 9c 34
       3.2242365e-08 2.09846e-07 2.9784383e-08 2.9221843e-07
000320 77 b0 17 33 ab 43 8c 34 22 e5 23 33 0d 38 85 34
       3.531792e-08 2.6126267e-07 3.815979e-08 2.4813963e-07
000330 eb a0 27 33 14 21 70 34 81 fa 19 33 7a 93 82 34
       3.902907e-08 2.2363776e-07 3.585092e-08 2.432169e-07
000340 94 72 af 32 25 5b 3f 34 03 35 d9 32 db 45 97 34
       2.0424785e-08 1.782142e-07 2.5286232e-08 2.8176768e-07
000350 e1 d8 0c 33 a9 47 67 34 29 a4 77 33 3c 50 96 34
       3.279354e-08 2.1539621e-07 5.765847e-08 2.7998055e-07
000360 5d 3a 12 33 58 b9 89 34 14 67 38 33 3a 2b 9f 34
       3.4046355e-08 2.5653094e-07 4.2934587e-08 2.964751e-07
000370 54 6f d7 32 a2 bc 60 34 6b 00 0f 33 26 18 9c 34
       2.507992e-08 2.093025e-07 3.3295162e-08 2.9074835e-07
000380 98 aa ee 32 a7 42 79 34 0e 6a 04 33 ea 58 93 34
       2.7784424e-08 2.321418e-07 3.08301e-08 2.7445577e-07
000390 4e 5d 0b 33 ef 7a 77 34 e2 fb 02 33 9b 25 8a 34
       3.244832e-08 2.304839e-07 3.049707e-08 2.5731865e-07
0003a0 c2 e0 cc 32 70 40 76 34 dc 21 14 33 d5 a4 a3 34
       2.3850934e-08 2.2933978e-07 3.448973e-08 3.0481047e-07
0003b0 1f 0b fc 32 db 8e 4c 34 48 3b 01 33 15 5a 85 34
       2.9341718e-08 1.9050951e-07 3.008907e-08 2.4838724e-07
0003c0 15 e6 ef 32 de bc 6f 34 c7 17 0a 33 d1 76 82 34
       2.7927891e-08 2.2327319e-07 3.2152254e-08 2.4300837e-07
0003d0 9a 52 f2 32 d6 83 84 34 57 14 ff 32 cf ef 8a 34
       2.821007e-08 2.468284e-07 2.9695157e-08 2.5878987e-07
0003e0 2c aa e9 32 f1 35 66 34 9f b6 0d 33 36 f5 94 34
       2.7202155e-08 2.1440043e-07 3.2995214e-08 2.7745563e-07
0003f0 c0 65 cc 32 02 e1 69 34 cc 54 18 33 a0 ea a3 34
       2.3794996e-08 2.1781673e-07 3.546738e-08 3.0531828e-07

exp_avg f4 [12, 4]
000000 39 ca 07 38 dc af 0a b7 28 ce 9f b7 f9 68 a3 b6
       3.2374843e-05 -8.266386e-06 -1.9050276e-05 -4.869999e-06
000010 33 b7 54 34 6e d0 cd b4 7d 66 c4 b5 f3 70 89 35
       1.9810686e-07 -3.8335878e-07 -1.4632966e-06 1.0240168e-06
000020 72 4d 96 b8 85 11 e8 b6 9a a0 6b 38 4d 1e bb 37
       -7.166983e-05 -6.9161783e-06 5.6177938e-05 2.2306247e-05
000030 63 14 cb b8 b3 ac b6 b5 55 07 96 38 0e 12 e2 37
       -9.6835916e-05 -1.3610319e-06 7.153923e-05 2.6949707e-05
000040 4f 49 c8 b7 47 b0 38 b7 0d bd 94 37 ba c2 95 37
       -2.3875995e-05 -1.1008297e-05 1.7731008e-05 1.785286e-05
000050 24 8e 4d b3 fa 3f f9 b4 d4 5e bd 34 41 3f 34 34
       -4.7859558e-08 -4.6426413e-07 3.527299e-07 1.6786818e-07
000060 1c f6 26 38 1f 7a 9c 37 60 0f 65 b7 e0 70 49 b8
       3.980669e-05 1.8653516e-05 -1.3653043e-05 -4.8027257e-05
000070 a2 a8 37 38 6b f3 ec 37 42 99 69 b7 d0 14 7c b8
       4.378765e-05 2.8246743e-05 -1.3923565e-05 -6.0100865e-05
000080 96 9c ec 38 16 a4 1e b9 e5 7d 40 b8 75 d2 bf 38
       0.00011282523 -0.00015129181 -4.5893616e-05 9.1467904e-05
000090 a7 f8 ea 38 34 88 51 38 a4 d1 51 b8 11 d7 f2 b8
       0.000112043046 4.9956332e-05 -5.0024726e-05 -0.000115795185
0000a0 77 4f 8b b9 75 47 91 b9 fd b8 63 39 c0 97 b3 39
       -0.00026571352 -0.00027709795 0.0002171732 0.00034254603
0000b0 b0 6e f6 b9 05 4f 02 ba 2e b2 00 3a 40 0f 03 3a
       -0.00047003245 -0.0004970881 0.00049093633 0.0004999526

exp_avg_sq f4 [12, 4]
000000 4e 35 ee 30 96 d7 30 2f db 60 a1 30 9b 0f 9f 2f
       1.7331929e-09 1.6083698e-10 1.174182e-09 2.893302e-10
000010 f7 63 b0 2d 40 04 67 2d ce 82 ce 2d f2 b3 90 2d
       2.0053277e-11 1.31317734e-11 2.3477578e-11 1.6450816e-11
000020 2d 8a 12 32 5b c7 af 30 0e 15 d0 31 05 1d b7 31
       8.529736e-09 1.2789586e-09 6.0559904e-09 5.3293e-09
000030 7d d8 a5 32 f9 2c 0f 31 28 c9 87 32 a9 9c 0d 32
       1.9306976e-08 2.0834803e-09 1.5807544e-08 8.242901e-09
000040 ac bd 63 30 5f c9 5f 2f 42 70 0b 30 b6 67 02 30
       8.285166e-10 2.0353273e-10 5.0727433e-10 4.7441107e-10
000050 fd 25 20 2c f6 50 7d 2b b0 76 af 2c 5b c9 87 2b
       2.2758455e-12 8.999601e-13 4.986976e-12 9.648214e-13
000060 69 a6 59 31 7d bd 81 30 44 1c 17 31 40 e7 6d 31
       3.167225e-09 9.439841e-10 2.198946e-09 3.461949e-09
000070 94 fe b0 31 a4 75 32 31 ae f9 73 31 dc db fc 31
       5.1512163e-09 2.596928e-09 3.550308e-09 7.3591604e-09
000080 5e e2 21 35 d2 97 4b 34 d2 07 8f 35 b9 99 84 33
       6.030658e-07 1.896108e-07 1.0656606e-06 6.174691e-08
000090 da 34 1b 35 dd 1b 5d 34 6c 33 87 35 3f 02 a9 33
       5.781891e-07 2.0592366e-07 1.007325e-06 7.870084e-08
0000a0 08 58 83 35 14 a4 99 34 3a f2 01 36 5a f6 30 34
       9.785881e-07 2.8617853e-07 1.9363492e-06 1.64809e-07
0000b0 74 9e 80 36 a9 d1 8d 35 d7 36 de 36 80 0f f5 34
       3.8331436e-06 1.0566338e-06 6.6224998e-06 4.5646084e-07

exp_avg f4 [4, 4]
000000 1e c1 c3 b8 e5 06 5c 38 f5 c1 e6 b9 ad 3d b8 b9
       -9.3342955e-05 5.245851e-05 -0.00044013528 -0.00035141167
000010 ad 80 4e b9 7c 7b ca 38 a0 c4 46 ba e4 7b 2e ba
       -0.00019693626 9.655111e-05 -0.00075824 -0.00066560344
000020 72 e0 05 b9 f6 ad 5c b6 13 2a b9 b8 fe 96 9d b8
       -0.00012767481 -3.2883813e-06 -8.829324e-05 -7.514468e-05
000030 f6 7a 4a 3a 4d ac c2 36 59 68 9c 3a a7 3f 90 3a
       0.0007724011 5.801709e-06 0.0011932953 0.0011005298

exp_avg_sq f4 [4, 4]
000000 69 6d 4e 35 86 e1 7f 34 42 ea 19 35 87 00 d8 34
       7.6900193e-07 2.383077e-07 5.733783e-07 4.023352e-07
000010 59 45 30 37 6e 6e 4b 36 21 64 af 36 ab e2 6c 36
       1.0506564e-05 3.0313636e-06 5.227063e-06 3.5298679e-06
000020 fd 2f a2 35 d0 cf c5 34 e4 96 3c 35 95 6f ee 34
       1.2083907e-06 3.6845313e-07 7.025503e-07 4.441214e-07
000030 54 67 87 37 b2 31 97 36 0f e8 0d 37 99 0b bf 36
       1.614137e-05 4.505936e-06 8.458285e-06 5.6935937e-06

exp_avg f4 [16, 4]
000000 56 b6 54 3a 15 1d 78 39 39 59 5c ba 93 d9 5e b9
       0.00081143284 0.00023661957 -0.0008405629 -0.00021252623
000010 68 8b a7 39 94 57 1b 39 06 78 88 b9 51 f8 5b b9
       0.00031956588 0.00014814577 -0.00026029366 -0.00020977973
000020 ad 11 af b9 6b 6b fe b8 25 6c d7 39 50 90 35 38
       -0.0003339177 -0.00012131672 0.0004108857 4.3288164e-05
000030 ac 61 98 38 05 99 3a 39 7b ea 13 38 2d 10 94 b9
       7.2661176e-05 0.00017795347 3.5265908e-05 -0.00028240812
000040 c3 45 28 39 3a 0d e3 38 98 d9 5d b9 6d 3a 63 b8
       0.00016047717 0.00010826667 -0.00021157262 -5.417543e-05
000050 f0 0d 51 b8 85 c7 2f 39 ba b6 01 b8 ea 5a 9f b8
       -4.9842463e-05 0.00016763627 -3.0926174e-05 -7.598645e-05
000060 2c f0 80 b9 d3 34 81 39 70 d4 08 39 bb b5 e6 b8
       -0.00024593004 0.00024644154 0.0001304911 -0.000110011046
000070 5f f1 83 39 d9 68 9f 38 0a 80 48 b9 98 a9 12 b9
       0.00025166103 7.60124e-05 -0.00019121185 -0.00013986824
000080 86 2d a0 b9 dc d0 4c b8 b2 c6 e6 39 cc 02 b6 b8
       -0.00030551496 -4.8831906e-05 0.00044017058 -8.678957e-05
000090 43 b4 1e b9 0e 4c 19 b8 eb 9a 4e 39 bb 51 1b b7
       -0.00015135207 -3.6548874e-05 0.00019703402 -9.257749e-06
0000a0 f2 b1 da b9 7c 66 95 b9 86 4f df 39 e2 18 8f 39
       -0.0004171278 -0.0002849585 0.00042593124 0.00027293625
0000b0 40 8c 0c 36 01 db 9a 38 22 63 e0 b6 a0 c9 89 b8
       2.0943262e-06 7.384085e-05 -6.687261e-06 -6.570225e-05
0000c0 76 76 09 b9 de 7f b5 36 9e fe 94 38 25 75 7c 38
       -0.00013109468 5.409106e-06 7.104616e-05 6.019058e-05
0000d0 8a 41 2a b8 82 11 02 38 db 2c 27 b8 98 9d 6a 38
       -4.0592196e-05 3.101072e-05 -3.9857678e-05 5.5936718e-05
0000e0 5a b2 37 39 1c 57 52 38 11 b7 90 b9 0b f8 60 38
       0.00017518681 5.014903e-05 -0.00027602215 5.363677e-05
0000f0 c5 bc 49 3a c2 00 4f 39 8d 16 54 ba da 4e 2c b9
       0.00076956704 0.0001974134 -0.00080905185 -0.00016432573

exp_avg_sq f4 [16, 4]
000000 d2 4b 94 35 13 da 54 34 46 7a be 35 5b e8 4f 34
       1.1048926e-06 1.9823374e-07 1.4191689e-06 1.9362908e-07
000010 75 29 89 34 8e 1c ca 33 15 fb 91 34 ae 53 e6 33
       2.5548403e-07 9.411552e-08 2.719104e-07 1.0725431e-07
000020 fa 85 40 36 46 fc 91 35 c2 11 b2 36 07 6f 50 35
       2.8688214e-06 1.0876763e-06 5.3068807e-06 7.7647604e-07
000030 b1 6a 3f 35 a4 32 01 34 24 6d 99 35 fa 80 77 34
       7.13083e-07 1.2032484e-07 1.1431152e-06 2.3050589e-07
000040 ad 84 2f 35 bf 7f a8 34 69 69 62 35 9c e1 ae 34
       6.538565e-07 3.1385386e-07 8.434495e-07 3.2574178e-07
000050 4b 4b a9 34 15 07 87 34 b4 b5 00 35 78 61 47 34
       3.1533486e-07 2.5150862e-07 4.794813e-07 1.8568778e-07
000060 76 04 57 35 e5 35 f6 34 91 87 9b 35 80 9b 97 34
       8.0100233e-07 4.5860284e-07 1.1587855e-06 2.8239083e-07
000070 ed 20 d2 34 4f 90 ac 33 e4 0d 18 35 df e7 e4 33
       3.9139505e-07 8.035624e-08 5.6644626e-07 1.06592545e-07
000080 fa f6 f5 34 82 4b ad 33 13 c2 6e 35 60 c8 b7 33
       4.5814505e-07 8.069675e-08 8.8944324e-07 8.5580496e-08
000090 61 dc 9b 34 7c 19 02 34 04 ae 7a 35 27 80 02 34
       2.9031347e-07 1.2116465e-07 9.3385484e-07 1.2153815e-07
0000a0 68 53 40 36 9d 43 b7 35 45 e0 83 36 4a 57 96 35
       2.8658778e-06 1.365424e-06 3.9302126e-06 1.1201275e-06
0000b0 1b 4f cd 34 4a 4a 98 33 5b de da 34 a5 68 cd 33
       3.8241782e-07 7.091565e-08 4.076745e-07 9.565091e-08
0000c0 17 c0 db 34 bc 2d 96 33 e5 78 e4 34 bf 4f cd 33
       4.0931693e-07 6.993238e-08 4.2556272e-07 9.560562e-08
0000d0 a8 6e d4 34 22 de ed 33 a7 e1 d0 34 5c 46 0f 34
       3.956859e-07 1.1076578e-07 3.8907203e-07 1.334351e-07
0000e0 33 07 b1 34 cf e4 07 34 ca ea fd 34 41 66 cd 33
       3.2974057e-07 1.2656095e-07 4.7295754e-07 9.564656e-08
0000f0 b7 90 5a 35 58 61 ec 33 1b b2 89 35 4a af bf 33
       8.1421916e-07 1.1007313e-07 1.0259131e-06 8.9260155e-08
