out-tss50/ckpt.pt (torch, 44769 bytes, 64 tensors)

transformer.wte.weight f4 [5, 4]
-0.36733282 -0.40117002 0.4162552 0.22954962 0.14431775 0.32932618 -0.11450583 -0.25514236
0.047117107 0.0711726 -0.1490541 0.09747901 0.09133179 -0.012711737 -0.1564407 0.10646385
0.25226977 0.025014551 -0.15175416 -0.11956349
00000000: 0c13 bcbe 2866 cdbe 671f d53e 0e0f 6b3e
00000010: 08c8 133e 719d a83e 0882 eabd 05a2 82be
00000020: defd 403d f1c2 913d a3a1 18be 13a3 c73d
00000030: 290c bb3d e444 50bc fe31 20be b809 da3d
00000040: 8129 813e 51eb cc3c 7165 1bbe b4dd f4bd

transformer.wpe.weight f4 [256, 4]
0.14649215 0.040825043 -0.09997059 -0.066971436 0.11082619 0.057652898 -0.15540735 -0.014127175
0.044365816 -0.019462144 -0.1094208 0.0050591175 0.036988307 0.016915955 -0.07284954 0.0025092815
0.051778343 0.03027485 -0.06447628 -0.024517352 0.0094399685 -0.014511025 -0.05023659 -0.00944167
0.05866976 -0.0059482115 -0.053778328 0.0059131193 0.030749045 -0.014565013 -0.029743928 0.009786918
0.038449723 -0.012527035 -3.3958975e-05 0.01867289 -0.016633548 -0.033727024 -0.034709506 -0.0033842723
-0.016784178 -0.015968947 -0.005254304 -0.00011437222 0.014425879 -0.029059118 -0.036707263 0.020311587
0.010068611 -0.0113742165 0.0114087565 0.0043148072 -0.0128063755 -0.023731979 -0.0195551 -0.0017324965
0.014550229 -0.009878915 0.027285632 0.013452157 -0.00018318155 -1.9988162e-05 -0.00027906793 0.011198307
0.022853037 -0.0038428265 0.026574759 -0.013376552 0.013823471 -0.0059834667 -0.04649949 0.007784533
-0.017609034 -0.005600874 -0.009892139 0.015090658 0.04101706 0.0015793408 -0.07405869 -0.0015278751
0.009347119 0.002281933 -0.010637593 -0.0057408595 -0.02810509 -0.02580261 -0.011720348 0.03226876
0.038291503 -0.020394953 -0.021002583 0.00500896 -0.0027882988 0.011625204 0.0061564557 0.011825217
-0.0444276 -0.006539562 -0.026285553 0.026217673 0.048354845 -0.015721513 -0.011471831 0.007245429
0.046932 0.017669832 0.0098462645 0.00859928 0.049471196 -0.018274248 -0.011752132 0.015385882
0.012679238 -0.010932501 0.0057995715 -0.009307205 0.05979034 0.008528371 -0.02234967 0.022680474
0.017135236 -0.014537741 -0.038417578 -0.0061587114 0.015003327 -0.017662097 0.009219147 -0.0066256337
0.04264507 -0.03578202 0.011596738 0.036888685 0.0070882402 -0.010049284 -0.005721771 0.0064022685
0.013631262 0.01030036 -0.02518063 0.020112436 -0.006800188 -0.0026982857 -0.00046915244 0.019773953
-0.013024349 0.020358764 0.017123058 0.009840528 0.027725931 0.0026471883 0.00022853944 0.027759375
0.0069358167 0.013401083 0.00230319 0.026491735 -0.010218318 -0.0066808886 -0.006774162 0.016688947
0.029018622 0.0103187235 -0.014140612 0.050403144 0.009250935 -0.031973734 0.0052939365 -0.007581171
0.03908061 -0.017489698 -0.030301912 -0.009074161 0.014092277 -0.0026755303 -0.021147203 0.033558093
-0.02373835 -0.032078728 -0.011561084 0.010647779 0.010357168 -0.031356327 -0.029159773 -0.0020586425
0.011376798 0.009285814 -0.027370378 0.030659469 0.026886217 -0.008670807 0.0044881846 0.035725318
0.0083842585 -0.018110028 -0.009146207 -0.007932672 0.05157783 0.0102486545 0.0260559 0.02415148
0.036687728 -0.016543401 0.0053450065 0.007935504 -0.006071143 -0.0034007486 -0.0048733386 0.03720403
0.021133745 -0.0057659447 -0.030125966 0.0036627357 0.026658 0.0134674385 -0.038517617 0.023181764
-0.0015699498 -0.009887281 0.005483005 0.018661022 0.03381302 0.00518071 -0.028277038 0.029052516
0.038045768 -0.023520775 -0.012455608 0.016068647 0.015425111 -0.015701031 -0.013853104 0.016949233
-0.01275639 -0.014538745 0.015506631 0.017567623 0.06524196 -0.019518815 -0.0073737255 0.020387907
-0.009062607 -0.018934917 -0.013975185 0.004348719 0.056875546 -0.032607492 -0.016938642 -0.009183692
0.031867415 -0.013612491 0.01375986 0.031186169 0.035319827 0.01864827 0.0068729813 -0.0028821947
00000000: 0a02 163e 2938 273d 61bd ccbd 5228 89bd
00000010: d7f8 e23d 7225 6c3d 1b23 1fbe ab75 67bc
00000020: eeb8 353d 136f 9fbc 0318 e0bd f4c6 a53b
00000030: 0d81 173d 5493 8a3c 2432 95bd c272 243b
00000040: 8715 543d f602 f83c 240c 84bd 9dd8 c8bc
00000050: 19aa 1a3c a6bf 6dbc e2c4 4dbd 3cb1 1abc
00000060: b44f 703d 37e9 c2bb aa46 5cbd d7c2 c13b
00000070: 6ce5 fb3c 18a2 6ebc 8aa9 f3bc 4f59 203c
00000080: 757d 1d3d 313e 4dbc 2c6f 0eb8 e3f7 983c
00000090: 1443 88bc 5925 0abd 8e2b 0ebd abca 5dbb
000000a0: f97e 89bc 4fd1 82bc 4c2c acbb 1edb efb8
000000b0: 865a 6c3c 630d eebc 5b5a 16bd 7c64 a63c
000000c0: d1f6 243c ec5a 3abc cbeb 3a3c 3a63 8d3b
000000d0: d5d1 51bc 9169 c2bc 0432 a0bc f014 e3ba
000000e0: 1564 6e3c 2cdb 21bc 1e86 df3c 7066 5c3c
000000f0: 6c14 40b9 40ac a7b7 dd4f 92b9 1b79 373c
00000100: 4b36 bb3c eed7 7bbb 4fb3 d93c 5329 5bbc
00000110: d77b 623c f510 c4bb 4076 3ebd 6515 ff3b
00000120: d240 90bc 8987 b7bb a312 22bc cf3e 773c
00000130: 8101 283d e201 cf3a 15ac 97bd fb42 c8ba
00000140: a924 193c 7c8c 153b 4d49 2ebc d21d bcbb
00000150: a53c e6bc ff5f d3bc b406 40bc 3f2c 043d
00000160: 8dd7 1c3d 5113 a7bc 9c0d acbc 3422 a43b
00000170: e4bb 36bb a477 3e3c 18bc c93b 8ebe 413c
00000180: b7f9 35bd d249 d6bb cd54 d7bc 72c6 d63c
00000190: bb0f 463d 67ca 80bc 59f4 3bbc 106b ed3b
000001a0: c53b 403d 53c0 903c 3a52 213c ffe3 0c3c
000001b0: 4fa2 4a3d e0b3 95bc 048c 40bc 1115 7c3c
000001c0: 94bc 4f3c 3c1e 33bc 550a be3b 3f7d 18bc
000001d0: b7e6 743d 95ba 0b3c a816 b7bc 67cc b93c
000001e0: 325f 8c3c b52f 6ebc c05b 1dbd 04cf c9bb
000001f0: 84d0 753c 1ab0 90bc e80b 173c d81b d9bb
00000200: 99ac 2e3d 2b90 12bd 3f00 3e3c 9718 173d
00000210: 7844 e83b c1a5 24bc b27d bbbb 1fca d13b
00000220: a855 5f3c d7c2 283c 9c47 cebc d6c2 a43c
00000230: 1dd4 debb b9d5 30bb 93f8 f5b9 fcfc a13c
00000240: 1464 55bc 6cc7 a63c a845 8c3c 2a3a 213c
00000250: 7e21 e33c 737c 2d3b 17a4 6f39 a167 e33c
00000260: d945 e33b 3790 5b3c 1ef1 163b 3205 d93c
00000270: bb6a 27bc 5beb dabb caf9 ddbb 42b7 883c
00000280: 76b8 ed3c dd0f 293c 07ae 67bc 8773 4e3d
00000290: 3c91 173c e4f6 02bd c278 ad3b 796b f8bb
000002a0: fd12 203d 8e46 8fbc b73b f8bc caab 14bc
000002b0: 4be3 663c f357 2fbb e63c adbc 3674 093d
000002c0: ee76 c2bc fc64 03bd b36a 3dbc 0674 2e3c
000002d0: 1cb1 293c 7e6f 00bd 7ae0 eebc 4aea 06bb
000002e0: c065 3a3c 8723 183c d837 e0bc 9129 fb3c
000002f0: 7c40 dc3c 0010 0ebc 9f11 933b b654 123d
00000300: 215e 093c 7b5b 94bc f9d9 15bc 0af8 01bc
00000310: 4643 533d f9e9 273c 2f73 d53c 53d9 c53c
00000320: df45 163d 0786 87bc 2a25 af3b eb03 023c
00000330: 70f0 c6bb 18df 5ebb 87b0 9fbb 4163 183d
00000340: ad20 ad3c 40f0 bcbb bbca f6bc 820a 703b
00000350: e161 da3c 88a6 5c3c a6c4 1dbd afe7 bd3c
00000360: c6c6 cdba 43fe 21bc c8aa b33b 00df 983c
00000370: 857f 0a3d f2c2 a93b 3fa5 e7bc 8bff ed3c
00000380: e1d5 1b3d a4ae c0bc 9b12 4cbc 65a2 833c
00000390: 9bb9 7c3c 739f 80bc 21f8 62bc 1ed9 8a3c
000003a0: 2d00 51bc eb33 6ebc 860f 7e3c fae9 8f3c
000003b0: 949d 853d ece5 9fbc 4b9f f1bb 8a04 a73c
000003c0: 547b 14bc 661d 9bbc 2df8 64bc b37f 8e3b
000003d0: 55f6 683d 6f8f 05bd e8c2 8abc 3277 16bc
000003e0: 6887 023d ed06 5fbc 0971 613c 237a ff3c
000003f0: 86ab 103d 42c4 983c bf36 e13b 34e3 3cbb

transformer.h.0.ln_1.weight f4 [4]
1.1725721 1.1254121 1.175786 1.2396002
00000000: d816 963f 810d 903f 2880 963f 38ab 9e3f

transformer.h.0.attn.c_attn.weight f4 [12, 4]
-0.09828974 -0.0663212 0.10337149 0.049502883 -0.053173777 -0.04700508 0.08005434 0.003539012
0.13447925 0.16831282 -0.22376814 -0.03722718 0.10254394 0.15229243 -0.14673151 -0.076707415
0.08461768 0.09131266 -0.124120854 -0.068462364 0.13513438 0.033299595 -0.058138564 -0.09935151
-0.18297157 -0.13359824 0.029553093 0.28495985 -0.12559168 -0.19175518 0.08266231 0.17981033
0.08594101 0.056347854 -0.14939465 0.0062619643 0.04927837 0.0042307996 -0.11803182 0.1045115
0.092567004 0.078714356 -0.033908885 -0.2057166 0.037900787 0.06689653 -0.02825154 -0.21659769
00000000: 224c c9bd 69d3 87bd 6fb4 d33d 89c3 4a3d
00000010: bfcc 59bd 6688 40bd 88f3 a33d c5ee 673b
00000020: eeb4 093e 325a 2c3e 7a23 65be 877b 18bd
00000030: 8f02 d23d 8cf2 1b3e c940 16be c718 9dbd
00000040: 094c ad3d 2202 bb3d 1333 febd ff35 8cbd
00000050: ab60 0a3e 2865 083d b422 6ebd ce78 cbbd
00000060: e65c 3bbe facd 08be 5419 f23c 42e6 913e
00000070: 1b9b 00be 785b 44be db4a a93d 3320 383e
00000080: d701 b03d 02cd 663d e9fa 18be 2a31 cd3b
00000090: 1ed8 493d 85a2 8a3b abba f1bd 200a d63d
000000a0: c593 bd3d fe34 a13d 0be4 0abd 5fa7 52be
000000b0: db3d 1b3d 0c01 893d c66f e7bc c9cb 5dbe

transformer.h.0.attn.c_proj.weight f4 [4, 4]
0.107863836 0.08330911 0.14241509 0.14582534 0.02473029 -0.034329902 0.06776929 0.09988413
-0.16903049 -0.11099083 -0.09438756 -0.12034786 0.016655093 0.059263494 -0.019299433 -0.07025394
00000000: b7e7 dc3d f79d aa3d 43d5 113e 3d53 153e
00000010: 2d97 ca3c 839d 0cbd a0ca 8a3d 0d90 cc3d
00000020: 5416 2dbe 294f e3bd 444e c1bd f078 f6bd
00000030: 4370 883c 47be 723d d819 9ebc 4ce1 8fbd

transformer.h.0.ln_2.weight f4 [4]
1.3238182 1.5916934 1.477297 1.5313748
00000000: e072 a93f 9cbc cb3f 1118 bd3f 1704 c43f

transformer.h.0.mlp.c_fc.weight f4 [16, 4]
0.029800368 -0.05646569 0.008950855 0.0363144 0.004217656 -0.056146443 0.10241385 0.028946545
-0.07289618 0.16654629 -0.03727713 0.033151202 0.060568597 -0.24996306 -0.11192484 0.3084093
0.014755222 0.0022548935 -0.02080652 -0.025443915 -0.0006219316 0.0015839634 -0.040849105 -0.018180653
-0.35120058 -0.5332398 0.36468333 0.45195147 0.06634839 -0.10977119 -0.058972716 0.17685668
0.0040431228 0.119700685 -0.14611848 0.07659771 -0.22577757 0.068234496 0.06382784 0.1606009
-0.073640294 0.27214193 0.03617918 -0.16494823 -0.028879091 -0.079652816 0.13911958 0.0216138
0.04168773 -0.18254453 0.11945889 -0.029175298 0.055754445 -0.064758785 0.14855038 -0.072861716
-0.06982812 -0.011825809 0.090595625 0.013865017 -0.04410465 -0.14500143 0.124907576 0.07044721
00000000: e71f f43c 9148 67bd 9ba6 123c 69be 143d
00000010: 4334 8a3b d0f9 65bd 5abe d13d 4e21 ed3c
00000020: 984a 95bd 1c8b 2a3e e7af 18bd 8ec9 073d
00000030: c716 783d 51f6 7fbe da38 e5bd d3e7 9d3e
00000040: e3bf 713c d6c6 133b 6f72 aabc c26f d0bc
00000050: 2009 23ba fe9c cf3a 6451 27bd 98ef 94bc
00000060: 90d0 b3be 6782 08bf c6b7 ba3e 2f66 e73e
00000070: aae1 873d b8cf e0bd 608d 71bd eb19 353e
00000080: 2c7c 843b a225 f53d 15a0 15be 43df 9c3d
00000090: 3c32 67be 87be 8b3d 2cb8 823d 9074 243e
000000a0: b9d0 96bd 3056 8b3e 9f30 143d 30e8 28be
000000b0: d893 ecbc 0421 a3bd 5d75 0e3e 6d0f b13c
000000c0: c1c0 2a3d f4ec 3abe dda6 f43d 0901 efbc
000000d0: c65e 643d 41a0 84bd 971d 183e 8638 95bd
000000e0: 0c02 8fbd 0ac1 41bc 338a b93d 192a 633c
000000f0: 14a7 34bd 417b 14be 8bcf ff3d a046 903d

transformer.h.0.mlp.c_proj.weight f4 [4, 16]
-0.08223092 -0.02687205 0.08753286 -0.06176592 0.09628797 0.07166484 0.2669871 -0.10260936
0.065324046 0.11505072 0.2099854 0.010040682 0.028239723 0.047901455 0.052474678 -0.07414447
0.024563752 0.051942073 0.13573714 0.12447772 -0.0861572 -0.09412903 0.21700254 0.069110885
0.017950157 0.078573264 0.052953396 0.064798266 0.014946606 -0.01858445 0.0026820942 0.008729066
-0.11618578 -0.08612217 0.024059538 -0.13774656 -0.04149154 -0.011904191 -0.33294907 -0.10499324
-0.055135235 -0.05119365 -0.006169186 -0.011872272 -0.0015047006 0.038809452 0.11762527 -0.07196098
0.017096357 0.02394805 -0.076017074 -0.03497161 0.013496057 -0.014380982 -0.12847446 0.0021186655
-0.037377514 -0.050337445 -0.10879224 -0.03307748 -0.048150305 -0.047355942 -0.019455237 0.00039401458
00000000: af68 a8bd c622 dcbc 6e44 b33d 43fe 7cbd
00000010: a132 c53d 04c5 923d 88b2 883e db24 d2bd
00000020: 9dc8 853d b69f eb3d 6a06 573e ac81 243c
00000030: fe56 e73c 5134 443d b0ef 563d 0ed9 97bd
00000040: ec39 c93c 36c1 543d adfe 0a3e 2dee fe3d
00000050: 3073 b0bd b9c6 c0bd ea35 5e3e 028a 8d3d
00000060: 350c 933c 05eb a03d a9e5 583d f4b4 843d
00000070: 9ce2 743c 6b3e 98bc 13c6 2f3b 5b04 0f3c
00000080: cff2 edbd d260 b0bd 8218 c53c 6f0d 0dbe
00000090: 08f3 29bd cc09 43bc 4d78 aabe b206 d7bd
000000a0: 7cd5 61bd 6fb0 51bd e226 cabb eb83 42bc
000000b0: 6039 c5ba a9f6 1e3d 84e5 f03d 4760 93bd
000000c0: a90d 8c3c b32e c43c d7ae 9bbd 643e 0fbd
000000d0: 911e 5d3c 369e 6bbc cf8e 03be 4fd9 0a3b
000000e0: 2a19 19bd a32e 4ebd 77ce debd 407c 07bd
000000f0: 4139 45bd 4ef8 41bd 9760 9fbc be93 ce39

transformer.h.1.ln_1.weight f4 [4]
1.176325 1.1655477 1.1703455 1.3088613
00000000: d191 963f ab30 953f e2cd 953f c488 a73f

transformer.h.1.attn.c_attn.weight f4 [12, 4]
-0.13767017 -0.14411667 0.23516129 0.010949001 -0.1606434 -0.12362718 0.21803106 0.022795262
-0.13389264 -0.15435764 0.24129829 0.05538826 -0.15823425 -0.16950203 0.25867113 0.04086996
0.17780752 0.18093547 -0.03757967 -0.27416983 0.1512133 0.1197685 -0.10585668 -0.18816184
0.16536407 0.15207405 -0.08655374 -0.24523365 0.19507024 0.16962844 -0.15243427 -0.19862223
-0.092392005 -0.06340953 0.035872318 0.3328814 0.09598024 0.068316326 -0.08154127 -0.10634309
0.10303904 0.11215654 -0.10246225 -0.24875431 -0.08090674 -0.11459041 0.13953997 0.17495954
00000000: 69f9 0cbe 5293 13be 1fce 703e 7063 333c
00000010: b47f 24be 3f30 fdbd 8943 5f3e 21bd ba3c
00000020: 271b 09be ee0f 1ebe e616 773e cdde 623d
00000030: 2908 22be f191 2dbe 8b70 843e 4267 273d
00000040: 2d13 363e 2647 393e 24ed 19bd fd5f 8cbe
00000050: a9d7 1a3e 3049 f53d 63cb d8bd 7fad 40be
00000060: 3355 293e 4db9 1b3e 1643 b1bd 881e 7bbe
00000070: 7ec0 473e 14b3 2d3e bb17 1cbe a063 4bbe
00000080: 0538 bdbd dbdc 81bd daee 123d 6e6f aa3e
00000090: 4a91 c43d 6ee9 8b3d 1cff a6bd 68ca d9bd
000000a0: 2206 d33d 54b2 e53d bad7 d1bd 73b9 7ebe
000000b0: 6fb2 a5bd 60ae eabd 91e3 0e3e 9828 333e

transformer.h.1.attn.c_proj.weight f4 [4, 4]
-0.18164879 0.14130732 0.14550106 -0.12095547 -0.103303164 0.037222162 0.051157214 -0.03203423
0.11231517 -0.14328009 -0.14826454 0.14461383 0.09043753 -0.005390544 -0.029366013 0.007112665
00000000: 2402 3abe deb2 103e 3bfe 143e 80b7 f7bd
00000010: 9c90 d3bd 4476 183d 3a8a 513d 5336 03bd
00000020: 7f05 e63d 04b8 12be a9d2 17be a615 143e
00000030: 5037 b93d 29a3 b0bb fe90 f0bc 5c11 e93b

transformer.h.1.ln_2.weight f4 [4]
1.1746316 1.3130621 1.2133025 1.2837949
00000000: 545a 963f 6b12 a83f 7f4d 9b3f 6453 a43f

transformer.h.1.mlp.c_fc.weight f4 [16, 4]
0.06014301 -0.18562968 -0.066155404 0.2723717 0.17668433 -0.0010686438 -0.04540435 -0.08770432
0.0036926342 0.07607555 0.03301539 -0.059872326 -0.07335718 0.14102446 0.092733175 -0.13902482
0.11521746 -0.23732132 -0.08073572 0.19429913 -0.1418205 0.23474227 -0.038063813 -0.04010479
-0.1496706 0.20030831 -0.05633486 0.03280632 0.1277902 0.042188186 0.0128687145 -0.10658075
0.006547061 -0.19336168 -0.06895291 0.34627262 0.16438177 -0.026764804 -0.019916909 -0.086738616
0.16555999 0.034645703 -0.03370387 -0.13511105 -0.06528493 -0.052196585 0.13070841 0.0014712426
-0.046406038 -0.21445973 0.023525342 0.21810701 0.018363403 -0.23986125 0.1919005 -0.08684038
0.05743799 0.17285071 -0.09841681 -0.036657657 -0.070122585 0.13027196 -0.0520423 -0.035226896
00000000: 8458 763d b515 3ebe 7c7c 87bd 4e74 8b3e
00000010: bdec 343e bc11 8cba e9f9 39bd 539e b3bd
00000020: 1f00 723b 7fcd 9b3d 253b 073d af3c 75bd
00000030: 4a3c 96bd b768 103e e4ea bd3d 865c 0ebe
00000040: 22f7 eb3d 5c04 73be c558 a5bd 5af6 463e
00000050: 6539 11be 4760 703e cde8 1bbd ec44 24bd
00000060: 4043 19be 9f1d 4d3e 62bf 66bd eb5f 063d
00000070: 6fdb 023e 85cd 2c3d 4dd7 523c 0247 dabd
00000080: ba88 d63b 9b00 46be 2f37 8dbd a54a b13e
00000090: b253 283e dd41 dbbc c928 a3bc 04a4 b1bd
000000a0: 8f88 293e a7e8 0d3d 120d 0abd 8d5a 0abe
000000b0: 1bb4 85bd 16cc 55bd 6dd8 053e b6d6 c03a
000000c0: 4214 3ebd 559b 5bbe 38b8 c03c 7257 5f3e
000000d0: d96e 963c 309e 75be 9181 443e 5fd9 b1bd
000000e0: 1944 6b3d c7ff 303e c18e c9bd 5726 16bd
000000f0: 6e9c 8fbd 0366 053e 4f2a 55bd 144a 10bd

transformer.h.1.mlp.c_proj.weight f4 [4, 16]
-0.047756936 -0.056751534 0.117450096 0.17897037 -0.041654233 0.15711656 0.1592108 0.038881868
-0.004928071 -0.06599557 -0.01675643 0.036078393 -0.014650476 0.079364516 0.0076898197 0.16470669
0.17236593 -0.011432908 -0.031345036 0.010980715 0.100200765 0.050270833 0.05053278 0.006422273
0.16514827 -0.00066161546 0.005108875 -0.0057167113 0.15107852 0.16261986 0.011325622 -0.07424975
-0.120520815 -0.107621156 -0.14313662 -0.13670455 -0.198511 -0.07774906 -0.07544091 -0.13848817
-0.13752215 -0.13375968 -0.094869055 -0.045482922 -0.016403398 -0.06927078 -0.037270423 -0.0688115
-0.0749706 0.04374724 0.02879522 -0.009701212 -0.025133818 -0.049321998 -0.058335166 0.06235818
-0.093559265 0.05300069 0.026226928 0.008717282 -0.08078633 -0.058672022 -0.028143685 -0.017095247
00000000: c79c 43bd 4c74 68bd ad89 f03d 0244 373e
00000010: a19d 2abd 2ae3 203e 2808 233e 9842 1f3d
00000020: a87b a1bb af28 87bd c844 89bc f0c6 133d
00000030: 8d08 70bc dd89 a23d e2fa fb3b dfa8 283e
00000040: b280 303e 1751 3bbc a763 00bd 75e8 333c
00000050: 0f36 cd3d cae8 4d3d 76fb 4e3d ee71 d23b
00000060: a11c 293e 4370 2dba 5a68 a73b 4053 bbbb
00000070: 54b4 1a3e d285 263e 1a8f 393c 4110 98bd
00000080: 9ed3 f6bd 7b68 dcbd 6892 12be 47fc 0bbe
00000090: 7846 4bbe e63a 9fbd c480 9abd d8cf 0dbe
000000a0: 9bd2 0cbe 4cf8 08be b54a c2bd 4d4c 3abd
000000b0: 6b60 86bc d7dd 8dbd dfa8 18bd 0bed 8cbd
000000c0: 308a 99bd 4e30 333d f4e3 eb3c d5f1 1ebc
000000d0: 70e5 cdbc dd05 4abd dbf0 6ebd 4a6b 7f3d
000000e0: 009c bfbd 4017 593d dbd9 d63c eed2 0e3c
000000f0: 4e73 a5bd 1352 70bd 968d e6bc 550b 8cbc

transformer.h.2.ln_1.weight f4 [4]
1.1358083 1.1740369 1.1760753 1.3384596
00000000: 2b62 913f d746 963f a389 963f a552 ab3f

transformer.h.2.attn.c_attn.weight f4 [12, 4]
0.041295357 -0.055097822 0.035239946 -0.05878421 -0.05384823 -0.028175984 0.048946016 0.02285354
-0.11232316 -0.07333024 0.1391802 -0.062626705 0.09896469 0.11116388 -0.16697387 0.012567424
-0.0063240123 -0.020386064 -0.011272711 0.051093586 0.06744804 0.04845128 -0.06796738 -0.09337817
-0.047607448 -0.026847003 0.020958602 -0.034271035 -0.08209848 -0.020833634 -0.0062794457 0.13774022
-0.03702537 -0.07967233 0.08628386 -0.2734567 -0.07243684 -0.10381868 0.08299809 0.1439813
0.07097842 0.079698175 -0.08753736 -0.18716651 0.058323376 0.046654027 -0.041115798 -0.2974534
00000000: 5225 293d 41ae 61bd c357 103d b6c7 70bd
00000010: f68f 5cbd 52d1 e6bc 9e7b 483d 5937 bb3c
00000020: af09 e6bd 2a2e 96bd 4185 0e3e 6e42 80bd
00000030: 00ae ca3d e3a9 e33d 33fb 2abe 99e7 4d3c
00000040: a939 cfbb ad00 a7bc 2db1 38bc 8247 513d
00000050: 3322 8a3d d974 463d 7b32 8bbd 0e3d bfbd
00000060: 0700 43bd 3fee dbbc 60b1 ab3c c95f 0cbd
00000070: 3f23 a8bd 4cab aabc cfc3 cdbb c60b 0d3e
00000080: eaa7 17bd 3f2b a3bd 98b5 b03d 8402 8cbe
00000090: c459 94bd e39e d4bd e7fa a93d d56f 133e
000000a0: 225d 913d cc38 a33d ca46 b3bd 94a8 3fbe
000000b0: 7ee4 6e3d 4b18 3f3d 0a69 28bd d04b 98be

transformer.h.2.attn.c_proj.weight f4 [4, 4]
-0.04015243 -0.10861471 0.1059345 0.12046571 0.06309633 -0.037702616 0.028102282 0.06731149
0.14731118 0.1692437 -0.15883797 -0.13589184 -0.08045173 0.013437794 -0.028549884 -0.045971714
00000000: e076 24bd 6471 debd 30f4 d83d bab6 f63d
00000010: a638 813d 0f6e 1abd c236 e63c 9bda 893d
00000020: bed8 163e 384e 2d3e 6ca6 22be 3b27 0bbe
00000030: e0c3 a4bd 312a 5c3c 72e1 e9bc d64c 3cbd

transformer.h.2.ln_2.weight f4 [4]
1.1861831 1.2297564 1.1185942 1.2685552
00000000: d9d4 973f a868 9d3f 182e 8f3f 0460 a23f

transformer.h.2.mlp.c_fc.weight f4 [16, 4]
-0.014955163 0.065913826 -0.018998617 -0.031524457 -0.053989735 -0.12469382 0.036139254 0.05942363
0.05047001 -0.0180363 0.072216555 -0.1519835 -0.074905165 -0.11073417 0.037553113 0.15829647
-0.050545968 0.09828894 -0.015202849 -0.13479736 -0.08291856 -0.10310127 -0.0074095754 0.2041238
0.13524011 -0.062435955 0.15308568 -0.33153337 -0.10415156 -0.046405606 -0.043103166 0.18485115
-0.08704919 -0.13632046 -0.0062389895 0.12519887 -0.059370145 0.00049866416 -0.012475553 0.07731004
0.020287333 0.05745857 0.06987818 -0.13220805 -0.067264974 -0.109536625 -0.010698062 0.13635775
7.776199e-05 0.1290415 0.040484425 -0.06389491 0.19596633 -0.23334613 -0.07240774 0.11248293
-0.080756515 0.1564817 -0.16676228 0.13847594 0.020292183 0.1200082 0.060306616 -0.14907096
00000000: 8006 75bc d4fd 863d fda2 9bbc ca1f 01bd
00000010: 5724 5dbd 795f ffbd c106 143d 3166 733d
00000020: a4b9 4e3d ddc0 93bc 46e6 933d 90a1 1bbe
00000030: e167 99bd 99c8 e2bd 4bd1 193d 7818 223e
00000040: 4a09 4fbd b64b c93d 5f15 79bc 5208 0abe
00000050: 35d1 a9bd c226 d3bd 06cc f2bb d405 513e
00000060: 627c 0a3e d8bc 7fbd 7ec2 1c3e bebe a9be
00000070: 6a4d d5bd ce13 3ebd f28c 30bd 9f49 3d3e
00000080: d946 b2bd 9797 0bbe 7070 ccbb 2234 003e
00000090: 1c2e 73bd c9b8 023a 4366 4cbc ba54 9e3d
000000a0: 9f31 a63c ad59 6b3d 4b1c 8f3d 8c61 07be
000000b0: 38c2 89bd bd54 e0bd ed46 2fbc 5ea1 0b3e
000000c0: 2714 a338 7423 043e ffd2 253d 56db 82bd
000000d0: 66ab 483e 4af2 6ebe 824a 94bd 735d e63d
000000e0: ac63 a5bd bd3c 203e bbc3 2abe a3cc 0d3e
000000f0: cb3b a63c dcc6 f53d 1204 773d 0fa6 18be

transformer.h.2.mlp.c_proj.weight f4 [4, 16]
0.13055602 -0.01724434 0.04366213 0.012255261 0.13678315 0.020316446 0.10010139 0.044953424
0.0013842639 0.07840043 0.14298128 0.0019932424 0.16129453 -0.10786103 0.13317463 0.18752547
-0.08816047 0.05350549 -0.01660454 0.08678287 -0.11962353 0.07731018 0.099280864 0.10339959
0.051757682 0.04353332 -0.032994814 0.061710868 -0.06346972 0.102141164 0.0034441352 -0.054543156
-0.029463587 0.06535605 -0.11142436 0.046492346 -0.020625804 0.05848615 -0.22858095 0.047937345
0.07230315 0.06482603 -0.098520726 0.07860065 -0.101647444 -0.112236306 -0.07861868 -0.11929934
-0.0032471898 -0.06275987 -0.010209295 -0.05605542 0.0032776566 -0.07528295 0.009745684 -0.11846218
-0.07295668 -0.051455658 0.02275021 -0.08430061 0.019336136 -0.009846362 -0.05911553 0.043067046
00000000: 7ab0 053e 0144 8dbc 10d7 323d 4aca 483c
00000010: e210 0c3e ad6e a63c f501 cd3d 1521 383d
00000020: 3070 b53a 6890 a03d af69 123e 0fa1 023b
00000030: 652a 253e 3ee6 dcbd ee5e 083e ad06 403e
00000040: 7a8d b4bd 9328 5b3d 3f06 88bc 38bb b13d
00000050: 2efd f4bd cd54 9e3d c453 cb3d 2ac3 d33d
00000060: ddff 533d ff4f 323d 9225 07bd 89c4 7c3d
00000070: 6afc 81bd 632f d13d 00b7 613b a568 5fbd
00000080: 9f5d f1bc 65d9 853d 7432 e4bd c26e 3e3d
00000090: 72f7 a8bc 2c8f 6f3d 2011 6abe f359 443d
000000a0: ad13 943d 82c3 843d 3cc5 c9bd 61f9 a03d
000000b0: 892c d0bd 26dc e5bd d502 a1bd 3653 f4bd
000000c0: cece 54bb 3f88 80bd e344 27bc 5e9a 65bd
000000d0: f4cd 563b f32d 9abd 5dac 1f3c 4d9c f2bd
000000e0: 506a 95bd 2bc3 52bd a65e ba3c cca5 acbd
000000f0: d166 9e3c a352 21bc 2023 72bd 1267 303d

transformer.ln_f.weight f4 [4]
1.6073953 1.537346 1.5876684 1.4430262
00000000: 21bf cd3f c1c7 c43f b838 cb3f 15b5 b83f

lm_head.weight f4 [5, 4]
-0.36733282 -0.40117002 0.4162552 0.22954962 0.14431775 0.32932618 -0.11450583 -0.25514236
0.047117107 0.0711726 -0.1490541 0.09747901 0.09133179 -0.012711737 -0.1564407 0.10646385
0.25226977 0.025014551 -0.15175416 -0.11956349
00000000: 0c13 bcbe 2866 cdbe 671f d53e 0e0f 6b3e
00000010: 08c8 133e 719d a83e 0882 eabd 05a2 82be
00000020: defd 403d f1c2 913d a3a1 18be 13a3 c73d
00000030: 290c bb3d e444 50bc fe31 20be b809 da3d
00000040: 8129 813e 51eb cc3c 7165 1bbe b4dd f4bd

exp_avg f4 [5, 4]
-0.0058501414 -0.0011948778 0.008291184 -0.0009953517 -0.006510776 -0.0004154875 0.012368341 -0.0024455267
0.011357924 0.0005283032 -0.0146586085 0.0026620005 0.0018741176 0.0009682412 -0.0021750878 9.471024e-05
-0.005552133 -0.0017500095 0.0021744184 0.0039368644
00000000: 8bb2 bfbb 729d 9cba bfd7 073c 7676 82ba
00000010: 5958 d5bb cad5 d9b9 95a4 4a3c 2145 20bb
00000020: 9616 3a3c d47d 0a3a a92a 70bc f574 2e3b
00000030: f4a4 f53a 91d1 7d3a eb8b 0ebb 2c9f c638
00000040: abee b5bb 9360 e5ba b080 0e3b d000 813b

exp_avg_sq f4 [5, 4]
1.1611061e-05 2.5285035e-06 2.0355272e-05 3.6396661e-06 0.00035537157 0.00011877711 0.0007501235 8.502388e-05
0.00036012518 5.2424566e-05 0.0007859862 0.00010642244 0.00040558385 7.405306e-05 0.00087141816 6.600842e-05
0.0006971673 0.00019608995 0.0011595892 8.796754e-05
00000000: 21cd 4237 5caf 2936 9dc0 aa37 fd40 7436
00000010: 2a51 ba39 fa17 f938 f0a3 443a d94e b238
00000020: 2fcf bc39 73e2 5b38 a40a 4e3a 1d2f df38
00000030: 8ba4 d439 ef4c 9b38 e26f 643a 006e 8a38
00000040: 1bc2 363a 7f9d 4d39 5bfd 973a 377b b838

exp_avg f4 [256, 4]
3.4585526e-05 0.000119138545 7.6136e-05 -0.00034922006 0.00015425116 -6.5043714e-05 -4.354169e-05 -0.00019529948
-4.1715684e-05 1.7938319e-05 3.7533133e-05 4.2293304e-05 9.298371e-06 0.00032660694 -7.581802e-05 -0.00018472136
6.66192e-05 0.000112455156 1.6018997e-06 -0.0001221407 5.1480954e-05 -1.2382581e-05 -1.9965779e-05 -7.486927e-05
-2.789498e-05 3.2715932e-05 -1.8032168e-05 6.255025e-05 -9.3850336e-05 -0.00032036888 -4.2338356e-06 0.00037171092
1.09035145e-05 -0.0001415511 -4.0764236e-05 0.00018153037 1.4773888e-05 -0.00010077852 -7.357794e-05 0.00017059676
1.0328976e-05 -0.000214381 2.246921e-05 4.900138e-05 9.868977e-06 -6.516497e-06 -6.33732e-05 4.1194995e-05
4.8516653e-05 -0.0001970221 -7.424146e-05 0.00014094416 6.7960605e-06 0.000114578594 2.2918057e-05 3.443032e-05
4.1108313e-05 -0.00017295156 3.8838985e-05 3.8507074e-05 -1.5052741e-05 2.1675012e-05 4.020103e-05 9.946939e-06
4.046121e-05 -0.00021921351 -4.2986253e-06 7.552358e-05 -3.2153962e-06 -6.3215826e-05 0.00010474086 -5.6537072e-05
-4.505443e-07 0.00018538054 -3.7890102e-05 -0.000155456 -7.0442526e-05 -0.000100778154 2.7652473e-05 0.000105841034
2.4000574e-05 -0.0001808877 2.8675506e-05 2.9838926e-05 -9.046914e-05 3.6742176e-08 -3.4489665e-05 0.00012881651
-4.2119216e-05 -8.038222e-05 -2.3778895e-05 -3.7493255e-06 7.023172e-05 -7.505799e-05 2.683432e-05 -0.00014572605
-7.047476e-05 -0.00010487149 -6.875365e-06 8.432119e-05 -1.0444446e-05 -3.542599e-05 2.4754223e-05 7.017467e-05
1.9027093e-05 2.4823868e-05 4.3275653e-05 -0.00015671826 -2.5595748e-05 -0.00010691157 -8.802853e-05 0.00020751143
-0.00010589104 3.0332063e-05 -8.755445e-05 5.2909025e-05 -3.5387802e-05 -0.00017888969 4.7668233e-05 0.0001685218
5.7653437e-05 -9.5665644e-05 -6.76045e-05 1.2834922e-05 4.5526427e-05 -9.22767e-05 1.4420618e-05 0.00016642877
-5.0141145e-05 -0.00014666449 5.6726407e-05 4.3860702e-05 7.0316506e-05 9.0772955e-05 3.930354e-05 -0.00012180037
-0.00010764253 8.6742344e-05 -3.8063205e-05 0.00015674754 -3.8694372e-05 2.036e-05 -0.00012273653 0.00011639017
-6.2965787e-06 6.4861226e-05 1.5535845e-05 -1.6018139e-05 -2.7450968e-05 6.9022453e-06 -2.8329938e-05 0.00014211122
-7.590243e-05 0.00020822558 -5.670758e-05 2.8925388e-05 1.4936509e-05 5.3931166e-05 -1.0925062e-05 5.565849e-05
3.1745894e-05 2.5573554e-05 -7.018048e-06 -7.376495e-05 -1.9074296e-05 -0.00011377029 5.785889e-05 0.0001184502
-6.7568006e-05 -0.00028558733 8.62165e-06 0.00022342305 -5.920675e-06 0.00023800762 -1.5516778e-05 -0.00013270778
-4.7409878e-05 -7.805213e-05 -2.1136795e-05 0.00014775342 -3.9469902e-05 -3.7732127e-05 5.7696275e-06 0.00013463297
-8.505572e-05 4.7658945e-05 -9.301044e-05 9.738331e-05 -2.189518e-05 -5.1674724e-05 5.000746e-05 9.2019094e-05
4.983791e-05 -0.000119666256 1.1457095e-05 0.00014047133 2.6592892e-05 5.916535e-05 -3.3379114e-05 6.21147e-05
-0.000121277975 3.06152e-06 -2.2395468e-05 0.00021419347 4.074185e-05 8.377558e-05 -2.2649338e-05 -2.5279976e-05
0.000104738305 -0.00027747673 4.0536393e-05 0.00015693041 2.6372156e-05 -1.2799176e-05 7.0898845e-05 4.2180433e-05
3.3140837e-05 5.8403137e-05 -8.817642e-06 4.6291047e-05 7.406925e-05 0.00013663653 3.8086628e-06 -7.866372e-05
7.846673e-05 -8.279189e-05 -4.671414e-05 -3.6345147e-05 1.3567201e-05 -3.0618212e-05 -7.502374e-05 -0.0001128802
4.5681696e-05 -9.03114e-07 4.0697443e-05 -3.788316e-05 -4.0686366e-05 4.673576e-05 8.622218e-06 5.836783e-05
5.5569068e-05 -8.498387e-05 -3.0773477e-05 0.00014757273 1.2430553e-06 1.311896e-05 -2.9882069e-05 3.2630825e-05
1.5940273e-05 0.00020816337 -4.4489654e-05 1.1973532e-05 -3.4966022e-05 -0.00013545294 4.1205335e-06 0.00017608491
00000000: ed0f 1138 05da f938 34ab 9f38 8617 b7b9
00000010: 7bbe 2139 1468 88b8 89a0 36b8 4ec9 4cb9
00000020: e0f7 2eb8 3f7a 9637 e56c 1d38 1764 3138
00000030: 3300 1c37 713c ab39 7d00 9fb8 c3b1 41b9
00000040: e9b5 8b38 e7d5 eb38 db00 d735 e512 00b9
00000050: 41ed 5738 c8be 4fb7 2f7c a7b7 2203 9db8
00000060: 0300 eab7 7738 0938 c943 97b7 692d 8338
00000070: 84d1 c4b8 2ff7 a7b9 5f10 8eb6 32e2 c239
00000080: 3dee 3637 566d 14b9 44fa 2ab8 3059 3e39
00000090: 5edd 7737 0e59 d3b8 db4d 9ab8 38e2 3239
000000a0: 9d4a 2d37 76cb 60b9 437c bc37 d586 4d38
000000b0: ef92 2537 48a8 dab6 3ae7 84b8 cac8 2c38
000000c0: 5c7e 4b38 b897 4eb9 15b2 9bb8 69ca 1339
000000d0: b709 e436 ea49 f038 2740 c037 4669 1038
000000e0: b76b 2c38 555a 35b9 0be7 2238 a882 2138
000000f0: 088b 7cb7 bcd2 b537 879d 2838 c7e1 2637
00000100: e5b4 2938 aedc 65b9 e93c 90b6 6a62 9e38
00000110: 16c8 57b6 bd92 84b8 52a8 db38 3822 6db8
00000120: 56e2 f1b4 b662 4239 30ec 1eb8 e701 23b9
00000130: 8bba 93b8 dc58 d3b8 3cf7 e737 f9f6 dd38
00000140: d754 c937 acac 3db9 2e8c f037 9b4e fa37
00000150: 40ba bdb8 73ce 1d33 ffa8 10b8 eb12 0739
00000160: 2aa9 30b8 e092 a8b8 ca78 c7b7 ec9c 7bb6
00000170: 5e49 9338 7468 9db8 431a e137 0ace 18b9
00000180: d9cb 93b8 74ee dbb8 f0b2 e6b6 98d5 b038
00000190: 8e3a 2fb7 5e96 14b8 4aa7 cf37 bd2a 9338
000001a0: 5f9c 9f37 da3c d037 e182 3538 bd54 24b9
000001b0: 73b6 d6b7 b635 e0b8 f59b b8b8 6d97 5939
000001c0: d211 deb8 9c71 fe37 709d b7b8 a2ea 5d38
000001d0: 5d6d 14b8 5694 3bb9 60ef 4738 3ab5 3039
000001e0: e8d0 7138 1aa0 c8b8 e4c6 8db8 9255 5737
000001f0: a1f3 3e38 ad84 c1b8 15f0 7137 6283 2e39
00000200: a54e 52b8 f3c9 19b9 84ed 6d38 12f7 3738
00000210: e376 9338 5c5d be38 dbd9 2438 136f ffb8
00000220: 25be e1b8 71e9 b538 0ea6 1fb8 995c 2439
00000230: c44b 22b8 c4ca aa37 d6b2 00b9 7f16 f438
00000240: 3347 d3b6 1b06 8838 f952 8237 b15e 86b7
00000250: 8146 e6b7 d699 e736 14a6 edb7 b103 1539
00000260: cf2d 9fb8 2157 5a39 4dd9 6db8 cca4 f237
00000270: d197 7a37 2634 6238 c94a 37b7 d972 6938
00000280: e526 0538 ca86 d637 937c ebb6 42b2 9ab8
00000290: bd01 a0b7 f697 eeb8 83ad 7238 7868 f838
000002a0: 4cb3 8db8 e2ba 95b9 b4a5 1037 ab46 6a39
000002b0: 36aa c6b6 af91 7939 072a 82b7 7927 0bb9
000002c0: f8d9 46b8 ebaf a3b8 ec4e b1b7 42ee 1a39
000002d0: 7c8c 25b8 9042 1eb8 b998 c136 432c 0d39
000002e0: f15f b2b8 67e5 4738 9a0e c3b8 443a cc38
000002f0: 8bab b7b7 50bd 58b8 1abf 5138 60fa c038
00000300: 0c09 5138 55f5 fab8 d937 4037 7c4b 1339
00000310: cd13 df37 5028 7838 8d00 0cb8 9343 8238
00000320: 9e56 feb8 8374 4d36 e7dd bbb7 1f99 6039
00000330: 3ae2 2a38 acb0 af38 15ff bdb7 5610 d4b7
00000340: f3a6 db38 4c7a 91b9 9f05 2a38 b08d 2439
00000350: c639 dd37 0bbc 56b7 87af 9438 e5ea 3038
00000360: b400 0b38 e4f5 7438 7cef 13b7 a228 4238
00000370: a055 9b38 1746 0f39 5498 7f36 43f8 a4b8
00000380: 818e a438 8fa0 adb8 edee 43b8 4e71 18b8
00000390: af9e 6337 0e6c 00b8 1056 9db8 19ba ecb8
000003a0: 599a 3f38 866d 72b5 8cb2 2a38 bce4 1eb8
000003b0: a7a6 2ab8 2406 4438 25a8 1037 fbcf 7438
000003c0: d512 6938 5e39 b2b8 c512 01b8 c1bd 1a39
000003d0: 0ed7 a635 8119 5c37 41ab fab7 15dd 0838
000003e0: 7ab7 8537 6e46 5a39 679a 3ab8 eee1 4837
000003f0: 7ba8 12b8 5f08 0eb9 1d43 8a36 6fa3 3839

exp_avg_sq f4 [256, 4]
1.1829601e-06 1.1489751e-06 2.3318191e-07 4.834502e-06 2.7457327e-07 5.630243e-07 3.8052644e-08 9.184954e-07
2.4431108e-07 1.1119407e-06 4.19159e-08 6.087405e-07 1.697088e-07 5.292425e-07 4.5558256e-08 6.8225677e-07
1.170669e-07 3.259935e-07 3.4981873e-08 6.0603844e-07 1.02772866e-07 3.9804527e-07 5.356902e-08 5.6555376e-07
8.300898e-08 2.8564565e-07 3.6751917e-08 4.3170738e-07 9.49029e-08 3.3752127e-07 4.1638955e-08 4.6050667e-07
9.666505e-08 3.6517164e-07 5.1150856e-08 3.9242474e-07 1.03347105e-07 2.8986483e-07 4.522808e-08 4.0000663e-07
8.5024645e-08 3.5128318e-07 4.5254318e-08 3.1517496e-07 7.2668314e-08 2.2056265e-07 4.3713975e-08 3.4666104e-07
9.54051e-08 4.6991184e-07 6.792728e-08 3.7029378e-07 1.119259e-07 2.6808925e-07 4.3117883e-08 3.5110202e-07
8.375457e-08 2.4543684e-07 5.132037e-08 3.5891972e-07 8.479902e-08 3.444294e-07 4.2571084e-08 3.187827e-07
7.718129e-08 4.10433e-07 4.0856627e-08 3.572586e-07 9.050506e-08 2.1721007e-07 3.1223426e-08 3.2142236e-07
2.3964165e-07 2.848048e-07 4.832747e-07 4.5590446e-07 6.809138e-08 2.0973987e-07 3.1790538e-08 2.8282295e-07
6.812023e-08 3.353839e-07 3.3548996e-08 4.1814295e-07 1.0367824e-07 3.619674e-07 5.0831197e-08 3.4557522e-07
7.013361e-08 2.5674618e-07 3.280963e-08 2.8919146e-07 8.158684e-08 2.9107085e-07 4.348557e-08 3.8179735e-07
8.865291e-08 2.842415e-07 3.650862e-08 2.8922096e-07 5.2914114e-08 2.589908e-07 3.9231384e-08 3.2711895e-07
5.611976e-08 3.024474e-07 4.098244e-08 3.0150284e-07 7.052666e-08 2.3160828e-07 3.5107778e-08 3.4253833e-07
8.192602e-08 3.897379e-07 4.2157033e-08 3.9139738e-07 6.137269e-08 3.4451523e-07 3.429861e-08 3.2805164e-07
7.268969e-08 2.6688645e-07 3.9771717e-08 3.2277205e-07 7.296097e-08 2.9797698e-07 4.5651337e-08 3.460378e-07
1.0524532e-07 2.2204753e-07 4.9881614e-08 3.5783373e-07 6.786947e-08 3.0055952e-07 4.600725e-08 3.6429296e-07
6.308225e-08 3.3018227e-07 3.3150513e-08 3.711167e-07 7.778989e-08 2.2453885e-07 4.564805e-08 3.032425e-07
7.1792414e-08 4.0906417e-07 4.4969717e-08 3.2375644e-07 5.2045117e-08 2.4115832e-07 4.3265793e-08 3.3237072e-07
7.300885e-08 2.8874004e-07 3.8748066e-08 3.0254188e-07 8.1291766e-08 2.7378803e-07 3.6866176e-08 3.015885e-07
5.998536e-08 2.730427e-07 3.5763463e-08 3.0443482e-07 7.320616e-08 3.3761037e-07 5.672835e-08 3.590181e-07
9.429431e-08 3.2699546e-07 3.345911e-08 3.9887536e-07 6.503218e-08 2.60002e-07 4.4005805e-08 2.9489735e-07
7.399863e-08 2.9472096e-07 5.2804108e-08 3.3048033e-07 8.2109594e-08 2.2488604e-07 3.9001595e-08 2.7336245e-07
7.8699316e-08 2.840289e-07 3.3342985e-08 3.3725817e-07 8.32364e-08 2.4349117e-07 5.101229e-08 3.199257e-07
9.3013774e-08 2.609986e-07 5.6562502e-08 3.2960588e-07 7.226776e-08 2.7572827e-07 4.144104e-08 3.0948357e-07
7.809974e-08 2.273893e-07 3.8550578e-08 3.3089705e-07 8.004926e-08 2.4066503e-07 3.9183533e-08 3.2653594e-07
6.713591e-08 2.9502814e-07 3.597659e-08 4.239514e-07 7.4876056e-08 2.0757173e-07 3.1270567e-08 2.837961e-07
6.8223144e-08 3.084961e-07 3.41547e-08 3.0308345e-07 6.331112e-08 2.2852542e-07 3.491394e-08 3.0572394e-07
7.789319e-08 2.5819352e-07 4.7680338e-08 3.0231928e-07 6.604699e-08 2.767449e-07 3.809745e-08 2.882255e-07
8.1324735e-08 2.6832728e-07 4.735814e-08 3.2296538e-07 8.642979e-08 2.4478183e-07 3.380518e-08 3.155567e-07
7.052398e-08 2.2423818e-07 4.652473e-08 3.4948397e-07 6.15412e-08 2.0911422e-07 4.0215618e-08 3.0087938e-07
7.2332334e-08 2.405188e-07 4.1117183e-08 2.977541e-07 6.449257e-08 2.5734977e-07 3.6472557e-08 3.710058e-07
00000000: 33c6 9e35 7c36 9a35 8e60 7a34 0e38 a236
00000010: 1069 9334 bc22 1735 536f 2333 868e 7635
00000020: dc29 8334 fe3d 9535 0507 3433 5468 2335
00000030: 3339 3634 4511 0e35 d5ab 4333 5424 3735
00000040: 3566 fb33 3504 af34 fa3e 1633 a5ae 2235
00000050: fbb3 dc33 edb2 d534 c313 6633 8fd0 1735
00000060: ab42 b233 d75a 9934 29d9 1d33 69c5 e734
00000070: 6ccd cb33 9234 b534 84d6 3233 8e3b f734
00000080: 2c96 cf33 cf0c c434 f6b0 5b33 72ae d234
00000090: acef dd33 b89e 9b34 cd40 4233 7ec0 d634
000000a0: cb96 b633 fe97 bc34 a65d 4233 5135 a934
000000b0: d40d 9c33 cdd3 6c34 06c0 3b33 bb1c ba34
000000c0: 82e1 cc33 3148 fc34 6bdf 9133 cacc c634
000000d0: ea5b f033 e8ed 8f34 9d30 3933 187f bc34
000000e0: 90dc b333 95c4 8334 586b 5c33 8db1 c034
000000f0: c11a b633 04ea b834 67d7 3633 2925 ab34
00000100: ddbe a533 7b59 dc34 567a 2f33 40cd bf34
00000110: af5b c233 403a 6934 851a 0633 f48f ac34
00000120: 19a8 8034 46e7 9834 62ba 0135 08c3 f434
00000130: a239 9233 db34 6134 118a 0833 e4d6 9734
00000140: 7e49 9233 d00e b434 8317 1033 217d e034
00000150: b7a5 de33 6c54 c234 7e51 5a33 7f87 b934
00000160: 5c9c 9633 edd6 8934 92ea 0c33 2c42 9b34
00000170: d734 af33 7944 9c34 e4c4 3a33 d4f9 cc34
00000180: 7461 be33 db99 9834 a7cd 1c33 3a46 9b34
00000190: af43 6333 6d0b 8b34 5d7f 2833 e39e af34
000001a0: 5408 7133 0e60 a234 ab04 3033 3cde a134
000001b0: 7174 9733 00b0 7834 69c9 1633 1ce6 b734
000001c0: 4eef af33 2b3d d134 2610 3533 3f21 d234
000001d0: fecb 8333 d0f5 b834 b84f 1333 131f b034
000001e0: 9419 9c33 9848 8f34 77d1 2a33 7449 ad34
000001f0: b8ae 9c33 a5f9 9f34 2d12 4433 13c7 b934
00000200: 3a03 e233 f66b 6e34 6a3d 5633 4b1c c034
00000210: a3bf 9133 965c a134 8299 4533 0b94 c334
00000220: d577 8733 e843 b134 6061 0e33 e43d c734
00000230: 720d a733 c518 7134 900e 4433 55cd a234
00000240: 4c2c 9a33 5a9d db34 ba24 4133 bfd0 ad34
00000250: 3688 5f33 8c78 8134 3ed3 3933 af70 b234
00000260: 0ac9 9c33 2104 9b34 f36b 2633 0a6d a234
00000270: 9f92 ae33 24fd 9234 ca56 1e33 02ea a134
00000280: 4dd1 8033 b496 9234 589a 1933 3471 a334
00000290: 8335 9d33 d140 b534 7ba5 7333 12bf c034
000002a0: d87e ca33 ea8d af34 aeb4 0f33 0325 d634
000002b0: d2a7 8b33 6796 8b34 e500 3d33 6252 9e34
000002c0: 2de9 9e33 243a 9e34 bbca 6233 df6c b134
000002d0: 3a54 b033 3478 7134 b582 2733 a6c2 9234
000002e0: 6801 a933 a37c 9834 0035 0f33 6910 b534
000002f0: b2bf b233 2cb9 8234 9b18 5b33 41c2 ab34
00000300: ddbe c733 601f 8c34 21ef 7233 b0f4 b034
00000310: 9f31 9b33 ce07 9434 e8fc 3133 1927 a634
00000320: c9b7 a733 4b28 7434 cf92 2533 25a6 b134
00000330: 8ce7 ab33 c034 8134 c04a 2833 c24e af34
00000340: 5b2c 9033 5c64 9e34 ae84 1a33 709b e334
00000350: 8ccb a033 e2e0 5e34 5a4e 0633 a45c 9834
00000360: 1282 9233 629f a534 7db1 1233 79b7 a234
00000370: a8f5 8733 9760 7534 48f4 1533 6122 a434
00000380: 3c46 a733 d99d 8a34 16c9 4c33 724e a234
00000390: b7d5 8d33 8893 9434 97a0 2333 69bd 9a34
000003a0: bfa4 ae33 9f0e 9034 d366 4b33 0664 ad34
000003b0: 489b b933 8f6a 8334 3031 1133 c869 a934
000003c0: f872 9733 1fc6 7034 7bd2 4733 b6a0 bb34
000003d0: a228 8433 e188 6034 8ab9 2c33 8c88 a134
000003e0: 1f55 9b33 a720 8134 d298 3033 03db 9f34
000003f0: 2a7f 8a33 e229 8a34 00a6 1c33 a62e c734

exp_avg f4 [12, 4]
-1.4564002e-06 -2.2155489e-06 -3.3648214e-06 5.252274e-06 7.3430556e-07 -1.337323e-06 2.9995772e-07 1.0318582e-06
-1.51129625e-05 2.5956977e-06 8.551003e-06 6.633096e-06 -1.1142809e-05 -1.12285015e-05 1.1881682e-05 8.825264e-06
-2.8055358e-09 -1.9164005e-07 8.399386e-08 1.1798086e-07 -3.8866386e-08 1.894373e-08 -7.730796e-11 2.5626132e-08
8.5265865e-06 1.488374e-05 -3.3429403e-06 -1.9879186e-05 1.1921024e-05 1.7463011e-05 -8.056479e-06 -2.1284646e-05
0.00018200789 1.4402349e-05 -0.00012602902 -7.566977e-05 0.0004680539 0.00020205861 -0.00048591304 -0.00020179954
-0.00023514005 -4.721976e-05 0.00020482711 8.629614e-05 -0.0003980214 -0.0002488933 0.00055619207 0.00010606332
00000000: 8879 c3b5 d7ae 14b6 31cf 61b6 b13c b036
00000010: 181d 4535 127e b3b5 e009 a134 617e 8a35
00000020: ae8d 7db7 bf31 2e36 4776 0f37 dc91 de36
00000030: 00f2 3ab7 0c62 3cb7 7057 4737 3810 1437
00000040: 82cb 40b1 9ec5 4db4 1d60 b433 aa5c fd33
00000050: 0bee 26b3 b4b9 a232 8300 aaae 7620 dc32
00000060: 690d 0f37 2db5 7937 4757 60b6 3ac2 a6b7
00000070: 6900 4837 887d 9237 502a 07b7 6e8c b2b7
00000080: 5fd9 3e39 9ea1 7137 a826 04b9 e6b0 9eb8
00000090: 2265 f539 b2df 5339 25c2 feb9 279a 53b9
000000a0: ed8f 76b9 d50d 46b8 dcc6 5639 e3f9 b438
000000b0: 87ad d0b9 e57d 82b9 6bcd 113a 506e de38

exp_avg_sq f4 [12, 4]
2.7547473e-10 2.319196e-10 4.0001805e-10 3.6768902e-10 6.359476e-11 4.789831e-11 5.941261e-11 4.5168338e-11
5.163817e-09 2.4771074e-09 3.75441e-09 4.610559e-09 9.373621e-09 4.2480526e-09 8.479606e-09 5.7197407e-09
5.3798143e-11 4.1845975e-11 1.1830469e-10 1.7166817e-11 6.0417504e-12 2.5542786e-12 2.6710422e-11 1.21384595e-11
1.3632327e-09 1.0411549e-09 1.0941105e-09 2.6380185e-09 2.6241567e-09 2.3031448e-09 1.6010967e-09 5.38598e-09
5.7412774e-07 1.3859143e-07 9.646285e-07 8.717601e-08 2.2208799e-06 4.831844e-07 3.6740355e-06 1.8565864e-07
1.2829788e-06 2.623451e-07 2.8024742e-06 1.4632231e-07 4.9770774e-06 8.963217e-07 9.209295e-06 2.6115927e-07
00000000: 9f71 972f 90ff 7e2f 89e9 db2f a123 ca2f
00000010: abd8 8b2e b4a8 522e 53a6 822e 07a7 462e
00000020: 6a6d b131 bc39 2a31 2400 8131 e86a 9e31
00000030: 9f09 2132 44f6 9131 b4ad 1132 5f87 c431
00000040: 539b 6c2e 610a 382e cf13 022f 3c00 972d
00000050: 4093 d42c cbbd 332c 86f2 ea2d c38a 552d
00000060: 7d5c bb30 6218 8f30 975f 9630 8348 3531
00000070: a754 3431 5a45 1e31 950d dc30 950f b931
00000080: c21d 1a35 b9cf 1434 6278 8135 8535 bb33
00000090: 6d0a 1536 2eb4 0135 738f 7636 7559 4734
000000a0: d132 ac35 70d8 8c34 2412 3c36 c51c 1d34
000000b0: c500 a736 c29a 7035 9f81 1a37 7535 8c34

exp_avg f4 [4, 4]
-2.6907179e-05 -5.206733e-05 -7.955837e-05 2.9475546e-05 -0.0005799866 -0.00026563706 -0.00069944724 -0.00042939262
-0.0003747048 -0.00016492847 -0.00023450577 -0.00026693512 0.0013508591 0.0006550873 0.0011931949 0.0008800288
00000000: bab6 e1b7 df62 5ab8 93d8 a6b8 4142 f737
00000010: 3e0a 18ba 3445 8bb9 1c5b 37ba 1a20 e1b9
00000020: 0774 c4b9 a6f0 2cb9 aae5 75b9 6df3 8bb9
00000030: 4f0f b13a 2aba 2b3a fa64 9c3a bcb1 663a

exp_avg_sq f4 [4, 4]
1.9838922e-06 9.240882e-07 5.783389e-07 3.2612974e-07 1.3289696e-05 5.598397e-06 3.4582874e-06 2.1301385e-06
1.569074e-06 6.362184e-07 5.961601e-07 3.3307674e-07 2.3838751e-05 9.589938e-06 6.0679736e-06 3.7173065e-06
00000000: 0223 0536 dc0e 7835 263f 1b35 ee16 af34
00000010: cff6 5e37 ddd9 bb36 ed14 6836 80f3 0e36
00000020: f998 d235 98c8 2a35 cf07 2035 b8d1 b234
00000030: 54f9 c737 78e4 2037 7f9b cb36 d776 7936

exp_avg f4 [16, 4]
0.0027857157 0.0012553672 -0.0039643715 -0.00031836802 0.0008790073 0.00050650164 -0.0011006969 -0.0003664788
-0.0005729487 -0.00074456184 0.0010938294 0.00024506083 -0.0003089062 -0.00035376177 0.0007244422 -5.3659176e-05
0.0019070219 0.00051567215 -0.00241154 -0.00020654697 0.0017087811 0.0007525733 -0.0022286146 -0.0003898288
5.8257432e-05 -2.0693627e-05 0.00018648348 -0.00023933688 0.0003671897 0.00033904548 -0.00062549184 -0.00010228238
-0.00076078036 -0.00020359718 0.0018405915 -0.0008331722 -0.0005199503 -0.00030402793 0.0007042707 0.00016409067
-0.0005486314 -0.00051142526 0.00083577103 0.00025949918 -0.0009880291 -0.0007720538 0.0012501748 0.0005907744
7.2308717e-06 7.9253856e-05 0.00047337083 -0.0005792608 -0.00080410845 0.0003520076 0.0013261393 -0.00078312657
-0.0010732178 1.6121227e-05 0.00172642 -0.00056593824 0.00080615445 -5.129285e-05 -0.0013410217 0.0005052048
00000000: 8e90 363b 228b a43a 8fe7 81bb a2ea a6b9
00000010: 2e6d 663a c0c6 043a 4245 90ba f423 c0b9
00000020: f031 16ba b32e 43ba d35e 8f3a 827b 8039
00000030: b0f4 a1b9 1a79 b9b9 7ee8 3d3a 1a10 61b8
00000040: 09f5 f93a 2c2e 073a ed0a 1ebb 8894 58b9
00000050: 2ef9 df3a 5748 453a f30d 12bb f061 ccb9
00000060: 7159 7438 3a97 adb7 c78a 4339 81f6 7ab9
00000070: 5e83 c039 eac1 b139 0cf8 23ba 6f80 d6b8
00000080: 1b6f 47ba b47c 55b9 0140 f13a 3d69 5aba
00000090: 464d 08ba f065 9fb9 ce9e 383a c10f 2c39
000000a0: 08d2 0fba 2b11 06ba a517 5b3a 640d 8839
000000b0: c180 81ba a763 4aba e8dc a33a 33de 1a3a
000000c0: b7a0 f236 1735 a638 c22e f839 89d9 17ba
000000d0: ceca 52ba a98d b839 dad1 ad3a bc4a 4dba
000000e0: 37ab 8cba 123c 8737 0b49 e23a 795b 14ba
000000f0: 1c54 533a 4723 57b8 39c5 afba b86f 043a

exp_avg_sq f4 [16, 4]
2.568683e-06 5.236262e-07 4.8778224e-06 1.9471426e-07 3.5539688e-07 1.13607285e-07 4.9648696e-07 1.1746145e-07
3.8488142e-06 1.6299393e-06 9.526451e-06 1.4450738e-06 1.4943428e-06 2.477391e-07 3.695068e-06 6.639195e-07
1.3712863e-06 4.921342e-07 2.2644765e-06 3.973851e-07 1.0677273e-06 4.3486477e-07 1.8295887e-06 2.7975352e-07
5.2082197e-07 5.4102566e-07 8.410879e-07 5.261642e-07 7.1164254e-07 1.6185174e-07 1.3393936e-06 2.7478328e-07
1.1054067e-06 1.1608652e-07 3.4690243e-06 4.910847e-07 3.64137e-07 1.3380509e-07 1.4324669e-06 3.1718093e-07
4.0803093e-06 1.7776221e-06 7.0139795e-06 1.4420422e-06 4.4623965e-07 1.8990653e-07 6.442274e-07 1.5885578e-07
3.8052931e-07 5.7473823e-08 5.633824e-07 1.636405e-07 5.6198996e-07 1.1199627e-07 8.7812697e-07 2.689409e-07
4.6615352e-07 8.4112656e-08 1.0267698e-06 1.685139e-07 5.118075e-07 2.4308983e-08 9.379815e-07 1.01261655e-07
00000000: a361 2c36 528f 0c35 2dac a336 a612 5134
00000010: 60cd be34 44f8 f333 5346 0535 1d3f fc33
00000020: 1025 8136 4ac4 da35 ccd3 1f37 5cf4 c135
00000030: 3a91 c835 0101 8534 c9f8 7736 3338 3235
00000040: 0a0d b835 341b 0435 69f7 1736 3158 d534
00000050: d54e 8f35 5c77 e934 3090 f535 0831 9634
00000060: 9dce 0b35 003b 1135 1fc7 6135 ba3d 0d35
00000070: b407 3f35 78c9 2d34 37c5 b335 ed85 9334
00000080: 7c5d 9435 3d4b f933 62cd 6836 15d3 0335
00000090: 9c7e c334 10ac 0f34 3043 c035 0449 aa34
000000a0: 97e9 8836 a196 ee35 a059 eb36 318c c135
000000b0: b692 ef34 1ce9 4b34 f8ee 2c35 f291 2a34
000000c0: 8d4b cc34 23d9 7633 583b 1735 28b5 2f34
000000d0: a8db 1635 9a82 f033 6db8 6b35 f562 9034
000000e0: a743 fa34 6ca1 b433 8bcf 8935 c0f0 3434
000000f0: 2563 0935 05d0 d032 99c9 7b35 2f75 d933

exp_avg f4 [4, 16]
5.4814464e-05 0.00036772576 -0.00032423282 -0.00050777063 -0.000118221644 -0.00016464363 0.00079881283 -0.00027665394
-0.0009109554 0.00034387983 -0.00044051706 0.0005111514 0.0004865019 0.00039161296 0.000382241 0.0005421274
-9.4623494e-05 -5.449844e-05 0.00021665763 -0.0006693939 2.4089084e-05 1.7215618e-05 6.704632e-05 -0.0003521246
2.7705968e-05 -1.6496742e-05 0.00060951756 -5.1833944e-05 -0.00011287448 -4.047568e-05 2.4817023e-06 -9.2051e-05
3.0064186e-05 0.00016151341 -8.8070025e-05 0.00010882586 -6.308722e-05 -7.8356556e-05 0.0002851972 -1.1572982e-05
-0.00037573098 0.00021904254 -5.442217e-05 0.00022157202 0.00019064067 0.00015024263 0.00017953251 0.00024649108
1.639852e-05 -0.000518842 0.00018419458 0.0010848733 0.00020557495 0.0002676436 -0.00039370285 0.000664703
0.0014173621 -0.00064549677 -8.607941e-05 -0.0007379763 -0.0005421613 -0.0005002401 -0.0006536145 -0.0007319511
00000000: 95e8 6538 51cb c039 cbfd a9b9 e91b 05ba
00000010: c3ed f7b8 30a4 2cb9 6c67 513a dd0b 91b9
00000020: 2fcd 6eba c54a b439 33f5 e6b9 cafe 053a
00000030: 2e11 ff39 6751 cd39 8567 c839 8e1d 0e3a
00000040: 9a70 c6b8 4195 64b8 972e 6339 447a 2fba
00000050: ea12 ca37 426a 9037 389b 8c38 5d9d b8b9
00000060: 1d6a e837 7c62 8ab7 08c8 1f3a 4668 59b8
00000070: 06b7 ecb8 6ec4 29b8 528b 2636 810b c1b8
00000080: 5932 fc37 ed5b 2939 3cb2 b8b8 7039 e438
00000090: b14d 84b8 5b53 a4b8 8586 9539 9429 42b7
000000a0: c2fd c4b9 c9ae 6539 5c43 64b8 c955 6839
000000b0: b7e6 4739 738a 1d39 e440 3c39 793b 8139
000000c0: 8e8f 8937 e602 08ba 5b24 4139 4f32 8e3a
000000d0: 9b8f 5739 8452 8c39 e769 ceb9 773f 2e3a
000000e0: c8c6 b93a 8e36 29ba 8885 b4b8 c074 41ba
000000f0: d41f 0eba 8b22 03ba 5457 2bba 68e0 3fba

exp_avg_sq f4 [4, 16]
5.896887e-08 3.712122e-07 2.3036739e-07 6.2474282e-06 6.962054e-08 1.10665255e-07 1.8972834e-06 2.0117839e-06
3.0517758e-06 8.34195e-07 9.615032e-07 8.6928094e-07 5.488125e-07 6.0807923e-07 7.0892486e-07 7.109102e-07
9.79555e-08 6.4228715e-07 5.355787e-07 6.7841743e-06 1.4789373e-07 1.9053012e-07 4.97107e-06 2.369991e-06
4.491164e-06 1.4541762e-06 4.0872624e-06 1.4464757e-06 8.857183e-07 8.041961e-07 1.0933628e-06 1.3533065e-06
1.8943284e-08 1.1132281e-07 1.0194572e-07 7.939913e-07 3.6122845e-08 3.4501127e-08 9.1753276e-07 2.5248613e-07
5.164587e-07 3.093842e-07 9.969123e-07 2.4017007e-07 1.3312903e-07 7.5140385e-08 1.7253565e-07 2.6999695e-07
1.8258247e-07 1.7817763e-06 7.617982e-07 1.9143112e-05 3.952834e-07 5.497797e-07 1.0982152e-05 6.485399e-06
1.2628376e-05 4.011209e-06 5.0590866e-06 4.110228e-06 2.205517e-06 2.1812432e-06 3.2493958e-06 3.641953e-06
00000000: f544 7d33 044b c734 e85a 7734 00a1 d136
00000010: 4c82 9533 dea6 ed33 29a6 fe35 2f02 0736
00000020: 1ccd 4c36 72ed 5f35 000d 8135 8858 6935
00000030: 1c52 1335 e33a 2335 f24c 3e35 60d5 3e35
00000040: 9b5b d233 a369 2c35 b0c4 0f35 9da3 e336
00000050: b8cc 1e34 8594 4c34 2bcd a636 230c 1f36
00000060: ceb2 9636 1d2d c335 5125 8936 8724 c235
00000070: 19c2 6d35 efdf 5735 a9bf 9235 42a3 b535
00000080: b9b8 a232 5d10 ef33 41ed da33 ab22 5535
00000090: 7d25 1b33 642e 1433 5f4c 7635 6e8d 8734
000000a0: c6a2 0a35 7119 a634 a5cd 8535 b9f0 8034
000000b0: 3bf2 0e34 dd5c a133 3d42 3934 19f4 9034
000000c0: e30b 4434 5e25 ef35 607e 4c35 8595 a037
000000d0: 5637 d434 9394 1335 fc3f 3837 279d d936
000000e0: 76de 5337 0698 8636 39c1 a936 97ea 8936
000000f0: 7e02 1436 7961 1236 3210 5a36 4768 7436

exp_avg f4 [12, 4]
1.4534011e-05 3.4861193e-06 2.8849242e-06 -2.440839e-05 2.717231e-06 2.6404293e-06 -6.797241e-06 1.0762197e-06
2.1043625e-05 1.0329718e-06 -2.4948597e-05 3.7873556e-06 1.9631625e-05 -6.1445377e-07 -2.414453e-05 5.434042e-06
1.0114032e-05 -1.0720886e-06 1.0504478e-05 -1.9007812e-05 -5.1840025e-06 -4.1804865e-06 4.120074e-06 5.5743194e-06
-8.696598e-06 -3.844008e-06 3.2944497e-06 1.1245092e-05 -1.7965669e-05 -1.7787395e-05 1.5083001e-05 2.348623e-05
0.00059064 0.0002451152 -0.00076503283 -7.880178e-05 -0.00010166045 -5.1148087e-05 0.00013701727 2.0664325e-05
-0.00011256528 -8.837837e-05 0.00017114058 3.232823e-05 9.532164e-05 1.6270325e-05 -0.000120898316 8.739151e-06
00000000: 1ad7 7337 13f3 6936 9f9a 4136 9ec0 ccb7
00000010: ac59 3636 3b32 3136 db13 e4b6 a172 9035
00000020: d786 b037 a4a4 8a35 b448 d1b7 462a 7e36
00000030: 98ae a437 f1f0 24b5 fc89 cab7 1156 b636
00000040: 70af 2937 afe4 8fb5 643c 3037 f772 9fb7
00000050: 3ef2 adb6 1b46 8cb6 2b3f 8a36 0a0b bb36
00000060: 9be7 11b7 c7fb 80b6 3716 5d36 4da9 3c37
00000070: fbb4 96b7 2436 95b7 ff0c 7d37 4b04 c537
00000080: 2ed5 1a3a ce82 8039 7c8c 48ba 6242 a5b8
00000090: 8a32 d5b8 d787 56b8 4bac 0f39 4d58 ad37
000000a0: 0611 ecb8 c757 b9b8 3374 3339 2c98 0738
000000b0: 6ae7 c738 427c 8837 ca8a fdb8 5e9e 1237

exp_avg_sq f4 [12, 4]
9.533596e-09 6.5491634e-09 1.9420309e-08 1.2362515e-08 2.9006858e-10 4.1197404e-10 6.4226957e-10 3.143824e-10
2.4585323e-09 1.9016828e-09 5.4458402e-09 2.0064839e-09 1.3750634e-09 1.0612448e-09 2.0998683e-09 7.755964e-10
5.759593e-09 1.5064513e-09 4.0597485e-09 1.5904439e-08 6.5270295e-10 2.3576516e-10 4.4959206e-10 7.903044e-10
3.144329e-09 8.5782453e-10 2.1100477e-09 4.1706953e-09 1.4480258e-09 9.386283e-10 1.1998391e-09 2.3299669e-09
4.354184e-06 8.7450917e-07 1.0805665e-05 3.639319e-07 4.466834e-07 9.786896e-08 1.1073619e-06 8.633346e-08
8.0223464e-07 1.7488775e-07 2.12229e-06 1.2800923e-07 3.1112225e-07 6.8998794e-08 7.9461074e-07 7.87822e-08
00000000: 33c9 2332 0d07 e131 b6d1 a632 ea62 5432
00000010: 8677 9f2f 317c e22f b48b 3030 64d5 ac2f
00000020: f5f2 2831 c2ae 0231 1e1e bb31 70e2 0931
00000030: befc bc30 3bdb 9130 464d 1031 bf31 5530
00000040: eae5 c531 8b0b cf30 ed7d 8b31 3b9e 8832
00000050: e369 3330 ff9c 812f 752a f72f ba3c 5930
00000060: 9f13 5831 09cc 6b30 5a00 1131 d34d 8f31
00000070: e103 c730 0c01 8130 96e7 a430 361d 2031
00000080: 281a 9236 d0bf 6a35 fa49 3537 6b62 c334
00000090: b3cf ef34 082c d233 aaa0 9435 5266 b933
000000a0: 2559 5735 c7c8 3b34 aa6c 0e36 e972 0934
000000b0: 5108 a734 7d2c 9433 3c4d 5535 f92e a933

exp_avg f4 [4, 4]
0.00047460917 -0.00060033053 -0.00075014634 0.00083921343 7.8762634e-05 -1.9245856e-05 -4.1780248e-05 -5.2511627e-06
0.00027540838 -0.00042561843 -0.0005211612 0.0005772829 -0.0010279015 0.0012645544 0.0016285083 -0.001748062
00000000: f7d4 f839 805f 1dba 78a5 44ba a9fe 5b3a
00000010: 5e2d a538 2972 a1b7 333d 2fb8 2533 b0b6
00000020: b064 9039 8a25 dfb9 899e 08ba cd54 173a
00000030: a7ba 86ba 68bf a53a ac73 d53a 3a1f e5ba
