out-tss50/ckpt_iter_2250.pt (torch, 48135 bytes, 64 tensors)

transformer.wte.weight f4 [5, 4]
00000000: f7f9 a7be 0518 a4be 82ce cc3e 126a 313e
00000010: 48b8 3d3e c57c 6e3e df8f d9bd 29d7 91be
00000020: d118 e73d 36bb 893d 143c 27be edd0 033d
00000030: 9cbf e93d c9d2 a03d c4a2 2dbe eb66 013d
00000040: e73f 3a3e 8bcd 3c3e 9d5e 33be dbf7 2fbe
-0.32807896 -0.32049575 0.40001303 0.17325619 0.18527329 0.23289783 -0.10623144 -0.28484467
0.1128403 0.06725161 -0.16331512 0.03218167 0.114135 0.07852704 -0.16956621 0.03159229
0.1818844 0.18437783 -0.17516561 -0.17184393

transformer.wpe.weight f4 [256, 4]
00000000: 829b df3d b579 ef3d 166c 1f3c 8bf9 dbbd
00000010: 1cb3 e83d eeee f73d 2f0a ebbd b1c1 7dbd
00000020: 560b 4f3d f93b a93c 642a b7bd c7ac e5bc
00000030: 0660 893d dba3 863d ea09 f3bc 837c 31bd
00000040: a46f 823d 1cca 8d3d b8b4 c8bc b96c 8cbd
00000050: f942 b83c e3dd 7c3c 597a 1dbd bf8a 57bd
00000060: 22ed 673d 3ebe 0abb 3308 94bd bd80 cfba
00000070: cfe6 213d 0852 803b 09cb 44bc ea13 ec3b
00000080: 76fe 3c3d b5ef 1ebc 6df2 81bc 9b72 6b3c
00000090: 29fe 31bc 456e 6bbd c829 88bc f042 f03b
000000a0: 42ed 41bb 7d84 403c 7b5b 80bc 2a5c 31bc
000000b0: d9cf 483c 3e85 b1bc 1832 6fbd d4a5 233d
000000c0: 6bce ca3c 3dc1 13bc fd60 ef3b e5fa 203c
000000d0: 79b7 a5ba c9ef 1538 1749 e1bc 2711 06bd
000000e0: d00d dc3c 5949 ba3b 2c65 013d d61a 69bc
000000f0: cf01 ae3c 8cfe 453d 8d9c 0e3d 2885 21bd
00000100: f74b e13c c70b 603b 7380 11bb a9fe 89bc
00000110: af35 283d f75d 9b3c d36f 46bd c8a0 42bc
00000120: c12d 1f3c f4c6 a63c 79d2 b8bc 330b abbc
00000130: f807 153d d3f2 263d ebb9 8cbd 5660 a7bc
00000140: a344 153d 5dea 293c 5e09 4dba f4ab 79bc
00000150: fc4a 0bbc 51d0 09bd ab36 b0bc 9cd7 1d3d
00000160: d078 413d ce6a 3b3c 2b88 e0bb 9633 b8bc
00000170: e5f7 673c c361 f03c 8363 2ebc e213 67bb
00000180: 1114 49bc 0d86 2c3c 2525 05bd b077 8c3b
00000190: a1cf 063d bda8 aebc a8f4 cebc 9138 9d3b
000001a0: 4c92 223d eae5 853c fac2 9a3b ad6c 0abc
000001b0: 7a90 be3c edef 02bd f9b0 1fbd ab01 e83c
000001c0: 91fb 0d3d ef0a 36bb e0f1 5b3a d39d 8fbb
000001d0: 8542 553d db7d 1abb 0710 23bd 6fd7 b83c
000001e0: bde2 bd3c 6069 41bb e687 33bd bc19 6ebc
000001f0: 7f29 cd3c 8a0d cabb 07b0 773c a3f1 24bd
00000200: 2851 743d 71e7 47bc 8e0d da3b 0265 853b
00000210: 9b45 ac3c 2d96 113c 499a cd3b e77b 8ebc
00000220: c22d ac3c 9ab9 133c a33e 8fbc 1075 d03b
00000230: d595 083b 394d 0b3c d010 76ba 97e1 9f3c
00000240: 46fd c9bc 4f2b 253d f7d6 c93c 56f8 70bc
00000250: 1981 0e3d 1902 e73c bede 0cbc 15bf 283c
00000260: 99ed a83c 12aa 273d 53e8 f5bb 3df4 8c3c
00000270: eecc 643c 8d59 753a 6a4b e6bc 302c f83c
00000280: 8803 ca3c 3b10 013d cd9b f7bb 216a a03c
00000290: 2362 413c 023d bebc e8cd b73c a875 80bc
000002a0: fe11 583d 759a ac3c 6531 0abc c550 2fbd
000002b0: 9fe0 af3c 68de 0b3d 172d d1bc bfd2 333c
000002c0: 0bb9 d3bc 1a59 0abd a2a2 5ebc 11ff 65bc
000002d0: ab59 3e3c 26ad 0ebd c8e8 38bd ee35 91bb
000002e0: 668e 8f3c 45de c33c 97e1 fabc c777 283c
000002f0: efe2 af3c 9c03 d7b8 e773 943b 7cb2 c63c
00000300: fcdc 893c 50fe 05bc 70cc 19bc 6583 92bc
00000310: 0300 843d 9b9a 413d 2d72 333d 3425 29bc
00000320: 97e6 673d fc15 753c 95ae 7f3c bb58 40bc
00000330: 04db 60bc 7d5b 183d dc1d 8cbb 59fb e03b
00000340: a04e 1b3d 0d81 75bc ca1d 1abd 9b7a 1c3c
00000350: 518d 893c 0597 863c 9f80 69bd 221c 4f3d
00000360: 2910 b33b f5aa 8ebc e635 0ebc 354f 413c
00000370: 7455 4d3d 173f dd3c d1cd 0bbc 6a2b 2abc
00000380: 9c68 763d 2f39 0abd 4d43 87bc 21bf a43c
00000390: b7b6 023d ddd6 3ebc 5b58 f5bc beca bd39
000003a0: 631f 67bc 56ec a13c 22dc 8a3c 056c 68bb
000003b0: 96c8 b23d 4119 a23c e4d9 f4bb 9d89 073c
000003c0: a2d1 9fbc b7cb 9039 eabc 42bd 0c8f c83b
000003d0: 70f4 5c3d 9e4c bdbc 0da2 a3bc ca03 e8bc
000003e0: bc26 e03a 779e 13bc fd8f d53c e5c0 263c
000003f0: e9d1 113d ee85 3e3d 817a 52bb 0ffb 92bc
0.10918333 0.11693136 0.00973036 -0.10740956 0.113622874 0.12106119 -0.11476552 -0.061952297
0.05054792 0.02065848 -0.08943632 -0.028036488 0.06707768 0.06574222 -0.029667813 -0.043331634
0.0636895 0.06923315 -0.024500236 -0.06856675 0.022492873 0.015433761 -0.038446758 -0.052622553
0.05662263 -0.0021170522 -0.072281264 -0.0015831214 0.039526757 0.003916029 -0.012011298 0.0072045224
0.04614111 -0.009700705 -0.015862668 0.014370586 -0.010863819 -0.057478208 -0.016621485 0.0073321983
-0.002959088 0.011750338 -0.015668621 -0.010825196 0.012256586 -0.02166998 -0.058397382 0.039953068
0.02475663 -0.00901824 0.007305263 0.009825443 -0.001264318 3.5747686e-05 -0.027500672 -0.0327312
0.026862055 0.0056850133 0.031590626 -0.01422759 0.021241097 0.048338458 0.034817267 -0.03943363
0.027502043 0.0034186707 -0.0022201806 -0.016845064 0.04106682 0.018965704 -0.048446488 -0.011879154
0.009715498 0.02035854 -0.022561299 -0.020879364 0.036384553 0.04075892 -0.068713985 -0.020431679
0.03644241 0.010370818 -0.0007821525 -0.015238751 -0.008501764 -0.03364593 -0.021510443 0.0385357
0.047234356 0.011439038 -0.00685217 -0.022485536 0.014158224 0.029343491 -0.010643843 -0.0035259654
-0.012272851 0.010530007 -0.032506127 0.004286729 0.032912854 -0.021320695 -0.025263146 0.004798003
0.0396903 0.016344983 0.00472295 -0.008448762 0.023262251 -0.031967092 -0.038987134 0.028321108
0.03466374 -0.0027777513 0.0008390229 -0.004382828 0.05206539 -0.002357355 -0.039810207 0.022563664
0.023179406 -0.0029512271 -0.043830775 -0.014532503 0.025044201 -0.0061661648 0.015117652 -0.040269505
0.05964771 -0.012201176 0.006654448 0.004070879 0.021029284 0.008885902 0.0062744957 -0.017393066
0.021017913 0.009016419 -0.017485922 0.006361611 0.002084126 0.008502298 -0.00093866605 0.01951675
-0.024656903 0.040324505 0.024638636 -0.014707645 0.034791086 0.028199242 -0.008598028 0.010299464
0.020621108 0.040933676 -0.007504502 0.017206306 0.013964875 0.00093593524 -0.028112132 0.030294508
0.024659887 0.03150962 -0.0075564147 0.019581856 0.011803183 -0.02322245 0.022437051 -0.015681103
0.052751534 0.021069745 -0.008434628 -0.042801637 0.021469412 0.03414765 -0.025534196 0.010975539
-0.025845071 -0.03377638 -0.013588579 -0.014037863 0.011618058 -0.034833096 -0.045143872 -0.0044314777
0.017523956 0.023909697 -0.030625148 0.010282463 0.021470515 -0.00010252671 0.004530418 0.02425503
0.016829006 -0.008178309 -0.009387121 -0.01788492 0.06445315 0.047266584 0.04381006 -0.010323811
0.056616392 0.014958855 0.015605588 -0.011739905 -0.013724092 0.037196625 -0.0042760205 0.0068659005
0.03791678 -0.014984381 -0.037626065 0.009550716 0.016791018 0.016429434 -0.05700743 0.05056394
0.005464573 -0.017415503 -0.008679843 0.01179867 0.050130323 0.027007623 -0.008532957 -0.010386327
0.060158357 -0.03374594 -0.016511584 0.020110669 0.03191253 -0.011647907 -0.029949358 0.00036199944
-0.014106604 0.019766014 0.01695067 -0.0035464775 0.08729665 0.019787433 -0.0074722636 0.008272556
-0.01950914 0.000276176 -0.047543444 0.006120568 0.05394405 -0.023107823 -0.019974733 -0.02832212
0.0017101387 -0.009009949 0.026069636 0.010177826 0.035600577 0.046514444 -0.0032116475 -0.01794198

transformer.h.0.ln_1.weight f4 [4]
00000000: 9349 933f d3f5 8e3f 34f5 903f 2c6c 8e3f
1.1506828 1.116877 1.132483 1.1126761

transformer.h.0.attn.c_attn.weight f4 [12, 4]
00000000: c755 96bd 5bb2 bebd 957e 843d 278a af3d
00000010: aa4b 35bd f16f 92bd 95dc 853d 256f fc3c
00000020: 8e39 8e3d 5553 d43d bb00 04be 9cbf dfbc
00000030: 2e45 313d e735 fd3d e481 c3bd f159 7cbd
00000040: 1c44 993d c118 bb3d 73b8 fdbd 70e9 4ebd
00000050: 7915 033e 1e61 913c b526 40bd f646 aabd
00000060: 6203 02be 60d6 ecbc 2938 153d 139e 253e
00000070: 50d5 b2bd 767c 0fbe 8561 d33d 7332 c13d
00000080: e1fc 863d 4bad 683d c069 febd b6bf 85bd
00000090: cc04 3c3c 4d4d 9e3a c33f 36bd 9585 37bd
000000a0: c7d0 bd3d 5f6c 8d3d d2da 79bd e88a afbd
000000b0: c8a7 4a3d 9131 7d3d 7ae3 8fbd 2215 bebd
-0.073405795 -0.09311362 0.06469456 0.08571272 -0.044261612 -0.071502574 0.06536213 0.030814717
0.069445714 0.10367457 -0.12890904 -0.027313046 0.043278866 0.12363797 -0.09546259 -0.061609212
0.07483694 0.09135581 -0.123886965 -0.050515592 0.1280116 0.017746504 -0.046911914 -0.08314316
-0.12696603 -0.028910816 0.03643051 0.16173582 -0.087320924 -0.14012322 0.10321335 0.094334505
0.065912016 0.05680589 -0.12422514 -0.065307066 0.011475753 0.0012077481 -0.0444944 -0.044805128
0.09268337 0.06905436 -0.0609997 -0.08571416 0.049476415 0.06181485 -0.070258096 -0.092813745

transformer.h.0.attn.c_proj.weight f4 [4, 4]
00000000: f27a e53d 9f2a a43d 8c32 fc3d 5dd8 0e3e
00000010: e2ba 673d 7974 e63b d81a 6f3d 85a8 af3d
00000020: b065 04be bce6 19bd 1603 b2bd 872d 0cbe
00000030: 7674 7ebc 87a5 2d3c 18ab aabb 2d1b 4cbd
0.112050906 0.08015942 0.123143286 0.13949724 0.05657471 0.0070329276 0.05837521 0.085770644
-0.12929416 -0.03757356 -0.08691995 -0.13689242 -0.015530696 0.010598547 -0.0052083842 -0.049830604

transformer.h.0.ln_2.weight f4 [4]
00000000: e608 af3f eef7 b13f 6d2c ae3f 4e50 ac3f
1.367459 1.3903787 1.3607308 1.3462007

transformer.h.0.mlp.c_fc.weight f4 [16, 4]
00000000: a4c7 183e 7c2f 26bd b546 65bd 1338 90bd
00000010: e0db 053e bc13 a03c ba20 fe3c 6a84 cabd
00000020: 88c9 cfbd 04d3 d03d fd5d 1e3b 532d 853d
00000030: 0701 a53d d2da 04be e843 e4bc 6222 c23c
00000040: 9b92 9cbb b47e 9a3d 7e4d a3bd c242 ea3c
00000050: c7cc 52bd 060a ee3d 2bbf debd 8986 2e3d
00000060: a3c1 b2be 7062 c4be bda5 aa3e 8be8 a33e
00000070: 1921 093e d580 9fbd be73 02bd 2c90 15bd
00000080: 583d 88bd 6def c03d eacd d5bd 048e 553d
00000090: ac46 58be 996e 143d 81eb d43d 905e d83d
000000a0: 185e c5bd 88ff 483e 7d42 773d 828f acbd
000000b0: 455f e43c 3124 debd 2274 f43d 8668 bdbc
000000c0: 4af7 c33d 5ab2 11be be9c a43d e7ce b2bd
000000d0: 4fcd ee3d 3877 9ebc 910b d73d 9189 02be
000000e0: 62d8 aebc f566 293d 9761 543d 832c 0dbd
000000f0: 2ab6 213e f2e5 aebc 81ca 24bd 2b15 7bbd
0.14919907 -0.04057263 -0.055975635 -0.07041945 0.13072157 0.01954066 0.031021465 -0.09888537
-0.10145861 0.10196498 0.0024164908 0.065027855 0.080568366 -0.12974098 -0.027864411 0.023698036
-0.004778219 0.07543698 -0.07973765 0.028596286 -0.051464822 0.116230056 -0.10876306 0.04260877
-0.34913358 -0.38356352 0.33329573 0.32013354 0.13391532 -0.07788245 -0.03184866 -0.036514446
-0.066523254 0.09420667 -0.104396656 0.05213739 -0.21120709 0.036238287 0.10396481 0.10564911
-0.096370876 0.19628727 0.060366143 -0.084258094 0.02787746 -0.10846747 0.11936213 -0.02312113
0.09568651 -0.14228192 0.08037709 -0.0873087 0.11660253 -0.019343957 0.10500253 -0.1274779
-0.021343414 0.041357953 0.05185088 -0.034466278 0.15792146 -0.02134988 -0.040232185 -0.061299484

transformer.h.0.mlp.c_proj.weight f4 [4, 16]
00000000: 66ff 00be 703d 83bd 4197 053e 8e61 3cbd
00000010: acbd b03c 33f4 423d cae0 8d3e ac18 00be
00000020: fcd5 843d 5ae8 453e 1992 f53d 446f ef3c
00000030: 29fe b4bc cd01 30bd eda6 7a3d 4bc5 cdbd
00000040: cf50 413d 9776 b73d eef0 063c 4507 513d
00000050: 3a4d c4bd 25bf 17be fb77 623e 313b 803d
00000060: 0b63 4abd 9b83 713d 12dd d0bb b5d4 ca3d
00000070: 179f ce3d 803e 6b3d b2a5 ce3c 588d e33c
00000080: 6f33 d6bd 14e0 e2bd d404 003d 486a b2bc
00000090: 614b 04bd 2e6e 893b 21be 85be 3cf5 4abd
000000a0: dd3a 05bd 684f 2dbd 5190 63bc b471 b3bc
000000b0: df1e e7bb 102b b53c 503a 9c3d dd91 8ebd
000000c0: 3fc8 a73c aa30 063d e47e fcbc c59c 46bc
000000d0: 2deb 7c3c 605a 073a 960d 26be b366 4b3c
000000e0: 8b95 78bc f35e 5cbd 57e6 a7bd e1e8 38bd
000000f0: 38f5 86bd 6ba7 82bd 3e2e d4bc 08b6 883b
-0.12597427 -0.06408203 0.1304598 -0.045991473 0.021574818 0.047596168 0.27710563 -0.12509412
0.06486127 0.19326916 0.119907565 0.02922786 -0.02209385 -0.042970467 0.06119435 -0.10047396
0.047196206 0.08958166 0.008236153 0.051032323 -0.09585042 -0.1481901 0.22116081 0.0626129
-0.04941086 0.0589634 -0.00637401 0.09903852 0.10088938 0.05743265 0.025225494 0.027777359
-0.10459029 -0.11077896 0.031254604 -0.021779194 -0.03229845 0.0041940426 -0.2612162 -0.04955028
-0.03252684 -0.042312056 -0.013889388 -0.021904804 -0.0070532407 0.02211526 0.0762831 -0.06961415
0.020481227 0.032761253 -0.030822225 -0.012122338 0.01543693 0.0005163308 -0.1621612 0.012414622
-0.015172373 -0.053801488 -0.08198231 -0.045143966 -0.065897405 -0.06379589 -0.025900956 0.0041720904

transformer.h.1.ln_1.weight f4 [4]
00000000: 3e86 913f e730 8f3f a210 923f ff3a 913f
1.1369092 1.1186799 1.1411326 1.1346129

transformer.h.1.attn.c_attn.weight f4 [12, 4]
00000000: 1fc6 c8bd 3278 afbd 3e53 ea3d f46c ba3d
00000010: 27b3 e8bd 3ff9 8bbd 0170 a83d 8df3 fd3d
00000020: e603 d2bd 6984 8fbd 3846 be3d 342d 1c3e
00000030: 4b5e 06be f0a8 debd 20f7 df3d 9153 313e
00000040: 28ee 063e 4be4 b13d 237c 83bd 544c 3cbe
00000050: a4a9 d23d 9303 913d 25c1 dfbd b23f eebd
00000060: afd8 e43d 50ac b63d 3780 c3bd 537f 2dbe
00000070: 6748 113e e819 ee3d cb0c 07be 5aac 15be
00000080: 8e5d 9abd 01fc 61bd bf5e 8e3d 05c4 cd3d
00000090: e8f7 9f3d b37b 503d c801 99bd 30cf 45bd
000000a0: 167f b93d 14dc c53d d548 f2bd a46c d9bd
000000b0: 95bf 60bd c005 c7bd 29c0 063e 4c9d f13d
-0.098034136 -0.08567847 0.114416584 0.091028124 -0.113622956 -0.06834649 0.08224488 0.12399969
-0.1025465 -0.07007677 0.09290737 0.15251619 -0.13121907 -0.10872066 0.10935807 0.17317034
0.13176787 0.086861216 -0.064201616 -0.18388492 0.10286263 0.0708076 -0.10925511 -0.11633243
0.111741416 0.08919585 -0.095459394 -0.16943102 0.14187776 0.11626035 -0.13188474 -0.14616528
-0.075373754 -0.05517197 0.06951665 0.100471534 0.07810956 0.05089922 -0.07471043 -0.048293293
0.09057443 0.09661117 -0.11830298 -0.10616425 -0.054870207 -0.097178936 0.13159241 0.1179758

transformer.h.1.attn.c_proj.weight f4 [4, 4]
00000000: 0744 e5bd 9748 e23d 56f2 df3d 3133 b2bd
00000010: 1fd0 75bd eba0 7c3d 93d7 693d a88e 4ebd
00000020: 4de3 183e fcb8 09be 3a31 18be 0e7b 0b3e
00000030: 7955 df3c 9046 1abc 29a0 99bc b337 073c
-0.11194616 0.11049002 0.10934894 -0.0870117 -0.060012933 0.0616769 0.057090353 -0.050429016
0.14930458 -0.13449472 -0.14862528 0.1362116 0.027262436 -0.0094162375 -0.018753128 0.008253026

transformer.h.1.ln_2.weight f4 [4]
00000000: 5004 953f 17c7 9e3f 1f3b 923f a5f7 973f
1.1641941 1.2404507 1.1424292 1.187245

transformer.h.1.mlp.c_fc.weight f4 [16, 4]
00000000: b89c b23d 3943 1fbe aa28 83bd 535e 2b3e
00000010: eadc 293e d20b 05bd df7a d5bc c3e0 a3bd
00000020: 7e5b b63c 68a9 053e 2b91 653c 50fd c5bd
00000030: 18df e5bc 4007 3c3e 0c72 0a3d 8998 e1bd
00000040: 7ef4 013e d80c 4abe 8a21 81bd d6eb 703d
00000050: 71e8 22be 23b4 313e f89c 20bd 1275 2a3d
00000060: 414a 37be 240d 083e 5557 34bd 26ee cb3d
00000070: 3a3b d53d f217 0d3d ca38 063d db7f b4bd
00000080: 8dda 503d cbfa 0fbe 6a22 a7bd a7ac 673e
00000090: 435f 323e 6a50 21bd 6ac5 98bc 5539 bfbd
000000a0: 195f 0d3e 52ae 15bd 7c4a 5fbc 3ab1 63bd
000000b0: cdaa 583d eea3 b13d e836 bb3c 3e7b efbd
000000c0: 244d be38 4c7b 0abe 0cc6 9dbb d813 f73d
000000d0: fcd3 293d 4804 1fbe 442b ec3d 6fcc 20bd
000000e0: 7567 0cbd 6614 ab3c 6bdd b7bc 4dda 553d
000000f0: aecd adbd 8c0e 0f3e 0cfc 39bd c9ae 1ebd
0.08721298 -0.15552987 -0.064042404 0.167352 0.16588178 -0.032481976 -0.026059566 -0.08001854
0.022260424 0.13052905 0.0140116615 -0.09667456 -0.028060481 0.1836214 0.03380017 -0.11015422
0.12690923 -0.19731462 -0.06305225 0.05881866 -0.15908982 0.17353873 -0.039212197 0.041615553
-0.1789942 0.13286263 -0.0440286 0.099575326 0.10411687 0.034446664 0.032769002 -0.08813449
0.050989676 -0.14060514 -0.08160861 0.22624455 0.17419152 -0.03938333 -0.018648822 -0.09337107
0.13805808 -0.036543198 -0.013628598 -0.05558894 0.052897263 0.08673845 0.02285333 -0.116934285
9.0742746e-05 -0.13523597 -0.004814869 0.12064332 0.04146193 -0.15528977 0.1153169 -0.039257463
-0.03427835 0.02088375 -0.022444448 0.05221014 -0.08486496 0.13970393 -0.045406386 -0.038740907

transformer.h.1.mlp.c_proj.weight f4 [4, 16]
00000000: e98d 8fbc 6e87 d8bd 11ed 1a3d 26c8 bf3d
00000010: 1a4d 49bd d357 0e3e 2dd6 2a3e 2a15 42bd
00000020: 1f46 153d e792 ffbd 0388 84bd ce99 04b8
00000030: d5dc b83c 72ca c93c 8816 503d b15e 023e
00000040: fe37 1f3e 1bb7 cb3c 3b87 44bd ce09 2ebd
00000050: eb6a e83d 7dbd 0cbd e7f7 adbc 597b c83c
00000060: 9c2c 013e cba3 163d f26e 1b3d 54d0 b439
00000070: 357e e83d 8ded 043e 722b ce3a 4e7b d1bd
00000080: d7d9 2ebd 5485 a4bd 0688 fcbd 234b c6bd
00000090: dec6 efbd 0d4a 88bc edbb a3bc 44a1 f2bd
000000a0: 10df 54bd 3ea3 dabd d450 73bd 6b12 b1bc
000000b0: 936e c5ba 14b4 2dbd 604d 91bc 60fa 1bbd
000000c0: 814b 83bd b9ae 413d 3c20 553d 107c cf3c
000000d0: 1168 8ebc bad0 a0bc 7516 2fbd 7c72 a13d
000000e0: c66b 9ebd 9d96 6e3d bbe7 ee3c e14e 423c
000000f0: c4e3 8dbd 4b46 2ebd 7b9d f1bc f452 99ba
-0.017523723 -0.10572706 0.03782374 0.09364347 -0.049145795 0.1390069 0.16683264 -0.047383465
0.036443826 -0.12479191 -0.06471255 -3.1614494e-05 0.022566238 0.024632666 0.050802737 0.12731434
0.15548703 0.024867585 -0.04798053 -0.04248982 0.11348518 -0.034360398 -0.021236373 0.02447288
0.12614673 0.0367773 0.037947603 0.00034487492 0.11352197 0.12981243 0.00157295 -0.10228597
-0.042688217 -0.08033243 -0.12330632 -0.096823 -0.11707853 -0.016636873 -0.019987071 -0.11847165
-0.05197054 -0.10675667 -0.059403256 -0.021615228 -0.0015062861 -0.042408064 -0.01773709 -0.038080573
-0.064108856 0.04728577 0.052032694 0.025327712 -0.017383607 -0.019630779 -0.042746026 0.07883164
-0.077354 0.058249105 0.029163232 0.0118596265 -0.069282085 -0.042547505 -0.029494038 -0.0011697696

transformer.h.2.ln_1.weight f4 [4]
00000000: d986 903f 3d0e 913f ff00 923f 55bb 8e3f
1.1291152 1.133247 1.1406554 1.1150919

transformer.h.2.attn.c_attn.weight f4 [12, 4]
00000000: 0b92 423d 9ace 1bbd 67a2 ae3c abeb 65bd
00000010: 8ff9 41bd 74d0 1dbd b7a7 473d 069c 1a3d
00000020: 7613 5fbd 4906 d6bc 5ff6 6b3d 4c51 543c
00000030: 2366 953d 0064 583d 0603 ddbd 3146 4cbd
00000040: 13f2 c33a 5660 8bbc 123f c3ba d932 2a3d
00000050: 705b 913d cb51 3b3d 2440 96bd 3278 a3bd
00000060: aea7 2a3c ffb2 973b 543f e0bc 38d0 96bd
00000070: cb37 05be e187 61bd f0f7 483d 1f6a 1f3e
00000080: 93dd 0cbd 59bf 40bd ae6a 493d 2a9a e9ba
00000090: c1bc acbd 9225 eabd 7a66 d13d 34f7 a73d
000000a0: 1f28 ac3d ce47 c23d e235 e7bd 3007 c1bd
000000b0: 4144 973d 6edf 9c3d f54f a0bd 6281 fabd
0.04750256 -0.038038827 0.021317674 -0.056132954 -0.04735714 -0.038528875 0.04874393 0.03774645
-0.05446192 -0.026126044 0.057608005 0.012958836 0.07294872 0.052829742 -0.10791592 -0.049871627
0.0014949463 -0.01701371 -0.0014896116 0.0415524 0.070975184 0.0457323 -0.073364526 -0.0798191
0.0104159545 0.0046294923 -0.027373947 -0.07363933 -0.13009565 -0.055061225 0.049064577 0.15567826
-0.034390997 -0.047057483 0.049174003 -0.0017822434 -0.084344395 -0.11432947 0.10224624 0.08201447
0.0840609 0.09486352 -0.11289574 -0.09425199 0.07386065 0.07659803 -0.078277506 -0.12231709

transformer.h.2.attn.c_proj.weight f4 [4, 4]
00000000: 6df9 99bd 6242 08be b88a 043e e7ae 083e
00000010: 613b cd3b 71c1 80bd 985d 423d 6390 8e3d
00000020: 4bef 2d3d 00a2 043e b8ab fbbd fcf3 03be
00000030: 760d 12bd eb6d 933c dbab f6bc fd24 bfbc
-0.07518277 -0.13306573 0.12943542 0.1334797 0.006263182 -0.06286896 0.04745254 0.06961133
0.042464536 0.12952423 -0.12288612 -0.12886041 -0.03565737 0.017996749 -0.030111244 -0.023333067

transformer.h.2.ln_2.weight f4 [4]
00000000: c007 993f 9328 973f 4854 8d3f f17d 9e3f
1.195549 1.1809257 1.1041346 1.2382184

transformer.h.2.mlp.c_fc.weight f4 [16, 4]
00000000: 06be 8fbc e6eb 793d 157f 46bc 7f44 64bd
00000010: 0d76 4cbd 1ef4 95bd 7c2b ad3b 0d1a cd3d
00000020: 60cb a73d 1ede 153d d69f 3a3c 51fe bcbd
00000030: 7889 88bd afe4 80bd 4203 863c 42a2 153e
00000040: 5455 23bd fc74 b43d fe54 17bd 72c5 95bd
00000050: d6bc c5bd 801f b3bd 152d 4b3a 0f73 1a3e
00000060: 8704 073e 8461 5dbd 7de8 d13d 9db7 65be
00000070: a8d9 dbbd b2b4 95bc da0c 59bd fc53 1f3e
00000080: bc36 cabd 2a04 dabd 7642 4ebc 7c2d d13d
00000090: 11ce b7bd 5aa8 b7ba 5208 3dbb f184 dc3d
000000a0: 1fdb 503d 8905 413d f6bb 8a3d ee49 2abe
000000b0: 87fb a7bd 97fa b0bd 8bfd 41bc aaec f13d
000000c0: b0b2 063d d648 e93d 531b 263d 36a6 d0bd
000000d0: 712a 5c3e 5a21 57be 216a 69bd 6982 02bd
000000e0: d3bb c4bd 6be0 243e 0e3e 35be 5f30 243e
000000f0: 4235 173d ef9a bf3d fce5 8b3d fd52 25be
-0.017546665 0.061015986 -0.01211526 -0.055729385 -0.04991727 -0.07321952 0.0052847248 0.100147344
0.081930876 0.03658878 0.011390647 -0.092281945 -0.06666845 -0.06293618 0.016358975 0.14612678
-0.039876297 0.088113755 -0.03694629 -0.0731305 -0.09655158 -0.087462425 0.0007750553 0.15082954
0.13185321 -0.054048076 0.10249422 -0.22433324 -0.10734874 -0.018274639 -0.05299077 0.15559381
-0.09873721 -0.106453255 -0.012589088 0.102137536 -0.08974851 -0.0014011965 -0.002884407 0.10767544
0.05099022 0.04712442 0.06774132 -0.16629764 -0.08202272 -0.08641546 -0.0118402345 0.11812718
0.032885253 0.113908455 0.040553402 -0.10187952 0.21500565 -0.21008816 -0.056985978 -0.03186265
-0.09606137 0.16101234 -0.17699453 0.16034077 0.036916025 0.09355723 0.068309754 -0.16144939

transformer.h.2.mlp.c_proj.weight f4 [4, 16]
00000000: 4cee 773d d947 273a 6352 d83c 1d49 f33c
00000010: 5d5c d73d 761f e53c 3046 c83c 889e a03d
00000020: b48d ce3b 387e ce3d 5349 943d 301b 763c
00000030: 5491 9f3d eaed 00be d422 0f3e 04f0 e03d
00000040: e1c2 34bd 49d8 883c 80cf 943b 8b1d 153d
00000050: bb9b d5bd 5ac8 ff3c b4d7 d43d b36f 253c
00000060: 2d7e 873c 904d 8d3b 43d1 44ba a28c 863c
00000070: 289f b8bc a81a cb3d 9c1c 31bd 3040 92bc
00000080: beec 3bbc bc1d 7d3d 3e30 e4bd 4555 563d
00000090: 41cf fe3b e3b0 813d e559 4cbe 4587 a73d
000000a0: bb12 923d f667 963d f4bd b1bd 8f4c a83d
000000b0: d66a b0bd 160e c4bd d992 9f39 9d88 d5bd
000000c0: 56c8 0ebb c6d2 6ebd bad6 ec3a 1d94 57bd
000000d0: 2f15 11bb b2b3 8fbd 7064 923d 1a96 07be
000000e0: 19c0 89bd eaef 68bd 37f0 823d 4630 a7bd
000000f0: f329 e23c 90c7 71bb 11b0 b2bd 1e03 9d3d
0.060529992 0.00063812506 0.026406473 0.029697949 0.10515664 0.027969103 0.02444753 0.078427374
0.0063035134 0.10082668 0.07240548 0.01502113 0.07791391 -0.12590757 0.1397813 0.10983279
-0.044131164 0.016704695 0.0045413375 0.036405127 -0.10430094 0.031223465 0.103927046 0.010097432
0.016539657 0.0043122247 -0.0007507989 0.01642448 -0.02253683 0.09917194 -0.043240175 -0.017852873
-0.011470018 0.061795935 -0.11142014 0.052327413 0.0077761714 0.063325666 -0.19956167 0.081800975
0.07132479 0.07344048 -0.08678809 0.082177274 -0.08614127 -0.09572999 0.00030436253 -0.104264475
-0.002178689 -0.058306478 0.0018069365 -0.052631486 -0.002213787 -0.07016696 0.07148063 -0.13240853
-0.06726093 -0.056869425 0.063934736 -0.08163504 0.027607894 -0.003689263 -0.08724988 0.0766661

transformer.ln_f.weight f4 [4]
00000000: 8d4e bd3f 66f1 ba3f 329b bf3f e9a7 bb3f
1.4789597 1.4604919 1.4969237 1.4660617

lm_head.weight f4 [5, 4]
00000000: f7f9 a7be 0518 a4be 82ce cc3e 126a 313e
00000010: 48b8 3d3e c57c 6e3e df8f d9bd 29d7 91be
00000020: d118 e73d 36bb 893d 143c 27be edd0 033d
00000030: 9cbf e93d c9d2 a03d c4a2 2dbe eb66 013d
00000040: e73f 3a3e 8bcd 3c3e 9d5e 33be dbf7 2fbe
-0.32807896 -0.32049575 0.40001303 0.17325619 0.18527329 0.23289783 -0.10623144 -0.28484467
0.1128403 0.06725161 -0.16331512 0.03218167 0.114135 0.07852704 -0.16956621 0.03159229
0.1818844 0.18437783 -0.17516561 -0.17184393

exp_avg f4 [5, 4]
00000000: af04 163a e46e a439 4d20 75ba 7a95 46b7
00000010: da52 9e3b 9aa0 3d3b 3430 07bc b68c 73ba
00000020: 3dc0 b63a 3848 3b3b a3ac 48ba 3163 41bb
00000030: 175f 88bb 3e74 17bb 87bd 083c 852d 09bb
00000040: 0485 04bb 9a3b 23bb 7694 313b cc3b 753a
0.0005722744 0.00031363138 -0.00093508215 -1.1836522e-05 0.004831654 0.0028934837 -0.008251239 -0.0009290682
0.001394279 0.0028576981 -0.00076551194 -0.0029508586 -0.004161726 -0.0023110057 0.008345968 -0.0020931673
-0.0020220885 -0.0024907351 0.0027096546 0.0009354919

exp_avg_sq f4 [5, 4]
00000000: 8bbb 0136 4ded ae35 9e09 0e36 a2d7 8136
00000010: bfa0 a639 5991 4339 221c 483a e6c3 8038
00000020: 59ae 7039 f501 0039 265a 2b3a b4ad 6138
00000030: 0184 9a39 775b 2139 cdcf 513a 845a 4238
00000040: b0b9 eb39 1a0a 8239 c0a6 8c3a 25e0 7d38
1.9331662e-06 1.3033074e-06 2.1165247e-06 3.8696026e-06 0.00031781752 0.00018650795 0.00076335866 6.1400046e-05
0.00022953133 0.0001220776 0.00065365655 5.3805954e-05 0.0002947152 0.0001538823 0.0008003682 4.6337504e-05
0.0004496104 0.00024803058 0.0010730848 6.052865e-05

exp_avg f4 [256, 4]
00000000: 98f5 0137 4ad3 5b38 5927 b037 c638 eeb8
00000010: 3f3c c037 c02a a737 4160 9437 3794 0bb9
00000020: d063 4837 ee01 06b8 3f92 80b7 4ae2 a137
00000030: 0b3b 8f36 4a5e 4337 12ae 18b7 2a8e 21b8
00000040: 0826 fa36 811a 47b7 3c90 abb7 de16 4fb8
00000050: b81d 5937 a075 54b6 f6e0 90b7 d960 5db8
00000060: 44d0 80b6 e576 74b7 1a0a 96b8 1f5a 0e38
00000070: eff9 7a37 3664 8238 c3f7 1e38 b34a 9033
00000080: 105f 5236 1331 3eb8 eaf5 0737 1cb7 a537
00000090: 3fef d837 b638 1db8 088b 83b7 6eb6 7237
000000a0: b541 c737 e39d e437 bb99 20b6 2f73 9fb7
000000b0: c669 6e37 4a31 b537 dd53 1338 846d 92b8
000000c0: 48e8 0d37 7bb3 ca37 c895 8db5 f937 91b7
000000d0: 853a d0b6 e09b e8b7 ae88 8bb6 ae13 bfb8
000000e0: da74 77b6 2a32 84b8 74a8 8fb7 2493 e238
000000f0: 6425 e236 1d9e fb37 6e78 b2b7 8513 a7b8
00000100: e73a 6736 6784 7437 bfeb 5e37 2c16 b8b8
00000110: fc9f 1838 6ca2 6338 9b74 2037 a865 1cb9
00000120: 4b64 ac36 c38f 1bb8 04a6 8cb6 08bc 9538
00000130: 45e8 f235 6558 9ab7 7e58 e3b6 fe8d d338
00000140: 716d a936 f525 fab6 8c4d 3337 0b4b e3b8
00000150: 0e04 0237 1a25 bc37 0c8c 6537 a35e 02b8
00000160: e285 b6b7 7ab3 70b7 208e 6a37 4667 1739
00000170: bd2f cb37 1d55 b8b7 0c5d 6c37 e4e4 0638
00000180: 75a6 80b7 5b86 80b8 b07c 8235 c18b 3137
00000190: 66cd 9eb7 e0a4 87b4 4e61 fd37 ce79 63b6
000001a0: 5020 c6b5 eb7a 6ab7 91e0 97b6 78c1 5f37
000001b0: cc53 c537 238f 8536 1c55 f1b6 cf0e 14b8
000001c0: a79e 2138 61ef 5c38 3a49 8e38 3043 e5b8
000001d0: 123a 8737 e850 a7b5 e62f 65b4 60f0 ad38
000001e0: 3cb9 a5b7 99d5 e437 e9cd e037 52b7 91b8
000001f0: 776e e1b6 77d4 ddb6 4bce e1b7 dfea 9ab8
00000200: a100 0938 32fd dfb8 46ae 94b8 b1d1 3639
00000210: 31f8 4137 6ab4 2c37 991c c337 9c50 9ab8
00000220: 93f6 1e37 3a14 9338 87a1 2e38 f7c9 13b9
00000230: 0069 e537 95b4 a638 9966 ab37 1a98 39b9
00000240: 7131 0d38 d058 9c38 d437 7e36 fbe1 c8b8
00000250: 935d 38b8 d082 83b8 ee32 d3b8 9a7d 6a39
00000260: e394 cb36 0292 ca36 c772 84b7 7d7b 8f37
00000270: 42c9 2137 83dc 6337 e6d4 06b6 54af 3cb8
00000280: e8ec a037 7174 1438 0435 80b6 ff72 e3b8
00000290: b2b5 be37 d09d bd37 57d2 e3b6 070f d3b7
000002a0: 1197 ffb7 11a2 a1b8 46f0 86b7 6062 0639
000002b0: 0c6a 1838 7489 c338 fb11 db38 3ec7 69b9
000002c0: cdf6 a636 6cc1 0cb8 0be6 14b8 daf8 ef38
000002d0: 1580 0cb7 e03a abb7 576b 1eb7 8857 1737
000002e0: 7a65 9937 cbb0 8a38 1405 b538 438a 67b9
000002f0: 405c e136 5f74 57b8 4a3e 45b7 89ae 2939
00000300: 179c 8b37 c6d7 9338 1426 1e38 7840 01b9
00000310: 2807 9cb6 f7a1 01b7 10ee 4338 f7da 45b7
00000320: c1bf 9536 64b1 aa37 b678 c0b4 2e13 1738
00000330: 3444 6ab6 0569 0738 c358 4ab6 671b 83b8
00000340: 6bb7 47b8 c506 e4b8 916d a2b8 0982 a139
00000350: a691 b0b7 5caa 81b8 dfc6 63b8 8c20 f338
00000360: bb45 a1b7 3b6c f9b7 fc83 e2b6 7d38 d8b7
00000370: 3393 7137 2795 7d38 191b e737 bd0a 3db8
00000380: 4910 8c37 fbaf 1038 1047 3237 616c 97b7
00000390: 0c9b d436 e40e e8b7 73d8 11b8 1d1d 6338
000003a0: 371a 2937 2483 4f37 c298 06b8 10b3 ba36
000003b0: ea01 e937 6ba8 2a38 30e8 7d37 bb32 cfb8
000003c0: 132a 7c36 e2e4 bbb8 8bfc 85b8 29ff f238
000003d0: 97b7 4b36 e28e 9337 c9f6 3b35 aa9d 8737
000003e0: 69da 07b7 de2e b336 8fbb 8637 6caf e3b7
000003f0: c585 2cb8 4ba9 09b8 61c7 5eb8 3907 e1b7
7.746181e-06 5.2410447e-05 2.0999158e-05 -0.00011359299 2.2916238e-05 1.9927858e-05 1.7687797e-05 -0.00013311287
1.1944168e-05 -3.1949887e-05 -1.532689e-05 1.929807e-05 4.2686056e-06 1.1644859e-05 -9.100435e-06 -3.8517792e-05
7.455008e-06 -1.1867495e-05 -2.0451953e-05 -4.9373943e-05 1.2941127e-05 -3.1658928e-06 -1.7270893e-05 -5.2780702e-05
-3.8389426e-06 -1.4571216e-05 -7.154439e-05 3.393937e-05 1.4959353e-05 6.217549e-05 3.790088e-05 6.71911e-08
3.1347772e-06 -4.5345234e-05 8.103883e-06 1.97548e-05 2.5860614e-05 -3.7484533e-05 -1.5681158e-05 1.4466799e-05
2.3753246e-05 2.725324e-05 -2.393134e-06 -1.9007914e-05 1.4210533e-05 2.1599833e-05 3.5125635e-05 -6.9822214e-05
8.458337e-06 2.4163854e-05 -1.0548911e-06 -1.7311411e-05 -6.2056956e-06 -2.772914e-05 -4.1584344e-06 -9.111255e-05
-3.6873885e-06 -6.303594e-05 -1.712537e-05 0.00010803927 6.7396777e-06 2.9995159e-05 -2.1275333e-05 -7.966816e-05
3.4455968e-06 1.4574361e-05 1.328712e-05 -8.7779335e-05 3.638862e-05 5.4272285e-05 9.5638925e-06 -0.00014915189
5.137675e-06 -3.708877e-05 -4.191652e-06 7.139897e-05 1.8098004e-06 -1.8399393e-05 -6.775429e-06 0.00010087712
5.049333e-06 -7.4549994e-06 1.0687287e-05 -0.00010838181 7.749548e-06 2.2428623e-05 1.3682071e-05 -3.1082553e-05
-2.1758435e-05 -1.4346902e-05 1.3980578e-05 0.00014438955 2.4221716e-05 -2.1974143e-05 1.408836e-05 3.216126e-05
-1.5336302e-05 -6.128541e-05 9.722044e-07 1.0582561e-05 -1.8930714e-05 -2.5265672e-07 3.0205261e-05 -3.3896536e-06
-1.4761554e-06 -1.3976106e-05 -4.5262937e-06 1.3336881e-05 2.3523251e-05 3.980372e-06 -7.1922677e-06 -3.529974e-05
3.8533148e-05 5.2675026e-05 6.784727e-05 -0.000109320856 1.6120295e-05 -1.2466016e-06 -2.1344712e-07 8.294056e-05
-1.975579e-05 2.7279182e-05 2.6798765e-05 -6.948285e-05 -6.7183823e-06 -6.6110474e-06 -2.6918153e-05 -7.3870404e-05
3.266393e-05 -0.0001068063 -7.089651e-05 0.00017434989 1.1561483e-05 1.0294005e-05 2.3259128e-05 -7.358307e-05
9.474944e-06 7.013274e-05 4.1635267e-05 -0.0001409425 2.7347822e-05 7.949133e-05 2.0432564e-05 -0.00017699637
3.3663066e-05 7.455202e-05 3.7881446e-06 -9.578835e-05 -4.3956166e-05 -6.2709325e-05 -0.000100707504 0.00022362769
6.067204e-06 6.0370667e-06 -1.5789074e-05 1.7104432e-05 9.643207e-06 1.3581596e-05 -2.009148e-06 -4.498598e-05
1.9183804e-05 3.5394394e-05 -3.820869e-06 -0.00010845623 2.2734373e-05 2.2604043e-05 -6.789614e-06 -2.5160158e-05
-3.0468715e-05 -7.7072655e-05 -1.608593e-05 0.00012815883 3.6338388e-05 9.323927e-05 0.00010446083 -0.00022294835
4.975917e-06 -3.355874e-05 -3.5500194e-05 0.0001144276 -8.374472e-06 -2.0412204e-05 -9.442526e-06 9.020681e-06
1.8286275e-05 6.613283e-05 8.6316984e-05 -0.00022081383 6.716262e-06 -5.1368374e-05 -1.1756618e-05 0.00016182115
1.6642776e-05 7.049697e-05 3.77056e-05 -0.00012326415 -4.6499954e-06 -7.72671e-06 4.6713336e-05 -1.1793097e-05
4.462869e-06 2.0348183e-05 -3.5850616e-07 3.6019068e-05 -3.4908417e-06 3.2284315e-05 -3.0152012e-06 -6.251671e-05
-4.761612e-05 -0.00010873148 -7.74517e-05 0.00030805197 -2.1048658e-05 -6.182931e-05 -5.430623e-05 0.00011593205
-1.9225166e-05 -2.9733512e-05 -6.75069e-06 -2.5775511e-05 1.4398992e-05 6.045881e-05 2.7549964e-05 -4.5071112e-05
1.6696884e-05 3.449617e-05 1.0626172e-05 -1.805107e-05 6.336142e-06 -2.766349e-05 -3.4772278e-05 5.414813e-05
1.0079289e-05 1.2368695e-05 -3.2090356e-05 5.5640776e-06 2.7776656e-05 4.068801e-05 1.51340355e-05 -9.8799785e-05
3.7575417e-06 -8.9594876e-05 -6.388974e-05 0.000115869865 3.035622e-06 1.75903e-05 7.002205e-07 1.6166672e-05
-8.09748e-06 5.3400718e-06 1.6061384e-05 -2.7142196e-05 -4.113258e-05 -3.282101e-05 -5.311461e-05 -2.6825453e-05

exp_avg_sq f4 [256, 4]
00000000: b962 1133 919b 5b33 9c33 3735 0241 8c34
00000010: e48b 0833 40fc 1733 075d 3d33 24e6 3934
00000020: 4617 ca31 70b1 4833 a387 cf32 b14a 5d34
00000030: 1d68 b731 02bd 3233 37cd ec32 ff29 2b34
00000040: ed25 e233 1596 2533 f6f9 6233 aeeb 9434
00000050: f35d f131 49ef 4d33 ad1c 1033 b3eb 5134
00000060: b913 a931 e187 6533 1a23 0633 2f17 7734
00000070: 1174 cb31 b121 8233 dcb0 2333 f0db 7e34
00000080: 0c00 0732 3c25 5933 de24 d932 c25d 4134
00000090: 2bfd 3c32 49f9 7a33 2ccb f632 7ef4 8234
000000a0: 702f ef31 bf89 5433 7d40 0a33 3cf6 6834
000000b0: f2eb 0232 c04c 8a33 978a d932 27b8 5034
000000c0: a7a4 1132 6544 7133 4e0f 1033 f32e 6b34
000000d0: cfd6 fc31 c899 5333 634e 1533 7e33 6434
000000e0: fab2 0532 8945 8633 1cdd 2733 2551 7b34
000000f0: 842c ce31 01ae 6033 2deb 1633 8ec5 5034
00000100: 171b f231 7acf 5333 8e33 1433 29b3 5534
00000110: 2b95 ce31 f8d9 3d33 bbbe ea32 3db2 4634
00000120: adb6 ed31 248f 3b33 8b71 f432 62a7 4334
00000130: 52df 9f31 34cd 2b33 1503 dd32 840f 4034
00000140: 5df2 d831 367d 7633 aacf f532 a51a 6234
00000150: f785 3a32 12b3 9233 491f 0a33 c075 8b34
00000160: 8c77 c231 9990 3733 2148 ff32 4e19 5d34
00000170: 1567 ff31 0967 4f33 8419 0d33 69e8 7934
00000180: 27a5 ff31 9aa3 6d33 b39c f832 8b1f 7934
00000190: a939 5e32 0c6e 5633 ccad 0933 cb4e 6734
000001a0: e526 e931 6cf6 6933 f8e3 0333 b321 6534
000001b0: 9429 fc31 5f68 6333 4615 db32 7e3b 6834
000001c0: bf2c d931 9f17 3d33 a161 f332 34dc 2b34
000001d0: 2323 3832 dd0e 7f33 0749 0333 353a 7a34
000001e0: 7ace 1132 1670 3e33 4342 0433 3344 6734
000001f0: 5b06 1132 5945 6433 6092 3a33 6710 8234
00000200: bf06 0632 f16a 6233 450d f932 956e 5534
00000210: 0547 e731 aeac 6833 4ad0 1333 a1c7 7634
00000220: 553e ff31 cf13 6733 92b3 f732 cc85 5434
00000230: 867e 2a32 d851 8333 f55c 0c33 009a a134
00000240: 1e03 4a32 ffda 8b33 93d9 8133 09ff 8834
00000250: d668 fa31 6ade 5433 8552 0c33 b790 7d34
00000260: 9334 1432 8732 7733 d40b 0033 3b66 7434
00000270: 5251 2732 18d5 6033 1e48 0333 b8cf 5c34
00000280: 9b73 1c32 4b7a 8233 c94d 1633 508d 8134
00000290: 4db0 0832 de62 8133 74f0 2733 aa34 9034
000002a0: 6f35 db31 edb3 4c33 cb2c 1333 8ac8 7134
000002b0: 8388 f031 8091 5733 5393 ff32 dbc3 8334
000002c0: 88eb 3432 36b1 6e33 c6ea 0433 8fa7 7034
000002d0: e165 0a32 7df2 6a33 75e0 ee32 0c6d 5734
000002e0: 59c9 1832 b3ab 9533 f36a f132 1091 6b34
000002f0: 1bd5 a333 f7f7 d833 7813 fb32 a504 0d35
00000300: 14c0 0e32 33a1 7233 6ccc 1533 a6d9 7134
00000310: acf5 a731 f7c0 2d33 597c fb32 c2d5 5434
00000320: 9820 0232 e380 8333 51d3 3333 9370 7d34
00000330: 8e59 ca31 d697 4c33 0b64 1533 0d0d 7734
00000340: f805 3832 7c09 9033 0190 0c33 107e 8834
00000350: 69ba 1a32 7ae3 5b33 df0e 0c33 6e39 5a34
00000360: 149b 4232 34c6 5833 e34f 0933 1b24 6034
00000370: fb7a 0332 f07c 6333 f264 2333 23dc 6f34
00000380: f3b7 1432 f7f6 6933 7fa5 1233 50cf 5034
00000390: 0646 1232 f3bd 6633 280b fe32 902c 5c34
000003a0: 805c f231 9b6d 3a33 f511 ec32 020e 4c34
000003b0: b37d f431 80fb 3933 90cf f132 7141 4c34
000003c0: f526 2a32 5518 6933 3e50 0333 b7fc 7334
000003d0: 3d3f e131 256c 4a33 92ab 0233 1315 4f34
000003e0: 40e5 2732 84e7 7b33 b932 2533 3794 5d34
000003f0: 5dcc 8633 efee 0734 67ce e133 cdb7 7234
3.385023e-08 5.1131398e-08 6.8247914e-07 2.6124331e-07 3.1792197e-08 3.5386847e-08 4.40896e-08 1.7313192e-07
5.8816196e-09 4.6727507e-08 2.4159652e-08 2.0609401e-07 5.3378373e-09 4.1615756e-08 2.7567337e-08 1.5940894e-07
1.0530844e-07 3.8553555e-08 5.2847064e-08 2.7738628e-07 7.024704e-09 4.794791e-08 3.3553693e-08 1.9550389e-07
4.9207896e-09 5.34418e-08 3.123123e-08 2.3012102e-07 5.921273e-09 6.059725e-08 3.8112248e-08 2.3735606e-07
7.858045e-09 5.0558114e-08 2.527889e-08 1.8008635e-07 1.1000604e-08 5.8434384e-08 2.8730561e-08 2.4392278e-07
6.9612085e-09 4.9485376e-08 3.218928e-08 2.1696263e-07 7.620644e-09 6.4400865e-08 2.5325148e-08 1.9438504e-07
8.477548e-09 5.617439e-08 3.3541532e-08 2.190316e-07 7.358586e-09 4.926713e-08 3.4763058e-08 2.1252887e-07
7.7823135e-09 6.2525096e-08 3.9083815e-08 2.3405717e-07 6.00045e-09 5.231232e-08 3.5138488e-08 1.944338e-07
7.0462067e-09 4.9315965e-08 3.4505824e-08 1.9902349e-07 6.0123475e-09 4.4203233e-08 2.732792e-08 1.850503e-07
6.9183757e-09 4.3669516e-08 2.8456972e-08 1.8221684e-07 4.6528976e-09 4.000067e-08 2.5729188e-08 1.7887038e-07
6.313981e-09 5.7390217e-08 2.8616189e-08 2.1057583e-07 1.0857085e-08 6.8312275e-08 3.2159083e-08 2.5976442e-07
5.659734e-09 4.273952e-08 2.9718707e-08 2.0591435e-07 7.433196e-09 4.8289653e-08 3.2852327e-08 2.3274482e-07
7.4402524e-09 5.5329657e-08 2.8942258e-08 2.3201407e-07 1.2935211e-08 4.9925845e-08 3.2055866e-08 2.1542216e-07
6.7856143e-09 5.447366e-08 3.070815e-08 2.1339547e-07 7.338892e-09 5.294748e-08 2.550463e-08 2.1628327e-07
6.3206183e-09 4.4026475e-08 2.833332e-08 1.6005725e-07 1.0718199e-08 5.9385332e-08 3.0567232e-08 2.330424e-07
8.487058e-09 4.4339764e-08 3.079391e-08 2.1538362e-07 8.441556e-09 5.3148458e-08 4.3439627e-08 2.422632e-07
7.8013604e-09 5.2716988e-08 2.899345e-08 1.98774e-07 6.731059e-09 5.417376e-08 3.4415542e-08 2.298316e-07
7.428563e-09 5.3801894e-08 2.8836244e-08 1.9792714e-07 9.9240705e-09 6.11505e-08 3.2680834e-08 3.0100637e-07
1.1758656e-08 6.512527e-08 6.046607e-08 2.5517537e-07 7.287876e-09 4.956238e-08 3.267134e-08 2.3615108e-07
8.626688e-09 5.7555123e-08 2.981308e-08 2.2761462e-07 9.7391695e-09 5.2347872e-08 3.0566405e-08 2.0564664e-07
9.106681e-09 6.075842e-08 3.499534e-08 2.413094e-07 7.956328e-09 6.0250144e-08 3.910141e-08 2.6860408e-07
6.3798136e-09 4.7661093e-08 3.4266844e-08 2.251783e-07 7.000439e-09 5.019092e-08 2.9752902e-08 2.4543155e-07
1.0530933e-08 5.5574866e-08 3.094717e-08 2.2412699e-07 8.055822e-09 5.4702912e-08 2.7808918e-08 2.0063106e-07
8.893346e-09 6.969585e-08 2.8104727e-08 2.1938854e-07 7.6290426e-08 1.0103388e-07 2.92291e-08 5.253335e-07
8.309161e-09 5.6491626e-08 3.4877687e-08 2.2524054e-07 4.8882693e-09 4.0455202e-08 2.9276793e-08 1.9821803e-07
7.574407e-09 6.123607e-08 4.1868876e-08 2.3603415e-07 5.889155e-09 4.7635545e-08 3.4782754e-08 2.3008415e-07
1.0711567e-08 6.707248e-08 3.272726e-08 2.5423697e-07 9.0063645e-09 5.11968e-08 3.2609815e-08 2.0323725e-07
1.1327547e-08 5.0471684e-08 3.1970455e-08 2.0874761e-07 7.653166e-09 5.2966186e-08 3.8043204e-08 2.2338695e-07
8.656559e-09 5.4474153e-08 3.4143792e-08 1.944693e-07 8.51424e-09 5.3723806e-08 2.9574565e-08 2.0505308e-07
7.053643e-09 4.3406185e-08 2.7482182e-08 1.9004077e-07 7.115625e-09 4.3302407e-08 2.8150481e-08 1.9022788e-07
9.90416e-09 5.427167e-08 3.0573794e-08 2.2723076e-07 6.555551e-09 4.7130147e-08 3.0424026e-08 1.9286044e-07
9.772805e-09 5.8651054e-08 3.8463188e-08 2.0636149e-07 6.277035e-08 1.2659778e-07 1.0514923e-07 2.2604873e-07

exp_avg f4 [12, 4]
00000000: ec41 b6b5 2b44 b9b5 5ac3 9035 b498 d935
00000010: 3a43 7fb2 660f bdb2 dabc 4231 08a0 3f32
00000020: a222 7f34 edd8 c335 8823 f0b5 0053 3231
00000030: 7c6b e734 8e18 bfb5 cee1 ab35 6460 a3b4
00000040: 438f 6835 6238 3a35 9d5f 08b5 cc59 87b5
00000050: d2f8 71ad c918 74ad 7ffa a4ac 5736 ca2d
00000060: 47ae 3535 ae8a 2f34 86ce 3eb5 9b10 1cb4
00000070: 0737 80b5 d009 5cb5 509a be35 46e1 fc34
00000080: 7250 f5b7 edb5 d0b7 fb9b 0738 2528 b337
00000090: 01ec 5db8 adde 20b8 46b5 8038 e076 f137
000000a0: 1fb8 5337 35dd 3a37 0f2b e2b7 e72f 6836
000000b0: 2c94 1f39 e0cb da38 061b 58b9 75af 4bb8
-1.3579242e-06 -1.3803414e-06 1.0785691e-06 1.6212202e-06 -1.4858239e-08 -2.2009498e-08 2.8338065e-09 1.115405e-08
2.3761325e-07 1.4591766e-06 -1.7891734e-06 2.594959e-09 4.3105308e-07 -1.4237755e-06 1.2806211e-06 -3.043125e-07
8.663521e-07 6.937245e-07 -5.0803084e-07 -1.0084418e-06 -1.3754513e-11 -1.3875298e-11 -4.688971e-12 2.2988873e-11
6.768136e-07 1.6348596e-07 -7.1081047e-07 -1.4534673e-07 -9.552758e-07 -8.1970666e-07 1.4201014e-06 4.7102566e-07
-2.9243736e-05 -2.4880248e-05 3.2331776e-05 2.1357157e-05 -5.29103e-05 -3.8354356e-05 6.1372804e-05 2.8784794e-05
1.2619449e-05 1.1137968e-05 -2.696135e-05 3.4598577e-06 0.0001521862 0.00010433025 -0.00020609432 -4.856238e-05

exp_avg_sq f4 [12, 4]
00000000: fc3c 8a2f cd4e d02e 15f7 ae2f 3e4a a42e
00000010: af56 0a2c 61f9 f52a dc2a 1a2c 62de ee2a
00000020: b28a 1c2f 2053 512e fd1e 372f 66c5 522e
00000030: 9b86 1530 3c82 a62f d7dc 8130 b549 572f
00000040: ca73 ec2e 1763 472e 0016 f72e 1c23 412e
00000050: bdca 0d2b 3416 2a2a 6b61 ed2a 9fec 5c2a
00000060: 0793 cf2e 1388 2b2e 3e5d b52e b0ff 502e
00000070: 8738 442f 57a2 242f b25a 672f 7d64 1b2f
00000080: fb2d 5134 5970 1a34 ce82 a134 767d c533
00000090: 18fc f832 3e6a b132 9fcd 3a33 13ec 7332
000000a0: 221e 4134 7282 1234 1ab8 d234 d7c0 bb33
000000b0: 8ea5 3835 960c 0835 2872 b435 15b9 b434
2.5145386e-10 9.472743e-11 3.1825978e-10 7.4710446e-11 1.9659099e-12 4.3693784e-13 2.1908508e-12 4.2431602e-13
1.4237392e-10 4.7594928e-11 1.6654762e-10 4.7923797e-11 5.439717e-10 3.028776e-10 9.448752e-10 1.9580322e-10
1.0752606e-10 4.533537e-11 1.12361676e-10 4.3914303e-11 5.037462e-13 1.5106736e-13 4.2167254e-13 1.962202e-13
9.4393875e-11 3.9001757e-11 8.24749e-11 4.752082e-11 1.7846179e-10 1.4973388e-10 2.1041549e-10 1.4132868e-10
1.948137e-07 1.438324e-07 3.008376e-07 9.1963486e-08 2.8985639e-08 2.0653825e-08 4.349351e-08 1.4198139e-08
1.7985488e-07 1.3644765e-07 3.92495e-07 8.7429434e-08 6.8786255e-07 5.0682263e-07 1.3444269e-06 3.3662278e-07

exp_avg f4 [4, 4]
00000000: b57f 1d38 19df 5437 0002 0c38 7460 1a38
00000010: e6d8 ce39 f293 f838 0078 cd39 7284 ab39
00000020: 7c1d dd39 99f2 0039 2e00 c839 5510 b539
00000030: fd8d 90ba 6f43 acb9 91f8 84ba 6d9e 6aba
3.7550653e-05 1.2688129e-05 3.3380464e-05 3.680629e-05 0.00039452984 0.000118531185 0.00039190054 0.0003271434
0.00042174372 0.00012297406 0.00038147107 0.0003453518 -0.0011028644 -0.00032856638 -0.0010144879 -0.0008949999

exp_avg_sq f4 [4, 4]
00000000: d7ba dd34 48d1 0633 50ef b334 39c6 8d34
00000010: fe32 1d36 7a10 4534 1697 0336 0995 ce35
00000020: ffdc c535 1512 fc33 69c3 a735 f341 8435
00000030: e830 2037 b7b3 4735 2e5d 0337 8f5c d036
4.1300402e-07 3.1389646e-08 3.351547e-07 2.6407523e-07 2.3424504e-06 1.8353049e-07 1.9608465e-06 1.5391571e-06
1.4741962e-06 1.17379535e-07 1.2499341e-06 9.85396e-07 9.54813e-06 7.4394796e-07 7.829904e-06 6.2096583e-06

exp_avg f4 [16, 4]
00000000: a1c7 95b8 c088 4ab7 ec42 8c38 1357 8237
00000010: e20f 76b6 6b59 a537 f6c5 a5b6 4439 2cb7
00000020: b626 5238 feab 57b7 2777 1eb8 6d40 d134
00000030: c027 8c38 3d67 e137 ad2e c3b8 1e7d 9d34
00000040: d0d7 6eb9 da09 ddb8 1fab 8639 6ae9 9638
00000050: 4ca4 87b9 f5e3 e6b8 a55a 9c39 4401 8a38
00000060: 4334 34b8 6b69 3db7 a168 6a38 d619 0db6
00000070: 013c 8c37 006a 1438 78be 4cb8 7193 20b6
00000080: c5d8 86b8 a58c 3ab8 b489 bf38 86ec 8337
00000090: 3da1 3238 9cf6 b7b7 06b9 3fb7 58ad 1fb7
000000a0: 27f7 0e39 f68a 8a37 43b5 f8b8 2825 09b8
000000b0: 1f54 d138 2701 5138 7329 1ab9 e89a 80b5
000000c0: 33a7 3539 bd7d e338 f4e9 80b9 db7a 06b8
000000d0: 6063 4039 76a7 cc38 5511 84b9 4ea6 d5b7
000000e0: 7781 9f38 fbc8 ef37 6bb9 acb8 9401 afb7
000000f0: 018e 91b8 3181 e7b7 0023 8438 4a30 0738
-7.1420574e-05 -1.2071978e-05 6.6881854e-05 1.5537755e-05 -3.6666102e-06 1.9711171e-05 -4.940429e-06 -1.0265332e-05
5.0103954e-05 -1.2855044e-05 -3.7781105e-05 3.897616e-07 6.683124e-05 2.6870164e-05 -9.3070186e-05 2.9334564e-07
-0.00022777845 -0.00010539936 0.00025685967 7.196034e-05 -0.00025871617 -0.00011009715 0.00029822174 6.5805885e-05
-4.2964017e-05 -1.1289822e-05 5.588739e-05 -2.1025676e-06 1.6717242e-05 3.538467e-05 -4.8814778e-05 -2.392768e-06
-6.4299944e-05 -4.447684e-05 9.133239e-05 1.5726557e-05 4.2588672e-05 -2.1930136e-05 -1.1427566e-05 -9.517498e-06
0.00013634247 1.651559e-05 -0.00011859324 -3.269795e-05 9.9815654e-05 4.9830556e-05 -0.00014702026 -9.581827e-07
0.00017323792 0.00010847624 -0.0002458837 -3.2062508e-05 0.00018347567 9.75867e-05 -0.00025189915 -2.546902e-05
7.6058255e-05 2.8584609e-05 -8.236136e-05 -2.086236e-05 -6.940589e-05 -2.7597505e-05 6.30077e-05 3.223148e-05

exp_avg_sq f4 [16, 4]
00000000: 90bd a034 9244 2734 071e d934 65bd f233
00000010: 7d21 4034 ee5f f933 07ae 6a34 db53 e133
00000020: 9b51 f033 bb33 bb33 90b4 7234 012a 1d33
00000030: b61a ea32 2ec2 6132 beff 2033 d696 2b32
00000040: 6cf2 b134 1d43 6734 f193 1035 cd99 0434
00000050: 1a44 bc34 d21e 8834 66fe 2b35 236b 0134
00000060: a1ef e134 c7b4 d534 6dc6 4a35 529d 4534
00000070: 3cf6 a233 c734 0f33 8ad2 ea33 c1d3 b332
00000080: 44eb c832 ce29 a332 e037 3733 52f4 3432
00000090: 0c56 2d33 d341 6a33 3f65 f533 18f4 a332
000000a0: 7eab aa34 e2b3 8c34 c6f0 0c35 2612 2f34
000000b0: 90bc 2434 80ab a333 51fb 4a34 106c 8933
000000c0: 90a5 ea34 3715 5234 3ec6 0435 21ad 4b34
000000d0: dbce ef34 6e41 8634 92d2 0435 45bb 8634
000000e0: c8ae 4634 0f83 0834 0d8f 8a34 cb93 c933
000000f0: c522 e533 33f3 6d33 5452 2034 25ff 1f33
2.9940247e-07 1.5578033e-07 4.0441248e-07 1.1303454e-07 1.7893576e-07 1.16124156e-07 2.1856259e-07 1.0492632e-07
1.1190715e-07 8.717276e-08 2.2603695e-07 3.6592613e-08 2.7253332e-08 1.3140875e-08 3.74855e-08 9.987806e-09
3.3145204e-07 2.1537967e-07 5.3859463e-07 1.234941e-07 3.506728e-07 2.53544e-07 6.407266e-07 1.2053037e-07
4.208387e-07 3.9805875e-07 7.553961e-07 1.8404288e-07 7.5885026e-08 3.3342783e-08 1.0934771e-07 2.0934637e-08
2.339005e-08 1.8994708e-08 4.2658826e-08 1.0532931e-08 4.035796e-08 5.4542237e-08 1.1427118e-07 1.9086698e-08
3.1789745e-07 2.6207914e-07 5.2504436e-07 1.6304747e-07 1.5342289e-07 7.621475e-08 1.8904144e-07 6.399216e-08
4.370636e-07 1.9565492e-07 4.946231e-07 1.8968832e-07 4.4667726e-07 2.500705e-07 4.948025e-07 2.5095702e-07
1.8503772e-07 1.2713666e-07 2.5808586e-07 9.386675e-08 1.0669968e-07 5.540205e-08 1.4931112e-07 3.7252125e-08

exp_avg f4 [4, 16]
00000000: 4f8d 5938 9778 2538 6cd8 dab7 43a3 a437
00000010: e41b b4b6 5c83 9cb7 4581 5b37 8c8a 2638
00000020: 35cb aeb7 b038 d7b7 8a4d a4b7 44b0 9a35
00000030: 7aba bc37 0635 0038 27b3 89b6 e200 5438
00000040: 6ef0 bb39 d45c 4539 9192 ceb8 920c 8838
00000050: 3cea 3c39 8de2 3d39 53e6 3db9 8330 6839
00000060: a344 0239 8eaa 94b9 eb13 e0b8 6c0b 41b9
00000070: 897e aeb8 560d 81b6 0cc0 9cb8 4096 b739
00000080: 1704 0339 75f1 2138 3714 0bb8 125e 2938
00000090: b7a9 9438 8e8a 9838 baf0 7937 828c ae38
000000a0: 6a9e 6338 85a4 aeb8 c926 9bb8 fcb9 84b8
000000b0: c353 23b8 22ff 14b8 25de 1eb8 e438 fb38
000000c0: 09b5 e9b9 0270 79b9 ca35 0f39 5f4c c6b8
000000d0: 4256 48b9 69c9 39b9 801c 7cb5 0243 94b9
000000e0: cac3 e9b8 ffbe a039 80c5 0b39 ec97 3f39
000000f0: fc57 8a38 873a c6b7 41f6 a938 37a5 e3b9
5.1868436e-05 3.9451374e-05 -2.6088404e-05 1.9626348e-05 -5.367665e-06 -1.8657818e-05 1.3083515e-05 3.9706516e-05
-2.0837042e-05 -2.5656394e-05 -1.958643e-05 1.1525194e-06 2.2498181e-05 3.056696e-05 -4.1037742e-06 5.054556e-05
0.00035846554 0.00018821965 -9.8501456e-05 6.487327e-05 0.00018016336 0.00018108841 -0.00018110247 0.00022143316
0.00012423335 -0.00028355833 -0.00010684862 -0.0001841017 -8.3205356e-05 -3.846052e-06 -7.474431e-05 0.00035016425
0.00012494657 3.8610266e-05 -3.315901e-05 4.038035e-05 7.088802e-05 7.2737326e-05 1.4897605e-05 8.323138e-05
5.4268552e-05 -8.327611e-05 -7.3982e-05 -6.328893e-05 -3.8940238e-05 -3.552356e-05 -3.7877024e-05 0.000119792094
-0.00044576105 -0.00023788217 0.0001365758 -9.455601e-05 -0.0001910562 -0.00017718006 -9.391879e-07 -0.00028278684
-0.00011146774 0.0003065988 0.00013329647 0.00018271775 6.596741e-05 -2.3630693e-05 8.104416e-05 -0.0004341991

exp_avg_sq f4 [4, 16]
00000000: 1b95 1a34 55a3 6e33 e5dd 8232 a4b6 2732
00000010: 4db8 8b33 2340 fb33 043d 4934 f98e 9133
00000020: b770 5733 3b4c d433 b24b 8b32 1959 7833
00000030: 6d36 0033 1d45 e532 8769 2132 46d0 0334
00000040: cfcc 6735 c4af e034 366a ab33 98b9 3733
00000050: fc9d 8d34 8a59 e234 01b7 9d35 a1d1 bd34
00000060: 9c7d 2c34 32ad 1635 5c0f 0f34 2a2e 9a34
00000070: 273c cd33 260a 0e34 7eff 0f33 7111 4735
00000080: 015b db34 0aee 9434 b5dc 2d33 6fa8 ae32
00000090: 9a33 0134 2a3a 5a34 5933 9435 c1f8 2434
000000a0: 7cc9 a333 5d8f 9e34 3513 d333 cfc8 1d34
000000b0: b07a 7133 f26c fb33 01a3 7232 630e bc34
000000c0: 0589 5436 c8ea d935 1614 9b34 ca99 2b34
000000d0: 2a2a 6935 5b33 b335 1f23 dc36 740f ad35
000000e0: f3c6 fd34 f0f0 0b36 de82 0435 699a 8835
000000f0: d318 a134 d7b6 0335 aa88 f733 4dcc 3636
1.4396612e-07 5.5562243e-08 1.5234898e-08 9.762207e-09 6.506216e-08 1.1699765e-07 1.8741781e-07 6.778095e-08
5.0161102e-08 9.8858855e-08 1.6216152e-08 5.7823033e-08 2.9851822e-08 2.6690538e-08 9.3954275e-09 1.2276095e-07
8.635224e-07 4.1851138e-07 7.982128e-08 4.2776804e-08 2.6378245e-07 4.216093e-07 1.1750673e-06 3.5356518e-07
1.6064445e-07 5.6131387e-07 1.33235e-07 2.8718324e-07 9.556998e-08 1.3228473e-07 3.352715e-08 7.415866e-07
4.0858143e-07 2.7740344e-07 4.0480433e-08 2.033286e-08 1.2032834e-07 2.0323992e-07 1.1041803e-06 1.5364186e-07
7.626929e-08 2.9534104e-07 9.828947e-08 1.4694818e-07 5.622377e-08 1.1707915e-07 1.4123317e-08 3.5028197e-07
3.1670218e-06 1.623609e-06 2.8885614e-07 1.5981564e-07 8.686062e-07 1.3351486e-06 6.5605996e-06 1.2894002e-06
4.7269677e-07 2.0852858e-06 4.936427e-07 1.0177729e-06 3.000665e-07 4.906737e-07 1.1526693e-07 2.7239032e-06

exp_avg f4 [12, 4]
00000000: 8824 70b5 8af2 9235 1a72 feb5 7332 fb35
00000010: b207 d5b5 4e7a 3eb4 a6b4 0436 fe4c 9ab4
00000020: 3016 bfb4 f065 5736 b860 b1b5 486d cab5
00000030: 2895 40b4 cf6d 9136 d59a 5fb6 c5be 85b5
00000040: eee7 0135 001f 36b4 a7ab 5eb5 9ace 7334
00000050: 7c83 3235 3514 1435 7e25 43b5 90d5 c9b4
00000060: ddd3 2032 9277 0db5 06b4 95b3 d35b a434
00000070: 148b 41b5 41e8 13b6 51cf 1736 d95a 2b35
00000080: 346c f5b6 2357 b7b7 c6d0 3d38 42fb 81b7
00000090: b6db 5337 d59c e137 3c3b 31b8 c299 0436
000000a0: 2704 6136 974e 7e37 d974 dab7 e17e f436
000000b0: afd8 3137 f953 98b6 b434 0436 5b4a 0ab7
-8.9460127e-07 1.0948436e-06 -1.8957683e-06 1.871564e-06 -1.5871976e-06 -1.7739623e-07 1.9774684e-06 -2.8740754e-07
-3.5592666e-07 3.2096832e-06 -1.3215677e-06 -1.5081978e-06 -1.7935656e-07 4.33412e-06 -3.3319714e-06 -9.964793e-07
4.8393747e-07 -1.6961349e-07 -8.295123e-07 2.27063e-07 6.65015e-07 5.51637e-07 -7.269772e-07 -3.7594555e-07
9.361398e-09 -5.270059e-07 -6.971099e-08 3.061419e-07 -7.210049e-07 -2.2039897e-06 2.2621427e-06 6.3834665e-07
-7.3141655e-06 -2.1855876e-05 4.5255547e-05 -1.5495e-05 1.26277355e-05 2.689512e-05 -4.2255255e-05 1.9759032e-06
3.353003e-06 1.5157878e-05 -2.6042037e-05 7.2865373e-06 1.0600473e-05 -4.5397287e-06 1.970021e-06 -8.242753e-06

exp_avg_sq f4 [12, 4]
00000000: d40b 072f 4161 c42e 77db 902f 7f9d 8c2e
00000010: 0c7c 9b2e d967 c92d 20bc e62e 5f3c dd2d
00000020: c0a3 882f ab8c 2e2f 5b40 0830 cd19 212f
00000030: 4792 412f fedb 1e2f e787 9e2f 0d88 182f
00000040: 35b9 052e 4f13 0f2e 6815 752e fe7d 0b2e
00000050: a727 bd2d 0c80 0d2d b43b e32d c316 0c2d
00000060: 57c9 ac2e 6ee2 842e 2a30 052f d633 6b2e
00000070: fdd2 b72e 76e9 d32e 8f12 552f a560 9c2e
00000080: 5dbc f333 d421 3234 7b19 cc34 967c 9333
00000090: 4247 a933 1240 fa33 1118 9134 b908 7733
000000a0: 4b06 b733 ff74 0734 c846 a034 4bb5 8533
000000b0: 3bc8 6933 ce42 b033 3be5 4434 ddfe 3433
1.228238e-10 8.930324e-11 2.6349387e-10 6.39444e-11 7.070619e-11 2.2897172e-11 1.0492607e-10 2.5151601e-11
2.4854607e-10 1.5875183e-10 4.9567966e-10 1.4652031e-10 1.7605216e-10 1.4448173e-10 2.8836597e-10 1.3872654e-10
3.0405196e-11 3.2531585e-11 5.5725563e-11 3.1716844e-11 2.1504422e-11 8.043354e-12 2.5833426e-11 7.963133e-12
7.8574196e-11 6.042887e-11 1.2113391e-10 5.3478853e-11 8.3593556e-11 9.63664e-11 1.937883e-10 7.111226e-11
1.13498324e-07 1.6589848e-07 3.80165e-07 6.867883e-08 7.8826375e-08 1.16531865e-07 2.7025865e-07 5.7517102e-08
8.522746e-08 1.2615418e-07 2.9853823e-07 6.226272e-08 5.443165e-08 8.2077904e-08 1.8337316e-07 4.2141313e-08

exp_avg f4 [4, 4]
00000000: c878 70b7 8005 0a38 c8ea 5338 7884 49b8
00000010: c002 b6b9 19d5 c539 03aa 103a 941d 13ba
00000020: 8f20 30b9 92a5 4139 27fd 9039 f521 94b9
00000030: 7ecd 3c39 7142 7fb9 0d14 afb9 f31b c039
-1.4333236e-05 3.2906886e-05 5.0524977e-05 -4.8045506e-05 -0.00034715794 0.00037733538 0.0005518498 -0.00056120125
-0.00016796797 0.00018467594 0.00027654434 -0.0002825406 0.00018005629 -0.00024343446 -0.0003339354 0.00036641918
