out-tss50/ckpt_iter_250.pt (torch, 48048 bytes, 64 tensors)

transformer.wte.weight f4 [5, 4]
00000000: a100 3bbe e5c1 4dbe d13d 5a3e 9747 153e
00000010: 2987 193e d5f3 243e 609b e8bd 1b98 e6bd
00000020: 4b4d d43d 42d1 7c3d cb05 b6bd d49c e9bd
00000030: f5a6 793d 6957 e23d 8cd5 f8bd b94a b6bd
00000040: b847 1c3e ffd6 0d3e ca65 16be 8211 09be
-0.18261959 -0.20093496 0.21312644 0.1457809 0.14992966 0.1610864 -0.113577604 -0.112594806
0.10366305 0.061723 -0.08887824 -0.11406866 0.06095024 0.110518284 -0.12150106 -0.08900971
0.15261734 0.13851546 -0.14687267 -0.13385585

transformer.wpe.weight f4 [256, 4]
00000000: bd5e e33a 9f67 5c3c 2365 2ebc 0174 2ebc
00000010: 7860 263c 3f2b fe3b a942 0d3a b815 893b
00000020: c2f8 0e3d 0217 323d 55c6 16bd 14b0 2ebd
00000030: 9937 083d 71c3 2b3d 964a 7fbc a542 e0bc
00000040: 7308 e43c 207d d33b 9616 57bc d279 22bd
00000050: 90d0 8d3c 2257 733c fcc2 6fbb 6939 6dbc
00000060: 6f27 163d 67b3 973c 3aab e2bc eae9 19bd
00000070: 54a4 8d3c 9dc7 f73c 227c 62bc 7390 0bbd
00000080: 954a ee3c ca00 3d3b 6bd2 4bbb 9f1e 2ebb
00000090: 21ec 8e3b 3a35 b33b 3254 2fbc fa24 acbc
000000a0: 62cc 293d 2c1b 033c f859 9fbc 2b29 85bc
000000b0: 26a8 143c add4 a7bb 024d 8dbc ca0d 39bc
000000c0: 61d1 073c 7b16 e63a 599f 8b3c 9840 83ba
000000d0: 1cff 713c 73de 043b 3313 9abc b2cf c5bc
000000e0: a71a 503c 2511 2f3c eef7 68b9 3ab7 a8bb
000000f0: bdf9 a53c 9556 1a3b 6933 e7bb aab0 31bc
00000100: 8e90 7a3c acaa 8a3c 629f 5fbc 87f2 a3bb
00000110: 0102 0a3d 2416 763c 4c61 4abc 3f45 d7bc
00000120: e41b c83c 2e93 1f3d a55b 0fbd 9d41 34bd
00000130: 45ee 063c 1b81 2c3c 5719 3ebc a1cb 05bd
00000140: 6dec 813c 5c5e 8a3c b18b b6bb 6241 eabc
00000150: 8fd6 023d 2e80 dd3c f6f9 113b d173 8d3c
00000160: 7fad d43c c6bd 843c 63ce 2ebb e19f 69bc
00000170: 3c9a 623b 7f6c 703c 7184 95bc 557b a23b
00000180: 3b61 2dbc bdb2 923c 394a 0cbc 5887 d2bb
00000190: 531b 843b 6c47 7c3b a043 bfbc bedc ad3c
000001a0: 7ea1 13bc 1998 aa3a cba0 e2bb 648b 07bd
000001b0: e88c 473c 5c16 36bc 9a13 37bb fdfe eab9
000001c0: 4ea0 813c 5a65 8c3c 8167 f4bb bf46 f7bc
000001d0: 5854 ea3b bad2 e03c bb1b 85bc 125c e0bc
000001e0: bb4b 0e3d a5f8 2a3c 7ce8 b1bc 17e0 b7bc
000001f0: c080 663c 1f71 8bbc adb5 f3bb e193 1abd
00000200: 593c 763c 7b3b a53b 8aa1 5c3c b643 913c
00000210: abbf 9a3c fca4 dab9 293b f93b bb21 bfbc
00000220: 01e8 0b3c 0f4c 50ba 3b68 27bc 1f69 bbbc
00000230: 683a 5a3c 7d68 423c 2fd3 84bc fd4e 62bc
00000240: 6c3f e5ba 4545 743c 239c df3b eed2 373c
00000250: b552 cd3c 8854 6d3c 737b 713b 42b1 97bc
00000260: e387 b13c 30d4 bc3c 9f37 29bc d53b 73bc
00000270: fc96 7b3b dbc7 09bc 53e8 56bc 5bc9 9cbc
00000280: 9a2b 903c ba1b d33c 60ab 3cbb d9ac 68bc
00000290: 7dc8 32bc 2203 8a3b c264 adbb ff31 4cbc
000002a0: 2481 653c 2909 083c 332a c9bc 10c1 c8bc
000002b0: c486 21bc b993 c13c d33c 36bc 30b7 8cbb
000002c0: 3d81 5ebc a44c e0bb 327a 72bc 0c9a e33a
000002d0: de54 203c f97a e2bb 7b94 04bd 0116 1dbd
000002e0: 810b ae3c 4295 043d c34a 31bc 46bb 0bbc
000002f0: dd0d 063c d89c c03b 67cd df3b 0fb8 023d
00000300: b06f e33c c9ec 483c 8205 733b ab4c e33b
00000310: dfdb 9c3c 6e93 f73c 2380 163b 134c a2bc
00000320: 4c53 773c d733 98bc 1dc4 0a3c f80d 17bc
00000330: 73cb 4b3a 20d9 cd3c 1d55 debb 2c4a 20bc
00000340: 1500 883c 4643 e73b 0352 a5bb 73e8 8dbc
00000350: 92dc bc3c 8c8f a9ba 51ff 7abc 0a53 7f3c
00000360: 8a51 313c 7a6a 23bc a5ff bebb 9c40 f73a
00000370: ff32 c43b 3b9c 9039 cd7c 80bb 5149 ccbc
00000380: 5871 8c3c 4fbd 9c3c d6ae ffbb 9b72 b3bc
00000390: 1d0b bd3c 3156 d73c f001 14bc 45d8 27bd
000003a0: cbad d1bb bfda 933a cbaa 2abc 1393 20bd
000003b0: 0e08 e13a 6b1e fc3b 3fea 89bb 50e8 a33b
000003c0: 8bc6 9c3c e9e6 293c c881 21ba 4f56 6fbc
000003d0: d349 683c 3ce0 c13b 7361 f4bb 7912 9cbc
000003e0: cc32 c13c 6191 503c 994e cebb 9936 483c
000003f0: 4180 63bc 443d 673b 6954 18bc a446 06bc
0.001734696 0.01345244 -0.01064423 -0.010647775 0.010154836 0.00775662 0.0005388656 0.0041834973
0.034905203 0.043478973 -0.036810238 -0.04264839 0.033256147 0.041934434 -0.0155817475 -0.027375529
0.02783606 0.006454125 -0.0131279435 -0.03966696 0.017311364 0.014852317 -0.0036584726 -0.01447902
0.0366587 0.018518163 -0.027669538 -0.037576593 0.017290272 0.03024655 -0.013823541 -0.034073304
0.029088298 0.0028839582 -0.003110076 -0.0026568545 0.004361645 0.0054689916 -0.010701226 -0.021013726
0.04145468 0.008002084 -0.01945208 -0.016254982 0.009073293 -0.0051217885 -0.017248634 -0.0112947915
0.008289666 0.0017554307 0.017043756 -0.0010013757 0.0147702955 0.0020274192 -0.018807983 -0.024146888
0.012701667 0.01068524 -0.00022217605 -0.0051487954 0.020260686 0.0023550142 -0.007055689 -0.010845343
0.015293254 0.016927086 -0.01364884 -0.0050032767 0.033693317 0.015019927 -0.012352299 -0.026278136
0.024427362 0.03895872 -0.03499951 -0.044007886 0.008235519 0.010528828 -0.011602721 -0.0326649
0.015859807 0.016890697 -0.0055708517 -0.02859563 0.0319429 0.02703866 0.0022274232 0.01726714
0.025961636 0.016203772 -0.002667331 -0.0142593095 0.0034576794 0.014674305 -0.01825163 0.00495855
-0.010582264 0.017907495 -0.008562618 -0.0064248256 0.0040315776 0.003849472 -0.023347676 0.021223422
-0.009010671 0.0013015299 -0.0069161407 -0.033091918 0.012179591 -0.011113729 -0.0027935267 -0.0004482194
0.01582351 0.017138172 -0.0074586277 -0.030185102 0.007151168 0.027444232 -0.016248574 -0.027387653
0.03474019 0.010435258 -0.021717303 -0.022445722 0.014068782 -0.017021714 -0.007437429 -0.037738685
0.015029036 0.005042491 0.013466248 0.017732482 0.018890223 -0.00041703123 0.0076059294 -0.023331514
0.008539201 -0.0007945904 -0.010217722 -0.022877274 0.013319589 0.011865732 -0.016213981 -0.013812778
-0.0017490215 0.014909093 0.006824033 0.011219723 0.025063852 0.014485486 0.0036847263 -0.01851714
0.021671241 0.023050398 -0.0103282025 -0.014845808 0.0038389554 -0.008409466 -0.013116914 -0.019138983
0.017598916 0.025770057 -0.002878867 -0.014201366 -0.010912058 0.0042117992 -0.0052915523 -0.012463092
0.01400784 0.008302965 -0.024556255 -0.024506122 -0.009858791 0.02363001 -0.0111229 -0.0042942986
-0.0135806175 -0.006845074 -0.014799641 0.0017364635 0.009785859 -0.006911632 -0.032368165 -0.038351063
0.02124572 0.032368906 -0.010821047 -0.008528536 0.008182016 0.005878072 0.006829906 0.031913813
0.027763218 0.012263485 0.003708214 0.00693663 0.019147811 0.030221667 0.002296456 -0.019811666
0.015095543 -0.018579407 0.008469609 -0.009219639 0.0007774152 0.025127947 -0.0067850486 -0.009783309
0.016601602 0.00705758 -0.005045177 -0.017322754 0.023054395 -0.0012936457 -0.015319661 0.015583763
0.010822663 -0.009974116 -0.005828815 0.001886386 0.0059875245 0.0002758222 -0.0039211274 -0.024937304
0.01714389 0.019133238 -0.0078028245 -0.021905234 0.023076588 0.026286216 -0.009033665 -0.040977735
-0.0063988916 0.0011280401 -0.010416697 -0.03920276 0.0017168538 0.007694056 -0.0042088325 0.005002059
0.019137641 0.010369995 -0.00061610015 -0.01460798 0.014177757 0.0059166234 -0.007457906 -0.019051777
0.023583792 0.0127299735 -0.0062959907 0.012220048 -0.013885559 0.003528432 -0.009297469 -0.008195553

transformer.h.0.ln_1.weight f4 [4]
00000000: ed0e 943f d4c2 913f ffee 913f d49c 8f3f
1.1567055 1.1387582 1.1401061 1.1219735

transformer.h.0.attn.c_attn.weight f4 [12, 4]
00000000: 5a29 f4bd feba 29be 151e d43d 58a7 0b3e
00000010: 434e 46bd 19c9 a3bd 0fd9 2e3d 444e 413d
00000020: a525 c33d 88c7 113e 6092 0bbe af12 50bd
00000030: 3ce4 cb3d ac61 2b3e 3009 0abe 2031 ccbd
00000040: 9e84 e33d d169 0f3e 5956 11be 0fba fbbd
00000050: becf 103e 8a40 6d3c aea8 f4bc db94 d4bd
00000060: c90a f7bd 856a e9bc 27f5 fd3c 311c 263e
00000070: 7510 fcbd 57ba 3cbe 9b20 0a3e 100e 0c3e
00000080: 3594 ce3d d48e d73d 91f0 1bbe f26b cabd
00000090: fab4 9d3c c2aa d2ba 1945 5dbd ffb7 1fbd
000000a0: 5d49 d93d 4da0 713d 78b7 4cbd 5ab2 b3bd
000000b0: 0831 eb3d 92f5 033e bc6e 1ebe 2b3e e5bd
-0.1192195 -0.16575238 0.103573 0.13638055 -0.04841448 -0.07997341 0.042687472 0.04719378
0.095286645 0.14236271 -0.13630056 -0.050799068 0.099556416 0.16736478 -0.13480067 -0.09970307
0.11109279 0.1400521 -0.14193095 -0.12291347 0.14141747 0.014480719 -0.029865589 -0.103799544
-0.12062604 -0.028493175 0.031000687 0.16221692 -0.123078264 -0.18430458 0.13489 0.1367724
0.10086862 0.10525289 -0.15228488 -0.0988387 0.019251335 -0.0016072618 -0.054020975 -0.03899383
0.10609696 0.058990765 -0.049979657 -0.08774252 0.11483961 0.12886646 -0.1547193 -0.11193498

transformer.h.0.attn.c_proj.weight f4 [4, 4]
00000000: eaa1 b23d f672 ea3c dc5b 8c3d 59ad f53d
00000010: 0637 a63d 9e8e a03c 3d6d 663d d0ca ea3d
00000020: 74f9 9dbd 49df 9ebb a106 52bd 24a4 f2bd
00000030: 7266 c1bd 23a8 31bc 3eab 4abd 96d5 d5bd
0.08722289 0.02861927 0.06853458 0.11995954 0.08115964 0.019599255 0.05625652 0.11464465
-0.07713595 -0.004848395 -0.051275853 -0.118477136 -0.09443368 -0.01084331 -0.049479716 -0.10441129

transformer.h.0.ln_2.weight f4 [4]
00000000: 5ae3 903f f7a6 913f 2871 923f 671f 913f
1.1319382 1.1379079 1.1440783 1.1337708

transformer.h.0.mlp.c_fc.weight f4 [16, 4]
00000000: 30e9 d33d 4b37 88bd 5f75 dd3c fe00 c5bd
00000010: b789 e03d 21a5 613c 0196 b03d 5399 17be
00000020: 8989 69bd 1b9f 913d ec1a 52bc e4ce 993d
00000030: d71a ae3d e257 c3bd c53f 6cbd 2411 2f3d
00000040: f8f0 25bd e90c 4b3d 185c 1cbd fa53 2e3d
00000050: 4296 77bd 6162 073e 9fda f1bd 56a5 763d
00000060: 90c7 dcbd ce3c f8bd e20b b23d 2a5f 143d
00000070: d060 fe3d 0fe0 8cbd 972c 4cbc a35b 1dbd
00000080: f53a bebd e5b6 ae3d fb1b a9bd fe74 6f3d
00000090: 4818 a0bd e786 4f3d bbfb a23c d569 433c
000000a0: ccba c1bd 6881 213e bcbe be3d 00be bebd
000000b0: 8412 7d3d 2c77 15bd cdbf 5f3d 70f0 0bbd
000000c0: ee58 c03d b269 cbbd 8622 253d e729 74bd
000000d0: 0e5c e53d 8c1e c3bc 068f c33d ee92 a5bd
000000e0: 9422 2f3c ee44 cc3c 437a 2f3c 35fa 163c
000000f0: e5e3 e73d cf9e fbbc ef2d df3c 62e6 89bd
0.10347211 -0.06651171 0.027033506 -0.0961933 0.10963767 0.01377228 0.08622361 -0.14804582
-0.05701593 0.07110425 -0.0128238015 0.075101644 0.08501213 -0.09538247 -0.057678003 0.042740956
-0.04051301 0.04957286 -0.038173765 0.042560555 -0.06044603 0.13221122 -0.11809277 0.06021627
-0.10780251 -0.121209726 0.08693673 0.036223568 0.12420809 -0.06878673 -0.012461803 -0.03841747
-0.09288589 0.08530978 -0.0825729 0.05846118 -0.07817131 0.050665762 0.019895425 0.011927088
-0.09459457 0.15772021 0.093137234 -0.093135834 0.061785236 -0.036490604 0.054626275 -0.034164846
0.09391962 -0.09932269 0.040316127 -0.059610274 0.11199199 -0.023818277 0.09548764 -0.08084665
0.010689396 0.024935212 0.010710302 0.009214927 0.11322764 -0.030715374 0.027243583 -0.06733395

transformer.h.0.mlp.c_proj.weight f4 [4, 16]
00000000: cdae afbd 5680 04bd 7646 7a3d 7ea0 69bd
00000010: e8b7 ef3c 4f06 203d 4f31 933d 3aae a4bd
00000020: 2ac7 333d 1d01 923d f1fb 923d 43d4 f1bc
00000030: 05c7 5dbd 07a3 ebbc 8f57 013b 7b0c 5dbd
00000040: bb37 7e3d 23c3 843d 552f 4abd 4179 753d
00000050: 683c 68bd f8b0 edbd 1d61 303d 1da9 b73d
00000060: 2ba4 64bd 04f4 07bd 7a53 bfbd 15fe 183d
00000070: fa0f 693d 3481 223d 0b3c bcbb bafb 423d
00000080: 80fb afbd 6862 10be dfbd 853d d2c3 783d
00000090: 86e2 693d 355a da3d a425 17bd e879 97bc
000000a0: 90d3 703d e91c 233b d051 aebd c4e0 32bd
000000b0: 28d3 84bd 2c4d 61bd fddb 8bba cf9e 3abd
000000c0: 8871 333d 4408 d33d e8b8 08bd 9df8 2ebd
000000d0: 9d04 6cbc a826 44bc cc13 84bd 0562 9d3c
000000e0: c39a 02bd 4f54 e5bb 438f 2b3d 0624 233a
000000f0: d1e4 343b b232 023d 0feb c23b 0726 a43c
-0.085782625 -0.032348953 0.061102353 -0.057037823 0.029262498 0.039068516 0.07187139 -0.080410436
0.04389111 0.071291186 0.0717696 -0.02952016 -0.054144878 -0.028764261 0.0019736027 -0.05396698
0.062064867 0.06482532 -0.049361546 0.05993009 -0.056698233 -0.1160602 0.043061364 0.08967803
-0.055820625 -0.033191696 -0.09342094 0.037351687 0.056900002 0.039674 -0.0057444624 0.047603346
-0.08592892 -0.14100039 0.06530356 0.060733624 0.057100795 0.10661737 -0.03690113 -0.018490747
0.05879551 0.0024889058 -0.08511698 -0.043671384 -0.06485587 -0.055005237 -0.001067042 -0.045561608
0.043809444 0.10304311 -0.033379465 -0.042717565 -0.014405397 -0.011972107 -0.064490885 0.019211778
-0.031885874 -0.0069985758 0.041884672 0.00062233245 0.0027602206 0.031786628 0.0059484313 0.020037664

transformer.h.1.ln_1.weight f4 [4]
00000000: 996d 903f b90e 903f 8e8c 903f 2d89 8d3f
1.1283447 1.1254493 1.1292894 1.1057488

transformer.h.1.attn.c_attn.weight f4 [12, 4]
00000000: ff65 ddbd 6b8b e3bd 22d6 1f3e 00f3 973d
00000010: 80d3 1abe 32f3 00be b3f2 023e 663f 243e
00000020: fad5 13be a667 e5bd d0e2 0e3e 4df3 273e
00000030: 63e9 febd 8ab4 f3bd 8893 fb3d e80d 213e
00000040: eb1b 243e 56a2 e13d 6bcd ccbd deb5 46be
00000050: bdfb 023e 9630 ec3d a08c 19be 38c0 19be
00000060: 7f9f 0c3e a683 eb3d 0004 0bbe 503b 2bbe
00000070: e552 0a3e 12b4 ea3d 0c8b 10be c2de f1bd
00000080: a3ed aebd e100 7abd 8bee 9f3d 801f 8e3d
00000090: adbc bc3d 7637 d93d 789f b0bd 49a2 52bd
000000a0: d382 af3d 4242 d43d 182c e3bd f470 98bd
000000b0: 36da 35bd a138 e3bd af0f fc3d 51da d03d
-0.1081047 -0.11110576 0.15609029 0.074193954 -0.15119743 -0.12592772 0.12787895 0.1603981
-0.14437094 -0.1120141 0.1395371 0.16401406 -0.12446859 -0.118996695 0.12283999 0.15727961
0.16026275 0.11017291 -0.10000118 -0.19405314 0.12791343 0.115327045 -0.1499505 -0.15014732
0.13732718 0.11499719 -0.13575745 -0.16721845 0.13508184 0.11460127 -0.14115542 -0.11810066
-0.08541419 -0.061035994 0.0780917 0.06939602 0.092156745 0.106062815 -0.08624166 -0.0514243
0.085698746 0.103642 -0.110923946 -0.07443419 -0.044397555 -0.110947855 0.12307679 0.101978905

transformer.h.1.attn.c_proj.weight f4 [4, 4]
00000000: 6ca4 9ebd 352d d23d 2ec1 ae3d 77e7 8fbd
00000010: 9aca 8fbd 3cd0 9e3d 672d 893d b5f0 64bd
00000020: ebdd 9a3d d764 8fbd 03b5 76bd 5039 793d
00000030: 8f0e 973d e6ee acbd d697 9bbd fb23 833d
-0.07746205 0.10262529 0.0853294 -0.0702657 -0.07021065 0.07754561 0.06698113 -0.05589362
0.07561859 -0.070016555 -0.06023122 0.060845673 0.07375824 -0.08444004 -0.0759732 0.06403347

transformer.h.1.ln_2.weight f4 [4]
00000000: 68c7 8c3f 4363 953f fc0a 933f 2e4f 893f
1.0998354 1.1670917 1.1487727 1.0727289

transformer.h.1.mlp.c_fc.weight f4 [16, 4]
00000000: 3e37 dd3d 9cc9 b3bd 63ba b2bd 7b05 803d
00000010: c687 d73d 300e c3bc 925e 9c3b 63f5 92bd
00000020: 3f5f 4fbc c68f be3d dcca 4f3d 1616 81bd
00000030: 30d5 13bd 8ef8 143e 3b68 823d b433 9fbd
00000040: 0608 de3d 84eb 04be 4673 91bd eac6 babc
00000050: 6bf9 ecbd 34c5 163e 28a1 f1bc bfe3 e63b
00000060: f905 d4bd 9a7d ee3d fab9 68bd 5312 fd3c
00000070: ebd9 363d 9df0 4c3c 576f 8c3d 6064 92bd
00000080: 070c a93d 77cd 7abd 160e dbbd 6e92 a53d
00000090: cd2e de3d cddd 52bd 312d ae3c 8ed9 b2bd
000000a0: e77a 903d e3be 31bd b9ca 213d 9ed3 4ebd
000000b0: a3cf b33c c529 553d 062b 583d 11a6 ccbd
000000c0: 7168 2a3d e006 9cbd b4b7 4ebd a6d2 d03c
000000d0: f748 663d cf06 a6bd 4998 5a3d c2db 55bd
000000e0: 4c2e 1dbd 5359 c93c e4b5 1cbd 3ab6 633d
000000f0: e039 c0bd 4322 cc3d 6b0d dabb e8cb efbc
0.10801552 -0.08778688 -0.08726957 0.06251045 0.105239436 -0.023810476 0.004772016 -0.0717571
-0.012656986 0.09304766 0.05073057 -0.06303041 -0.036091983 0.14547941 0.06367537 -0.077735335
0.10841374 -0.12980467 -0.07102065 -0.022799928 -0.1157101 0.14723665 -0.02949579 0.0070461924
-0.10352702 0.1164505 -0.056817986 0.030892527 0.044641417 0.012508539 0.06857174 -0.07148051
0.08254247 -0.061231103 -0.10696046 0.0808457 0.1084877 -0.051481057 0.021261783 -0.087329015
0.07054692 -0.043394934 0.039499972 -0.050494783 0.021949595 0.052041788 0.052775405 -0.09992612
0.04160351 -0.07618499 -0.05046816 0.02549107 0.05622193 -0.081067674 0.053367887 -0.05221153
-0.03837423 0.024578726 -0.038259402 0.055593707 -0.09386039 0.099674724 -0.0066544316 -0.029272035

transformer.h.1.mlp.c_proj.weight f4 [4, 16]
00000000: a608 cabd fa6d e9bc 14cd 913d c3aa a93d
00000010: 2dd6 b9bd 6b3b a53d b0aa ad3d 6bf6 1a3d
00000020: 5ea0 66bd 3446 43bd c55f 7fbc 421b 243d
00000030: 47c7 6ebd ce95 96bc 4b3a 4abc 4b5b d63d
00000040: 49b6 983d 6cf9 2d3d a4ff babc 4716 0abd
00000050: 174f 793d 534a 4ebd 01f1 67bd a7e0 483d
00000060: b4c2 083d e904 463d f3b3 4a3d 77c3 083d
00000070: 63fd e23c 24ae 843d b0d7 39bd a698 cbbd
00000080: 721f 9f3d bd68 26bd 566f 9cbd a30a 5abd
00000090: eaf9 58b9 2ed3 043d 2475 443d c946 cbbd
000000a0: 4a22 863d e1ae 8dbd 99c4 49bd e8b1 59bd
000000b0: e080 cf3c dd7b 7bbd 5ec9 123d 4116 b23b
000000c0: 95b2 68bd 925e 213a 52a8 783d 9774 653d
000000d0: 42c0 f3bc 639e dc3c 38b6 2c3c af9d 413d
000000e0: ce49 69bd 5c09 5f3c 275e 63bb b87f 873c
000000f0: 4cd7 0dbd 51f0 94bb 1255 a23b 65b8 e13c
-0.09864931 -0.028494824 0.07119194 0.08284523 -0.09074054 0.08067974 0.08479822 0.03783266
-0.05630528 -0.047674373 -0.015586798 0.040065058 -0.058295514 -0.01838198 -0.012343 0.104666315
0.07456643 0.042474195 -0.022826977 -0.03371265 0.06086644 -0.05036385 -0.056626324 0.04904237
0.03338881 0.048344526 0.04948802 0.033389535 0.027708715 0.06478527 -0.04537171 -0.09941225
0.077696696 -0.04062723 -0.07638423 -0.0532328 -0.00020692465 0.03242796 0.047963277 -0.099256106
0.06549509 -0.06918121 -0.049259756 -0.05314818 0.025330007 -0.061397422 0.03583657 0.005434782
-0.056810934 0.00061557547 0.060707398 0.056019392 -0.029754762 0.026930993 0.010541491 0.04726952
-0.05695515 0.013613071 -0.003469357 0.016540393 -0.03462915 -0.0045452495 0.004953989 0.027553746

transformer.h.2.ln_1.weight f4 [4]
00000000: e940 8f3f 900b 8f3f be74 903f 9b7d 883f
1.1191684 1.1175404 1.1285627 1.0663332

transformer.h.2.attn.c_attn.weight f4 [12, 4]
00000000: 13a2 293d 6911 16bd f351 103d 8daa 64bd
00000010: 53a8 9bbd 3518 d8bd 2a19 d63d d3d8 393d
00000020: 2b20 cfbd 69b3 e1bd c0a7 003e 5fc3 3b3d
00000030: de5c 9f3d f089 c13d e710 26be cdca 92bc
00000040: 695a a23c 3d7b 46bc 1361 49bc f7b8 6a3c
00000050: 6fa2 e03d 6f77 ad3d c6ab f7bd 38bc c2bd
00000060: 1c0e a63d 37b0 a03d 0b7f d7bd 47df 07be
00000070: f90f 18be 57d7 8fbd 483d 903d 3c39 133e
00000080: abd0 f63a 7422 cfbc 688a 943b 5894 bd3c
00000090: 83b6 d1bd af04 e8bd 23cb f13d 47b2 213d
000000a0: ebbc c53d b0d4 d43d 0dae 04be a839 89bd
000000b0: b02d c03d fd27 aa3d f677 bfbd d746 d1bd
0.04141433 -0.036637697 0.035234403 -0.055826712 -0.07600465 -0.10551492 0.104540184 0.045372795
-0.101135574 -0.11020548 0.12563992 0.045840617 0.07781385 0.094501376 -0.16217385 -0.017918969
0.019818502 -0.012114343 -0.012291211 0.014326326 0.10968482 0.08470046 -0.1209331 -0.09508556
0.0810816 0.0784611 -0.105222784 -0.13268767 -0.14849843 -0.07023495 0.070429385 0.14377302
0.0018830498 -0.025284983 0.004533101 0.023142025 -0.102398895 -0.11329018 0.118063234 0.03947666
0.09655174 0.103921294 -0.1295702 -0.0670045 0.09383714 0.083084084 -0.093490526 -0.1021859

transformer.h.2.attn.c_proj.weight f4 [4, 4]
00000000: 0b0c ffbc 86f6 9cbd 5df7 a33d 71c4 ae3d
00000010: 4769 163c 964f a7bd 4c23 4c3d 84e1 ac3d
00000020: 51c3 1a3c 3e9f a93d 7025 97bd faa5 b3bd
00000030: 8c50 043c e17e 8d3d 240d 91bd 3e17 8cbd
-0.031133672 -0.07664208 0.08006165 0.08533562 0.0091803735 -0.08169477 0.04983835 0.08441451
0.009445981 0.08282326 -0.073801875 -0.08771892 0.0080758445 0.06908966 -0.070825845 -0.068403706

transformer.h.2.ln_2.weight f4 [4]
00000000: 646f 913f 65f9 863f b17b 853f aabf 8e3f
1.1362119 1.0544859 1.0428373 1.1152241

transformer.h.2.mlp.c_fc.weight f4 [16, 4]
00000000: 96fe 78bd c82e a2b9 052d e13c bcdc c5bc
00000010: a7ee 66bd dd0d 0cbd 17af 82bc 265d 923d
00000020: 9a11 dd3d 28f2 3c3d c0df 8abc e0c7 b0bd
00000030: 7193 b7bd 0873 58bc 7d23 d9bb fdc2 d53d
00000040: f320 c9bd 66c3 de3c 9449 b93b 16dd 133c
00000050: 7eba c2bd bb08 0ebd 1a1f 10bd 4ffe bb3d
00000060: 4f98 6a3d 39e2 16bd f0c2 8a3d a303 e6bd
00000070: 6d8c a9bd 47f4 143b 4aa3 77bd 0501 a23d
00000080: 8c68 d7bd 8236 78bd ac10 41bd 58b6 613d
00000090: 4e0f b6bd 8e22 aa3c f1b1 dfbb 3a1d 613d
000000a0: 9e92 f93c 5ab6 7e3c b07a 2f3d 418a b8bd
000000b0: b09d 86bd c17a 32bd 81a8 31bd 294a 873d
000000c0: b887 9f3d 6fcd 973d c6dd 973c 2a6a 7cbd
000000d0: 8ade 003e 8985 f1bd 9812 32bd 357b 80bd
000000e0: dc64 46bd 7ded 933d 62fb c9bd cf0f 763d
000000f0: 54cb f03c ffdd 313d 4abe 333d 66dd 99bd
-0.060789667 -0.00030933903 0.027487287 -0.024153106 -0.05637994 -0.03419291 -0.01595263 0.07146673
0.10794373 0.046129376 -0.016952395 -0.08631873 -0.08963669 -0.013211019 -0.006626545 0.10437582
-0.09820738 0.027192783 0.005654523 0.009024879 -0.09508227 -0.034676295 -0.03518591 0.09179365
0.05727416 -0.036836836 0.067754626 -0.112311624 -0.08278737 0.0022728608 -0.06045846 0.07910351
-0.105179876 -0.060598858 -0.04713504 0.055105537 -0.08889638 0.02076843 -0.006826632 0.054959513
0.03046542 0.015546406 0.042841613 -0.09010745 -0.06573045 -0.0435741 -0.04337359 0.06605942
0.07789558 0.0741223 0.018538367 -0.061624683 0.12584892 -0.11793048 -0.043474764 -0.062735
-0.04843603 0.07223032 -0.098624006 0.06007367 0.02939383 0.043424603 0.043882646 -0.075129315

transformer.h.2.mlp.c_proj.weight f4 [4, 16]
00000000: 9ce2 623b 9a9d 38bd 6ab9 213d d13e e0bc
00000010: 3f69 ae3c bee6 06bd c43a 2abc 5248 74bc
00000020: 7710 42bd eebf b33c ed61 fd3c 3cd2 1dbd
00000030: 3afe 673d ab34 54bd ca7b fe3c b93e 4c3d
00000040: e9d2 c6bc a2fb 32bd 8ec6 5c3d 8294 c4bc
00000050: e622 b1bd e09c f8bc 8a31 843d a073 70bd
00000060: 8d03 39bd dc54 4fbd c125 113d 913b 28bd
00000070: fd2b 773d cb11 433d efbe 02bd f97e 1e3d
00000080: 5157 1cbc 978d 393d 2229 b3bd f79d 113d
00000090: 3643 283d 0661 433d 781b e6bd 4589 b93d
000000a0: 903d 573d 95df 933d d96b 4cbd b819 8c3d
000000b0: 2b3b 7cbd c3c6 32bd bd05 463d e8e1 6fbd
000000c0: 860f b83c e80f 023c 5562 11bd 105a b23c
000000d0: 8d5f 553d 5c4a 053c 230c 043d 781d 81bc
000000e0: 79d9 d03b db50 213d be85 863c 6834 5fb9
000000f0: 1e52 1fbc 8298 2cbd fab7 d2bc 3ce6 e73c
0.0034619933 -0.045072176 0.039483465 -0.027373703 0.02129042 -0.032934897 -0.010389987 -0.014909821
-0.047378983 0.021942105 0.030930484 -0.038530573 0.056638934 -0.05180804 0.031064887 0.049864504
-0.024270492 -0.043697007 0.053900294 -0.023996595 -0.086492345 -0.030348241 0.06454761 -0.05870402
-0.045169402 -0.050618038 0.035436396 -0.041072432 0.060344685 0.04762439 -0.03192037 0.03869531
-0.009542302 0.045301046 -0.0874808 0.035551038 0.041079722 0.04769995 -0.11235708 0.09059385
0.052548945 0.07220379 -0.04990754 0.06840843 -0.061579864 -0.043646585 0.048345316 -0.05856505
0.02246834 0.007938363 -0.035494167 0.02177146 0.052093077 0.008135404 0.032238137 -0.015761122
0.006373581 0.03938375 0.016421195 -0.0002128646 -0.009724168 -0.04213763 -0.025722492 0.028308026

transformer.ln_f.weight f4 [4]
00000000: 6a0f 9d3f a4e4 9c3f 2cd8 9e3f f87b 9a3f
1.2270329 1.2257276 1.240972 1.2069082

lm_head.weight f4 [5, 4]
00000000: a100 3bbe e5c1 4dbe d13d 5a3e 9747 153e
00000010: 2987 193e d5f3 243e 609b e8bd 1b98 e6bd
00000020: 4b4d d43d 42d1 7c3d cb05 b6bd d49c e9bd
00000030: f5a6 793d 6957 e23d 8cd5 f8bd b94a b6bd
00000040: b847 1c3e ffd6 0d3e ca65 16be 8211 09be
-0.18261959 -0.20093496 0.21312644 0.1457809 0.14992966 0.1610864 -0.113577604 -0.112594806
0.10366305 0.061723 -0.08887824 -0.11406866 0.06095024 0.110518284 -0.12150106 -0.08900971
0.15261734 0.13851546 -0.14687267 -0.13385585

exp_avg f4 [5, 4]
00000000: 2006 2f3d a65a 343d 0d41 4dbd 03b0 15bd
00000010: f09b bbbb 5922 9dbb 5421 b23b 74ec a73b
00000020: e226 5abc 8b0c 71bc 961d 8b3c a92b 343c
00000030: f703 fbbb 0dc2 cbbb 974a f63b ef92 cc3b
00000040: aea6 8ebc ce66 9dbc 68a2 ab3c 014a 7e3c
0.04273045 0.04403176 -0.050110865 -0.03654481 -0.0057253763 -0.0047953543 0.005436102 0.005124623
-0.013314934 -0.014712463 0.016981881 0.0109967375 -0.0076603848 -0.006218201 0.007516216 0.006243102
-0.017413463 -0.01921406 0.020951465 0.015520574

exp_avg_sq f4 [5, 4]
00000000: 4a69 953b 3d66 b23b 49fe a23b 62ec b43b
00000010: 4505 e639 6bcf e639 0c06 dd39 641c 1f3a
00000020: 90f4 8239 e652 263a 9489 f939 5a7d 8139
00000030: 2f11 fa39 1745 7939 1007 8d39 a448 ed39
00000040: c816 0d3b 2475 413b 9178 153b ec76 3d3b
0.0045596706 0.0054443167 0.004974161 0.005521343 0.00043872945 0.00044023557 0.0004215691 0.0006069599
0.00024977745 0.000634475 0.00047595485 0.00024698192 0.0004769652 0.00023772228 0.00026898878 0.00045258284
0.0021528471 0.0029519284 0.002280746 0.0028909994

exp_avg f4 [256, 4]
00000000: e112 b137 a3fd 1db7 448c 8537 0d62 24b7
00000010: 891b 23b7 f3ba 7cb7 1326 82b6 da90 6fb7
00000020: db8d 2eb9 96d2 88b8 590e 9c38 df1b 1b39
00000030: 9a42 d2b5 b226 2537 d0db 7f37 473a 7936
00000040: 51b9 9237 c2ef 7037 4b40 afb7 07a0 6bb7
00000050: 96bb adb7 859d b1b7 44f1 0338 5811 3737
00000060: 550e 95b6 be30 34b7 8ef1 0437 25de bc36
00000070: d39d c236 a774 8837 ed9a 8937 d128 ceb6
00000080: a6ea b5b6 ed3a db34 050d 1cb7 7399 eb36
00000090: ca64 53b8 22e1 2736 319a 10b6 2d93 5938
000000a0: 5cff 6037 836a a0b7 41fd 5b37 4561 06b7
000000b0: af72 d6b6 1fa6 0737 01d4 a736 3ea0 0cb7
000000c0: 842e 70b7 3eba e7b6 bfe0 28b7 aeb7 bc37
000000d0: ab00 43b9 784a 02b9 41e3 c238 45fc 6f39
000000e0: 4a5e bdb5 b2b5 6536 03ef 5036 3c90 f0b5
000000f0: 7591 4fb9 cbbf 82b9 d042 3239 bbe4 8e39
00000100: 87fd 5637 af05 bcb6 d200 c8b7 15ad aa37
00000110: 50ca 2db6 605d d6b6 c663 8737 d08e 9b36
00000120: b78e 3e36 fb3b 53b7 7d3d 7935 967d 7337
00000130: 6d20 3cb6 2d56 abb6 dc8f e336 a2fb ee35
00000140: eda1 0937 8fa2 8537 d7e2 bbb6 d7fd 0fb7
00000150: dc0e 1f36 1edc 65b5 ae5a e3b6 8749 4b37
00000160: 8154 c4b5 a1fc bab4 8a94 05b7 73d0 1337
00000170: 9ac2 c2b5 6fe4 c5b6 9b61 7d35 2efc 5335
00000180: 0246 47b7 3549 c436 464d 4437 ee92 86b6
00000190: bb53 92b6 0e77 41b7 c2ef 50b6 3c76 3937
000001a0: 98b5 4b36 42af 4ab7 98ce 0637 8bb4 8236
000001b0: d517 c036 b04f 07b6 5b02 abb6 7199 bf36
000001c0: e274 42b5 fe37 02b5 ca93 2336 a032 0cb7
000001d0: fa7b 9cb7 16c3 7337 2299 4836 4427 2eb7
000001e0: e21c 95b7 c71d 4db5 a50c 73b6 fb06 8c36
000001f0: 512c b6b5 18d6 5436 8e00 2fb4 fc3c a7b5
00000200: b844 33b4 50db 8a36 5fb4 b4b6 7e82 59b6
00000210: cbef 90b7 8781 0eb8 4267 e737 d77d b237
00000220: e92c 56b7 d9e4 1337 58cb ecb6 065d 3537
00000230: d4ee c9b6 adee 0ab6 677c b134 0f7d 2936
00000240: 470b 02b7 f060 3d36 831e 6a36 2bc9 d735
00000250: 8368 5436 2c05 94b5 bf15 2fb6 3acf aab6
00000260: 3f3a 09b7 7031 fc36 7e4a b836 c74a 57b6
00000270: 0c2b f6b5 363a afb5 00d2 91b6 e2b3 3436
00000280: 5cb9 b736 619d d236 50b8 b3b6 e2dd a836
00000290: 2af1 9cb5 8cf4 4536 b70c 4e37 bea7 6bb7
000002a0: 6a57 5eb7 6608 c936 d2b9 92b6 9f6b 2b37
000002b0: 64d7 e336 e8fa 8cb7 fdca acb6 ea64 a137
000002c0: 1a47 02b6 3365 fb35 c0b7 a5b6 117f 1037
000002d0: 4138 1837 3b64 bab7 785d e336 adb4 7ab7
000002e0: 284b 82b5 2664 c836 b479 f036 eef8 6ab7
000002f0: 0c44 f4b6 9cd8 0fb6 bac9 ceb6 37d2 2c37
00000300: 9bb7 8f36 2c5b 06b6 f49f 9db6 2217 d736
00000310: 4b30 a536 6817 a9b6 a805 c135 a24f 8336
00000320: 1dc7 1cb7 e935 b7b6 00d2 6837 0cb3 16b6
00000330: 8be6 c9b6 afb4 fd36 34a0 2db6 c816 8035
00000340: 2687 9bb6 8b29 3136 bfc3 91b7 cc23 cf36
00000350: 2003 c9b6 fe8b e9b4 edf4 bdb6 c32c f536
00000360: 1b19 d9b7 16dd c1b7 eb39 b836 0dc5 4d38
00000370: 3893 7eb6 1243 85b4 ae25 1cb6 fe5b f436
00000380: 71c9 9836 6537 bdb6 d556 dd35 486b 4135
00000390: bade 9e37 ee57 97b7 e920 9337 b101 5bb7
000003a0: 8d6c eab3 2fe0 5a35 9ed4 3136 61bd 5cb7
000003b0: 9587 65b7 380f 6135 3c7a 16b5 100d 4936
000003c0: e110 4e36 cc51 5237 a9d5 bf34 e32f 08b7
000003d0: 45df 5836 154f 76b6 38d6 0237 1e6e 97b7
000003e0: 316f ef35 bb90 af33 2a23 8336 60c7 8bb7
000003f0: c4d4 b035 d837 e036 a28d 14b7 16b8 08b7
2.1108835e-05 -9.416984e-06 1.5920152e-05 -9.797991e-06 -9.721968e-06 -1.5063898e-05 -3.8787343e-06 -1.4279236e-05
-0.00016646778 -6.52421e-05 7.441332e-05 0.00014792335 -1.5665603e-06 9.843776e-06 1.52503635e-05 3.7137813e-06
1.7490851e-05 1.4360938e-05 -2.0891564e-05 -1.4044351e-05 -2.0710559e-05 -2.1173395e-05 3.145753e-05 1.0911688e-05
-4.4422145e-06 -1.0740185e-05 7.924054e-06 5.6286976e-06 5.8000237e-06 1.6266784e-05 1.6403816e-05 -6.14403e-06
-5.421537e-06 4.0834803e-07 -9.301356e-06 7.0214096e-06 -5.0400187e-05 2.5015984e-06 -2.1547423e-06 5.18739e-05
1.3410896e-05 -1.9123085e-05 1.31123825e-05 -8.00967e-06 -6.391048e-06 8.085305e-06 5.0016683e-06 -8.38196e-06
-1.4315945e-05 -6.906018e-06 -1.0065908e-05 2.2496879e-05 -0.00018596898 -0.00012425508 9.29297e-05 0.00022886794
-1.4109039e-06 3.422942e-06 3.1133538e-06 -1.7923371e-06 -0.00019795245 -0.0002493843 0.00017000292 0.00027254768
1.2814423e-05 -5.6034983e-06 -2.384224e-05 2.0346177e-05 -2.589677e-06 -6.3885673e-06 1.6139715e-05 4.6359855e-06
2.8395277e-06 -1.2590545e-05 9.2849206e-07 1.4513169e-05 -2.8033057e-06 -5.1062293e-06 6.7818746e-06 1.7805617e-06
8.203538e-06 1.5930533e-05 -5.599442e-06 -8.582566e-06 2.3701496e-06 -8.562946e-07 -6.7756837e-06 1.2116862e-05
-1.4627732e-06 -3.4829011e-07 -7.962002e-06 8.810416e-06 -1.4510763e-06 -5.8976507e-06 9.439188e-07 7.8970595e-07
-1.1877624e-05 5.8497776e-06 1.1700502e-05 -4.010616e-06 -4.3608866e-06 -1.1531416e-05 -3.1133973e-06 1.1054388e-05
3.0355059e-06 -1.2080944e-05 8.035124e-06 3.89532e-06 5.7248203e-06 -2.0162952e-06 -5.0964713e-06 5.7101065e-06
-7.244072e-07 -4.8510253e-07 2.4374917e-06 -8.356437e-06 -1.865438e-05 1.4529351e-05 2.9891457e-06 -1.038035e-05
-1.7775634e-05 -7.6411783e-07 -3.6217182e-06 4.1731378e-06 -1.3572954e-06 3.171508e-06 -1.6298347e-07 -1.2460218e-06
-1.6695674e-07 4.138252e-06 -5.385416e-06 -3.2411476e-06 -1.72778e-05 -3.397607e-05 2.7585429e-05 2.1277852e-05
-1.276585e-05 8.8151655e-06 -7.0570204e-06 1.0810099e-05 -6.01807e-06 -2.070253e-06 3.3059334e-07 2.5255756e-06
-7.7512295e-06 2.821962e-06 3.4886477e-06 1.6077296e-06 3.1651296e-06 -1.1028364e-06 -2.608969e-06 -5.090519e-06
-8.179398e-06 7.5159405e-06 5.4922994e-06 -3.2081023e-06 -1.8340957e-06 -1.3055458e-06 -4.345784e-06 2.6926796e-06
5.4754037e-06 6.276809e-06 -5.3560725e-06 5.0326207e-06 -1.1693094e-06 2.9497633e-06 1.2281517e-05 -1.4046147e-05
-1.3252584e-05 5.9912445e-06 -4.3727714e-06 1.0217452e-05 6.790202e-06 -1.6806138e-05 -5.1496304e-06 1.9239687e-05
-1.9412896e-06 1.873041e-06 -4.9387745e-06 8.612654e-06 9.073004e-06 -2.2219601e-05 6.7760084e-06 -1.4943228e-05
-9.707628e-07 5.9721233e-06 7.1667255e-06 -1.4005445e-05 -7.2796884e-06 -2.1434744e-06 -6.1627625e-06 1.0300943e-05
4.2831066e-06 -2.0020625e-06 -4.6975856e-06 6.4101923e-06 4.9230052e-06 -5.0393173e-06 1.4381267e-06 3.9133747e-06
-9.344684e-06 -5.460101e-06 1.3877172e-05 -2.245596e-06 -6.0171055e-06 7.561022e-06 -2.587226e-06 9.543373e-07
-4.6350933e-06 2.6399237e-06 -1.7376498e-05 6.173248e-06 -5.9906306e-06 -4.350149e-07 -5.661152e-06 7.30678e-06
-2.5880106e-05 -2.3110344e-05 5.49037e-06 4.9059327e-05 -3.7934642e-06 -2.482198e-07 -2.3267744e-06 7.282476e-06
4.553404e-06 -5.6390877e-06 1.6491055e-06 7.205422e-07 1.8938783e-05 -1.8041548e-05 1.753909e-05 -1.3053811e-05
-1.09162194e-07 8.153756e-07 2.6498815e-06 -1.3157115e-05 -1.3681031e-05 8.384118e-07 -5.605723e-07 2.9958937e-06
3.0706217e-06 1.253602e-05 3.573198e-07 -8.117381e-06 3.2316468e-06 -3.6702888e-06 7.7984805e-06 -1.805188e-05
1.7839249e-06 8.175399e-08 3.908198e-06 -1.6662932e-05 1.3174945e-06 6.6822213e-06 -8.854464e-06 -8.1490925e-06

exp_avg_sq f4 [256, 4]
00000000: c9f5 c333 5bfe 8c33 b306 ad33 8b99 4d32
00000010: d00d 8b33 cdbe 0234 6ed1 6833 8e4d dd33
00000020: e91b b035 3542 ea34 a480 e234 79c7 b235
00000030: accd 0434 3ed0 0034 25e2 4133 8b49 9734
00000040: 35d7 1c32 d360 1e33 2f06 fe32 d0dc 4432
00000050: 473f 2f34 5155 e933 e90c c633 39e4 1b34
00000060: fba7 8f32 8a7c 2a33 e9b6 c232 8476 9432
00000070: 0c28 e435 2036 5535 363a 8f34 ec18 3c36
00000080: d257 b432 b027 3334 bb1c 8a33 0341 6c33
00000090: c036 5934 5035 de33 f9f7 ad33 e62e c334
000000a0: ee57 8932 25ab cf33 4dca 1433 a904 4233
000000b0: 6cdd a733 9f7c 1834 1a3d 1a33 0db7 1533
000000c0: 19bd 8833 6d26 b433 b01b c033 99a5 d832
000000d0: 60cb c433 6404 d233 f7bb 8933 7d56 1d34
000000e0: 5c8f 4f33 6b2c 0234 9233 7033 37a9 8f33
000000f0: 09f0 ca33 46a8 4f34 7655 a033 15c6 0034
00000100: 2056 7333 6028 6733 3c36 5233 e524 e033
00000110: f94e ad34 72f8 8933 1fda 7c33 da28 4a35
00000120: 458e 2a33 ecb1 6f32 14df 4632 0121 0333
00000130: 3133 2d33 1765 6533 88af 3e33 8c87 1033
00000140: d279 d832 d5a5 1a33 b754 4633 b0d8 a432
00000150: 2836 5c34 96d0 0134 c977 8d33 afbc 4534
00000160: c13a cd32 0fdf 7733 6314 3433 5127 2633
00000170: a65d 9533 2477 a633 814a 4533 fce2 bf33
00000180: 3a28 1e34 99f2 be33 0e81 d933 f6f7 d933
00000190: 090c a933 61cc a934 9f2c ca33 38ba 1535
000001a0: 5e8c 9234 043b 1c34 3efb 9333 6b6e 6933
000001b0: 70ec 0d34 9d47 ae34 7092 9b33 c35b a634
000001c0: ed77 0d33 7b18 1f33 fc73 1633 cde0 6133
000001d0: f819 0334 aa5f fb32 af5d 4333 2a48 f433
000001e0: 2ed1 0433 19d6 9333 fd28 2c33 9cf2 2433
000001f0: 35b6 a232 1792 7e33 f562 0b33 c702 5132
00000200: 943e d233 3fba 7534 d586 4033 6e12 d634
00000210: 71ca 2d33 ca28 e133 5f87 7633 6448 4f33
00000220: f0b5 8532 4e3c a733 3e71 1633 b2d5 0932
00000230: aeb2 e332 95ab 7833 f5ab 6d33 eba5 2d33
00000240: 9e97 f933 34ef 6734 0f73 8c33 d886 bf34
00000250: ca87 0f33 3943 6033 2b6a 0933 9ba4 0c33
00000260: 4ebc 1633 73fb a832 ca04 2a33 8c85 7933
00000270: f724 6833 9918 0234 dafe 2a33 69af 4133
00000280: 03ae 1d32 55ff 1833 1414 0a33 d7bd a531
00000290: 179e bc33 c179 0034 6fa7 8133 09b6 b533
000002a0: 0923 9232 9fb9 e632 397f 9632 901d c032
000002b0: 90c4 5234 aafe 0a34 9671 0d34 38c4 6734
000002c0: 13c1 3434 9945 0834 0c5e 8b33 35da 6334
000002d0: 2e97 4035 41b4 d533 8e5e e432 835e ad35
000002e0: 814f 8b32 597e 9b32 1e7e cd32 00a2 6132
000002f0: 839a f834 7799 9734 c30e e733 e73b ce35
00000300: 77c0 9c32 0306 9433 bc5b 4c33 46b5 7c33
00000310: a6cd e532 1c3d 3833 86dc 5133 d3b5 1333
00000320: 8713 1c33 5995 2834 d143 5a33 b37d 8233
00000330: 8c4e 9733 9835 9f32 7cbf 5033 8a1d be32
00000340: 5dd7 ad33 f60b d933 6652 2f33 489f 8f33
00000350: 3b01 7733 0029 1534 c327 5133 cb24 4634
00000360: f07b e833 9cec 1b34 6d06 7f33 8ed9 7834
00000370: ad7d 5f33 d9bf 7333 460a 8533 4b19 2033
00000380: 6ced 6732 8534 8633 b14c e932 9b8d e931
00000390: 90bd ae32 efb0 f932 e0e4 1333 129a 0f33
000003a0: 9805 bd33 5230 d333 7996 1e33 b7b6 f532
000003b0: b0e6 e633 6f14 4234 3612 1534 61d0 cd33
000003c0: 13b4 9933 8069 9233 b434 fe32 cfd9 cd33
000003d0: 710a 1633 1178 5933 7e09 0333 1c8a 9932
000003e0: 8afa 3233 05e5 0634 6367 4133 fa5c cc33
000003f0: 83c9 af33 ca32 bf33 9e19 a833 dc72 8c33
9.125103e-08 6.565525e-08 8.057159e-08 1.1967482e-08 6.4752044e-08 1.2176606e-07 5.4207185e-08 1.03052216e-07
1.3121145e-06 4.3634068e-07 4.218938e-07 1.3320088e-06 1.2368281e-07 1.1996687e-07 4.514199e-08 2.817945e-07
9.1293275e-09 3.6875303e-08 2.9572304e-08 1.14589085e-08 1.6321165e-07 1.0865427e-07 9.222442e-08 1.4518527e-07
1.672378e-08 3.9694477e-08 2.266775e-08 1.7283362e-08 1.6998979e-06 7.9427446e-07 2.667818e-07 2.802869e-06
2.0994694e-08 1.6685112e-07 6.431352e-08 5.500716e-08 2.0229618e-07 1.0347378e-07 8.101046e-08 3.6355704e-07
1.5988885e-08 9.67032e-08 3.4642927e-08 4.5173383e-08 7.81682e-08 1.420144e-07 3.591149e-08 3.485825e-08
6.36739e-08 8.388893e-08 8.945733e-08 2.5221015e-08 9.163955e-08 9.779686e-08 6.41375e-08 1.4653229e-07
4.8326328e-08 1.2123353e-07 5.5926257e-08 6.6897364e-08 9.45002e-08 1.9339595e-07 7.466126e-08 1.1992991e-07
5.6656177e-08 5.38206e-08 4.894376e-08 1.0437524e-07 3.228122e-07 6.4247516e-08 5.8871702e-08 7.531031e-07
3.9710603e-08 1.3952086e-08 1.1575839e-08 3.053083e-08 4.032626e-08 5.3410158e-08 4.4397467e-08 3.3650892e-08
2.5201107e-08 3.6006742e-08 4.6177515e-08 1.919065e-08 2.0508799e-07 1.2089944e-07 6.587613e-08 1.8415697e-07
2.389186e-08 5.771204e-08 4.1928057e-08 3.8685645e-08 6.955388e-08 7.751649e-08 4.5935398e-08 8.935419e-08
1.4729531e-07 8.891693e-08 1.0128325e-07 1.0149954e-07 7.871865e-08 3.1627408e-07 9.4144745e-08 5.577781e-07
2.729675e-07 1.4550102e-07 6.8909216e-08 5.4349965e-08 1.3217664e-07 3.246213e-07 7.244387e-08 3.0986675e-07
3.2938193e-08 3.7042337e-08 3.5030084e-08 5.259135e-08 1.2209773e-07 2.9263749e-08 4.548718e-08 1.1375262e-07
3.0923893e-08 6.884165e-08 4.008415e-08 3.8404878e-08 1.894214e-08 5.927185e-08 3.245346e-08 1.2166033e-08
9.79027e-08 2.2885159e-07 4.4826113e-08 3.9874016e-07 4.046382e-08 1.04847985e-07 5.7399458e-08 4.8261782e-08
1.5565973e-08 7.787513e-08 3.502759e-08 8.023038e-09 2.6507532e-08 5.7898053e-08 5.5337257e-08 4.0430603e-08
1.1622545e-07 2.1600573e-07 6.540187e-08 3.5674634e-07 3.341828e-08 5.2215203e-08 3.1994357e-08 3.2745998e-08
3.509586e-08 1.967212e-08 3.9585565e-08 5.809629e-08 5.405033e-08 1.2116142e-07 3.9812996e-08 4.509585e-08
9.1781684e-09 3.562248e-08 3.214889e-08 4.8237143e-09 8.7831886e-08 1.1965223e-07 6.0374866e-08 8.461581e-08
1.701257e-08 2.6859935e-08 1.7520152e-08 2.2365185e-08 1.9629283e-07 1.2944898e-07 1.317297e-07 2.1584935e-07
1.6834046e-07 1.2691306e-07 6.489799e-08 2.1220406e-07 7.174557e-07 9.9513734e-08 2.6585692e-08 1.2917011e-06
1.6217884e-08 1.8101831e-08 2.3922492e-08 1.3133558e-08 4.6306022e-07 2.8237602e-07 1.0759461e-07 1.536563e-06
1.8248313e-08 6.8928806e-08 4.7580883e-08 5.883819e-08 2.6752627e-08 4.2896417e-08 4.886217e-08 3.4391473e-08
3.633934e-08 1.5700552e-07 5.081876e-08 6.076461e-08 7.045773e-08 1.8534408e-08 4.8602928e-08 2.2132344e-08
8.0951146e-08 1.01070256e-07 4.0820304e-08 6.6879295e-08 5.7510288e-08 1.3891622e-07 4.8697768e-08 1.8453572e-07
1.0825886e-07 1.4521578e-07 5.937766e-08 2.3175946e-07 5.2035535e-08 5.675233e-08 6.195164e-08 3.7275907e-08
1.3499953e-08 6.2494145e-08 2.7159645e-08 6.797291e-09 2.0342469e-08 2.9067875e-08 3.4434265e-08 3.3434908e-08
8.802016e-08 9.8342426e-08 3.6924096e-08 2.8604843e-08 1.07521714e-07 1.8075092e-07 1.3883331e-07 9.58396e-08
7.157373e-08 6.817845e-08 2.9593458e-08 9.5856755e-08 3.4934093e-08 5.063345e-08 3.0509447e-08 1.787435e-08
4.167172e-08 1.256304e-07 4.5030344e-08 9.5164026e-08 8.185727e-08 8.903369e-08 7.8277694e-08 6.540151e-08

exp_avg f4 [12, 4]
00000000: 99cb 2337 b683 3137 de52 49b7 d689 07b7
00000010: 9e8c e134 35fc dd34 8cbf 07b5 3244 aab4
00000020: bb99 65b6 f370 69b6 4dcf 8836 055c 3736
00000030: 8e5e afb7 5ba9 bcb7 7714 de37 645f 8937
00000040: 6f3c 18b7 9372 3cb7 75d9 3c37 e05b 1337
00000050: abaf b9b4 bb02 84b4 aa11 bf34 a851 7434
00000060: 61b0 ac36 9139 8536 b38d a3b6 45d2 89b6
00000070: c7ae a937 7f4b 9837 ef1c cfb7 339e 5db7
00000080: 544a 3fb9 6aae 32b9 cae6 3239 ae8c 3939
00000090: 1af5 19b8 0273 fcb7 a908 0938 52e2 0a38
000000a0: 9f2d 08b9 fcab e2b8 eb2a f738 da61 f438
000000b0: 448e 82b9 fc1d 5eb9 a5d7 7039 0b0d 6b39
9.762961e-06 1.05806885e-05 -1.1999828e-05 -8.0787195e-06 4.2011828e-07 4.1347963e-07 -5.0570156e-07 -3.1714586e-07
-3.4213142e-06 -3.478545e-06 4.077249e-06 2.7322687e-06 -2.0905656e-05 -2.2490209e-05 2.6473992e-05 1.6376092e-05
-9.073977e-06 -1.123235e-05 1.1256304e-05 8.783274e-06 -3.458675e-07 -2.4588903e-07 3.5589375e-07 2.2753977e-07
5.1465327e-06 3.9704105e-06 -4.8742745e-06 -4.1073968e-06 2.0227757e-05 1.8154968e-05 -2.4689796e-05 -1.320946e-05
-0.00018242869 -0.00017040377 0.00017061378 0.00017695382 -3.670631e-05 -3.0094296e-05 3.267141e-05 3.311254e-05
-0.00012986966 -0.00010808554 0.00011785872 0.00011653053 -0.00024901528 -0.0002118274 0.00022968517 0.00022416205

exp_avg_sq f4 [12, 4]
00000000: edc9 9a30 c0da aa30 b6e6 f530 b891 3030
00000010: 5aa2 0e2c 3ddf 122c 94cb 5d2c 98e5 dc2b
00000020: 0d69 f12e 7e01 082f e406 402f 33f5 902e
00000030: 7428 e831 87e8 0632 61ce 4132 e421 8331
00000040: fae4 a030 74c4 ad30 9bb5 e630 2ae7 3930
00000050: 261e b12b 8b44 3b2b 65c1 a22b b720 452b
00000060: 55e2 9c2f 6162 492f f479 9a2f f505 3f2f
00000070: 3488 e431 771b a031 5780 fb31 7293 8331
00000080: 523c e334 f193 cd34 6979 6934 7c55 4335
00000090: 0daa 0734 6b48 a733 0b72 6432 7dff f734
000000a0: cf8d 1035 f545 e534 5976 2034 2768 9d35
000000b0: 9541 4e35 3a76 3235 3f5e cf34 78c5 9935
1.1262365e-09 1.24313e-09 1.7891668e-09 6.4235506e-10 2.0269537e-12 2.087177e-12 3.1518997e-12 1.5695665e-12
1.0978072e-10 1.2369658e-10 1.7464746e-10 6.591918e-11 6.7566877e-09 7.852697e-09 1.1281004e-08 3.8164547e-09
1.1706611e-09 1.2643242e-09 1.6786318e-09 6.763111e-10 1.2584974e-12 6.653087e-13 1.156447e-12 7.003386e-13
2.8537053e-10 1.8315795e-10 2.809909e-10 1.7373465e-10 6.651158e-09 4.6597353e-09 7.319652e-09 3.8293644e-09
4.2325934e-07 3.8291867e-07 2.1743985e-07 7.2767557e-07 1.2634719e-07 7.789716e-08 1.3297277e-08 4.6193227e-07
5.385054e-07 4.2705474e-07 1.4944216e-07 1.1727724e-06 7.6836415e-07 6.648221e-07 3.8625328e-07 1.1456859e-06

exp_avg f4 [4, 4]
00000000: 4fcf 55b9 23bd 40b8 a205 0bb9 bc3e 64b9
00000010: 17b5 a5b9 6694 a2b8 e615 74b9 e6e4 c1b9
00000020: 80ca e538 471e b537 6128 9b38 0888 ea38
00000030: 9003 9c39 0751 9838 f3ac 5839 0c04 af39
-0.00020390491 -4.5952514e-05 -0.00013258171 -0.00021767145 -0.00031606175 -7.752403e-05 -0.00023277811 -0.0003698237
0.000109572895 2.159098e-05 7.398497e-05 0.00011183327 0.00029757293 7.263017e-05 0.00020663794 0.00033381616

exp_avg_sq f4 [4, 4]
00000000: 0ff8 a735 0655 b634 f0f3 c135 cbfd c235
00000010: 3efd 8c35 b9b4 3135 be1d 1236 65af 8135
00000020: 1878 d234 e561 8234 ffdd 4135 847a c234
00000030: a58f 0836 0382 6435 c3a2 5736 51c7 0c36
1.2514664e-06 3.3962004e-07 1.4450616e-06 1.452799e-06 1.0504516e-06 6.6200624e-07 2.1773008e-06 9.662295e-07
3.9202928e-07 2.4285615e-07 7.222115e-07 3.6224458e-07 2.0349191e-06 8.512581e-07 3.2132236e-06 2.0977643e-06

exp_avg f4 [16, 4]
00000000: 5900 9db8 216b 67b6 b8e2 4cb7 9ede bd38
00000010: 11e6 31b8 106d b1b7 ef05 91b8 7ea7 0a39
00000020: 59a5 3938 23bb 54b7 20ab 9c37 92b7 52b8
00000030: 1440 a1b8 c37c 6736 a9bf 7938 b1e6 7137
00000040: 18db a137 2620 a7b7 72ed 0e38 687b 0bb8
00000050: 0e12 1e38 61aa 41b8 f5a5 8e38 fd0d 78b8
00000060: 7c88 3239 b559 0139 834e 4db9 6e58 d0b8
00000070: 20a5 beb8 5335 1437 6985 9737 6fc6 8638
00000080: 9bb2 f637 9dba c7b7 b950 1138 6033 28b8
00000090: a9cc 8c38 02cc 68b6 67db fcb7 dd11 0eb8
000000a0: c8c7 9638 fb87 86b8 15f9 0db8 64ae d637
000000b0: 1dfa bcb7 110b fa36 32a5 86b7 9e33 0238
000000c0: 6f44 41b8 c2e0 8136 6022 5cb7 26ca 6738
000000d0: 874c 05b8 900d c0b6 ed35 83b7 09a0 5e38
000000e0: 191a 0736 d9d4 40b6 6a38 1834 77bc 3f35
000000f0: 1e9a 50b8 5a4a ad36 911e f2b6 8c50 5938
-7.486408e-05 -3.448404e-06 -1.2212135e-05 9.053688e-05 -4.2414355e-05 -2.115083e-05 -6.915244e-05 0.00013223101
4.426143e-05 -1.2679756e-05 1.8676335e-05 -5.0238865e-05 -7.689014e-05 3.4494303e-06 5.9544724e-05 1.4418431e-05
1.929472e-05 -1.9922922e-05 3.4076576e-05 -3.3255114e-05 3.768695e-05 -4.6173463e-05 6.8019996e-05 -5.9140835e-05
0.00017026247 0.00012335817 -0.00019579571 -9.934684e-05 -9.090663e-05 8.833903e-06 1.8062727e-05 6.426579e-05
2.9408655e-05 -2.3809547e-05 3.4645873e-05 -4.0102168e-05 6.713841e-05 -3.4689442e-06 -3.0142908e-05 -3.3872075e-05
7.1897695e-05 -6.414946e-05 -3.3848995e-05 2.5591995e-05 -2.2527815e-05 7.451869e-06 -1.605097e-05 3.1042488e-05
-4.607852e-05 3.870665e-06 -1.3121025e-05 5.5262957e-05 -3.1780943e-05 -5.723625e-06 -1.5641528e-05 5.307797e-05
2.0131758e-06 -2.8734123e-06 1.4176626e-07 7.1427297e-07 -4.9734597e-05 5.1644574e-06 -7.2157204e-06 5.1811847e-05

exp_avg_sq f4 [16, 4]
00000000: 9a5d b533 4c5b 1833 f72d 0e33 3cca ad33
00000010: f5d0 e832 2802 0b33 9a09 2433 ad03 8533
00000020: 1989 1e33 d59a 9d32 1470 6633 6e66 0034
00000030: 661d 6f32 3677 2b32 dbb3 9c32 6650 be32
00000040: abc3 6633 8720 bb32 3747 2133 e7d8 ad33
00000050: 9f38 2333 c0b2 b432 64a5 ca32 d108 4133
00000060: 9594 2733 e9df 8233 94fc ae33 5c7d 3e33
00000070: 734d b333 5916 2d33 3e6b ad32 32c0 d232
00000080: c617 f532 4fbd 5e32 77c3 e232 585e 7833
00000090: 8025 9c32 b388 5032 2a26 b632 74ac 1c33
000000a0: cdde ab32 e949 0c33 658c b732 78dc f232
000000b0: 74f2 6a33 d9dd a332 15cf 3733 e65e 1e34
000000c0: 4c8b a033 3008 8e32 d416 1833 0fa6 f633
000000d0: 5c59 8932 da19 fe31 509a 2b32 face e632
000000e0: aed0 9332 956b a131 d212 ca32 14ce 6f33
000000f0: 129b 1133 2ae1 7f32 5832 2c32 a519 b232
8.445495e-08 3.5473292e-08 3.3103756e-08 8.0927265e-08 2.7103377e-08 3.236542e-08 3.8192958e-08 6.193964e-08
3.691193e-08 1.8347615e-08 5.3652983e-08 1.1958193e-07 1.3918315e-08 9.9806154e-09 1.8242579e-08 2.2155472e-08
5.3729007e-08 2.1784457e-08 3.7550503e-08 8.0953946e-08 3.800289e-08 2.1036044e-08 2.3591106e-08 4.4944333e-08
3.9017852e-08 6.094326e-08 8.14845e-08 4.4351836e-08 8.349425e-08 4.0300026e-08 2.0188619e-08 2.4534618e-08
2.8532565e-08 1.29651445e-08 2.639875e-08 5.7827805e-08 1.8177843e-08 1.2138275e-08 2.1204944e-08 3.6478426e-08
2.0008338e-08 3.266351e-08 2.1367848e-08 2.8272765e-08 5.470288e-08 1.9076582e-08 4.2796348e-08 1.474942e-07
7.4759186e-08 1.6534699e-08 3.541102e-08 1.14854736e-07 1.5989535e-08 7.395312e-09 9.988597e-09 2.6869646e-08
1.7207949e-08 4.6979474e-09 2.3524453e-08 5.583395e-08 3.390148e-08 1.489415e-08 1.00231645e-08 2.0733589e-08

exp_avg f4 [4, 16]
00000000: ae32 c138 d036 a338 b127 88b8 643a 8e38
00000010: 52a8 e3b7 f149 00b8 3503 7db9 6840 e138
00000020: 28a8 6bb8 fcd3 a2b8 d32a d7b8 bfad f037
00000030: 5cd3 8438 4f3b 8038 deb0 b335 1b50 bf38
00000040: 5129 9eb8 a7a4 b2b8 30b2 3438 d394 d2b7
00000050: 747b 1d38 fdf5 a938 5196 cbb8 9022 85b8
00000060: 57cb 9638 c195 b137 99f2 dc37 78bd 33b8
00000070: 25b2 91b8 a895 9bb8 629b 6f36 de5f 84b8
00000080: e630 bd37 9a2b a638 a4c6 3db7 3c1d 6ab8
00000090: 0f6d c6b7 cefa 9eb8 02c0 d938 dc81 c3b7
000000a0: de10 2cb8 bd8c e737 73a5 d838 185d dc37
000000b0: 0cad aa37 67e0 5e38 25d9 0db5 23d6 2b37
000000c0: ccce 06b8 b428 94b8 3e25 b537 5bca c837
000000d0: 7e6c 1c37 e8d9 d637 e988 4839 f8ae 39b7
000000e0: 6de3 9037 7f3c 8137 a5f0 21b8 2be4 06b7
000000f0: 177b bbb6 54ff 10b8 dfb8 8cb6 55dc 05b8
9.212397e-05 7.782655e-05 -6.4923785e-05 6.781964e-05 -2.7138889e-05 -3.058644e-05 -0.00024129155 0.00010740833
-5.6184974e-05 -7.764247e-05 -0.000102599755 2.8691136e-05 6.333619e-05 6.114563e-05 1.3388014e-06 9.1225105e-05
-7.541723e-05 -8.51837e-05 4.3081294e-05 -2.5103252e-05 3.754669e-05 8.104367e-05 -9.707793e-05 -6.348372e-05
7.1904324e-05 2.1169779e-05 2.6339012e-05 -4.2853382e-05 -6.947321e-05 -7.4188516e-05 3.570422e-06 -6.312107e-05
2.2553326e-05 7.923618e-05 -1.13115275e-05 -5.5817174e-05 -2.3654224e-05 -7.580743e-05 0.000103831306 -2.3306282e-05
-4.1023704e-05 2.7602882e-05 0.000103305 2.6269394e-05 2.034616e-05 5.3137916e-05 -5.284258e-07 1.0242252e-05
-3.2140684e-05 -7.0647715e-05 2.1594224e-05 2.3936087e-05 9.323585e-06 2.5612258e-05 0.0001912449 -1.1067597e-05
1.7272041e-05 1.5406169e-05 -3.860951e-05 -8.040147e-06 -5.587364e-06 -3.457007e-05 -4.193847e-06 -3.191487e-05

exp_avg_sq f4 [4, 16]
00000000: c258 7e33 32c1 0233 5915 0833 e6bc 5933
00000010: 9b76 1f33 1936 1433 3263 2834 5246 ea33
00000020: 9efa 5233 da43 e532 dd54 4134 c865 0e33
00000030: 209d d133 4d60 7633 c79f ea31 d26d e833
00000040: 3d0a 4d34 f2af 9f32 e5e0 0834 0c9c 1d33
00000050: a6ca 4a33 60cf 4633 a62d eb33 d855 b933
00000060: 1a68 9b34 ac43 a633 b051 6333 083a e334
00000070: 2ecd f434 90b3 9b34 bba7 3034 a76e 1f34
00000080: 31a1 6933 fd68 1833 e44c 7533 e181 5d32
00000090: b2fa 1833 32ab 2a33 214c 7333 2e06 6432
000000a0: 15d7 3334 fb6a 5d33 7659 8633 0e12 8634
000000b0: d15f fd33 93e5 7f34 105e ab33 a627 6833
000000c0: 61af 5233 5dc2 8933 a935 a333 d6d5 2933
000000d0: 737c 8833 0fbe 7d33 5028 9134 2344 4e33
000000e0: bcf1 9133 9f68 1a33 b4af a133 9ef4 c233
000000f0: a5d4 a233 d93e dd33 1b34 fe32 d4eb 7034
5.921971e-08 3.0443694e-08 3.1684383e-08 5.0696052e-08 3.7127943e-08 3.4508137e-08 1.5682306e-07 1.0909265e-07
4.912237e-08 2.6689964e-08 1.8005399e-07 3.315452e-08 9.760902e-08 5.7363923e-08 6.828461e-09 1.0823318e-07
1.9095837e-07 1.8590047e-08 1.2747803e-07 3.6696335e-08 4.7216098e-08 4.6289074e-08 1.0951344e-07 8.630349e-08
2.8946744e-07 7.742287e-08 5.292685e-08 4.2324268e-07 4.559783e-07 2.900165e-07 1.6452297e-07 1.4848284e-07
5.4396143e-08 3.5485744e-08 5.711344e-08 1.2893424e-08 3.5618264e-08 3.973691e-08 5.6647085e-08 1.3272752e-08
1.674892e-07 5.155287e-08 6.256134e-08 2.4972582e-07 1.17986595e-07 2.3832244e-07 7.979918e-08 5.405277e-08
4.905394e-08 6.414914e-08 7.60004e-08 3.954286e-08 6.355631e-08 5.907901e-08 2.7037686e-07 4.8025083e-08
6.79606e-08 3.595107e-08 7.529107e-08 9.0783246e-08 7.582393e-08 1.03025464e-07 2.9593187e-08 2.2437536e-07

exp_avg f4 [12, 4]
00000000: d22e a636 1f51 b336 1a8b 01b7 6c63 2ab6
00000010: 2777 ff36 e586 0437 1edc 41b7 f8f0 82b6
00000020: d364 f436 5616 0037 8da8 36b7 a140 85b6
00000030: f0db ba36 c439 c936 e878 0db7 5e1c 4fb6
00000040: 747c 9bb6 2d56 a0b6 e4ea cb36 3738 5c36
00000050: 76c4 06b7 136e 00b7 a12f 2937 5efe b836
00000060: 4c8f ecb6 3e8b 05b7 3e56 2037 d20d b436
00000070: 6190 acb6 9521 d1b6 6f78 0337 e3e7 6936
00000080: 64dc 0139 1b8d 1439 139c 10b9 9787 03b9
00000090: e2a4 16b9 d93c 26b9 75e6 2339 fc57 1639
000000a0: 4f60 fab8 ad3d 11b9 fbd9 0939 1d71 0239
000000b0: 411b d138 be3a ed38 aadc edb8 6eff ccb8
4.952636e-06 5.3440594e-06 -7.721386e-06 -2.5389845e-06 7.6134634e-06 7.899221e-06 -1.15549465e-05 -3.9023544e-06
7.283504e-06 7.634595e-06 -1.0887289e-05 -3.9712327e-06 5.568836e-06 5.9969916e-06 -8.432406e-06 -3.0861916e-06
-4.633848e-06 -4.7784038e-06 6.0772163e-06 3.2815276e-06 -8.0327645e-06 -7.655023e-06 1.0084274e-05 5.5132396e-06
-7.05003e-06 -7.959838e-06 9.556823e-06 5.366027e-06 -5.1428074e-06 -6.232595e-06 7.836249e-06 3.4854681e-06
0.000123845 0.00014166946 -0.00013791052 -0.00012543645 -0.00014366538 -0.00015853661 0.00015630743 0.00014337891
-0.00011938868 -0.00013851254 0.00013146542 0.00012439904 9.970973e-05 0.00011311982 -0.000113421425 -9.7750555e-05

exp_avg_sq f4 [12, 4]
00000000: 0f68 be2f b08a 1230 1b4a 5030 32d7 4b2f
00000010: e77e 4930 86ed a030 da1b e430 2b70 d22f
00000020: 944e 1b30 ef0d 7c30 0d37 af30 f55a a52f
00000030: 56fd f12f 2d57 4230 073e 8930 449b 7c2f
00000040: 9668 a12f 442e c82f bdb3 1430 4a17 312f
00000050: 9578 6330 df93 9330 f054 d930 e1f7 fb2f
00000060: 6cab 2b30 e7d2 5c30 726f 9030 43c7 e42f
00000070: e8f7 0030 053a 2930 d386 8230 a0e6 7d2f
00000080: 22a0 4835 382c 5335 ec40 a634 a95b ef35
00000090: 8cc8 7b35 95c8 8a35 c854 eb34 b186 0f36
000000a0: 1783 2335 80b2 3a35 7a70 a434 1656 af35
000000b0: d3be 0735 af9f 1835 1b15 8934 69b4 9135
3.4634737e-10 5.331158e-10 7.577527e-10 1.8539195e-10 7.3303713e-10 1.170904e-09 1.6597099e-09 3.8278478e-10
5.650034e-10 9.1696867e-10 1.2748572e-09 3.0077954e-10 4.401765e-10 7.0700673e-10 9.985691e-10 2.2974428e-10
2.9360042e-10 3.6412662e-10 5.409751e-10 1.610633e-10 8.2753476e-10 1.0737685e-09 1.5812969e-09 4.5832763e-10
6.245304e-10 8.0335244e-10 1.0509054e-09 4.1614542e-10 4.6918425e-10 6.156429e-10 9.497064e-10 2.309215e-10
7.473883e-07 7.866797e-07 3.0967146e-07 1.7833564e-06 9.379662e-07 1.0340178e-06 4.3833847e-07 2.1387061e-06
6.091299e-07 6.955015e-07 3.0629218e-07 1.306357e-06 5.0569105e-07 5.685678e-07 2.5533595e-07 1.0855848e-06

exp_avg f4 [4, 4]
00000000: 05f0 ff38 8627 1eb9 e33a 26b9 3203 1c39
00000010: 5109 8238 1f76 a3b8 da4d b0b8 45be 9738
00000020: 6c26 13b9 0347 1d39 a1f2 2339 51be 38b9
00000030: 3063 4bb9 7081 6a39 74c9 8939 f237 81b9
0.00012204055 -0.00015082778 -0.0001585293 0.0001487851 6.2006184e-05 -7.7944474e-05 -8.406835e-05 7.2356816e-05
-0.00014033326 0.0001499914 0.00015635278 -0.00017618506 -0.00019396539 0.00022364198 0.0002628077 -0.0002464648
