out-tss50/ckpt_iter_2000.pt (torch, 48135 bytes, 64 tensors)

transformer.wte.weight f4 [5, 4]
0	0xbea275ac	-0.31730402
1	0xbe9f4aab	-0.31111655
2	0x3ece0855	0.40240732
3	0x3e2e7c8c	0.17039698
4	0x3e3f03f0	0.18653846
5	0x3e617bd6	0.22019896
6	0xbdea11f9	-0.11429209
7	0xbe8840b5	-0.26611868
8	0x3df5f695	0.120099224
9	0x3daea441	0.08527423
10	0xbe287e25	-0.1645437
11	0xbbdee7bc	-0.0068025272
12	0x3de9c37f	0.11414241
13	0x3dbc601c	0.09198019
14	0xbe2aa38a	-0.16663948
15	0xbc2d031b	-0.010559822
16	0x3e37bd5a	0.17943326
17	0x3e3d24c1	0.18471052
18	0xbe34e285	-0.17664535
19	0xbe39432d	-0.18092032

transformer.wpe.weight f4 [256, 4]
0	0x3da77fe3	0.08178689
1	0x3ddc6a61	0.10762478
2	0x3d0dedaa	0.034650482
3	0xbdeb84cc	-0.11499938
4	0x3dddf039	0.108368345
5	0x3e01351e	0.12617919
6	0xbdd03e95	-0.101681866
7	0xbda53a7a	-0.08067794
8	0x3d8c32be	0.06845616
9	0x3d484089	0.04888967
10	0xbdaa03b1	-0.08301485
11	0xbd47d3d0	-0.048785985
12	0x3d6cb0bd	0.05778574
13	0x3d609658	0.05483088
14	0xbd3bbacb	-0.045832437
15	0xbd1ffc51	-0.039058987
16	0x3d850533	0.06495132
17	0x3d822bab	0.06355985
18	0xbcaefcac	-0.021360718
19	0xbd994f85	-0.0748587
20	0x3cd51ce7	0.026014758
21	0x3ca2036a	0.019777019
22	0xbcf36c38	-0.029714689
23	0xbd82f2be	-0.06393956
24	0x3da7e781	0.08198453
25	0x3ca1b9a0	0.019741833
26	0xbd585402	-0.05281449
27	0xbd0f352c	-0.034962818
28	0x3d51d5c5	0.051229257
29	0x3d11dcb4	0.03561087
30	0x3c532bb7	0.01288884
31	0xbcb91b55	-0.02259604
32	0x3d40d728	0.04708019
33	0xbc82abbc	-0.01595103
34	0xbcb435e3	-0.021998351
35	0x3ca1f5da	0.019770551
36	0x38757904	5.8525256e-05
37	0xbd3381c4	-0.043824926
38	0xbc35026d	-0.011047942
39	0xbbb6a16f	-0.0055734436
40	0xba3c6086	-0.0007186014
41	0x3cd572bc	0.026055686
42	0xbc84158a	-0.016123552
43	0xbce13f12	-0.027495895
44	0x3c790b9e	0.015200524
45	0xbce52792	-0.02797297
46	0xbd58f200	-0.052965164
47	0x3d04e28c	0.032442614
48	0x3d0382a3	0.032107007
49	0x3b8127e9	0.0039415252
50	0x3c9a9b36	0.018872838
51	0x3a3fc334	0.00073151593
52	0x3ca12dd1	0.019675167
53	0x3cae3324	0.02126462
54	0xbc91e9f8	-0.01781176
55	0xbd51b676	-0.0511994
56	0x3ccf6311	0.025315793
57	0x3cba9ffb	0.022781363
58	0x3d09eca3	0.03367294
59	0xbcd60366	-0.026124667
60	0x3ca34412	0.01992992
61	0x3cd906bf	0.026492475
62	0x3c91c965	0.017796228
63	0xbd12d2ca	-0.035845555
64	0x3d10d55b	0.03535972
65	0x3c4742b7	0.012161902
66	0x39885791	0.00026005183
67	0xbd0d3129	-0.03447071
68	0x3d292ae1	0.041300658
69	0x3c945b46	0.018109929
70	0xbd31975c	-0.04335724
71	0xbcf53bf0	-0.029935807
72	0x3cd0f85f	0.025509058
73	0x3c862691	0.016375812
74	0xbca88186	-0.020569574
75	0xbd10f381	-0.035388473
76	0x3d118630	0.03552836
77	0x3d2f7765	0.042838473
78	0xbd81a5ad	-0.06330428
79	0xbc9d3083	-0.019188171
80	0x3cb0f24e	0.021599915
81	0x3c026124	0.00795773
82	0xbb7f6a90	-0.0038973428
83	0xbc8d00a7	-0.017212225
84	0xbc1778a4	-0.009245072
85	0xbb911485	-0.004427495
86	0xbc09073b	-0.00836354
87	0x3c93658f	0.017992763
88	0x3d145965	0.036218066
89	0x3cd1cb1d	0.025609547
90	0xbbeb1c89	-0.0071750325
91	0xbc692e94	-0.0142322965
92	0x3c73b5b8	0.014874868
93	0x3d18a605	0.037267704
94	0xbc764207	-0.015030391
95	0xbb54dc7d	-0.0032480054
96	0xbc1ac337	-0.009445957
97	0x3b5a96c7	0.003335403
98	0xbd2a4e39	-0.041578505
99	0x3c600dd8	0.013675176
100	0x3d09068f	0.03345352
101	0xbbdb6320	-0.006695166
102	0xbc495c61	-0.012290091
103	0xbba0cde8	-0.0049073584
104	0x3cfa8782	0.030582193
105	0xbb47bcd5	-0.0030477543
106	0xbc14ed21	-0.009089739
107	0x3c271480	0.010197759
108	0x3ca5d415	0.02024273
109	0xbd1dedb2	-0.038556762
110	0xbd6027c9	-0.054725442
111	0x3d093f0c	0.03350739
112	0x3cf0fff0	0.029418916
113	0xbad3ba24	-0.0016153497
114	0x3a7e69d3	0.00097051
115	0xbc2c192b	-0.010504047
116	0x3d5772e1	0.05259979
117	0xbb1dc233	-0.002407205
118	0xbd343d76	-0.044003926
119	0x3cceedab	0.025259813
120	0x3c67a05f	0.014137357
121	0xbc564530	-0.013078019
122	0xbd581fc4	-0.05276467
123	0xbbe84e1f	-0.007089391
124	0x3d2db5fd	0.042409886
125	0xba099903	-0.0005248936
126	0x3c3d0788	0.01153744
127	0xbd540038	-0.05175802
128	0x3d42c1d3	0.047548126
129	0xbbd148a4	-0.0063868333
130	0xbc0a1eac	-0.008430164
131	0x3c48cf38	0.012256436
132	0x3cd0819e	0.025452431
133	0x3cb51b43	0.022107726
134	0x3bc88c1d	0.0061202184
135	0xbcda2a12	-0.026631389
136	0x3b435bb7	0.0029809305
137	0x3c062da5	0.008189593
138	0xbcd9a702	-0.026568893
139	0x3c2c4322	0.010514053
140	0xbbc2f87a	-0.005950031
141	0x3b7baa7c	0.0038401177
142	0xbc055f10	-0.00814034
143	0x3cb72951	0.022358568
144	0xbccb5e86	-0.024825346
145	0x3d1d1c07	0.038356807
146	0x3cd48102	0.025940422
147	0xbcb84ef1	-0.02249858
148	0x3cb48eb1	0.022040697
149	0x3caa91a9	0.02082141
150	0xbc683cee	-0.014174683
151	0x3c8b8cbd	0.017034883
152	0x3c4dfb84	0.012572173
153	0x3c9496d7	0.018138332
154	0xbd117a7c	-0.0355172
155	0x3d1e5be9	0.03866187
156	0x3cc64e55	0.024207273
157	0x3c9d9e93	0.019240653
158	0xbca94603	-0.020663267
159	0x3ba692f6	0.005083437
160	0x3cf43967	0.029812528
161	0x3d249886	0.04018452
162	0xbb7cac1a	-0.003855473
163	0x3cb6f46e	0.02233335
164	0x3cbccdc8	0.023047343
165	0xbbba46aa	-0.0056846933
166	0x3d26792e	0.04064291
167	0xbd05cbc9	-0.032665048
168	0x3d4d06b8	0.050055236
169	0x3c31993d	0.0108397575
170	0xbc4ca617	-0.012490771
171	0xbd1b7947	-0.037957456
172	0x3d3b5c13	0.045742106
173	0x3d1ec6c9	0.038763795
174	0xbc49172e	-0.012273593
175	0xbbe7c891	-0.00707347
176	0xbc933487	-0.017969383
177	0xbc53a446	-0.012917584
178	0xbbf83632	-0.00757482
179	0xbccf1061	-0.025276365
180	0x3c530e8b	0.012881885
181	0xbca1667c	-0.019702189
182	0xbd07ea52	-0.03318245
183	0xbcbd0b04	-0.023076542
184	0x3c6fe589	0.014642128
185	0x3cbe8799	0.023258017
186	0xbc6e08d2	-0.01452847
187	0xbc32e277	-0.010918251
188	0x3c9c1145	0.019051204
189	0xbacc1e10	-0.0015572924
190	0x3c2592b5	0.010105778
191	0x3cc6f060	0.024284542
192	0x3c0cac8c	0.00858606
193	0xbbfe086c	-0.007752469
194	0xbcacc8ee	-0.021091904
195	0xbc25c533	-0.010117817
196	0x3d3e6596	0.0464836
197	0x3d218b29	0.039439354
198	0x3cd6cd85	0.026221046
199	0xbc08f69d	-0.008359578
200	0x3d697784	0.056998745
201	0x3ce58035	0.028015235
202	0x3cd57383	0.026056057
203	0xbca6e02b	-0.020370563
204	0x3a9469f9	0.0011323086
205	0x3d7106e9	0.05884448
206	0x3c1df590	0.009641066
207	0xbcccd389	-0.025003212
208	0x3ced2189	0.028946655
209	0xbc212288	-0.009834893
210	0xbd2be08b	-0.041962188
211	0xb9ff0c41	-0.0004864652
212	0x3cb60347	0.02221836
213	0x3c94a5c3	0.018145448
214	0xbd9288ce	-0.07155
215	0x3d60b8b1	0.054863635
216	0xbb9e84d3	-0.004837611
217	0xbcb95853	-0.022625124
218	0xbcf79220	-0.030221045
219	0x3c9bf21e	0.019036349
220	0x3d50d839	0.050987456
221	0x3c90753f	0.017634032
222	0xbceb1915	-0.028698483
223	0xba81305f	-0.0009856335
224	0x3d88e902	0.06685068
225	0xbd029fc4	-0.031890646
226	0xbcff9483	-0.031198746
227	0x3d00836f	0.031375345
228	0x3d00685b	0.03134952
229	0xbb99d274	-0.0046942774
230	0xbd240e67	-0.040052798
231	0xbb180271	-0.0023194815
232	0xbca698f9	-0.020336615
233	0x3d13be42	0.036070116
234	0x3d1b61fa	0.037935235
235	0xbd10d68f	-0.03536087
236	0x3dbaabc9	0.09114797
237	0x3cbeb0f1	0.023277732
238	0xbc9acb81	-0.018895866
239	0x3ba6126c	0.005068114
240	0xbc58264a	-0.013192723
241	0xbb4fb02d	-0.0031690702
242	0xbd3b9580	-0.04579687
243	0x3bae03a4	0.0053104926
244	0x3d74ea5c	0.059793815
245	0x3aded2d2	0.0017000085
246	0xbb0c981d	-0.0021452971
247	0xbd211ec3	-0.039335977
248	0x3befe695	0.0073211887
249	0x3baf011d	0.005340709
250	0x3d15675b	0.03647552
251	0xbbedcc07	-0.007256988
252	0x3c2cbbee	0.010542853
253	0x3d14dd65	0.03634395
254	0xbba3f877	-0.0050039846
255	0xbc1306f0	-0.008973822

transformer.h.0.ln_1.weight f4 [4]
0	0x3f94f66d	1.1637703
1	0x3f907f0d	1.1288773
2	0x3f930914	1.1487145
3	0x3f8f44ae	1.1192834

transformer.h.0.attn.c_attn.weight f4 [12, 4]
0	0xbd980972	-0.074236766
1	0xbdc8addc	-0.09798786
2	0x3d8e4903	0.0694752
3	0x3da61041	0.08108569
4	0xbd2d7a1c	-0.04235278
5	0xbd8e179c	-0.06938097
6	0x3d801748	0.062544405
7	0x3cf3db30	0.029767603
8	0x3d8e2bb9	0.06941933
9	0x3dd31a56	0.103077576
10	0xbe069e8e	-0.13146421
11	0xbcb42851	-0.02199188
12	0x3d897d2b	0.06713327
13	0x3e0e26b5	0.13881953
14	0xbe002c18	-0.1251682
15	0xbd6bcb76	-0.057567082
16	0x3d960f9c	0.07327196
17	0x3dc2d772	0.09513749
18	0xbdf9ce03	-0.12197497
19	0xbd652fbf	-0.055953737
20	0x3e02d720	0.12777376
21	0x3c75c354	0.015000183
22	0xbd3aa0ba	-0.045563437
23	0xbda720a9	-0.08160526
24	0xbdffc181	-0.1248808
25	0xbcec2cd7	-0.028829975
26	0x3d26422b	0.040590446
27	0x3e1ccfae	0.15313599
28	0xbdd9243f	-0.106026165
29	0xbe25c15e	-0.16187045
30	0x3e015c63	0.12632899
31	0x3de05dbd	0.10955379
32	0x3dabc4ac	0.083871216
33	0x3d9641fc	0.07336804
34	0xbe13bda4	-0.14427811
35	0xbd94bd3f	-0.07262658
36	0x3c61453e	0.013749419
37	0x3bbfd9fa	0.0058548423
38	0xbd3bb3f5	-0.045825917
39	0xbd5d44a4	-0.05402054
40	0x3dd3f327	0.10349112
41	0x3d9fbedf	0.07800078
42	0xbd923127	-0.07138281
43	0xbdba2e48	-0.09090859
44	0x3d790220	0.060793042
45	0x3d91376c	0.07090649
46	0xbdb081bf	-0.08618497
47	0xbdc5fd82	-0.096674934

transformer.h.0.attn.c_proj.weight f4 [4, 4]
0	0x3de0a98a	0.10969837
1	0x3d9738c0	0.07383871
2	0x3df084ee	0.11744104
3	0x3e076e1f	0.13225602
4	0x3d8df13e	0.06930779
5	0x3c56f753	0.01312049
6	0x3d88525d	0.066563345
7	0x3dbf175a	0.09330626
8	0xbe0b1544	-0.13582331
9	0xbd37d4b4	-0.044880584
10	0xbdbe95fa	-0.093059495
11	0xbe12e965	-0.14346845
12	0xbcf3e48a	-0.029772062
13	0x3b100b2a	0.002197931
14	0xbc7d83e1	-0.015473337
15	0xbd70f174	-0.058824018

transformer.h.0.ln_2.weight f4 [4]
0	0x3fad77c1	1.3552171
1	0x3fae661d	1.3624913
2	0x3facc1b9	1.349662
3	0x3fa9294b	1.3215727

transformer.h.0.mlp.c_fc.weight f4 [16, 4]
0	0x3e1deee2	0.15423158
1	0xbd3d1502	-0.046162613
2	0xbd5b1902	-0.053490646
3	0xbd9bccb3	-0.07607403
4	0x3e0a4e3e	0.1350641
5	0x3c86afde	0.016441282
6	0x3d263293	0.040575575
7	0xbde5fdbd	-0.11230037
8	0xbdee1edf	-0.11626982
9	0x3db17f8f	0.08666908
10	0x3c992f76	0.018699389
11	0x3d97d886	0.074143454
12	0x3dbb5938	0.091478765
13	0xbe0c84ce	-0.13722536
14	0xbd059f34	-0.03262253
15	0x3cb7ef91	0.022453101
16	0xbc5ac205	-0.013351922
17	0x3d9bae9b	0.07601663
18	0xbda2644b	-0.079292856
19	0x3d23e6bb	0.040014964
20	0xbd71c541	-0.059026007
21	0x3dffbd4e	0.12487279
22	0xbde9ffb6	-0.11425726
23	0x3d5b9dc8	0.05361727
24	0xbea784d5	-0.3271853
25	0xbeb93368	-0.36172032
26	0x3ea0680d	0.31329384
27	0x3e97a77f	0.29619977
28	0x3e189525	0.14900644
29	0xbda717ed	-0.0815886
30	0xbd26cf59	-0.040725086
31	0xbd1f1907	-0.038842227
32	0xbdc01953	-0.0937983
33	0x3db20c4c	0.08693752
34	0xbdb0942f	-0.08622014
35	0x3d7f4c18	0.062328428
36	0xbe5f621d	-0.21814771
37	0x3ca3abd0	0.019979388
38	0x3df9d753	0.12199273
39	0x3dc6beed	0.09704385
40	0xbdda49f1	-0.106586345
41	0x3e3f65db	0.18691199
42	0x3d8d54a6	0.06900911
43	0xbd951afa	-0.07280536
44	0x3c752108	0.014961489
45	0xbdf0b6d4	-0.11753622
46	0x3e03e4d0	0.12880254
47	0xbc0bb07b	-0.008525963
48	0x3db53567	0.08848076
49	0xbe18c67f	-0.1491947
50	0x3dacc708	0.084364
51	0xbd99fd85	-0.07519058
52	0x3defb691	0.11704744
53	0xbcba6ef0	-0.022757977
54	0x3dce2a86	0.100667045
55	0xbded0423	-0.11573055
56	0xbce59fdf	-0.028030334
57	0x3d0d7a78	0.034540623
58	0x3d700a41	0.05860353
59	0xbcde4646	-0.027133118
60	0x3e229668	0.15877688
61	0xbd0c73e7	-0.03429022
62	0xbd0f859e	-0.035039537
63	0xbd64ec74	-0.05588956

transformer.h.0.mlp.c_proj.weight f4 [4, 16]
0	0xbe135ff8	-0.14392078
1	0xbd94d734	-0.07267609
2	0x3e0ff1ae	0.14057037
3	0xbd8cac64	-0.068688184
4	0x3bbb2651	0.005711355
5	0x3d070549	0.032964025
6	0x3e8fc49b	0.28079686
7	0xbe13c293	-0.14429693
8	0x3d4aa8f4	0.049477533
9	0x3e54f43b	0.20796292
10	0x3e109098	0.14117658
11	0x3d28a6d0	0.04117471
12	0xbc906f52	-0.017631207
13	0xbd24a261	-0.04019392
14	0x3da596fa	0.08085437
15	0xbdf1da86	-0.11809258
16	0x3d55d143	0.05220152
17	0x3dc02289	0.09381587
18	0xbb194253	-0.002338548
19	0x3d7271a1	0.059190396
20	0xbdd498d2	-0.10380711
21	0xbe237958	-0.15964258
22	0x3e759fb9	0.2398671
23	0x3d8c8269	0.06860811
24	0xbd8a4a01	-0.067523964
25	0x3d7d6b8e	0.06187015
26	0xbcd69af0	-0.026196927
27	0x3dd7dbbe	0.10539959
28	0x3ddf9492	0.109170094
29	0x3d7ca3e6	0.061679743
30	0x3cdb6dae	0.026785698
31	0x3d06568b	0.032797378
32	0xbdbdbcbe	-0.09264515
33	0xbde38394	-0.11109081
34	0x3ccf2bd4	0.025289454
35	0xbbad61b1	-0.0052911867
36	0xbc7f5cb9	-0.015586072
37	0x3ca8f2a2	0.020623509
38	0xbe69ac85	-0.22819717
39	0xbd132e20	-0.03593266
40	0xbc9d48de	-0.019199785
41	0xbd2b6d92	-0.04185254
42	0xbd13574c	-0.035971925
43	0xbccdf1ed	-0.025139773
44	0xbc637e14	-0.01388504
45	0x3c4f3c41	0.012648643
46	0x3d6c64a7	0.057713177
47	0xbd69a682	-0.05704356
48	0x3ce1f7b4	0.027583934
49	0x3d34ad2b	0.04411046
50	0xbd13ed03	-0.036114704
51	0xbbe04cf7	-0.0068451124
52	0x3ca30de9	0.019904094
53	0x3b97b833	0.0046301126
54	0xbe351821	-0.17684986
55	0x3ca3509b	0.019935897
56	0xbc276e7c	-0.010219213
57	0xbd807f25	-0.06274251
58	0xbd94804b	-0.072510324
59	0xbd52cc6a	-0.051464476
60	0xbd7f1cbf	-0.062283274
61	0xbd41cf98	-0.047317117
62	0xbcf87349	-0.03032841
63	0x3c3446e1	0.011003227

transformer.h.1.ln_1.weight f4 [4]
0	0x3f921bdf	1.1414756
1	0x3f8f3e30	1.1190853
2	0x3f92a2ac	1.1455894
3	0x3f8fec71	1.1244031

transformer.h.1.attn.c_attn.weight f4 [12, 4]
0	0xbdc69db3	-0.096980475
1	0xbd9a5420	-0.07535577
2	0x3de53e05	0.1119347
3	0x3da91e93	0.08257785
4	0xbde47ca4	-0.11156586
5	0xbd782a23	-0.06058706
6	0x3d987c32	0.074455634
7	0x3e052120	0.13000917
8	0xbdd86488	-0.1056605
9	0xbd652a72	-0.055948682
10	0x3da3fbb5	0.08006994
11	0x3e2bb60a	0.16768661
12	0xbe087873	-0.13327198
13	0xbdefd8be	-0.11711262
14	0x3ddc6dc7	0.10763126
15	0x3e3f6082	0.18689159
16	0x3e09fc87	0.13475238
17	0x3db50412	0.08838667
18	0xbd939dbd	-0.072078206
19	0xbe39af94	-0.18133384
20	0x3dcee4ce	0.10102235
21	0x3d8ebe72	0.06969918
22	0xbde50279	-0.11182112
23	0xbdde83d5	-0.10864989
24	0x3de4a742	0.111647144
25	0x3daf8ea6	0.0857213
26	0xbdcd8b55	-0.10036341
27	0xbe238d35	-0.15971835
28	0x3e1a528f	0.15070556
29	0x3e06c160	0.13159704
30	0xbe180b5f	-0.14848088
31	0xbe1724a8	-0.14760077
32	0xbdac22a0	-0.08405042
33	0xbd624822	-0.055244572
34	0x3d9fb270	0.07797706
35	0x3db47e77	0.08813184
36	0x3d9c98e7	0.07646351
37	0x3d4b53c1	0.04964042
38	0xbd9b8999	-0.07594604
39	0xbd1f3a40	-0.03887391
40	0x3db70394	0.08936229
41	0x3dc973ee	0.09836565
42	0xbdfa259f	-0.12214207
43	0xbdc7fc4f	-0.09764921
44	0xbd6d2053	-0.057892155
45	0xbdc0042f	-0.09375798
46	0x3e08fec2	0.13378432
47	0x3de16264	0.11005095

transformer.h.1.attn.c_proj.weight f4 [4, 4]
0	0xbdd907c7	-0.105971865
1	0x3dd5dda2	0.10442664
2	0x3dd0b03c	0.10189864
3	0xbda129e4	-0.07869318
4	0xbd784302	-0.06061078
5	0x3d83de2f	0.064388625
6	0x3d6d1061	0.05787695
7	0xbd5152d6	-0.05110439
8	0x3e1a90c0	0.1509428
9	0xbe07b46b	-0.13252418
10	0xbe1844e8	-0.14870036
11	0x3e0b34ab	0.1359431
12	0x3d1b5659	0.037924144
13	0xbcb7a418	-0.022417113
14	0xbcf778b6	-0.030208927
15	0x3c9eec64	0.01939983

transformer.h.1.ln_2.weight f4 [4]
0	0x3f92f297	1.1480283
1	0x3f9e01b6	1.2344272
2	0x3f9188dc	1.1369891
3	0x3f95128f	1.1646289

transformer.h.1.mlp.c_fc.weight f4 [16, 4]
0	0x3db99fd9	0.09063692
1	0xbe183390	-0.1486342
2	0xbd7b0b2e	-0.06128996
3	0x3e0947d7	0.13406311
4	0x3e232148	0.15930665
5	0xbd1a03d8	-0.037601322
6	0xbca74a53	-0.020421183
7	0xbd9738c6	-0.073838755
8	0x3c817f6f	0.015807835
9	0x3e05bd2f	0.13060449
10	0x3ca5e14a	0.020249028
11	0xbdca6b5d	-0.09883759
12	0xbd02b338	-0.031909198
13	0x3e3e03af	0.18556093
14	0x3d1fa288	0.03897336
15	0xbdec00c7	-0.11523586
16	0x3de91771	0.11381424
17	0xbe453783	-0.19259457
18	0xbd4f26d8	-0.050574154
19	0x3d1b7490	0.03795296
20	0xbe230474	-0.15919667
21	0x3e2f9cf6	0.1714972
22	0xbd074a52	-0.03302986
23	0x3ce7594e	0.028240826
24	0xbe371300	-0.17878342
25	0x3e0982bf	0.13428782
26	0xbd1d2e29	-0.0383741
27	0x3d9d5486	0.07682137
28	0x3dc77076	0.09738247
29	0x3d06fbd8	0.03295502
30	0x3d247642	0.040151842
31	0xbdb7a9f0	-0.0896796
32	0x3d5856a1	0.05281699
33	0xbe081c7f	-0.1329212
34	0xbd9b3c43	-0.075798534
35	0x3e3d3369	0.18476643
36	0x3e2a0211	0.16602351
37	0xbd38056e	-0.044927053
38	0xbc3a85fb	-0.0113844825
39	0xbdb48732	-0.08814849
40	0x3de62627	0.11237746
41	0xbd775fd1	-0.060394112
42	0x3c177c1d	0.0092458995
43	0xbd04c4a0	-0.03241408
44	0x3c0a8818	0.008455299
45	0x3d38548f	0.045002516
46	0x3d76c531	0.06024665
47	0xbd8ac641	-0.06776095
48	0x3b829179	0.003984627
49	0xbe02bf69	-0.1276833
50	0xbb48fdac	-0.0030668778
51	0x3dbbe66d	0.091748096
52	0x3d37d3b5	0.044879634
53	0xbe1521be	-0.14563653
54	0x3ddfbf73	0.10925188
55	0xbd2aa132	-0.041657634
56	0xbd2b595c	-0.041833267
57	0x3c70b0b5	0.014690568
58	0xbc44a7ea	-0.012002924
59	0x3d26b24c	0.04069738
60	0xbdc01ca2	-0.09380461
61	0x3e0ccb7e	0.13749501
62	0xbd244d27	-0.04011264
63	0xbd0f8ea7	-0.035048153

transformer.h.1.mlp.c_proj.weight f4 [4, 16]
0	0xbd3c6a8c	-0.04600005
1	0xbdc7ca68	-0.09755403
2	0x3d6f0095	0.058350164
3	0x3dde206d	0.108460285
4	0xbd8ee43a	-0.069771245
5	0x3e09e212	0.13465145
6	0x3e21f686	0.15816697
7	0xbce97b40	-0.028501153
8	0x3b849e51	0.004047193
9	0xbdedb0ba	-0.116059735
10	0xbd77475f	-0.0603708
11	0x3c0ca333	0.008583832
12	0xbb06445a	-0.0020487518
13	0x3c5a2f7b	0.013316984
14	0x3d0def27	0.0346519
15	0x3e07290c	0.13199252
16	0x3e0bc534	0.13649446
17	0x3cfab158	0.030602142
18	0xbd2cdf65	-0.042205233
19	0xbd1c2d4a	-0.03812913
20	0x3dcfbd31	0.10143507
21	0xbd255b85	-0.040370483
22	0xbd1751d7	-0.036943283
23	0x3d047bcd	0.032344628
24	0x3dd02922	0.101640955
25	0x3d2fbdeb	0.04290573
26	0x3d322a57	0.04349741
27	0x3ba1e365	0.0049404376
28	0x3dcd4957	0.10023754
29	0x3e01561e	0.12630507
30	0xbc345920	-0.011007577
31	0xbdd05b87	-0.101737075
32	0xbce9c987	-0.028538479
33	0xbd88b773	-0.06675615
34	0xbdf895d9	-0.12137956
35	0xbdc66821	-0.0968783
36	0xbdc66abb	-0.09688326
37	0xbc84db69	-0.016217904
38	0xbcb0fa8b	-0.021603843
39	0xbde801c2	-0.1132846
40	0xbd2db43f	-0.042408224
41	0xbdbfc1aa	-0.0936311
42	0xbd317708	-0.043326408
43	0xbcd0d687	-0.02549292
44	0xbbd45d74	-0.006480867
45	0xbd45c387	-0.048282173
46	0xbcabfc22	-0.02099425
47	0xbd0fdcc4	-0.035122648
48	0xbd5260aa	-0.051361717
49	0x3d38fed7	0.04516491
50	0x3d575529	0.05257145
51	0x3ce28801	0.027652742
52	0xbc2bed60	-0.010493606
53	0xbc7da7ef	-0.015481933
54	0xbd0b8361	-0.03406084
55	0x3da0f5d5	0.07859389
56	0xbd74a042	-0.059723146
57	0x3d6662a3	0.05624641
58	0x3cea4e3c	0.028601758
59	0x3c2c7c5e	0.010527698
60	0xbd7a0209	-0.061037097
61	0xbd227dc5	-0.039670724
62	0xbcdfc4e1	-0.027315559
63	0xb9cd7bb7	-0.00039192822

transformer.h.2.ln_1.weight f4 [4]
0	0x3f911abd	1.1336285
1	0x3f918bce	1.137079
2	0x3f92f951	1.1482335
3	0x3f8ba758	1.0910444

transformer.h.2.attn.c_attn.weight f4 [12, 4]
0	0x3d4fde7b	0.050749283
1	0xbcf4e38a	-0.029893655
2	0x3c9bb50a	0.019007225
3	0xbd8f4b52	-0.06996788
4	0xbd65837d	-0.0560336
5	0xbd515138	-0.051102847
6	0x3d77bb75	0.060481507
7	0x3d04cf69	0.032424364
8	0xbd5ce3a9	-0.05392805
9	0xbd065224	-0.03279318
10	0x3d803822	0.062607065
11	0x3bfc3e33	0.0076978444
12	0x3d9886af	0.07447564
13	0x3d510397	0.051028814
14	0xbddd59e6	-0.108081624
15	0xbd5a37e4	-0.053275958
16	0xbc47b3fd	-0.012188909
17	0xbd026d29	-0.031842384
18	0x3c6371a2	0.013882073
19	0x3d1513b9	0.036395762
20	0x3dbb4a6b	0.091450535
21	0x3d7d3847	0.06182125
22	0xbdbf4451	-0.09339202
23	0xbdb501e1	-0.08838249
24	0x3d05fa88	0.03270963
25	0x3cd86734	0.026416399
26	0xbd477006	-0.04869082
27	0xbdbcd1d2	-0.092197075
28	0xbe09ef5b	-0.13470213
29	0xbd683e97	-0.056700315
30	0x3d5add4d	0.053433705
31	0x3e1d8a47	0.1538478
32	0xbc9b97a8	-0.018993214
33	0xbd0d22df	-0.034457084
34	0x3d00b106	0.031418823
35	0x3c1ee35f	0.009697764
36	0xbdb86b1c	-0.090048045
37	0xbdf3970e	-0.11894046
38	0x3de43724	0.1114333
39	0x3d7e096a	0.062020697
40	0x3db87822	0.090072885
41	0x3dd24dd0	0.10268748
42	0xbdfe7393	-0.12424388
43	0xbd963ddb	-0.07336017
44	0x3da60840	0.08107042
45	0x3da98f31	0.08279265
46	0xbdb67573	-0.089091204
47	0xbdd240a4	-0.102662355

transformer.h.2.attn.c_proj.weight f4 [4, 4]
0	0xbd60a07c	-0.05484055
1	0xbde863bd	-0.113471486
2	0x3de554c2	0.11197807
3	0x3dea1913	0.11430564
4	0xbbe4b018	-0.006979
5	0xbd9bc273	-0.076054476
6	0x3d78242e	0.06058138
7	0x3da84ff6	0.08218376
8	0x3d1bf119	0.038071726
9	0x3e01cd8c	0.12676066
10	0xbdf5bb92	-0.11998667
11	0xbe0145ca	-0.12624279
12	0xbcb4b067	-0.022056771
13	0x3cfe86eb	0.031070193
14	0xbd31c898	-0.04340419
15	0xbd12563c	-0.03572677

transformer.h.2.ln_2.weight f4 [4]
0	0x3f9920de	1.1963155
1	0x3f9489b3	1.1604522
2	0x3f8cd7a7	1.1003312
3	0x3f9c9c28	1.2235155

transformer.h.2.mlp.c_fc.weight f4 [16, 4]
0	0xbd38c90b	-0.045113605
1	0x3d0c4b0f	0.03425127
2	0x3c10dd7d	0.008841869
3	0xbcc20488	-0.023683801
4	0xbd509d6e	-0.050931387
5	0xbd970829	-0.07374603
6	0x3c09a8a2	0.008402022
7	0x3dae534c	0.08511981
8	0x3d902dd7	0.07039993
9	0x3d20ec64	0.03928794
10	0x3c939c6e	0.018018927
11	0xbdb83784	-0.08994964
12	0xbd91f680	-0.07127094
13	0xbd8404b4	-0.064462095
14	0x3cbf4822	0.023349825
15	0x3dfeb667	0.12437134
16	0xbd8183f1	-0.06323994
17	0x3d6eac11	0.058269564
18	0xbcab9365	-0.020944307
19	0xbca9eff0	-0.020744294
20	0xbdc9dea7	-0.09856921
21	0xbdb18bc8	-0.08669239
22	0x3ba08ab2	0.0048993463
23	0x3e01267a	0.12612334
24	0x3e044211	0.12915827
25	0xbd3fcb64	-0.046824828
26	0x3dce45c9	0.10071904
27	0xbe644473	-0.22291736
28	0xbde4232f	-0.11139523
29	0xbca6276d	-0.020282472
30	0xbd42efde	-0.047592036
31	0x3e09cfa6	0.13458118
32	0xbdcb58be	-0.099290356
33	0xbdd81b34	-0.105520636
34	0xbc2e89ea	-0.010652998
35	0x3da8cf0c	0.08242616
36	0xbdbfdcd5	-0.09368292
37	0xbb8909e6	-0.004182088
38	0x3b3101d6	0.002700915
39	0x3dc17c04	0.09447482
40	0x3d3ff148	0.046860963
41	0x3d3f24c4	0.04666592
42	0x3d903499	0.07041282
43	0xbe24d436	-0.16096577
44	0xbda9ac82	-0.082848564
45	0xbdafb0ee	-0.085786685
46	0xbc160018	-0.009155296
47	0x3dc8bc47	0.09801536
48	0x3cb0f6e5	0.021602103
49	0x3ddfe5ed	0.10932527
50	0x3d4762f6	0.04867836
51	0xbdb8d27b	-0.09024521
52	0x3e615fdc	0.22009224
53	0xbe404a25	-0.18778284
54	0xbd8448d2	-0.06459202
55	0xbd6a2447	-0.057163503
56	0xbdd08f18	-0.10183543
57	0x3e210df8	0.15727985
58	0xbe2e91a7	-0.1704775
59	0x3e0fa376	0.14027199
60	0x3d050e02	0.032484062
61	0x3dbe919c	0.093051165
62	0x3d91f1af	0.071261756
63	0xbe1eee8f	-0.1552069

transformer.h.2.mlp.c_proj.weight f4 [4, 16]
0	0x3d794668	0.06085816
1	0x3c41744a	0.011807511
2	0x3c7c711b	0.015407826
3	0x3d28859a	0.041143037
4	0x3dc1e8a1	0.094681986
5	0x3d1fb31b	0.038989168
6	0x3c10bdf7	0.008834354
7	0x3da19b6a	0.07890971
8	0x3c91e7cf	0.01781073
9	0x3de69b26	0.11260061
10	0x3d793311	0.060839716
11	0x3cd37517	0.025812669
12	0x3d8763ff	0.066108696
13	0xbe131003	-0.14361577
14	0x3dfe8728	0.12428123
15	0x3dc82662	0.09772946
16	0xbcaabc37	-0.020841701
17	0xba1fda26	-0.00060978753
18	0x3cbd08c7	0.023075474
19	0x3ca22c50	0.01979652
20	0xbda53977	-0.08067601
21	0x3c6560d5	0.014000137
22	0x3de222eb	0.11041816
23	0xbcac8ca7	-0.021063162
24	0x399cbfd2	0.00029897556
25	0xbc4526aa	-0.012033144
26	0x3cafb013	0.021446263
27	0xbb01a9cb	-0.0019785042
28	0x3bdccdd5	0.0067384043
29	0x3dc9021a	0.09814854
30	0xbd3c46a1	-0.045965794
31	0x3c1c5ca5	0.009543573
32	0xbc3014af	-0.010747119
33	0x3d655b23	0.055995118
34	0xbdd8d529	-0.10587532
35	0x3d3937d8	0.045219272
36	0x3bcdfbe6	0.006286132
37	0x3d65c36a	0.056094564
38	0xbe3f6b29	-0.18693222
39	0x3d981b67	0.074271016
40	0x3d84c5ba	0.06483026
41	0x3d86e210	0.06586087
42	0xbda6e40b	-0.081489645
43	0x3d9b5262	0.07584073
44	0xbdadec9c	-0.08492395
45	0xbda3b5cf	-0.079936616
46	0x3bbdd6f8	0.0057934485
47	0xbdcfe38d	-0.10150824
48	0xbc73310a	-0.014843235
49	0xbd6cd42b	-0.057819527
50	0x3891694f	6.933754e-05
51	0xbd54127a	-0.051775433
52	0xbb565a8a	-0.0032707774
53	0xbd8de3d9	-0.06928224
54	0x3d965bde	0.07341741
55	0xbe0128e1	-0.1261325
56	0xbd896a0a	-0.067096785
57	0xbd6705ff	-0.056402203
58	0x3d801397	0.062537365
59	0xbda59a58	-0.08086079
60	0x3cc9db50	0.02464071
61	0x3a873ac1	0.0010317193
62	0xbda85c9c	-0.08220789
63	0x3d99a62d	0.07502399

transformer.ln_f.weight f4 [4]
0	0x3fba3499	1.4547302
1	0x3fb89d36	1.4422977
2	0x3fbdd6e5	1.4831206
3	0x3fbae693	1.4601616

lm_head.weight f4 [5, 4]
0	0xbea275ac	-0.31730402
1	0xbe9f4aab	-0.31111655
2	0x3ece0855	0.40240732
3	0x3e2e7c8c	0.17039698
4	0x3e3f03f0	0.18653846
5	0x3e617bd6	0.22019896
6	0xbdea11f9	-0.11429209
7	0xbe8840b5	-0.26611868
8	0x3df5f695	0.120099224
9	0x3daea441	0.08527423
10	0xbe287e25	-0.1645437
11	0xbbdee7bc	-0.0068025272
12	0x3de9c37f	0.11414241
13	0x3dbc601c	0.09198019
14	0xbe2aa38a	-0.16663948
15	0xbc2d031b	-0.010559822
16	0x3e37bd5a	0.17943326
17	0x3e3d24c1	0.18471052
18	0xbe34e285	-0.17664535
19	0xbe39432d	-0.18092032

exp_avg f4 [5, 4]
0	0x380aea5c	3.3120028e-05
1	0x38988e1b	7.274394e-05
2	0x3780c1ee	1.5349095e-05
3	0xb8b8c473	-8.810395e-05
4	0xb9b1b517	-0.00033894993
5	0xbb2fbf13	-0.002681677
6	0xbae5175a	-0.0017478273
7	0x3b4ea2f0	0.0031530224
8	0x3b19f765	0.0023493406
9	0x3b23acc6	0.0024974807
10	0xbb613e95	-0.0034369577
11	0xbaf4695f	-0.0018647126
12	0xba3c1ddc	-0.000717608
13	0x3a161234	0.00057247584
14	0x3b61a48d	0.0034430355
15	0xbb6b42f4	-0.0035898061
16	0xba968f03	-0.0011486713
17	0xba695f8d	-0.0008902483
18	0x3af31691	0.0018546154
19	0xba22ca96	-0.0006209997

exp_avg_sq f4 [5, 4]
0	0x3642c180	2.9020885e-06
1	0x35c0e5d9	1.4372009e-06
2	0x362dc566	2.589391e-06
3	0x367841e8	3.6993242e-06
4	0x39a317cd	0.00031107516
5	0x398fede4	0.00027452328
6	0x3a5bbc4f	0.0008382247
7	0x38a3d822	7.8127036e-05
8	0x3978da5e	0.00023732471
9	0x394a7afc	0.00019310036
10	0x3a453ac4	0.00075237104
11	0x385282b7	5.018964e-05
12	0x398bd63c	0.00026671763
13	0x3967e908	0.00022116688
14	0x3a5e0ad1	0.00084702397
15	0x3841b620	4.6184403e-05
16	0x39bd0397	0.00036051564
17	0x399d84ca	0.0003004431
18	0x3a812d67	0.000985545
19	0x3880d615	6.1433915e-05

exp_avg f4 [256, 4]
0	0xb6cb6c19	-6.0624557e-06
1	0x384a24c2	4.8194786e-05
2	0x38a98678	8.083595e-05
3	0xb8fd10e0	-0.00012067123
4	0xb7cfbb28	-2.4763474e-05
5	0x37feabc8	3.0359151e-05
6	0x383efc82	4.5534696e-05
7	0xb97718cd	-0.00023564995
8	0x37b7a04c	2.1889944e-05
9	0x38bfb464	9.14119e-05
10	0x38f69be6	0.000117592324
11	0xb95d4c72	-0.0002110468
12	0x37b2bd2b	2.1307342e-05
13	0x389f2310	7.588242e-05
14	0x380031f4	3.05641e-05
15	0xb8a83358	-8.020428e-05
16	0xb7a4a1fc	-1.9625753e-05
17	0xb8621e69	-5.391092e-05
18	0xb8190011	-3.6478104e-05
19	0x38c3037a	9.298972e-05
20	0xb5188760	-5.682141e-07
21	0x380d65ec	3.371194e-05
22	0x37a34c21	1.9466564e-05
23	0xb8927f8f	-6.985582e-05
24	0x37a42156	1.9565847e-05
25	0x379237d7	1.7430559e-05
26	0x38355fdb	4.3243035e-05
27	0xb850ce7a	-4.978336e-05
28	0x37dacd2f	2.6083171e-05
29	0x388f8a30	6.844511e-05
30	0x3891b62e	6.9480724e-05
31	0xb94c04a5	-0.00019456686
32	0x36d93040	6.472721e-06
33	0xb65f1ba0	-3.324567e-06
34	0xb72c6511	-1.027553e-05
35	0x385a4b54	5.2045405e-05
36	0x378cd042	1.6786278e-05
37	0xb7c1a706	-2.308517e-05
38	0x371a6a0a	9.203804e-06
39	0xb880969e	-6.13157e-05
40	0xb7ef57d1	-2.8531913e-05
41	0xb888b6df	-6.519048e-05
42	0xb8240506	-3.9105325e-05
43	0x388d40a0	6.735441e-05
44	0x373685bc	1.0879183e-05
45	0x37d160c7	2.4959807e-05
46	0x368b8a64	4.1586336e-06
47	0xb88fc61b	-6.8556714e-05
48	0xb70f200a	-8.530924e-06
49	0xb65af398	-3.2626322e-06
50	0xb8188168	-3.6360143e-05
51	0xb6cc1d12	-6.083058e-06
52	0x37a2f74e	1.9427065e-05
53	0xb7bb678e	-2.2340359e-05
54	0xb322b033	-3.7878817e-08
55	0xb7ae3726	-2.0768097e-05
56	0x37e6ce5e	2.7514234e-05
57	0x38a8e1ac	8.052899e-05
58	0x37ced6de	2.4657169e-05
59	0xb9261335	-0.00015838149
60	0x372e91b2	1.04051305e-05
61	0xb7f239b0	-2.887551e-05
62	0x366110ec	3.3537463e-06
63	0x386a6cb0	5.589117e-05
64	0xb72f6391	-1.0453995e-05
65	0xb841f39f	-4.6241676e-05
66	0x36861a62	3.9965826e-06
67	0xb7e1c293	-2.6912696e-05
68	0xb7103f4b	-8.597805e-06
69	0x36d9c189	6.4896344e-06
70	0xb77ef3b1	-1.5196319e-05
71	0x381256e2	3.489003e-05
72	0x379baa7d	1.855683e-05
73	0x382f777a	4.1834523e-05
74	0x369c61ef	4.6605633e-06
75	0xb9149ce4	-0.00014172826
76	0xb7e0465c	-2.6735644e-05
77	0xb8a0f906	-7.675779e-05
78	0xb8298599	-4.0417162e-05
79	0x393f4dc3	0.00018244148
80	0x36653e1f	3.4159818e-06
81	0xb796b2dc	-1.7964681e-05
82	0xb883e917	-6.289983e-05
83	0x38990d34	7.298068e-05
84	0x363d9280	2.824847e-06
85	0x38392259	4.4139426e-05
86	0xb71aea0b	-9.233608e-06
87	0xb8b9a7b4	-8.8527246e-05
88	0xb5a38614	-1.2183468e-06
89	0xb72ed0c2	-1.0419813e-05
90	0xb7985653	-1.816001e-05
91	0x3901a2c0	0.00012363028
92	0xb6de21af	-6.620037e-06
93	0xb62e955d	-2.6014961e-06
94	0xb82806d9	-4.00607e-05
95	0xb8254457	-3.9402712e-05
96	0xb6344322	-2.6861167e-06
97	0x37717b09	1.4393366e-05
98	0x37394aee	1.1044305e-05
99	0x387b410d	5.9903647e-05
100	0x37627542	1.3497951e-05
101	0xb84159af	-4.609831e-05
102	0xb7aeb8d2	-2.082848e-05
103	0x3866b8ac	5.5008262e-05
104	0x36b88c73	5.4999778e-06
105	0xb86a3974	-5.5843455e-05
106	0xb7eae0da	-2.7999678e-05
107	0x386e761b	5.6853616e-05
108	0x3858fec9	5.17357e-05
109	0x38808f20	6.130175e-05
110	0x3849888d	4.8049307e-05
111	0xb95c3146	-0.00020999191
112	0x374f7d70	1.2367367e-05
113	0x367b88dd	3.748158e-06
114	0xb72b7dd6	-1.0221693e-05
115	0xb8785354	-5.9205413e-05
116	0xb7e45a3f	-2.7221742e-05
117	0xb8516a10	-4.992826e-05
118	0xb8d4a192	-0.000101390426
119	0x394b32f8	0.00019378576
120	0xb7497db4	-1.2009801e-05
121	0xb7329ae4	-1.064569e-05
122	0xb84189da	-4.614317e-05
123	0x39177518	0.00014444103
124	0xb71698ef	-8.976304e-06
125	0x374d9860	1.225443e-05
126	0x373a80c6	1.1116446e-05
127	0xb8442e4d	-4.6773162e-05
128	0xb7c09309	-2.2956652e-05
129	0xb7798603	-1.4872759e-05
130	0xb648b9b7	-2.9910423e-06
131	0xb6162128	-2.2371041e-06
132	0x3725984e	9.870228e-06
133	0x38048af1	3.160065e-05
134	0x36967d27	4.484918e-06
135	0xb8f3b6bc	-0.0001162118
136	0x36b34ea4	5.3437707e-06
137	0x373db624	1.1307686e-05
138	0x370f3e80	8.538016e-06
139	0xb819fcd2	-3.67135e-05
140	0xb8450124	-4.6969522e-05
141	0xb8e6255b	-0.00010974213
142	0xb8a3733f	-7.793912e-05
143	0x395fa50a	0.00021328419
144	0xb74a4d08	-1.20580735e-05
145	0xb83dcdc0	-4.525273e-05
146	0xb87001ec	-5.722225e-05
147	0x38eaf525	0.00011203651
148	0x372a9f3e	1.0169866e-05
149	0x36da95e5	6.5143563e-06
150	0x381a703c	3.6820988e-05
151	0xb8c375b8	-9.3202514e-05
152	0xb7a0a9ac	-1.9152496e-05
153	0xb80ab6f6	-3.307216e-05
154	0xb8276f4f	-3.9919567e-05
155	0xb746db94	-1.1852844e-05
156	0x3794303a	1.7665432e-05
157	0x38498e21	4.8054502e-05
158	0x378d0ea3	1.6815326e-05
159	0xb8a45481	-7.8358695e-05
160	0x380c17f1	3.34009e-05
161	0x3837f36f	4.3857315e-05
162	0x3829d502	4.049112e-05
163	0xb963c7aa	-0.00021722788
164	0xb5c4a04a	-1.4649788e-06
165	0xb7e62804	-2.743677e-05
166	0x386a4738	5.5856275e-05
167	0xb93c8f9f	-0.0001798258
168	0xb66e8b08	-3.554569e-06
169	0x38aa1b08	8.111267e-05
170	0x3887de62	6.478724e-05
171	0xb8da2d99	-0.00010403543
172	0x383c37c6	4.4874636e-05
173	0x384ea7eb	4.9270613e-05
174	0x378c6566	1.6736518e-05
175	0xb859ac4c	-5.1897296e-05
176	0x378bb287	1.6653225e-05
177	0x379bc84d	1.8570712e-05
178	0x374930f4	1.1991931e-05
179	0x3885c28f	6.3781736e-05
180	0x379073d5	1.7220076e-05
181	0x378af444	1.6564627e-05
182	0x37b0cf5c	2.1077394e-05
183	0xb8165fda	-3.5852056e-05
184	0xb668d76e	-3.469609e-06
185	0xb716e2ce	-8.993504e-06
186	0xb728b740	-1.00562465e-05
187	0x372148e3	9.613318e-06
188	0xb7a10c4c	-1.9198422e-05
189	0xb66f8fae	-3.5697408e-06
190	0x37bc15c9	2.2421491e-05
191	0x38bd8b0e	9.038123e-05
192	0xb6d6021e	-6.3779435e-06
193	0x37950312	1.7763614e-05
194	0xb7f56a22	-2.9255698e-05
195	0xb8cba78d	-9.711003e-05
196	0xb6602661	-3.340094e-06
197	0x376b9094	1.4040754e-05
198	0x386de37a	5.6717057e-05
199	0xb92306a2	-0.00015547362
200	0xb814830d	-3.5408e-05
201	0x381aede3	3.693801e-05
202	0x38be4cdc	9.074222e-05
203	0xb8a14ffc	-7.6919765e-05
204	0x374b04bc	1.2100845e-05
205	0x385d2a43	5.2729865e-05
206	0x372a3443	1.0144958e-05
207	0xb85f17f7	-5.3189662e-05
208	0x38105e26	3.4419958e-05
209	0x38ad6060	8.267234e-05
210	0x38642bd2	5.4400247e-05
211	0xb8d7c5a5	-0.00010288813
212	0xb601aa72	-1.932171e-06
213	0xb852d9ef	-5.0270868e-05
214	0xb7cec3d7	-2.4648309e-05
215	0x3919c43c	0.0001466432
216	0x36f491ea	7.2887533e-06
217	0x3725769e	9.862384e-06
218	0x37a9f01f	2.0258185e-05
219	0xb83da9a0	-4.5219087e-05
220	0x37ef22aa	2.8507162e-05
221	0x38279dcf	3.9962873e-05
222	0xb7e95100	-2.7813483e-05
223	0xb890f1d8	-6.911502e-05
224	0xb80cb614	-3.3548175e-05
225	0xb7a7000f	-1.9907979e-05
226	0xb8876395	-6.45585e-05
227	0x392a28de	0.00016227688
228	0x3727c014	9.998697e-06
229	0xb73b6089	-1.1168545e-05
230	0xb7b08e79	-2.1047179e-05
231	0x3760be5f	1.3395765e-05
232	0x379c0520	1.8599036e-05
233	0x35dc4121	1.6410232e-06
234	0x36c7a62a	5.950006e-06
235	0x383d02d9	4.5063764e-05
236	0xb63a5b7c	-2.776941e-06
237	0xb8142b56	-3.532631e-05
238	0xb8391ca9	-4.413413e-05
239	0xb695b074	-4.461088e-06
240	0x37d5e1f7	2.5496802e-05
241	0x36bf2226	5.696219e-06
242	0xb75485e8	-1.2667362e-05
243	0xb8128aa8	-3.4938246e-05
244	0x364d247c	3.0568617e-06
245	0xb7e95652	-2.781596e-05
246	0xb842ea0f	-4.647119e-05
247	0x3853415b	5.0367187e-05
248	0x37df3c3f	2.6611726e-05
249	0x386d3993	5.6558823e-05
250	0x382e5bda	4.1570376e-05
251	0xb8c88104	-9.560774e-05
252	0xb713133f	-8.766364e-06
253	0xb88ed77f	-6.811227e-05
254	0xb863ab3b	-5.428049e-05
255	0x38d08303	9.942616e-05

exp_avg_sq f4 [256, 4]
0	0x32d2a8a8	2.4523914e-08
1	0x333a6171	4.3395122e-08
2	0x34b0b37d	3.291315e-07
3	0x341c0014	1.452866e-07
4	0x323ec3e3	1.1103995e-08
5	0x3326fa5f	3.8877598e-08
6	0x331cdfd3	3.6525147e-08
7	0x33f6328c	1.1464462e-07
8	0x319d61a0	4.5804e-09
9	0x336a2252	5.4513585e-08
10	0x32c86923	2.3330875e-08
11	0x340d4edc	1.3160337e-07
12	0x31bdeb44	5.5273706e-09
13	0x32bb6efa	2.1820131e-08
14	0x32a9838d	1.9734012e-08
15	0x33cd22d0	9.552389e-08
16	0x35a4ec6e	1.2287762e-06
17	0x32afb713	2.0455934e-08
18	0x348acfd6	2.5855724e-07
19	0x35b43ae2	1.3428182e-06
20	0x3273b637	1.41858925e-08
21	0x333a5a2d	4.3388514e-08
22	0x32f039f6	2.7966035e-08
23	0x340d1b34	1.3141545e-07
24	0x31c9dda4	5.8750675e-09
25	0x33077f3e	3.1547863e-08
26	0x32cefd61	2.409678e-08
27	0x3426f7b6	1.5550071e-07
28	0x31aa9e58	4.9656528e-09
29	0x32eaabb9	2.7319276e-08
30	0x32ef4dc7	2.7858631e-08
31	0x340adaf1	1.2931902e-07
32	0x32048497	7.713559e-09
33	0x33286084	3.920333e-08
34	0x32c62af3	2.3069765e-08
35	0x3401436c	1.2038589e-07
36	0x31f5c530	7.152856e-09
37	0x330edcc0	3.3262722e-08
38	0x32c44bbc	2.2851843e-08
39	0x3421a9d5	1.5056078e-07
40	0x322fedd5	1.0240417e-08
41	0x3315c244	3.486845e-08
42	0x3307766c	3.153984e-08
43	0x3422f7f6	1.5177633e-07
44	0x3216dd34	8.781445e-09
45	0x331c4dc5	3.639231e-08
46	0x3292ad4f	1.7075449e-08
47	0x3424ceda	1.5348942e-07
48	0x321f7cc5	9.283387e-09
49	0x32ef9192	2.788946e-08
50	0x3300a3fa	2.9951458e-08
51	0x342ab1dc	1.5897189e-07
52	0x3191a20c	4.238478e-09
53	0x32cc8e50	2.3813442e-08
54	0x32b22cc8	2.0742291e-08
55	0x340e8343	1.3272533e-07
56	0x3208930a	7.949675e-09
57	0x3314831d	3.4578182e-08
58	0x32cf022c	2.409896e-08
59	0x342e88c4	1.6254768e-07
60	0x31b505d0	5.268454e-09
61	0x32ecc2a6	2.7562532e-08
62	0x32dc79d0	2.5666765e-08
63	0x341d0f70	1.462738e-07
64	0x31b42fed	5.244138e-09
65	0x32ed0a4a	2.759511e-08
66	0x32f0d092	2.8034524e-08
67	0x3431733b	1.652633e-07
68	0x31a84173	4.8968842e-09
69	0x32d8496e	2.5179101e-08
70	0x32b39bfb	2.0909274e-08
71	0x34127d76	1.3642952e-07
72	0x31ceba1e	6.016548e-09
73	0x32f750b3	2.8791282e-08
74	0x32f35ba3	2.8330595e-08
75	0x3425d3f8	1.5443936e-07
76	0x31bd78ae	5.5143436e-09
77	0x32f442de	2.8435746e-08
78	0x32c58581	2.2994529e-08
79	0x341ff4a3	1.4897027e-07
80	0x31e90c84	6.7826154e-09
81	0x3305fdcc	3.1197303e-08
82	0x32d69f55	2.4985335e-08
83	0x3421a321	1.505364e-07
84	0x31dd1157	6.433918e-09
85	0x331f642c	3.7111178e-08
86	0x32da7606	2.5432211e-08
87	0x342e0144	1.6205473e-07
88	0x31b1db27	5.1762927e-09
89	0x32f02486	2.7956286e-08
90	0x32c96d2b	2.3449124e-08
91	0x33ff8f1b	1.19003936e-07
92	0x31e93f75	6.7884067e-09
93	0x32f153e4	2.8094242e-08
94	0x32c5c18a	2.302183e-08
95	0x3417dd01	1.4143372e-07
96	0x31e2287a	6.5820673e-09
97	0x3321ef07	3.7703128e-08
98	0x32a7a9e5	1.9518618e-08
99	0x3407591c	1.2605273e-07
100	0x33b2fbd9	8.334582e-08
101	0x32e348ae	2.6459329e-08
102	0x32c8cf2f	2.337728e-08
103	0x344c659b	1.9035944e-07
104	0x320c6ab9	8.1733385e-09
105	0x332b8d9f	3.9942844e-08
106	0x32fef1d9	2.9679471e-08
107	0x34217ff3	1.5040841e-07
108	0x32131f87	8.563695e-09
109	0x3304bb3f	3.0903944e-08
110	0x32ebfb96	2.7472009e-08
111	0x341c2fef	1.454607e-07
112	0x31c1bb91	5.638363e-09
113	0x32f44009	2.8434458e-08
114	0x32ef6ffd	2.7874188e-08
115	0x3429d89a	1.581815e-07
116	0x32207d9c	9.341786e-09
117	0x33277e93	3.8997836e-08
118	0x32e03e5f	2.6105395e-08
119	0x34260e80	1.546523e-07
120	0x32008a3b	7.482011e-09
121	0x330139e2	3.0087797e-08
122	0x3298c569	1.77849e-08
123	0x340fe74e	1.3402061e-07
124	0x319da803	4.588402e-09
125	0x32e14b48	2.6227681e-08
126	0x32db339b	2.5518423e-08
127	0x33fcf0b9	1.17784516e-07
128	0x31d88c24	6.3023595e-09
129	0x33045c6a	3.0817695e-08
130	0x32cb65cd	2.3678604e-08
131	0x34293361	1.5758043e-07
132	0x31b40c91	5.240118e-09
133	0x32db4b68	2.5529246e-08
134	0x32cdc3d5	2.3954195e-08
135	0x33fd98e1	1.1809039e-07
136	0x31fcbeec	7.3558706e-09
137	0x330ff6cf	3.3519253e-08
138	0x32d45f99	2.4723521e-08
139	0x34463c81	1.8462198e-07
140	0x321e6b89	9.221261e-09
141	0x331dd753	3.6750247e-08
142	0x32dc1070	2.5618846e-08
143	0x34495294	1.8749625e-07
144	0x31ee1f4a	6.930269e-09
145	0x32e8cf9c	2.7102764e-08
146	0x32edc57c	2.7680237e-08
147	0x3419611c	1.4284564e-07
148	0x31bb597d	5.45259e-09
149	0x331f3dde	3.707634e-08
150	0x32e5c5fb	2.674914e-08
151	0x343477d7	1.6807404e-07
152	0x322a8ff9	9.928038e-09
153	0x332d7f56	4.0395513e-08
154	0x32df30f0	2.5982871e-08
155	0x344349bd	1.8187616e-07
156	0x31d0c40f	6.075886e-09
157	0x32ee7991	2.7762129e-08
158	0x32dbb66b	2.557791e-08
159	0x3409bbf9	1.2827503e-07
160	0x31b52d96	5.272976e-09
161	0x32e45e3c	2.6585546e-08
162	0x32ca2281	2.3531586e-08
163	0x342023af	1.4914143e-07
164	0x31e565dc	6.6763572e-09
165	0x32f7f484	2.8865777e-08
166	0x330113bb	3.0053098e-08
167	0x342c9175	1.6071665e-07
168	0x3232fbe8	1.04182405e-08
169	0x3314af87	3.4618576e-08
170	0x33065200	3.1273885e-08
171	0x33fd1343	1.1784734e-07
172	0x31e3954b	6.623542e-09
173	0x32c75933	2.3207212e-08
174	0x32eafe4e	2.735683e-08
175	0x3409d639	1.2837053e-07
176	0x31d5bb28	6.220393e-09
177	0x330af3e6	3.2352453e-08
178	0x32db06d4	2.549806e-08
179	0x34220176	1.5087957e-07
180	0x31cc6abc	5.9493157e-09
181	0x32decbfa	2.593696e-08
182	0x32b192a6	2.06722e-08
183	0x3408712e	1.2707162e-07
184	0x31ef5e76	6.9665544e-09
185	0x3303d24d	3.069208e-08
186	0x32d5b079	2.4876714e-08
187	0x341dce8d	1.4696907e-07
188	0x31df1325	6.4923307e-09
189	0x32f6586d	2.867838e-08
190	0x32cf91aa	2.4164212e-08
191	0x341da84f	1.4682995e-07
192	0x31ec8a38	6.8842176e-09
193	0x32e91877	2.7135895e-08
194	0x32eeae40	2.7786086e-08
195	0x3416f5e3	1.4059292e-07
196	0x31ec712d	6.8813706e-09
197	0x32c898d2	2.3352559e-08
198	0x32a464f3	1.913802e-08
199	0x33de34a5	1.03472566e-07
200	0x32a4f3ab	1.920292e-08
201	0x33079858	3.1570693e-08
202	0x333419d8	4.193302e-08
203	0x3423fa94	1.5271718e-07
204	0x319de3d7	4.5952038e-09
205	0x3303f09e	3.0719654e-08
206	0x32eb451e	2.7389031e-08
207	0x341a4b43	1.4369748e-07
208	0x32229050	9.462454e-09
209	0x3338b972	4.30095e-08
210	0x32e06bfb	2.6126136e-08
211	0x342615a5	1.5467829e-07
212	0x323fcfe3	1.1164931e-08
213	0x3336d3e3	4.2567887e-08
214	0x32ae0234	2.0257268e-08
215	0x3445b84b	1.84141e-07
216	0x321bbd13	9.065178e-09
217	0x3300210a	2.983237e-08
218	0x32c73a4c	2.319316e-08
219	0x3420527f	1.4931173e-07
220	0x31d4f8de	6.198305e-09
221	0x32d0013b	2.4214946e-08
222	0x32b37b3f	2.0894388e-08
223	0x34020a88	1.2111025e-07
224	0x32a7eb7b	1.9548443e-08
225	0x3362f97b	5.2846627e-08
226	0x330d96a5	3.296613e-08
227	0x34647162	2.1275403e-07
228	0x31bf5e95	5.5695843e-09
229	0x331a88ed	3.5980452e-08
230	0x32d5996a	2.4866228e-08
231	0x34092c34	1.27752e-07
232	0x3193a1b7	4.296648e-09
233	0x32d6f1ea	2.5022889e-08
234	0x32d2e660	2.455198e-08
235	0x3404ef9a	1.2380625e-07
236	0x31f9559f	7.2565878e-09
237	0x32e265e3	2.6356195e-08
238	0x32c890db	2.3348937e-08
239	0x34094fc2	1.2788135e-07
240	0x31ff9057	7.4378863e-09
241	0x3305ec40	3.1181344e-08
242	0x32bb5d39	2.1812058e-08
243	0x34181e23	1.4167067e-07
244	0x31b32af4	5.214469e-09
245	0x32fbbab4	2.9305149e-08
246	0x32d3b8ae	2.4647616e-08
247	0x34172dba	1.4079606e-07
248	0x3213ccfd	8.603135e-09
249	0x32f9eac8	2.9094181e-08
250	0x32f86e8b	2.8921269e-08
251	0x340c9800	1.3093813e-07
252	0x31c951b3	5.859158e-09
253	0x32dd400e	2.5756915e-08
254	0x3301fb4b	3.0263703e-08
255	0x34222fe5	1.510485e-07

exp_avg f4 [12, 4]
0	0xb360c035	-5.2328875e-08
1	0x35df00be	1.6615011e-06
2	0xb59edd95	-1.1836406e-06
3	0xb4f4c1f0	-4.558965e-07
4	0xb3ca8f77	-9.432454e-08
5	0xb42038fb	-1.492189e-07
6	0x3414c16a	1.3853938e-07
7	0x34076d97	1.2612723e-07
8	0xb3965180	-6.999744e-08
9	0xb5bfe4ca	-1.4297195e-06
10	0x36879d5f	4.041634e-06
11	0xb62204b6	-2.4142623e-06
12	0xb5713640	-8.985844e-07
13	0xb687e9a6	-4.050514e-06
14	0x325a1de6	1.2696068e-08
15	0x36a54e07	4.9264668e-06
16	0xb515e472	-5.5839257e-07
17	0xb556bc21	-7.9994976e-07
18	0x35bdc9bb	1.4140309e-06
19	0xb3273fc7	-3.8940723e-08
20	0xb321dcca	-3.768654e-08
21	0xb357f7e1	-5.0284033e-08
22	0x33562f68	4.9868873e-08
23	0x332d63df	4.0370534e-08
24	0x364208ac	2.89133e-06
25	0x3615b19b	2.230611e-06
26	0xb60340ac	-1.9558165e-06
27	0xb64fc846	-3.0961978e-06
28	0x361eb591	2.364952e-06
29	0x36601489	3.3390554e-06
30	0xb631a8ab	-2.6473233e-06
31	0xb64c89e1	-3.0478625e-06
32	0x379015b8	1.7176251e-05
33	0x37c197c2	2.307806e-05
34	0xb80e84e8	-3.3979217e-05
35	0xb6d3d99c	-6.313623e-06
36	0x37302256	1.0498412e-05
37	0x3780f131	1.5371103e-05
38	0xb74026a4	-1.14530885e-05
39	0xb76e1230	-1.419014e-05
40	0x3793becf	1.7612618e-05
41	0x37e43d21	2.7208183e-05
42	0xb8219d04	-3.8531623e-05
43	0xb6d86f2f	-6.450245e-06
44	0x383b0dde	4.459719e-05
45	0x381e11c9	3.76867e-05
46	0xb89ccf13	-7.47723e-05
47	0xb6f8c84c	-7.4142936e-06

exp_avg_sq f4 [12, 4]
0	0x308c85d4	1.0224377e-09
1	0x2f90d5d4	2.6345381e-10
2	0x30a09067	1.1682574e-09
3	0x2f39e13f	1.6905675e-10
4	0x2cfa6596	7.1167057e-12
5	0x2b985972	1.0825076e-12
6	0x2d0b703b	7.926155e-12
7	0x2b491f89	7.145331e-13
8	0x30167b02	5.4744487e-10
9	0x2ee1b1dc	1.02634096e-10
10	0x3021d380	5.887202e-10
11	0x2ea608a1	7.550339e-11
12	0x30a69ea6	1.212318e-09
13	0x30512e0b	7.609919e-10
14	0x30fa1fc2	1.819892e-09
15	0x2fc1858b	3.5201383e-10
16	0x301234d6	5.3189575e-10
17	0x2f4e3a50	1.8756308e-10
18	0x300f0f8a	5.204518e-10
19	0x2f410c39	1.755759e-10
20	0x2bf5efa5	1.7474812e-12
21	0x2af7e98e	4.4038075e-13
22	0x2bb28527	1.2684618e-12
23	0x2b3318cc	6.362799e-13
24	0x30022154	4.7341087e-10
25	0x2eec0cdd	1.07343225e-10
26	0x2fb3deac	3.2718128e-10
27	0x2f21c213	1.4711814e-10
28	0x3018649f	5.544027e-10
29	0x2feecca2	4.3437348e-10
30	0x3027de10	6.1069816e-10
31	0x2fd9bba4	3.9605397e-10
32	0x347290fc	2.2590751e-07
33	0x3440363d	1.7901125e-07
34	0x3513e959	5.5101333e-07
35	0x343604ce	1.6951819e-07
36	0x32c18034	2.2526457e-08
37	0x32887835	1.5887148e-08
38	0x32ba19af	2.166493e-08
39	0x32bc6e61	2.1936275e-08
40	0x343e55e8	1.7726381e-07
41	0x341807f1	1.4158992e-07
42	0x34e61f8f	4.28638e-07
43	0x340ee36c	1.3307516e-07
44	0x35103957	5.372762e-07
45	0x34d6f781	4.004069e-07
46	0x3521ea8d	6.031849e-07
47	0x34cdaf98	3.8311987e-07

exp_avg f4 [4, 4]
0	0x388b5651	6.644114e-05
1	0x37691ce5	1.389461e-05
2	0x385c3cb9	5.250864e-05
3	0x3852ce61	5.0260107e-05
4	0x379a0d90	1.8364546e-05
5	0xb68f6189	-4.2730867e-06
6	0x3778be42	1.482625e-05
7	0x381761a4	3.609214e-05
8	0x382ac402	4.0713705e-05
9	0xb6e801d6	-6.9143525e-06
10	0x37caf402	2.4193901e-05
11	0x37c6a02a	2.3678022e-05
12	0xb92aeb3d	-0.00016300096
13	0xb66c6363	-3.522459e-06
14	0xb8ff10ab	-0.00012162452
15	0xb8ccfc96	-9.774526e-05

exp_avg_sq f4 [4, 4]
0	0x35138417	5.4953983e-07
1	0x33174c49	3.5226808e-08
2	0x34cdb325	3.831457e-07
3	0x34b662a2	3.3971907e-07
4	0x361a6f8a	2.3012713e-06
5	0x341f6223	1.4843731e-07
6	0x35df3f54	1.6633226e-06
7	0x35b90ccd	1.37873e-06
8	0x35ee7e51	1.7769145e-06
9	0x3405d88b	1.2465368e-07
10	0x35b3bdf0	1.3391818e-06
11	0x359c7985	1.1658273e-06
12	0x3724436a	9.790858e-06
13	0x35335c49	6.681699e-07
14	0x36f84404	7.398894e-06
15	0x36d2ed5a	6.286119e-06

exp_avg f4 [16, 4]
0	0xb726d32b	-9.943537e-06
1	0x383c355a	4.487238e-05
2	0x37c0f2c4	2.300123e-05
3	0xb86caa01	-5.6425113e-05
4	0x3795e8a7	1.7870521e-05
5	0x3851d44b	5.0027196e-05
6	0x370c25f9	8.3534915e-06
7	0xb89b9566	-7.4188036e-05
8	0xb770f127	-1.4361262e-05
9	0xb89094c6	-6.894166e-05
10	0x386bf751	5.6258697e-05
11	0x37d83405	2.577343e-05
12	0x3837d28e	4.3826694e-05
13	0x343cfb1d	1.7600219e-07
14	0xb80d9c26	-3.3762444e-05
15	0xb72548d3	-9.851722e-06
16	0xb89bf438	-7.436465e-05
17	0x388db0c5	6.75633e-05
18	0x3772e23a	1.44769965e-05
19	0xb6f207bc	-7.2130624e-06
20	0xb8bcd26b	-9.003732e-05
21	0x38a8f15c	8.055821e-05
22	0x366eb92e	3.5572552e-06
23	0x36cd2c02	6.1145993e-06
24	0x38ba0b19	8.871238e-05
25	0x3954fd26	0.000203122
26	0xb9462496	-0.00018896381
27	0xb8cec42b	-9.8593846e-05
28	0x384f0ee2	4.9366507e-05
29	0x3815b18b	3.5689718e-05
30	0xb829b27d	-4.045897e-05
31	0xb8350545	-4.315867e-05
32	0xb856a89c	-5.1178606e-05
33	0x36a57100	4.930538e-06
34	0x3815a5c1	3.567874e-05
35	0x372a92fa	1.016701e-05
36	0xb764fd45	-1.3648828e-05
37	0xb873ba35	-5.8109134e-05
38	0x386c4a64	5.6336066e-05
39	0x37743bd3	1.4557462e-05
40	0xb8986b32	-7.2678915e-05
41	0xb902d4df	-0.00012477067
42	0x38f45b57	0.0001165184
43	0x38a35286	7.787817e-05
44	0x375c4961	1.3130107e-05
45	0xb7c1262c	-2.3025168e-05
46	0xb78fd496	-1.7145921e-05
47	0x37dd7dd2	2.6403843e-05
48	0x38140620	3.5291654e-05
49	0xb819fc00	-3.6712736e-05
50	0xb82c3e0e	-4.106579e-05
51	0x382e32a5	4.1532e-05
52	0x38013a5f	3.081036e-05
53	0xb86e3111	-5.678932e-05
54	0xb7ec3522	-2.8158134e-05
55	0x385c8525	5.2576088e-05
56	0x36ec077a	7.0342185e-06
57	0xb8857d1a	-6.365236e-05
58	0x372c47ee	1.0268746e-05
59	0x383c1cce	4.484952e-05
60	0xb5873e6b	-1.007645e-06
61	0x37de2e22	2.6485945e-05
62	0x370c51e5	8.363718e-06
63	0xb809fcee	-3.2898904e-05

exp_avg_sq f4 [16, 4]
0	0x34e07bae	4.181324e-07
1	0x34861561	2.4975e-07
2	0x351914fe	5.702749e-07
3	0x3435d40c	1.6934081e-07
4	0x34a98d17	3.158136e-07
5	0x34724a39	2.2565008e-07
6	0x34d2c8cd	3.926165e-07
7	0x343e8ead	1.7747034e-07
8	0x33d3753b	9.846777e-08
9	0x33cb948c	9.479945e-08
10	0x344f83e8	1.9326365e-07
11	0x331d6804	3.6649013e-08
12	0x3303e9f9	3.071361e-08
13	0x329e274d	1.8411493e-08
14	0x33377b05	4.2719893e-08
15	0x323cd6ab	1.099185e-08
16	0x34a57aa7	3.0822886e-07
17	0x34831dba	2.442228e-07
18	0x3513f231	5.51142e-07
19	0x33e4f7c1	1.06621435e-07
20	0x34a502db	3.0735723e-07
21	0x348b2d73	2.5923836e-07
22	0x3523d59a	6.1033063e-07
23	0x33c5e502	9.2151836e-08
24	0x34d5487a	3.9727075e-07
25	0x349f2603	2.9643715e-07
26	0x35186bdd	5.6781374e-07
27	0x343dcda8	1.7676814e-07
28	0x34095247	1.2789052e-07
29	0x33879ea6	6.3152854e-08
30	0x34371581	1.7051026e-07
31	0x3333427a	4.1737145e-08
32	0x330e764c	3.3169542e-08
33	0x3311e80c	3.397149e-08
34	0x3389dd4b	6.4198126e-08
35	0x326d16e8	1.3800424e-08
36	0x3353c280	4.9304163e-08
37	0x336405f6	5.3090808e-08
38	0x33e8f31c	1.0847563e-07
39	0x32904e75	1.6799484e-08
40	0x34164283	1.3994035e-07
41	0x3416f5b1	1.405922e-07
42	0x348a357f	2.5743427e-07
43	0x338d0fce	6.568699e-08
44	0x33fa37f1	1.1651708e-07
45	0x3391b064	6.784174e-08
46	0x3429448a	1.5764286e-07
47	0x33441333	4.5652268e-08
48	0x349c9c94	2.917119e-07
49	0x342a751a	1.5875085e-07
50	0x34c6d02d	3.7031842e-07
51	0x33fd8a0f	1.1806343e-07
52	0x3449547f	1.8750323e-07
53	0x340c88f5	1.3088341e-07
54	0x348319d1	2.4419435e-07
55	0x33d1c6d0	9.768485e-08
56	0x3425e4a7	1.5450006e-07
57	0x3409ef06	1.2846075e-07
58	0x347e649e	2.3692198e-07
59	0x33a2c56d	7.5796244e-08
60	0x3432a88a	1.6638856e-07
61	0x33cbf61b	9.4976905e-08
62	0x3476d4e4	2.2987984e-07
63	0x33858966	6.218288e-08

exp_avg f4 [4, 16]
0	0xb800ad9a	-3.0679257e-05
1	0xb7f45d28	-2.9130446e-05
2	0x3637f3c5	2.7411018e-06
3	0x36f88fe4	7.407727e-06
4	0xb7f4afb2	-2.9168881e-05
5	0xb842ecea	-4.6473848e-05
6	0xb6bce4e4	-5.629483e-06
7	0xb7845335	-1.5774373e-05
8	0xb7ce8115	-2.4617222e-05
9	0x37f37d85	2.9026307e-05
10	0xb7ac1f50	-2.0518579e-05
11	0x37cad8b3	2.4181185e-05
12	0x372eb37a	1.0412996e-05
13	0xb7307ac7	-1.0519004e-05
14	0x36a1dc1e	4.823799e-06
15	0xb7e45104	-2.7217444e-05
16	0x39179787	0.0001445693
17	0x38812f35	6.159992e-05
18	0xb8a0ef78	-7.673999e-05
19	0x38aadd63	8.147468e-05
20	0xb785a1f0	-1.5930244e-05
21	0xb8823872	-6.209397e-05
22	0xb8a80918	-8.012558e-05
23	0x390c9f44	0.00013410771
24	0xb88f2924	-6.8264344e-05
25	0xb8843a71	-6.305136e-05
26	0xb9176fef	-0.0001444218
27	0xb7867070	-1.6026403e-05
28	0x38011356	3.0774005e-05
29	0x37e21e70	2.6955473e-05
30	0xb8198232	-3.6599296e-05
31	0x390c3f84	0.00013375102
32	0x39182242	0.00014508612
33	0x382e0a6b	4.1494535e-05
34	0xb84217f5	-4.6275516e-05
35	0x388c3686	6.685876e-05
36	0x384061f3	4.586759e-05
37	0x383bdc45	4.4789416e-05
38	0x399bf0b0	0.0002974323
39	0x39018eb9	0.00012355567
40	0x32367a66	1.06216245e-08
41	0xb77c0d70	-1.5023499e-05
42	0xb8cc55f9	-9.743492e-05
43	0xb7a302da	-1.9432442e-05
44	0x34b1a793	3.3090745e-07
45	0xb7484fb8	-1.193949e-05
46	0xb82810c7	-4.0069946e-05
47	0x390a24f5	0.00013174473
48	0x388f35f0	6.828818e-05
49	0x3916fdcd	0.00014399663
50	0x36eec1ec	7.115528e-06
51	0xb8f13214	-0.00011501103
52	0x3905f92a	0.00012776689
53	0x39652857	0.0002185417
54	0xb9369497	-0.00017412227
55	0xb757afa8	-1.2855897e-05
56	0x38fcb6f7	0.00012050376
57	0xb929b5e1	-0.00016184851
58	0x395fc449	0.00021340059
59	0xb91229da	-0.00013939236
60	0xb8bc2a88	-8.972461e-05
61	0x387ce0e8	6.0290942e-05
62	0x3716bdf3	8.984923e-06
63	0x386d8253	5.6626577e-05

exp_avg_sq f4 [4, 16]
0	0x34428d19	1.8118989e-07
1	0x33b3208e	8.341259e-08
2	0x32e48c92	2.6606617e-08
3	0x322791c3	9.753822e-09
4	0x3391c718	6.7883036e-08
5	0x34073f62	1.2595913e-07
6	0x350d91b3	5.2738613e-07
7	0x33d4bde2	9.906559e-08
8	0x32e8597e	2.7049051e-08
9	0x342b8aed	1.5976157e-07
10	0x327d578c	1.4746444e-08
11	0x33b4757f	8.4032756e-08
12	0x32fb3f29	2.9248968e-08
13	0x327c9c60	1.4703886e-08
14	0x3268fb86	1.3561367e-08
15	0x341fd1ff	1.4884425e-07
16	0x3513b9a3	5.5031904e-07
17	0x34916ce7	2.7087592e-07
18	0x33a110a9	7.500177e-08
19	0x32f2dbc1	2.827244e-08
20	0x34570e17	2.0028561e-07
21	0x34c59e1c	3.680915e-07
22	0x35311c7e	6.59791e-07
23	0x34973239	2.8162484e-07
24	0x339a093b	7.172863e-08
25	0x34cb8853	3.7910885e-07
26	0x3357a2fe	5.020683e-08
27	0x348060a3	2.391217e-07
28	0x33c2c840	9.070254e-08
29	0x33394f8c	4.3146017e-08
30	0x33183989	3.5442586e-08
31	0x34f09242	4.48099e-07
32	0x34c4f003	3.6682476e-07
33	0x348951cd	2.5577756e-07
34	0x33813034	6.015799e-08
35	0x32d46af2	2.4728681e-08
36	0x33ebc000	1.0977965e-07
37	0x345b66f3	2.0433417e-07
38	0x35de6b0d	1.6571445e-06
39	0x343909d1	1.7233039e-07
40	0x332bd771	4.0009983e-08
41	0x34b42e10	3.3561128e-07
42	0x3388ce14	6.370479e-08
43	0x342ee5f7	1.6288674e-07
44	0x337ba3c2	5.858943e-08
45	0x3344f0e9	4.5853913e-08
46	0x32a2b56c	1.8941783e-08
47	0x349ef187	2.9605528e-07
48	0x363c9474	2.8100594e-06
49	0x35d57531	1.5903844e-06
50	0x34d2bd29	3.925318e-07
51	0x3401764c	1.2057097e-07
52	0x356d4ea6	8.840383e-07
53	0x35d3e988	1.5788692e-06
54	0x361479a0	2.2124514e-06
55	0x35ba3eb7	1.3876332e-06
56	0x348c3c5f	2.6120958e-07
57	0x36026538	1.9430427e-06
58	0x3485fd91	2.4957674e-07
59	0x359c2c42	1.1635786e-06
60	0x34ce23e1	3.8396595e-07
61	0x34691dee	2.1710704e-07
62	0x342883a0	1.5694104e-07
63	0x3618f147	2.2790207e-06
