out-tss50/ckpt_iter_500.pt (torch, 48048 bytes, 64 tensors)

transformer.wte.weight f4 [5, 4]
00000000: 603d 89be 60fb 91be 272f a03e a319 5a3e
00000010: 4a86 443e 8c58 4d3e ad56 1fbe be7f 1abe
00000020: 688c 143e 8935 e53d 1226 11be 48d9 1fbe
00000030: e271 e33d bc90 163e ee6b 2bbe b663 03be
00000040: febe 4d3e aae4 3c3e 4b68 50be 97a5 2fbe
-0.26804638 -0.28512096 0.31285974 0.21298842 0.19191852 0.20053309 -0.15560408 -0.15087792
0.14506686 0.11191852 -0.14174679 -0.1561023 0.11105706 0.1470365 -0.1674039 -0.12831005
0.20092389 0.18446603 -0.20352285 -0.17153011

transformer.wpe.weight f4 [256, 4]
00000000: 16e2 d7b9 15e3 7f3b de4a aebc d6f3 ac38
00000010: c7e6 fd3c 1308 2f3d 8664 c8bc b66d dfbc
00000020: 9bfb 683d ac1d 8f3d 1570 1abd 2498 8bbd
00000030: 9ea4 303d cc35 493d a7e9 cbbc f31d 0ebd
00000040: 318a 0c3d a3d1 a53c 9f1a d9bc eb23 56bd
00000050: 627e 7a3c ab29 763c 8919 f4bb 35c4 59bc
00000060: 227d 353d b29b 5f3c 177e 0dbd 81da 2fbd
00000070: 3a6d 933c 65b8 ed3c e896 5abc 6a1e 0bbd
00000080: 5964 293d 88d8 c43b 6c68 94ba 2dc0 bbbb
00000090: 3cfa ff3b ad40 643b f550 3cbc 1dd6 adbc
000000a0: 582c 053d f734 523c bd69 85bc 5b8d 9ebc
000000b0: dcba 383c 04e1 b6bb 238a 55bc 944f 18bc
000000c0: 58e7 053c 5d03 623b c050 753c d850 0bbc
000000d0: 2c9a e93c cb1f 863c 0d59 f5bc 779e 22bd
000000e0: e443 643c bf2d 223c 2e7a 8ebb 580e 03bc
000000f0: 314a bd3c e59f 0b3c 2b47 66bc 12b3 7fbc
00000100: f322 913c 3c0f 8c3c a657 7cbc 612e e4bb
00000110: 013e 123d 61c1 963c e50e 96bc bb09 d5bc
00000120: df1f b33c 276f 1a3d e653 a0bc d0ff 2bbd
00000130: 09e4 843c b721 363c 06a4 b6bc 6bd3 f8bc
00000140: 74e1 443c e062 873c d652 16bb c3b5 d5bc
00000150: c5c1 013d a55e e33c 898b cd38 3998 8d3c
00000160: 4e3b 163d 63f0 9c3c d0a9 a9bb 0b57 b3bc
00000170: e801 c53b 7851 513c bfca 7dbc a6f6 143b
00000180: 8eb7 fdb9 8ec5 dd3c c2db 90bc 677d 81bc
00000190: 43fb da3b 7d09 153b 86f8 8bbc 241b 8a3c
000001a0: 041f 9cbb 4db5 443b d816 6fbc c71d 1abd
000001b0: 34e2 be3c 2d23 efbb 9e90 9dbb 363a 37bc
000001c0: 1ff2 763c c6db 803c ccce abbb b7c6 f1bc
000001d0: d001 2c3c 6718 0e3d b23d 9fbc 79b7 dfbc
000001e0: 2a3a 153d 505a 303c 129e 88bc c4d2 dfbc
000001f0: 29fe 783c 375a 76bc 5c92 c3bb 3634 16bd
00000200: fb0b 7b3c 2f7d 8e3b 4709 5a3c 7dd9 8f3c
00000210: 56d5 953c 6084 1a3b e63e 22bb f7ff 8bbc
00000220: 2028 323c 1433 c03a 7404 31bc e5a7 bebc
00000230: d890 253c 8e3f 753c 9cf5 6ebc 1524 80bc
00000240: bc6a e6ba a664 6f3c 4a84 063b 14b0 4c3c
00000250: 0f34 de3c de68 643c eb64 5dba 1c00 90bc
00000260: 91e4 c13c b28c a93c e903 60bc c356 81bc
00000270: 16e5 563b ecf6 d4bb 64b2 78bc 2cb0 a4bc
00000280: 83f8 d43c f90d 103d 123c ccbb 6781 b7bc
00000290: 6953 09bc 33d9 0b3b 1d34 b1bb 5783 51bc
000002a0: 8c16 7f3c 6ad8 c93b 6b7e b0bc c150 07bd
000002b0: 3904 b6bb 7d24 d83c 751d 84bc e269 f8bb
000002c0: 4079 46bc 036a e4bb 322d 39bc e9c2 a03a
000002d0: 0202 013c 832d 93bb c7fa 13bd 7b69 15bd
000002e0: 204e a13c d5d5 0d3d 9753 b5bb 23a8 69bc
000002f0: 2a98 403c b3db e93b 4ea0 123a b544 fa3c
00000300: fbce 2d3d 18c2 263c 1a5a aaba e62d f2b8
00000310: bf22 bd3c ac92 ff3c 9a6c a03b 1ea2 d0bc
00000320: d5be 523c d0e4 83bc a610 8a3b 148a 21bc
00000330: 7fb0 563a 4dca f73c 83ef e4bb e8be 0bbc
00000340: 5372 f43c 58b5 913c 6187 a9bc 9d00 f1bc
00000350: ff8b b43c f446 8139 1612 85bc c29d 803c
00000360: 3e7d 233c b367 11bc 4502 debb 8dea 2cb8
00000370: 2871 233c 45e9 053b 4135 babb 44e2 cfbc
00000380: a153 cd3c 3004 9e3c d6bb eebb bcd4 96bc
00000390: 2d7d 9e3c 28c8 eb3c 7fdd 43bc eec7 23bd
000003a0: 2233 88bb b639 6a3a 7775 7fbc 76bf ffbc
000003b0: 15b3 eb3a fba2 283c d35b e1bb 6efc 883b
000003c0: bbff 473c aa14 7d3c cf01 b4bb 3f16 73bc
000003d0: ab4b bb3c bbd7 743b d8cd 26bc 2c77 ccbc
000003e0: e6f6 913c 8112 633c f93f e2bb 7a83 413c
000003f0: e994 72bc af79 dc3b 82e1 42bc b1b0 07bc
-0.00041176443 0.0039045264 -0.021275934 8.247017e-05 0.030993832 0.04273231 -0.024461996 -0.027273994
0.056880575 0.06988081 -0.037704546 -0.06816128 0.04312574 0.04912357 -0.024891688 -0.03469653
0.034311477 0.020241564 -0.026501952 -0.052280348 0.015288921 0.015024583 -0.007449333 -0.013291408
0.04430879 0.0136479605 -0.034544077 -0.04293299 0.01799642 0.02901859 -0.013341643 -0.033964552
0.041355465 0.006007258 -0.0011322624 -0.0057296962 0.0078118127 0.0034828589 -0.011493911 -0.021220261
0.032512993 0.012830011 -0.016285772 -0.019354513 0.0112750195 -0.005581023 -0.013033423 -0.009296317
0.008172832 0.0034486868 0.014972866 -0.008503161 0.028515898 0.016372582 -0.02994969 -0.039701905
0.013932202 0.009898602 -0.004348061 -0.007999025 0.023106666 0.008522009 -0.014055054 -0.0156066585
0.01771686 0.017097108 -0.015401756 -0.0069635366 0.035703663 0.018402757 -0.01831765 -0.026005616
0.021865783 0.03770366 -0.019571256 -0.04199201 0.016222017 0.011116437 -0.02229501 -0.03037425
0.012016643 0.01652664 -0.0022937558 -0.026087647 0.031678934 0.027755091 9.801152e-05 0.0172845
0.03667765 0.019157594 -0.005177714 -0.021892091 0.00601219 0.012775771 -0.015490233 0.0022730022
-0.0004839268 0.02707174 -0.017682914 -0.015806867 0.0066827848 0.002274125 -0.017086279 0.016858645
-0.0047644395 0.003001529 -0.014592849 -0.037626054 0.023301221 -0.0072978945 -0.0048084995 -0.011183312
0.015072375 0.015729796 -0.005243158 -0.0295137 0.010498479 0.03469124 -0.019438598 -0.027309166
0.036432423 0.01076372 -0.016676936 -0.02732218 0.015197315 -0.015036157 -0.005968375 -0.036670886
0.015322681 0.004348419 0.013307876 0.017559761 0.018290203 0.0023577437 -0.0024756729 -0.017089827
0.010873824 0.001466366 -0.010804284 -0.023273418 0.010105334 0.014968766 -0.014584925 -0.015642205
-0.0017579417 0.014611399 0.0020525628 0.012493152 0.027124433 0.013941018 -0.0008445519 -0.017578177
0.02366856 0.020696972 -0.013672807 -0.015788442 0.0032790354 -0.006499162 -0.01517925 -0.020103537
0.025997406 0.035169575 -0.006232747 -0.022400571 -0.008381703 0.0021339178 -0.0054078237 -0.0127876615
0.01556934 0.006159832 -0.021544656 -0.033035997 -0.0055547026 0.026384586 -0.016127327 -0.0075809816
-0.012113869 -0.0069706454 -0.011302279 0.0012265119 0.007874014 -0.0044915094 -0.03612783 -0.036477547
0.019690573 0.034627754 -0.0055336463 -0.014261278 0.011755029 0.007136786 0.0005593345 0.03055034
0.04243372 0.0101781115 -0.0012996823 -0.000115480085 0.023087857 0.031197868 0.004895759 -0.025467928
0.012862881 -0.016100317 0.0042134104 -0.009859581 0.0008189752 0.030247832 -0.00698656 -0.008529402
0.02983967 0.017786667 -0.020694437 -0.029419238 0.022039412 0.00024657662 -0.016243976 0.015700225
0.0099785905 -0.0088748215 -0.006775173 -4.1226438e-05 0.009975709 0.002043323 -0.005682618 -0.025376447
0.025064291 0.019289106 -0.0072855754 -0.018411987 0.019346798 0.028781965 -0.011954664 -0.03998559
-0.004156486 0.0008934991 -0.015591971 -0.031219225 0.0017982448 0.010292764 -0.0068774014 0.0041804826
0.012206967 0.015446821 -0.0054933797 -0.014836847 0.02286323 0.003736003 -0.010180913 -0.02495917
0.017817926 0.013859392 -0.006904599 0.011811132 -0.014806011 0.006728373 -0.011894586 -0.008281873

transformer.h.0.ln_1.weight f4 [4]
00000000: c178 993f e247 963f 6ec1 963f 3aa6 953f
1.1989976 1.1740687 1.177778 1.1691353

transformer.h.0.attn.c_attn.weight f4 [12, 4]
00000000: bf24 09be de95 33be 2706 003e 972f 183e
00000010: 6fa5 8dbd 520f d3bd 3974 a73d 0274 7c3d
00000020: 9ff8 db3d 28f1 173e 5826 27be 5d7d 71bd
00000030: 50ef e63d ce33 2f3e 21b2 1abe efea e1bd
00000040: 7602 023e a5a1 233e 7efa 24be 1e0a 0ebe
00000050: 19ab 2c3e 226a 343d 550e 85bd 7323 01be
00000060: d446 0ebe 8e9a 4ebd 84e1 533d 0413 383e
00000070: 3bf0 0bbe 7001 4ebe 0c56 1b3e 433a 1a3e
00000080: d776 ee3d 43a0 053e 9ba8 38be fd95 09be
00000090: 8889 f33c 2ef7 9e3c 78f9 a5bd ccea 51bd
000000a0: abe3 ea3d 6a98 a63d 7a5e 9dbd 91ab dcbd
000000b0: 70ac 043e ec6c 1d3e c65f 3bbe 5a58 17be
-0.13392924 -0.17537639 0.12502347 0.14861904 -0.069163196 -0.103056565 0.081764646 0.06163407
0.1074078 0.14838088 -0.1632322 -0.058957446 0.11276114 0.17109606 -0.15107013 -0.11031138
0.12696251 0.15979631 -0.1611118 -0.13871047 0.16862144 0.04404653 -0.06496874 -0.12611179
-0.13894206 -0.050440364 0.05172874 0.17976004 -0.1366586 -0.20117736 0.15169543 0.15061288
0.11643761 0.13049416 -0.18033068 -0.13436122 0.029728666 0.019404974 -0.08104223 -0.05124931
0.114692055 0.081345394 -0.076840356 -0.10774911 0.12956405 0.15373582 -0.18298253 -0.14779797

transformer.h.0.attn.c_proj.weight f4 [4, 4]
00000000: dbea e43d dbfb 4d3d 8a5d bf3d d197 123e
00000010: dc3b f93d c5ac 1c3d cf95 a63d a094 223e
00000020: c9ca dcbd 4cf3 a3bc 4358 91bd c3dc 1dbe
00000030: d1b5 f1bd ad3c bebc ca29 87bd 9992 02be
0.111776076 0.050289016 0.09344013 0.14315726 0.121696204 0.038250703 0.081340425 0.15877008
-0.10780866 -0.020013474 -0.07096913 -0.15416245 -0.11802257 -0.023222292 -0.065997675 -0.12751235

transformer.h.0.ln_2.weight f4 [4]
00000000: b691 963f 8997 9a3f fab9 9b3f 0742 983f
1.1763217 1.2077495 1.216613 1.189515

transformer.h.0.mlp.c_fc.weight f4 [16, 4]
00000000: fba5 0f3e 11cd acbd 7d97 da3c 865b fdbd
00000010: db91 113e 35f8 2f3b 65e3 e03d ffd5 41be
00000020: 34e6 95bd 03c1 c13d 583d eebc dce2 b13d
00000030: 9d08 f43d ac9a f0bd 3079 a0bd 0444 0b3d
00000040: 3556 41bd 277e bc3d 98da 8ebd d0d6 2e3d
00000050: d9cc 89bd da45 3d3e 4171 22be b895 613d
00000060: 7ca3 23be 51ed 2abe cf2d 153e 02eb a23d
00000070: 1d59 223e 9172 c1bd aed6 98bc 14f2 75bd
00000080: 07e1 d2bd 0cf9 f83d 42b2 eabd e18f 893d
00000090: 37c5 d0bd 530b 853d 954c dd3c a3fe d13c
000000a0: b8b6 debd b5a1 453e 1483 af3d 62d4 cdbd
000000b0: 1fe1 a33d ebff 7ebd 12c5 7a3d 6f08 25bd
000000c0: 32ed f93d 094b 00be 18aa 2a3d ded9 99bd
000000d0: 47c5 153e 7a19 2dbd 12d6 d23d 0271 debd
000000e0: af3c 823b 0409 2b3d dee2 373c 5bdd db3b
000000f0: 625c 193e 3f6c 6abd 7a33 ea3c 0e02 c1bd
0.1402816 -0.08437551 0.026683563 -0.12370972 0.14215796 0.0026850824 0.10980872 -0.1892929
-0.073192984 0.09460642 -0.029081985 0.08685848 0.11915705 -0.11748251 -0.07835615 0.03400041
-0.047201354 0.09203749 -0.06975287 0.04268533 -0.06728525 0.18483678 -0.15863515 0.055074424
-0.15980333 -0.16692092 0.14568256 0.079549804 0.15854307 -0.0944568 -0.018657055 -0.060045317
-0.10296827 0.12156877 -0.11459781 0.06716896 -0.10193866 0.064963005 0.027014056 0.025634116
-0.108746946 0.19299968 0.08569923 -0.100502744 0.08001923 -0.06225578 0.061223097 -0.040291246
0.122034445 -0.12528624 0.04166612 -0.07512258 0.14626037 -0.042260624 0.10294737 -0.10861398
0.003974519 0.041756645 0.011223523 0.0067097372 0.14976647 -0.057232138 0.028588999 -0.0942422

transformer.h.0.mlp.c_proj.weight f4 [4, 16]
00000000: 4360 dbbd 5747 48bd 0067 a23d 8f70 b9bd
00000010: 9c40 303d 9d94 613d af2d 083e fc94 d9bd
00000020: 545e 743d a5a8 c93d cc3a df3d 13f9 35bd
00000030: 17c7 93bd 1bf2 3bbd 26b2 303c 9e50 9cbd
00000040: 0378 9f3d d8cf ba3d 9064 6ebd 7405 a63d
00000050: 2cd3 aebd 7224 28be 7680 ce3d fb8e e13d
00000060: 51e5 9bbd 7ec0 05bd ec84 eabd b33c 423d
00000070: dc33 933d 6b44 583d 930a 33bc 2e30 7b3d
00000080: 20e0 acbd 0c25 1bbe 9ec5 683d 22b1 aa3d
00000090: 4442 613d 3ceb dc3d 95fb aebd e353 13bc
000000a0: 4651 5e3d 113f 61bc 8db8 f0bd 8fcc 2dbd
000000b0: ab19 80bd 6b17 67bd 2759 27ba 8c37 2fbd
000000c0: 975d 543d 67a1 eb3d b760 36bd d75a 3fbd
000000d0: c98b b1bc 168b c4bc ea4d e1bd 03dd c73c
000000e0: 5e4b 2bbd bcc9 a8bc 3cec 4a3d 18d3 a73b
000000f0: 66cf b43b 6902 243d f8af 4f3c 8518 e13c
-0.1071172 -0.04889616 0.07929802 -0.09054672 0.043030366 0.05507337 0.13298677 -0.1062412
0.05966027 0.098466195 0.108998865 -0.04442699 -0.07215708 -0.045885187 0.010784661 -0.07632564
0.07786562 0.09121674 -0.058201373 0.08106509 -0.085363716 -0.16420153 0.10083096 0.110135995
-0.07612098 -0.032654278 -0.11451134 0.04742117 0.07187626 0.052799623 -0.010927814 0.061325245
-0.08441186 -0.15150851 0.056829087 0.08334567 0.054994836 0.10787055 -0.08544079 -0.008992168
0.054276727 -0.013747946 -0.1175395 -0.04243141 -0.06254896 -0.056418817 -0.0006383829 -0.042777583
0.051847067 0.115053944 -0.04452583 -0.04671749 -0.0216731 -0.023992103 -0.11001189 0.024397379
-0.041819923 -0.020604007 0.049541697 0.0051216 0.005517888 0.04004136 0.012676232 0.027477512

transformer.h.1.ln_1.weight f4 [4]
00000000: e050 953f da93 943f 75b6 953f 5743 913f
1.1665306 1.1607621 1.1696306 1.1348675

transformer.h.1.attn.c_attn.weight f4 [12, 4]
00000000: 7da0 02be 9ce6 f8bd 9f79 2c3e e4a2 b63d
00000010: d150 27be 0001 07be 8824 0a3e 2a0f 2d3e
00000020: 453f 26be 3d20 04be 600c 203e 8756 3a3e
00000030: b2ed 0fbe a6cb 02be d183 073e 4f25 2e3e
00000040: 25c0 343e 9544 f83d 8350 eabd 27c0 51be
00000050: d43b 0e3e d11e fa3d c102 21be 22ba 21be
00000060: 87ce 1e3e ec1a 083e c4be 1cbe 72c2 3cbe
00000070: 6183 183e 8cb2 fe3d 790f 1bbe 4637 05be
00000080: 99b2 e9bd 743e bdbd b9c2 e93d 4e75 bf3d
00000090: 3423 dc3d 2e31 f13d f53f d7bd 563a 77bd
000000a0: 8b26 f43d 5cc4 083e a243 1abe dfd1 ccbd
000000b0: 7b50 a1bd ab65 10be a418 293e 1df4 ff3d
-0.12756534 -0.1215336 0.1684327 0.08917788 -0.16339423 -0.13183975 0.13490498 0.16900316
-0.16235073 -0.12902923 0.1562972 0.1819707 -0.14055517 -0.12772998 0.13233878 0.1700642
0.17651422 0.12122456 -0.11441138 -0.20483457 0.1389001 0.12212909 -0.15723707 -0.1579366
0.15508471 0.1329152 -0.15307146 -0.1843355 0.14893867 0.12436399 -0.15142621 -0.13009366
-0.11411018 -0.092404276 0.114140935 0.09348546 0.10748902 0.117769584 -0.10510246 -0.060358368
0.11921414 0.13356155 -0.15064862 -0.10000967 -0.078766786 -0.14101283 0.16513306 0.12497733

transformer.h.1.attn.c_proj.weight f4 [4, 4]
00000000: 4928 d7bd 7952 cb3d 3ad4 de3d 249d bbbd
00000010: 6534 b9bd 5ecb ef3d 7a83 b43d e197 a4bd
00000020: d483 e03d 66c7 aebd 2e99 c2bd 224d b63d
00000030: 7622 c33d c7f6 c4bd fe2b cebd 9960 af3d
-0.10505731 0.0992784 0.10880323 -0.091608316 -0.090431966 0.11708711 0.0881414 -0.08036781
0.10962644 -0.08534126 -0.09501873 0.08901431 0.09528057 -0.096173815 -0.100669846 0.085633464

transformer.h.1.ln_2.weight f4 [4]
00000000: 8f86 903f ab04 983f c95c 973f a3cd 903f
1.1291064 1.1876425 1.1825191 1.1312755

transformer.h.1.mlp.c_fc.weight f4 [16, 4]
00000000: 2747 083e 0a68 bbbd c53e e1bd 77be 923d
00000010: d559 053e ea6a cbbc aaac 803c e381 e2bd
00000020: b27c cb38 ffc1 ff3d bb8e 6f3d 6b70 ddbd
00000030: b6d8 02bd 0658 3b3e 3387 8c3d e210 ffbd
00000040: 3e98 063e 821f 06be d85e 9bbd cd59 0ebd
00000050: ecc6 ffbd 6e25 283e c4c4 2fbd cf90 533c
00000060: 17bb f3bd e516 0a3e e602 94bd 7316 4d3d
00000070: 16be 943d 56f6 053d 006c a33d 314e ddbd
00000080: cecb d23d 01e3 89bd c5b3 05be 5168 d23d
00000090: 0219 0c3e fd01 25bd 8bc7 ee3c 06bf febd
000000a0: 0048 a43d e031 3ebd 74e1 483d 4dd6 76bd
000000b0: 14a1 ca3c 192a 763d 6a2a 853d 790e debd
000000c0: 2fd9 453d 8e6f aabd 411c 62bd e2f8 0c3d
000000d0: 6917 813d 06d1 bdbd 655d 9b3d 0eee 82bd
000000e0: 3101 1dbd 5cb6 053d b9fd 3bbd 330b 643d
000000f0: 6d4b d1bd 9628 f53d 41b1 92bc 1f69 02bd
0.13308392 -0.09150703 -0.109983005 0.071652345 0.1302255 -0.024831254 0.015707333 -0.1105993
9.7030206e-05 0.12488174 0.058485728 -0.10812458 -0.031944953 0.18295297 0.06861725 -0.12454392
0.13144013 -0.13097957 -0.075864494 -0.03475361 -0.12489113 0.16420528 -0.04291226 0.012912943
-0.11900919 0.13485296 -0.07227115 0.050070237 0.072628185 0.032705627 0.07979584 -0.108059295
0.10292779 -0.06732751 -0.13056858 0.10273803 0.13681415 -0.0402851 0.029147884 -0.124387786
0.080215454 -0.046434283 0.049043134 -0.060262967 0.024735011 0.06009874 0.065022305 -0.10842604
0.048302826 -0.083220586 -0.055202726 0.03441704 0.06303293 -0.09268384 0.07586173 -0.063930616
-0.038331214 0.032644615 -0.045896266 0.055674743 -0.102194645 0.11970632 -0.017906787 -0.031838533

transformer.h.1.mlp.c_proj.weight f4 [4, 16]
00000000: 18ab c9bd 850d 51bd 7654 9c3d 3125 c83d
00000010: 742f cbbd d401 ca3d 2f18 e83d 5dce 8c3c
00000020: c1b6 59bd 8daa 97bd 5bae 04bd 1473 fa3c
00000030: 4fe4 74bd 0a39 9cbc 2dc7 4a3b 417c f93d
00000040: ba30 cd3d 0d7c 463d 4e90 09bd 9170 34bd
00000050: fdc9 a33d c602 76bd 005a 8cbd b904 663d
00000060: 21f5 553d 7615 6a3d c5b9 663d e197 f83c
00000070: 16d4 393d 537e ae3d ceaf 43bd 4d23 ebbd
00000080: 21dd d13d af44 75bd dcd2 00be 8ca8 c6bd
00000090: e269 67bb a971 073d 5880 6f3d 61da 0cbe
000000a0: e471 b23d e258 bebd 0a4e 77bd 0cdf 80bd
000000b0: 49f6 2a3d fbc2 a6bd d588 313d 93c0 24bc
000000c0: fdd8 a2bd ec50 af3c dd4e a23d 8597 8b3d
000000d0: 5ce7 1dbd 91b3 a03c 582c 73b9 ab2b a93d
000000e0: 5e42 a2bd c67f 163d c748 fd3b cea1 113d
000000f0: 7ea8 54bd 103b 33bc 5060 45bc 0bf1 d83c
-0.09847087 -0.051038284 0.07633297 0.09772719 -0.0992116 0.0986363 0.11332738 0.017188245
-0.053152803 -0.07405577 -0.03239284 0.030572452 -0.059788045 -0.019070167 0.0030941472 0.12181903
0.100190595 0.048458148 -0.033584885 -0.044052664 0.079975106 -0.06006124 -0.06853104 0.056156848
0.052235726 0.057149373 0.056329507 0.030345859 0.045368277 0.08520188 -0.047775082 -0.114813425
0.10247255 -0.059879955 -0.12580436 -0.097001165 -0.0035310914 0.03306738 0.058472008 -0.1375518
0.08713129 -0.09294297 -0.06037716 -0.06292543 0.041738782 -0.08142658 0.043343384 -0.010055679
-0.079515435 0.021400891 0.07925198 0.068160094 -0.03855072 0.019616874 -0.00023190805 0.08260282
-0.07922815 0.036742948 0.007729623 0.0355547 -0.0519185 -0.010939375 -0.0120468885 0.026482126

transformer.h.2.ln_1.weight f4 [4]
00000000: b902 943f 4475 943f 0418 963f 43d7 8c3f
1.1563331 1.1598287 1.1726079 1.1003193

transformer.h.2.attn.c_attn.weight f4 [12, 4]
00000000: 5d8b 9a3c 67f3 6dbd 8e33 6e3d 5943 1bbd
00000010: d588 d0bd b6b1 f8bd 594e f93d 8560 993d
00000020: 202d fdbd 63fa febd 61d2 0e3e 935d 9a3d
00000030: fda3 d73d 0470 df3d 60fc 33be 1639 5dbd
00000040: 8582 013d fcb4 dc3a c52c bebc 10e0 013c
00000050: 4e77 053e 1cd4 d03d bba6 0dbe 954d ecbd
00000060: fb19 cc3d b8d7 c03d 9787 f5bd bb04 1bbe
00000070: 98cd 2abe fcc3 aebd e53b b03d 7d6c 263e
00000080: a419 0c38 022c d4bc 3ad0 7c3b 81c5 cc3c
00000090: 6c34 01be 243c 12be 2ff9 153e 067a 7a3d
000000a0: a47d fa3d 279a 0d3e d0d2 23be fab1 b7bd
000000b0: 4f6b fe3d 5a99 fe3d e9c7 04be 06d0 04be
0.018865282 -0.058093455 0.058154635 -0.037906025 -0.10182349 -0.12143271 0.12173147 0.07489113
-0.123621225 -0.12450101 0.1394744 0.07537379 0.10529325 0.10910037 -0.17576742 -0.05400952
0.031618614 0.0016838606 -0.023214707 0.007926956 0.13033792 0.10196707 -0.13833134 -0.11538235
0.09965893 0.09416145 -0.11988752 -0.15138523 -0.1667999 -0.08533475 0.08605174 0.16252322
3.340248e-05 -0.02589989 0.003857626 0.024996521 -0.12617654 -0.14280754 0.14645837 0.061151527
0.12230995 0.13828336 -0.15998387 -0.08969493 0.12422811 0.12431593 -0.12966885 -0.1296998

transformer.h.2.attn.c_proj.weight f4 [4, 4]
00000000: 7ae9 fbbc b819 cbbd 91da ce3d 0dfb ea3d
00000010: 2448 de3b cf3c c8bd 5770 873d bb73 d83d
00000020: 990d 563c a3c8 cc3d c7ca b7bd ab0a e6bd
00000030: c169 0e3c aef2 bd3d 6df7 c8bd 6280 c4bd
-0.030750979 -0.09917015 0.10100282 0.114736654 0.006783502 -0.09777223 0.06613224 0.10568949
0.013064765 0.09999206 -0.089742236 -0.112325035 0.008692206 0.09274803 -0.09812818 -0.095947996

transformer.h.2.ln_2.weight f4 [4]
00000000: a388 953f 6d84 903f 8f60 8c3f 7f96 953f
1.1682323 1.1290413 1.0966967 1.1686553

transformer.h.2.mlp.c_fc.weight f4 [16, 4]
00000000: ef68 6cbd e0d2 853b 6f18 193d 1c22 05bd
00000010: 3498 6ebd a990 2bbd 50a2 96bc b3b4 a53d
00000020: 1b30 013e f1fe 873d 1b5f afbc b77f eebd
00000030: df98 afbd 2d67 c4bc 980b 75bb 0cb5 e53d
00000040: 9c42 d2bd 54a1 103d 78d6 1e3c 2687 493b
00000050: d4a1 bfbd 1752 2ebd a730 17bd 806d d33d
00000060: a45b d23d 3e09 6cbd 1ae5 cf3d 2364 34be
00000070: 0e51 b3bd 8ea9 9e3c ef47 b6bd 8a8d cb3d
00000080: f3ce d5bd 9ab4 8bbd 99a1 47bd 37e2 8b3d
00000090: 2860 c1bd 8cb2 f23c bee5 2dbc 1352 723d
000000a0: f5af 283d b5b9 cc3c 7fdb 893d f5d7 f6bd
000000b0: 15f8 8dbd b4b3 3abd ae36 5bbd 37b7 a13d
000000c0: 32d7 a83d 2c2e ce3d 3232 9b3c 7594 b1bd
000000d0: 1025 3f3e 52f4 21be 6ed6 78bd 368b 9cbd
000000e0: c359 66bd 590b 233e 4c4f 34be 9c2a 873d
000000f0: 6e99 0b3d fe5e 833d 86e4 8f3d 0afb e3bd
-0.05771726 0.004083976 0.037376817 -0.032503232 -0.05825062 -0.041886006 -0.018387944 0.08091106
0.12616007 0.06640423 -0.021407655 -0.116454534 -0.0857408 -0.02397498 -0.0037390944 0.112161726
-0.10266611 0.035310104 0.009694688 0.003075072 -0.09357038 -0.042558756 -0.036911633 0.1032362
0.10271385 -0.057626 0.101511195 -0.17616324 -0.08755694 0.01936796 -0.08900439 0.09939106
-0.10439863 -0.068215564 -0.048738096 0.068302564 -0.094421685 0.029626153 -0.010613857 0.059160303
0.04118343 0.024990896 0.06731319 -0.12052909 -0.069320835 -0.045581535 -0.053518943 0.078962736
0.0824417 0.100674 0.018944833 -0.08670894 0.18666482 -0.15815857 -0.06075137 -0.0764374
-0.056237947 0.15922298 -0.17608374 0.06599924 0.03408187 0.06414603 0.07026009 -0.11131866

transformer.h.2.mlp.c_proj.weight f4 [4, 16]
00000000: c0db a73c d6f8 6bbd 3510 633d 8ec2 09bd
00000010: 7c14 603d 9548 2bbd 5106 60bc e25c 2cb9
00000020: c61f 72bd 4742 2f3d 286f 543d d469 54bd
00000030: 66d3 ab3d 604c bcbd e78a b23d 7527 b13d
00000040: 59a8 ecbc f0b4 3dbd e91b 893d 5dbc d4bc
00000050: 02ef d1bd e7a0 06bd b1dc b43d 0d68 80bd
00000060: 5b90 48bd 0fe0 6bbd 05aa 203d 1435 36bd
00000070: eab0 833d 5245 a03d d5b3 f2bc 6aca 1d3d
00000080: 7ef2 93bc 9af0 5a3d a21c d8bd 2773 283d
00000090: f2ab 303d 0a8d 673d 3748 36be 65e6 ff3d
000000a0: 6ac8 813d 8647 b83d eee8 96bd 3b04 aa3d
000000b0: 7aa5 9fbd ea6d 81bd 1826 8d3d 0d5c b4bd
000000c0: 7da6 e13c 2634 0e3b 871a 31bd f3e0 803c
000000d0: 7d1c 243d b352 02ba d41f 7d3d 80ed 69bd
000000e0: 0dce 7bba 410e a23c 97e7 1e3d 0921 89bc
000000f0: 8b79 5ebc b416 29bd 078a 9bbd a96c 553d
0.020490527 -0.057610355 0.055435378 -0.033632807 0.054707035 -0.041817266 -0.013673381 -0.000164378
-0.059112333 0.042787816 0.05186382 -0.051858738 0.083899304 -0.09194255 0.087179 0.08650104
-0.028888868 -0.046315134 0.066947766 -0.025968725 -0.10250665 -0.032868292 0.08831156 -0.06269846
-0.048965793 -0.057586726 0.039224643 -0.044484213 0.06430228 0.07825722 -0.029626766 0.038523115
-0.018059965 0.05345211 -0.10552336 0.041125443 0.04313273 0.05653099 -0.17800985 0.12495116
0.06337054 0.08998017 -0.073686466 0.08301588 -0.07795234 -0.063197926 0.068920314 -0.0880662
0.027545208 0.0021698563 -0.04323819 0.015732264 0.04006623 -0.00049714296 0.06179793 -0.057111263
-0.0009605594 0.019782187 0.03879508 -0.016739385 -0.013578783 -0.041281417 -0.07594686 0.05210558

transformer.ln_f.weight f4 [4]
00000000: e50e af3f 921c ae3f 2840 b23f 2cf8 aa3f
1.367642 1.3602469 1.3925829 1.3356986

lm_head.weight f4 [5, 4]
00000000: 603d 89be 60fb 91be 272f a03e a319 5a3e
00000010: 4a86 443e 8c58 4d3e ad56 1fbe be7f 1abe
00000020: 688c 143e 8935 e53d 1226 11be 48d9 1fbe
00000030: e271 e33d bc90 163e ee6b 2bbe b663 03be
00000040: febe 4d3e aae4 3c3e 4b68 50be 97a5 2fbe
-0.26804638 -0.28512096 0.31285974 0.21298842 0.19191852 0.20053309 -0.15560408 -0.15087792
0.14506686 0.11191852 -0.14174679 -0.1561023 0.11105706 0.1470365 -0.1674039 -0.12831005
0.20092389 0.18446603 -0.20352285 -0.17153011

exp_avg f4 [5, 4]
00000000: 0fee ab3b 3249 aa3b d802 c6bb 8ff1 90bb
00000010: a4d3 b8bb 28d4 92bb 3193 c23b d6dd 8b3b
00000020: 4553 513b 1034 073b 2891 4cbb ae7e 0bbb
00000030: 79ba e5ba ee86 5aba 8fd1 533a ad2e e83a
00000040: 5b9d 99ba c388 0abb d669 283b d9fc 3f3a
0.0052468847 0.005196714 -0.0060428195 -0.0044233273 -0.005640464 -0.0044808574 0.0059379567 0.0042683883
0.0031940502 0.0020630397 -0.003121445 -0.0021285224 -0.0017526887 -0.0008336146 0.0008080238 0.0017714106
-0.0011719869 -0.0021138645 0.0025697849 0.0007323749

exp_avg_sq f4 [5, 4]
00000000: 3968 0f3a 2811 243a a559 2a3a 5015 173a
00000010: 06a7 cb39 f0df c439 28e0 023a 0a76 9a39
00000020: eb41 8f39 c39f a439 613d cd39 97c6 5039
00000030: 5dde a139 e753 9939 b228 d139 3505 6a39
00000040: 7c28 193a 7d72 2f3a 2d79 4b3a 0d60 083a
0.00054705475 0.000625866 0.00064983434 0.00057633687 0.0003884362 0.0003755088 0.00049925083 0.00029461115
0.00027324198 0.0003139955 0.00039146378 0.00019910406 0.00030873987 0.00029244946 0.00039893907 0.00022317919
0.00058425195 0.00066927803 0.0007761892 0.0005202301

exp_avg f4 [256, 4]
00000000: c927 8b34 7418 c737 336c a737 1175 a235
00000010: d240 bfb7 348e 4fb7 8028 f135 f523 b037
00000020: b142 8db8 8189 7ab8 2808 8538 e2c1 7e38
00000030: 6b26 79b5 eb38 d935 ff46 eab4 5230 0d35
00000040: 5deb 1f36 4baa 6e35 3568 fc34 f384 39b6
00000050: dd4a 1db4 b716 b835 dc03 6ab6 63d4 4036
00000060: d803 2fb6 1ac6 5c33 8ff6 7635 d5fe 18b7
00000070: 7d80 98b6 9489 ac34 aecb 98b6 e849 2437
00000080: e0a6 ad34 b6e3 7c36 60d3 b6b6 3f0a bb36
00000090: 0ae0 2fb7 93ea 1337 f8b4 e4b4 6985 5f36
000000a0: a0b5 d6b6 dccf 9036 3ff1 ad34 1948 a036
000000b0: 0928 0436 92c1 a9b6 0765 0636 5e20 fbb4
000000c0: ead1 8eb6 ef91 9d36 610e a4b6 080d e336
000000d0: aa81 dd33 2d7b 0a36 dfc4 9436 001b 88b6
000000e0: 016e 85b6 ea68 5d34 7ef9 c436 b1b8 21b5
000000f0: 3793 56b6 d7ea dfb5 f883 e835 ab65 7c35
00000100: 633c 3636 3afb c635 2d84 08b6 a7c4 3136
00000110: e72a e536 7fc1 adb6 40ef 87b6 449f d5b4
00000120: 5ccd e036 e571 4fb6 5e65 6e36 d961 95b6
00000130: 4de7 bd33 a271 9835 fa47 1636 6d54 8535
00000140: dad9 99b5 9486 d234 b433 9cb5 6a9a 9436
00000150: 94c5 b636 c774 2ab7 a8b0 c1b5 a781 8c36
00000160: 8a72 c034 8bed fab5 5221 ce34 8e55 7e36
00000170: cd1b b9b5 d11c 3d36 7cb5 b4b6 dd18 0d36
00000180: a893 5e36 7d83 20b6 b799 0b36 7f8e 0c34
00000190: 0ce1 a9b5 46cb b1b5 ba08 0ab6 319d b036
000001a0: 6bb7 17b6 89da 4fb6 9980 e8b6 5e82 dd36
000001b0: ab8e 86b5 5aec 0435 f841 48b6 abf6 ba36
000001c0: 1120 a035 693c bbb5 1beb 9ab5 606a ea34
000001d0: 7757 8e35 1a4c a334 48ee 9536 a0ae ecb6
000001e0: fa74 39b6 3a25 7e34 8cf4 e7b4 2f3c 97b5
000001f0: a10e 1b36 08d5 acb5 1661 4bb6 60ca efb5
00000200: c06a 63b6 f1f2 80b6 a416 18b6 69b7 6b36
00000210: 2493 9435 c39f 6ab6 fbe2 5835 ac28 0436
00000220: 0e9f a3b6 eeab 2836 bfd4 2fb6 316f af36
00000230: 262a ed33 f0a1 a335 6067 8e36 a9cd 9cb6
00000240: c572 4ab6 676a 4236 7687 4236 d775 3bb5
00000250: 04e9 0237 53a6 eab6 4273 f735 b86f bcb6
00000260: fafa 3836 f8ef 4fb6 6f15 15b7 da9d 9736
00000270: 6676 78b6 e192 d0b6 f704 4f36 3408 dd36
00000280: 8f47 1237 220b 13b6 d4b8 00b7 ca2d e636
00000290: 68e4 18b6 eac4 f834 6d4d 9336 a679 aeb5
000002a0: 7b81 99b5 7e7a 6eb5 0118 f535 5469 2537
000002b0: 589c 85b5 2dbf 31b6 3f7c 1b37 329f 5fb6
000002c0: caa0 b836 38a9 42b6 4cc6 a735 ad03 beb6
000002d0: f6b8 25b6 82e5 8136 2957 5c36 2d45 2f34
000002e0: 7997 0ab7 6346 c036 257e 2eb6 9c1c c136
000002f0: c822 6636 1ff6 acb6 c2eb 3136 be03 fbb5
00000300: c4cc 8a36 7a34 2db6 1ca9 b3b5 5917 5a36
00000310: d7c5 0d36 c4b4 92b5 ca4e 86b5 c0e5 9736
00000320: 1be9 ecb6 72cc 3636 2d5d 6f36 e62c 7336
00000330: cebc 68b4 9227 e235 3794 02b6 05ac c536
00000340: d2e4 54b4 bca9 0837 8f56 e836 028b 7fb6
00000350: 6458 de36 cdee f6b2 1503 07b7 990a 7ab5
00000360: ff6d f335 6e9d 9fb5 53a4 c136 959c dbb5
00000370: 32ce 9936 aecf 66b5 333b 5736 a858 d8b6
00000380: b0a5 1db5 5f89 a5b5 4c54 e435 6994 76b5
00000390: cb60 30b5 4d86 a8b5 43d5 0037 df54 62b6
000003a0: 84f6 59b6 f0f8 9336 4335 14b7 bc08 1d37
000003b0: 8a34 2836 4f5b 87b6 3657 84b6 661c d336
000003c0: 5509 d3b6 4028 7733 dc12 b8b4 f76d 6fb5
000003d0: 1204 fbb4 74f7 65b6 5d5a 95b3 baee 7cb6
000003e0: e4fd 7734 d98b 0cb6 bf0d 1135 0b3a 11b5
000003f0: bd4d 0e36 0b16 39b6 445c 7735 05db e334
2.5919715e-07 2.3734035e-05 1.9958336e-05 1.2104011e-06 -2.2799159e-05 -1.2371271e-05 1.7967686e-06 2.0997579e-05
-6.735826e-05 -5.9732705e-05 6.3434534e-05 6.0738887e-05 -9.2815634e-07 1.6184325e-06 -4.3637553e-07 5.259691e-07
2.3829846e-06 8.890972e-07 4.7014478e-07 -2.7644535e-06 -1.4649e-07 1.3715679e-06 -3.4870964e-06 2.8733855e-06
-2.607927e-06 5.1402914e-08 9.200093e-07 -9.119239e-06 -4.544911e-06 3.2137598e-07 -4.5536644e-06 9.792369e-06
3.234518e-07 3.7683471e-06 -5.44863e-06 5.574227e-06 -1.0482976e-05 8.816499e-06 -4.2599981e-07 3.3307244e-06
-6.398841e-06 4.3157324e-06 3.239929e-07 4.776765e-06 1.9692836e-06 -5.059127e-06 2.0026362e-06 -4.6775943e-07
-4.256367e-06 4.6959535e-06 -4.889255e-06 6.766644e-06 1.03147e-07 2.06353e-06 4.4336625e-06 -4.056259e-06
-3.976515e-06 2.0620396e-07 5.8703e-06 -6.0245935e-07 -3.1974175e-06 -1.6683142e-06 1.7323755e-06 9.402526e-07
2.7155263e-06 1.4825266e-06 -2.0342516e-06 2.6489522e-06 6.8297263e-06 -5.1783277e-06 -4.051166e-06 -3.9790223e-07
6.699627e-06 -3.09117e-06 3.5523767e-06 -4.451937e-06 8.843072e-08 1.1357954e-06 2.2393638e-06 9.933843e-07
-1.1462791e-06 3.9213467e-07 -1.1637953e-06 4.42872e-06 5.447024e-06 -1.0159979e-05 -1.4431034e-06 4.1874187e-06
3.5846125e-07 -1.8695586e-06 3.8394734e-07 3.7898749e-06 -1.3791665e-06 2.8179968e-06 -5.3855456e-06 2.102511e-06
3.3166525e-06 -2.3918394e-06 2.0802088e-06 1.3090356e-07 -1.2656978e-06 -1.3246688e-06 -2.0568682e-06 5.2635082e-06
-2.2607517e-06 -3.0972608e-06 -6.9291095e-06 6.60149e-06 -1.00253e-06 4.951777e-07 -2.9840721e-06 5.571948e-06
1.1930262e-06 -1.3950167e-06 -1.1542319e-06 4.3663294e-07 1.060528e-06 3.0416487e-07 4.4682856e-06 -7.053677e-06
-2.7635238e-06 2.3669136e-07 -4.3205034e-07 -1.1267892e-06 2.3105315e-06 -1.2876999e-06 -3.0305869e-06 -1.7865787e-06
-3.3887773e-06 -3.8429794e-06 -2.2662944e-06 3.5124488e-06 1.1069683e-06 -3.496171e-06 8.079657e-07 1.9693207e-06
-4.876295e-06 2.5134027e-06 -2.6200867e-06 5.228351e-06 1.1043839e-07 1.2191576e-06 4.243964e-06 -4.6731043e-06
-3.016715e-06 2.8970187e-06 2.8987101e-06 -6.983441e-07 7.802857e-06 -6.993106e-06 1.8436479e-06 -5.6158424e-06
2.7564224e-06 -3.0985084e-06 -8.8860825e-06 4.518527e-06 -3.7023797e-06 -6.215982e-06 3.0848294e-06 6.587268e-06
8.718939e-06 -2.1911187e-06 -7.672428e-06 6.8598647e-06 -2.2782715e-06 4.6336874e-07 4.389955e-06 -1.2999415e-06
-1.1437072e-06 -8.884016e-07 1.8260909e-06 9.85929e-06 -9.954774e-07 -2.6486334e-06 9.267648e-06 -3.3322253e-06
5.5023456e-06 -2.900675e-06 1.2500182e-06 -5.662869e-06 -2.4694577e-06 3.871218e-06 3.2833289e-06 1.6323311e-07
-8.2607085e-06 5.73024e-06 -2.6001446e-06 5.755179e-06 3.4292916e-06 -5.1546517e-06 2.6512284e-06 -1.8702046e-06
4.1365583e-06 -2.5809554e-06 -1.3385757e-06 3.2498122e-06 2.1125795e-06 -1.0930457e-06 -1.0006709e-06 4.526897e-06
-7.060485e-06 2.7239116e-06 3.566801e-06 3.6235956e-06 -2.167537e-07 1.6849829e-06 -1.9457782e-06 5.891083e-06
-1.9827283e-07 8.145751e-06 6.9242155e-06 -3.8078874e-06 6.6264056e-06 -2.8746763e-08 -8.047345e-06 -9.314768e-07
1.8136924e-06 -1.1892241e-06 5.770978e-06 -1.6362343e-06 4.5837596e-06 -8.598389e-07 3.2071955e-06 -6.4476226e-06
-5.8728165e-07 -1.2333438e-06 1.7011857e-06 -9.1858107e-07 -6.570596e-07 -1.2556062e-06 7.679048e-06 -3.3726026e-06
-3.247901e-06 4.4099215e-06 -8.833888e-06 9.359963e-06 2.5064533e-06 -4.0339432e-06 -3.9440592e-06 6.291596e-06
-6.2893764e-06 5.7545776e-08 -3.4286393e-07 -8.919446e-07 -4.6755355e-07 -3.4267696e-06 -6.95479e-08 -3.7689883e-06
2.3096032e-07 -2.0943028e-06 5.403671e-07 -5.4101173e-07 2.1204899e-06 -2.757998e-06 9.2148935e-07 4.2441403e-07

exp_avg_sq f4 [256, 4]
00000000: 2de4 8932 c602 3235 5931 6835 5150 6b33
00000010: cd68 9537 491e 0534 0b1a b434 4bb2 5437
00000020: 8ec4 3c35 f6d5 9335 f489 6f35 769a 0f36
00000030: 16c2 8033 f60c ae32 26b6 3433 1d9a 2e33
00000040: ed2c dd32 5af7 4a32 59f1 ab31 0725 3133
00000050: 0fc7 7032 4510 2232 0f13 0d32 e97b 5832
00000060: a8c9 0831 7ff5 a531 aa0e 9631 47bd 5531
00000070: 98e0 1734 9dae 8e33 1387 c132 be69 7a34
00000080: 5682 2a31 817f 7832 51ef c931 d7ce e031
00000090: 323f 9432 e587 1d32 4622 f531 8f01 0333
000000a0: 56a5 0d31 3798 1032 1ce5 5f31 ec58 9631
000000b0: 5f7e ed31 dff4 5032 473c 6531 cf0c 6231
000000c0: 1f12 cc31 f28e 0c32 972e 0f32 c91b 5831
000000d0: c6d5 9334 59b5 df33 09aa c433 ec6b 9f34
000000e0: 9c19 9f31 a2a9 3432 1b8d ab31 b280 d431
000000f0: 8638 0e32 560b 8c32 9a9a dd31 b855 3132
00000100: 995c de31 ef64 b131 3f3a a131 e330 2f32
00000110: efb0 f732 3a78 c631 f6fd e731 efe8 8633
00000120: c457 8431 6e9e cc30 85b4 b430 7cdd 4d31
00000130: 8900 9931 93fd ae31 90b8 8e31 5e34 8531
00000140: f6bb 3231 9c24 6931 0d76 9531 66ef 1931
00000150: d641 9532 d33f 3332 9f58 c531 6a90 8532
00000160: e78f ce31 1fb1 c931 851a 8031 7e33 3b32
00000170: 5bc1 d431 7c74 e931 e07a 8b31 2c85 0532
00000180: c26e 1e35 46fd 2234 7feb 4833 3411 7235
00000190: 8546 ec31 d7d5 e432 0a3f 0c32 57de 4833
000001a0: af4a 0c33 d26c 6c32 09e9 1432 8d94 4e32
000001b0: 7b26 0c34 5b28 ff32 9c3f f731 172a 2e34
000001c0: 14b9 5a31 de59 6e31 6177 5b31 b5ec a131
000001d0: cc24 4e32 ad0c 5e31 ab79 b631 84c6 3732
000001e0: d2ab 5331 984e d131 64eb 7c31 630c 8231
000001f0: 5f9b 0f31 17b0 bd31 215a 5731 1e0f 2331
00000200: 3369 1232 f6ba a632 de4b 8a31 8564 1033
00000210: 354e 8b31 cd87 1a32 143e b731 7c75 9831
00000220: b740 ec30 dfaf e931 1cc9 5d31 2694 9430
00000230: 0396 3031 bca3 b131 38cc a731 4341 7f31
00000240: 8cb7 3432 6502 9e32 c8b0 cf31 2de4 0133
00000250: a751 5d31 a4ad a531 00a3 4a31 f579 6f31
00000260: 41c2 6731 296b 0d31 2717 7f31 de54 b131
00000270: fac0 a831 67bd 3232 5927 7531 bde7 9031
00000280: 7936 c631 19ef 8c31 8f48 7331 823e 0632
00000290: 77f0 0232 b809 3032 14e5 b531 3dc6 0032
000002a0: d6ae f930 575b 3031 0850 f930 cd38 1d31
000002b0: e96c 9d32 71ce 5c32 d060 6932 e0f3 a632
000002c0: ea8f 7932 3355 3c32 e984 ce31 a3bc 9b32
000002d0: 9260 8033 3689 1532 8de5 2e31 4165 e633
000002e0: 2204 f830 4a33 0531 328e 2731 8c0e fb30
000002f0: 1ee9 2833 e7dd cb32 1e65 2732 72ec 0834
00000300: b7af 0032 a0a6 e031 fd9e 9b31 f46c f431
00000310: 930b 3831 6e5d 8531 fbc5 9331 f368 5931
00000320: 713c 6d31 2525 6532 e0f1 9b31 3a43 be31
00000330: f6ea de31 a02f 0131 6970 9531 1e2a 2d31
00000340: 96b1 0633 62a8 1833 6bc4 b732 9cb8 1033
00000350: 6306 b731 cd26 4c32 4270 9931 1339 8732
00000360: 8590 2332 cb14 5532 caee b231 87c1 a732
00000370: 17e3 a831 1617 c031 94bd bb31 27d9 a631
00000380: 314e d430 3620 be31 3119 2f31 ae6b 8b30
00000390: 5968 1231 ba73 3d31 6f21 6631 3ad7 5f31
000003a0: e0e9 0432 e35e 1132 fb83 6b31 63f2 3e31
000003b0: 941a 2732 baa7 8432 d5a7 4a32 c15d 2132
000003c0: 8e9f db31 f33e d131 8817 3d31 dc0c 1132
000003d0: 1495 6c31 48fd a131 7ce3 4231 9273 2031
000003e0: f01b 8e31 97ab 3832 b9d7 8d31 3800 1332
000003f0: ebf5 fe31 90b1 0632 deed ee31 e16b d431
1.6052661e-08 6.6314203e-07 8.6498545e-07 5.478825e-08 1.7810986e-05 1.2397608e-07 3.3546561e-07 1.2677697e-05
7.032148e-07 1.1014624e-06 8.9235186e-07 2.1398569e-06 5.9957685e-08 2.026216e-08 4.207518e-08 4.0652697e-08
2.5748216e-08 1.1814189e-08 5.004193e-09 4.12447e-08 1.4015099e-08 9.43334e-09 8.211614e-09 1.2601029e-08
1.9905233e-09 4.8300417e-09 4.3672417e-09 3.1103171e-09 1.4144678e-07 6.644152e-08 2.2529582e-08 2.3321533e-07
2.4812343e-09 1.4464491e-08 5.877077e-09 6.542773e-09 1.7258206e-08 9.169502e-09 7.134335e-09 3.0502232e-08
2.0612183e-09 8.416513e-09 3.2581005e-09 4.375684e-09 6.9119745e-09 1.2162871e-08 3.335815e-09 3.289461e-09
5.9392415e-09 8.1815745e-09 8.334289e-09 3.144793e-09 2.7536424e-07 1.0417234e-07 9.1578904e-08 2.969458e-07
4.6304205e-09 1.0515949e-08 4.992797e-09 6.184643e-09 8.27834e-09 1.63033e-08 6.4495227e-09 1.0322246e-08
6.4715775e-09 5.162853e-09 4.6923385e-09 1.0197456e-08 2.8835045e-08 5.7762266e-09 6.751857e-09 6.2822316e-08
3.8516834e-09 1.4887982e-09 1.314803e-09 2.9957326e-09 4.452947e-09 5.0928946e-09 4.1537263e-09 3.876763e-09
2.6009253e-09 3.3926773e-09 4.3498916e-09 2.2400513e-09 1.7375822e-08 1.0433683e-08 5.7435297e-09 1.554891e-08
6.011749e-09 5.8700063e-09 3.728305e-09 1.0896541e-08 6.191994e-09 6.7944352e-09 4.0594017e-09 7.771899e-09
5.902076e-07 1.5179566e-07 4.678031e-08 9.017706e-07 6.876521e-09 2.6639936e-08 8.163406e-09 4.6768346e-08
3.2664214e-08 1.3761751e-08 8.66772e-09 1.2024555e-08 1.3052515e-07 2.9704259e-08 7.1958777e-09 1.6220325e-07
3.182838e-09 3.4684642e-09 3.1936553e-09 4.712627e-09 1.1999145e-08 3.2312457e-09 5.310729e-09 1.0697139e-08
3.080221e-09 6.0916356e-09 3.680463e-09 3.784906e-09 2.0897557e-09 5.520643e-09 3.133785e-09 2.3728215e-09
8.522238e-09 1.9409963e-08 4.0249537e-09 3.3619035e-08 4.0543235e-09 8.994857e-09 5.3330584e-09 4.4371387e-09
1.7189653e-09 6.8011867e-09 3.227405e-09 1.0810524e-09 2.5696643e-09 5.1699924e-09 4.8835567e-09 3.714448e-09
1.0519113e-08 1.839471e-08 6.0445906e-09 3.0242678e-08 3.2206147e-09 4.8218727e-09 2.9487524e-09 3.4848402e-09
3.3725345e-09 2.0579114e-09 3.7120544e-09 5.1610263e-09 4.9113824e-09 1.0404029e-08 3.5674559e-09 4.217297e-09
5.7687513e-09 4.1017185e-09 3.5402399e-09 7.814039e-09 7.621671e-09 1.0246758e-08 5.2938365e-09 7.495655e-09
1.8166826e-09 2.5663291e-09 1.8139881e-09 2.2878794e-09 1.8326732e-08 1.2852625e-08 1.3584398e-08 1.9435845e-08
1.452643e-08 1.0962412e-08 6.010499e-09 1.8130157e-08 5.9780305e-08 8.70414e-09 2.5450817e-09 1.07286276e-07
1.804555e-09 1.9383202e-09 2.4382527e-09 1.8266788e-09 3.9327567e-08 2.373322e-08 9.743671e-09 1.2752005e-07
7.4905335e-09 6.538201e-09 4.5291686e-09 7.113721e-09 2.6782103e-09 3.881431e-09 4.300771e-09 3.1637313e-09
3.4522396e-09 1.3338e-08 4.5385917e-09 5.5373706e-09 6.4877623e-09 1.8799042e-09 4.3492503e-09 2.5198754e-09
3.136082e-08 3.55434e-08 2.1393324e-08 3.3695514e-08 5.326727e-09 1.1883185e-08 4.4656483e-09 1.5742023e-08
9.520709e-09 1.24029595e-08 5.207629e-09 1.9529365e-08 4.9152606e-09 5.59056e-09 5.463969e-09 4.855923e-09
1.5447253e-09 5.5333897e-09 2.5480171e-09 1.0144185e-09 2.130511e-09 2.7568903e-09 3.348841e-09 3.2573113e-09
7.736588e-09 8.461686e-09 3.4272023e-09 2.778642e-09 9.7267225e-09 1.5443096e-08 1.1796108e-08 9.392751e-09
6.391878e-09 6.089857e-09 2.7516496e-09 8.443035e-09 3.442726e-09 4.7145114e-09 2.8360025e-09 2.3348758e-09
4.13592e-09 1.0749225e-08 4.128165e-09 8.556576e-09 7.4203306e-09 7.8402e-09 6.953754e-09 6.1822765e-09

exp_avg f4 [12, 4]
00000000: c3dc 1b37 9fd3 1037 53ba 36b7 af59 e5b6
00000010: 7d70 6335 60a3 5635 cacf 86b5 00d0 27b5
00000020: 2ab6 3db6 3369 34b6 6903 6636 9a61 0836
00000030: 1d82 6db7 4a4e 62b7 17df 8d37 0043 2f37
00000040: 0871 7ab6 2044 5cb7 c88b 2737 9513 e436
00000050: 611e 54b5 ea42 d0b4 8b09 3035 d887 0735
00000060: b180 2436 4046 ae36 8aed 8fb6 35e0 5db6
00000070: 216d b836 cfe5 8e37 5b4b 56b7 18bc 21b7
00000080: bc53 c5b7 1a03 4db8 82a4 0e38 4cd2 1e38
00000090: a020 3eb7 64a0 abb6 7ac3 e236 8a0a 1e37
000000a0: 8636 76b7 6541 f8b7 e14d a437 c206 cc37
000000b0: 44a4 f2b7 7a6d 77b8 8c86 2a38 a56a 4338
9.29012e-06 8.632341e-06 -1.0891427e-05 -6.8351724e-06 8.472778e-07 7.9958954e-07 -1.0044253e-06 -6.251503e-07
-2.8269228e-06 -2.6883324e-06 3.4274656e-06 2.032239e-06 -1.4156595e-05 -1.3488878e-05 1.6912394e-05 1.04464125e-05
-3.7318696e-06 -1.3128883e-05 9.986521e-06 6.797209e-06 -7.902036e-07 -3.8791705e-07 6.5578996e-07 5.04891e-07
2.4512813e-06 5.1937823e-06 -4.2893853e-06 -3.3062072e-06 5.4963316e-06 1.7034732e-05 -1.2772939e-05 -9.640142e-06
-2.3523222e-05 -4.8878697e-05 3.4008648e-05 3.786599e-05 -1.1332479e-05 -5.114869e-06 6.7580813e-06 9.419988e-06
-1.4675437e-05 -2.9594356e-05 1.9586589e-05 2.4321842e-05 -2.892514e-05 -5.8991347e-05 4.0656465e-05 4.6590943e-05

exp_avg_sq f4 [12, 4]
00000000: 70ae 1834 bb34 6532 1470 1133 c2c1 c833
00000010: 79cb 8e2f 6ca2 8f2e 6954 142f 3747 2a2f
00000020: 5ad5 a032 32e9 c330 3a55 5d31 d1c6 6332
00000030: 9ad2 bf34 861d 1333 c6da 9933 6d7d 8934
00000040: eb99 6433 c73c 2c33 d38a 1a33 09ac 6c33
00000050: 2468 bc2e ee77 ff2d 7382 7c2e 2a31 562e
00000060: defb cc31 ac3e aa31 b9d2 aa31 c295 c031
00000070: 3704 ac33 ec0d 8933 df26 7b33 6ba6 ab33
00000080: 026a b034 9842 8b35 aa5d e134 ad4e 3334
00000090: a439 0b33 c608 4733 2cf6 9132 fa7d 4433
000000a0: c8d4 5e34 541c e234 6c53 2834 7c6f 1f34
000000b0: ba57 2535 1fb6 df35 586b 4b35 8325 9434
1.4219563e-07 1.3341544e-08 3.3862378e-08 9.34847e-08 2.5974226e-10 6.531739e-11 1.349051e-10 1.548671e-10
1.8723473e-08 1.4254395e-09 3.2208178e-09 1.3258345e-08 3.5729755e-07 3.4252956e-08 7.164412e-08 2.5609498e-07
5.3225374e-08 4.0102147e-08 3.598218e-08 5.5104497e-08 8.567749e-11 2.9043403e-11 5.741403e-11 4.8701633e-11
5.9658154e-09 4.954776e-09 4.9716076e-09 5.604961e-09 8.010141e-08 6.382092e-08 5.8475845e-08 7.993079e-08
3.2859685e-07 1.0375688e-06 4.1977665e-07 1.6699296e-07 3.2415883e-08 4.6341277e-08 1.6992168e-08 4.574938e-08
2.075277e-07 4.2116392e-07 1.5676568e-07 1.4848587e-07 6.159495e-07 1.6667799e-06 7.57796e-07 2.7594442e-07

exp_avg f4 [4, 4]
00000000: 8711 4bb8 6b1f 1db7 6eb4 ecb7 0036 40b8
00000010: 2506 abb8 256d bbb7 447c 5db8 952c bfb8
00000020: 2d17 7037 67fc 6a36 0b30 9736 8abf 2837
00000030: 5f6c fb37 51a4 8136 46ad 8437 4ef2 1738
-4.8415295e-05 -9.365244e-06 -2.8217411e-05 -4.582666e-05 -8.15506e-05 -2.2342962e-05 -5.2806237e-05 -9.115894e-05
1.4310511e-05 3.5015635e-06 4.5057436e-06 1.00581765e-05 2.9971996e-05 3.8636285e-06 1.5816313e-05 3.622687e-05

exp_avg_sq f4 [4, 4]
00000000: 7c7a 9435 d113 4d33 7d2d 5034 b7e5 ab35
00000010: 483f e534 0749 a233 b3cd a434 22b1 1f35
00000020: e554 7134 09b8 fd32 c858 f533 203e 9934
00000030: 48a3 8235 9418 df33 1b4d 0135 d994 9135
1.1062507e-06 4.7748305e-08 1.9388058e-07 1.2807349e-06 4.2700617e-07 7.5569965e-08 3.0697046e-07 5.948988e-07
2.2475758e-07 2.9536766e-08 1.1424851e-07 2.8543673e-07 9.733276e-07 1.03887174e-07 4.816845e-07 1.0846662e-06

exp_avg f4 [16, 4]
00000000: fff1 22b8 901a d4b7 364e fe37 0ee5 1038
00000010: 02fc 0bb8 22a4 d5b7 a0e3 c837 ef84 1438
00000020: 9354 a037 bfb9 7337 ccbd 82b7 6e40 9ab7
00000030: 1ee1 a7b7 4cdb 15b7 28f6 8c37 4867 5337
00000040: 6813 5837 2bfa 0a37 3c3e 00b7 de03 66b7
00000050: 2671 de37 92a0 8e37 6abe 8ab7 3aeb e5b7
00000060: 16a0 9c38 cd83 a138 085f cdb8 82a3 68b8
00000070: 8246 17b8 571d bbb7 6143 f037 2d11 ff37
00000080: 9714 9237 0c65 5337 becd 54b7 0fc1 93b7
00000090: c9ce b837 7b25 9637 b178 beb7 5e55 94b7
000000a0: f038 9537 4ff0 5737 2741 93b7 c71c 62b7
000000b0: 7933 35b7 8aa8 bfb6 6372 dd36 6436 2937
000000c0: 26cb a6b7 a2a3 2bb7 4af6 5637 f7f9 9337
000000d0: 631d 99b7 fe5b 56b7 3b20 6637 21d9 9337
000000e0: c562 a935 5317 07b3 759f 08b5 3d92 48b5
000000f0: aecd deb7 fd86 8cb7 7567 ad37 d803 c237
-3.8849186e-05 -2.5284739e-05 3.031558e-05 3.45456e-05 -3.3374883e-05 -2.5468009e-05 2.3947854e-05 3.5409754e-05
1.911287e-05 1.4527176e-05 -1.5585589e-05 -1.8388233e-05 -2.001278e-05 -8.932151e-06 1.6803926e-05 1.2600627e-05
1.2879122e-05 8.283688e-06 -7.643885e-06 -1.3709969e-05 2.6517151e-05 1.700249e-05 -1.653955e-05 -2.7408463e-05
7.468478e-05 7.701628e-05 -9.792863e-05 -5.546539e-05 -3.606687e-05 -2.23058e-05 2.8641605e-05 3.0406367e-05
1.7414144e-05 1.2600107e-05 -1.2684088e-05 -1.7613665e-05 2.2030801e-05 1.7898847e-05 -2.2705966e-05 -1.7682727e-05
1.7788698e-05 1.287095e-05 -1.7554104e-05 -1.347735e-05 -1.0800425e-05 -5.711864e-06 6.5996296e-06 1.0085849e-05
-1.988334e-05 -1.0230493e-05 1.2812738e-05 1.7640165e-05 -1.8252706e-05 -1.2776813e-05 1.37165725e-05 1.7624874e-05
1.2620227e-06 -3.145335e-08 -5.089599e-07 -7.471861e-07 -2.656024e-05 -1.675216e-05 2.0671383e-05 2.3128392e-05

exp_avg_sq f4 [16, 4]
00000000: 7e6c 4033 a387 d232 7c9e fe32 c7d7 df32
00000010: be5c 3933 1f09 eb32 df42 2a33 a74b 0733
00000020: 22bd 9933 1073 d332 f889 cf32 b686 8133
00000030: 1116 9433 961b e732 2ed7 0433 5640 2233
00000040: b697 de32 a943 1c32 c3b4 7c32 5b59 7432
00000050: ea72 be33 456c e832 fb27 4033 5cbd 0433
00000060: e85f 5f35 83cc 7734 b8d8 fe34 5471 d034
00000070: f852 8633 4fe3 ff32 f869 ff32 c961 ea32
00000080: 150b 4d33 e9c6 9632 10af 9432 4a26 1933
00000090: 160d 2d34 c38e 4033 d7ec 4533 31ed e533
000000a0: 2a6a 6b34 3839 b833 3d14 cd33 a33c 0134
000000b0: 7259 7932 5b83 b731 7273 1332 8e5a 8032
000000c0: 588a 1a33 e2af 4a32 0530 8732 fa0d 8f32
000000d0: f9ca 3f32 6984 cb31 0514 1832 a180 f131
000000e0: a33e 0031 4928 1a30 9a69 1d31 f165 a431
000000f0: c396 c132 d023 4b32 ed98 5f32 c2ae 3632
4.4802157e-08 2.4508898e-08 2.9641562e-08 2.6058741e-08 4.3158018e-08 2.7361748e-08 3.964203e-08 3.1500942e-08
7.159021e-08 2.4615957e-08 2.4160713e-08 6.0315344e-08 6.895801e-08 2.6904484e-08 3.092935e-08 3.7777077e-08
2.5913192e-08 9.095779e-09 1.4709431e-08 1.4222986e-08 8.868467e-08 2.705759e-08 4.4739846e-08 3.0905866e-08
8.3213536e-07 2.3078069e-07 4.746887e-07 3.8825476e-07 6.254953e-08 2.9789275e-08 2.9734096e-08 2.7285653e-08
4.774036e-08 1.7552752e-08 1.7309077e-08 3.5657912e-08 1.6116641e-07 4.4833325e-08 4.608304e-08 1.0706788e-07
2.1924703e-07 8.578576e-08 9.549738e-08 1.2036121e-07 1.4514045e-08 5.3409344e-09 8.582775e-09 1.494234e-08
3.5981742e-08 1.1797939e-08 1.5737905e-08 1.6653747e-08 1.1163814e-08 5.923131e-09 8.852116e-09 7.0286466e-09
1.8662056e-09 5.608212e-10 2.2906534e-09 4.7846176e-09 2.2536716e-08 1.1824298e-08 1.301508e-08 1.063353e-08

exp_avg f4 [4, 16]
00000000: a3b1 1e38 4a18 3e38 9cd4 1cb7 20d5 b137
00000010: c5cb 3337 2d4e 0d38 ae2b e6b8 8e14 2638
00000020: 750a 0737 dd6a b5b7 49aa 3e36 586b 0736
00000030: f07a 5c37 e9a7 d037 9fe4 7a36 bf0e 2238
00000040: 7aea 07b7 55d2 64b7 061e 6e36 6953 2e35
00000050: 1c32 8136 b316 4736 3196 5eb8 410a b1b6
00000060: 8eb5 dc36 8308 0bb6 70e2 bbb6 f42f 87b6
00000070: 09a9 b5b6 fe37 0ab7 dacb 9f33 a812 f0b6
00000080: d766 c636 0f9d 1d37 69c6 8db6 8082 a1b5
00000090: fc19 c9b6 0de6 1db7 6f68 3c38 68d0 4b36
000000a0: 105b 14b7 03fc d335 073f 6e35 e4d8 a936
000000b0: 2bec d036 a9d4 fc36 d4cc 62b5 1b59 9f36
000000c0: 6fd2 65b7 d2ac c5b7 6f33 aa35 3d24 8fb5
000000d0: d821 4cb7 9fb1 f3b7 166b d938 9a1a 4cb7
000000e0: 412a 57b7 644a 3337 ff9c 6ab7 4d01 9a36
000000f0: ba59 3336 996b 0db7 efbb 8ab6 1be2 7bb7
3.7835573e-05 4.532215e-05 -9.347827e-06 2.1199288e-05 1.0716675e-05 3.3689827e-05 -0.000109753906 3.9596627e-05
8.049062e-06 -2.1626644e-05 2.8411325e-06 2.017905e-06 1.31416455e-05 2.4873721e-05 3.7385978e-06 3.8637543e-05
-8.10122e-06 -1.3638831e-05 3.548224e-06 6.494143e-07 3.850333e-06 2.9666523e-06 -5.30688e-05 -5.276205e-06
6.5776467e-06 -2.0717569e-06 -5.599395e-06 -4.028896e-06 -5.4138986e-06 -8.238478e-06 7.441095e-08 -7.1547292e-06
5.912832e-06 9.394497e-06 -4.2252254e-06 -1.2033415e-06 -5.993292e-06 -9.411492e-06 4.4919954e-05 3.0370666e-06
-8.84269e-06 1.579407e-06 8.8753626e-07 5.061842e-06 6.2263766e-06 7.534942e-06 -8.4489625e-07 4.7489425e-06
-1.3698459e-05 -2.3564706e-05 1.2680956e-06 -1.0664877e-06 -1.2167227e-05 -2.9050569e-05 0.00010367313 -1.2165541e-05
-1.2824837e-05 1.0686552e-05 -1.398404e-05 4.589709e-06 2.6725306e-06 -8.429307e-06 -4.134599e-06 -1.501341e-05

exp_avg_sq f4 [4, 16]
00000000: 8d88 c534 c372 d734 9bb4 0335 0b34 e933
00000010: c89f 7334 6d56 8735 c4d7 2e35 e530 a934
00000020: a920 7735 3bf6 8134 a6d8 0734 0435 2534
00000030: 4523 b134 feb7 bd34 1d37 ce30 f648 aa34
00000040: b7e5 cf33 c246 9433 6aed 3233 c99e aa33
00000050: 2dec 8432 b778 4c33 2aff 0035 5d6e f533
00000060: 2c14 7533 375d 6b33 61e5 7d33 67e3 5833
00000070: 2f6d d033 f26e 9f33 628b 6f32 46be bb33
00000080: a260 0534 8dc9 0e34 a3ca 0a34 0d12 6333
00000090: d394 7933 c6a1 7934 36f0 a534 c80c fa33
000000a0: 5ef5 7934 69c7 a133 ec60 3b33 a5dd 8233
000000b0: 887e e433 db9b 0334 7526 ed31 d145 ea33
000000c0: a849 3834 7f78 5d34 396a 1834 4373 be33
000000d0: 9ed4 9033 b77f 8834 6d90 eb34 4ed0 3834
000000e0: 88f4 8234 cec5 a133 fd71 4533 df85 7833
000000f0: 1eed 1034 fb87 2234 6c23 4431 b9c5 3034
3.6793463e-07 4.013037e-07 4.906412e-07 1.08593746e-07 2.2689267e-07 1.0083437e-06 6.513403e-07 3.1514278e-07
9.2062197e-07 2.420728e-07 1.2651671e-07 1.538611e-07 3.299448e-07 3.5337865e-07 1.5004137e-09 3.1718054e-07
9.6809735e-08 6.904658e-08 4.165978e-08 7.945125e-08 1.5474223e-08 4.760724e-08 4.805503e-07 1.14287765e-07
5.7061854e-08 5.479998e-08 5.911477e-08 5.049824e-08 9.705615e-08 7.424195e-08 1.3943323e-08 8.7424766e-08
1.2421745e-07 1.3298104e-07 1.292597e-07 5.2868973e-08 5.8110185e-08 2.3248785e-07 3.0908421e-07 1.1643857e-07
2.3279196e-07 7.533419e-08 4.362748e-08 6.0939136e-08 1.0640093e-07 1.2257026e-07 6.90198e-09 1.0909174e-07
1.7163131e-07 2.0626065e-07 1.4194747e-07 8.8685304e-08 6.7441974e-08 2.54249e-07 4.3877245e-07 1.7212116e-07
2.4392307e-07 7.533127e-08 4.597131e-08 5.7863755e-08 1.3497308e-07 1.5136895e-07 2.8541889e-09 1.6463208e-07

exp_avg f4 [12, 4]
00000000: a737 8336 3e5d b236 99bd d6b6 564e 3bb6
00000010: e697 2e36 3a6f 8036 f9fa 8eb6 6457 0fb6
00000020: fa40 ab36 7455 d036 6349 0bb7 71e0 47b6
00000030: f8d1 0536 456b 4a36 d7cb 48b6 b053 05b6
00000040: 5c69 65b6 dfb5 aab6 f066 b236 6dd7 5236
00000050: b59f 20b6 234a 8bb6 9208 8236 8b20 3036
00000060: a442 9eb6 6f11 deb6 b3a4 ee36 df78 8b36
00000070: 65ba 05b6 7c8c 4eb6 a735 4836 c9d0 0936
00000080: c6dc 2135 3499 cf36 3e1c d0b5 6235 acb6
00000090: 0c11 e336 afc6 1136 e450 dab6 3eae 20b6
000000a0: 3adc b736 9210 8035 e100 d1b6 924f 6cb4
000000b0: 4585 6ab6 a012 10b6 1200 5236 f64f 2536
3.910583e-06 5.315668e-06 -6.399769e-06 -2.791077e-06 2.6016437e-06 3.8276457e-06 -4.261147e-06 -2.1359529e-06
5.1037614e-06 6.208831e-06 -8.302132e-06 -2.9783953e-06 1.9940762e-06 3.0162785e-06 -2.9920973e-06 -1.9867257e-06
-3.4184986e-06 -5.0875674e-06 5.316797e-06 3.1417833e-06 -2.393482e-06 -4.1511535e-06 3.8752996e-06 2.6244986e-06
-4.716525e-06 -6.618145e-06 7.1121262e-06 4.156594e-06 -1.992704e-06 -3.0778165e-06 2.9833552e-06 2.053612e-06
6.029844e-07 6.186916e-06 -1.5505427e-06 -5.132214e-06 6.7671117e-06 2.1722333e-06 -6.506323e-06 -2.394328e-06
5.4794627e-06 9.541566e-07 -6.2287877e-06 -2.200816e-07 -3.494629e-06 -2.1468513e-06 3.129248e-06 2.463346e-06

exp_avg_sq f4 [12, 4]
00000000: fad5 9233 44ed 9633 5665 b033 86be 5f33
00000010: 2a7b 2e32 2855 d832 871f ab32 455e 8332
00000020: 8994 ea33 0142 fa33 2794 1834 e7b4 ad33
00000030: 80f9 a433 f78e a933 0c95 cf33 75c8 7433
00000040: fae2 2a33 7e83 7033 e482 6233 52ef 2b33
00000050: e6bd 2532 4272 f432 2a73 8d32 43c2 a432
00000060: b816 c133 ac66 1134 c941 0534 aa26 cc33
00000070: 9387 8833 70c6 d033 9f3f b933 7895 9433
00000080: 39e6 6d34 9097 ff34 c8d7 ae34 21b1 ea34
00000090: a5c1 9334 8aff f034 450f d534 07a9 ce34
000000a0: c418 7a34 40a6 2335 7030 b434 27a9 0c35
000000b0: f944 1d34 8d61 bc34 d485 6334 ca60 a834
6.837577e-08 7.028078e-08 8.2140716e-08 5.2094514e-08 1.0156137e-08 2.5184434e-08 1.9921357e-08 1.5293276e-08
1.09234925e-07 1.1653538e-07 1.421e-07 8.088846e-08 7.682229e-08 7.895681e-08 9.6663e-08 5.699299e-08
3.9787643e-08 5.5998946e-08 5.273877e-08 4.00317e-08 9.647442e-09 2.8457297e-08 1.6466931e-08 1.9180453e-08
8.9913954e-08 1.3541529e-07 1.2410523e-07 9.506523e-08 6.357654e-08 9.72185e-08 8.6263064e-08 6.918975e-08
2.21561e-07 4.7607728e-07 3.2567027e-07 4.3714775e-07 2.752178e-07 4.4889413e-07 3.9685452e-07 3.8493474e-07
2.3292074e-07 6.096416e-07 3.3562856e-07 5.2400213e-07 1.4646857e-07 3.5088706e-07 2.1189709e-07 3.1362862e-07

exp_avg f4 [4, 4]
00000000: ed8b 42b8 408c 7838 4338 9138 b798 9bb8
00000010: 8b7a 8338 3d70 6eb8 5f96 95b8 56b9 b238
00000020: 2a86 19b8 08ba a137 072b 5738 533e 13b8
00000030: 5940 1438 5692 35b8 0a4e 58b8 c42d 5a38
-4.638352e-05 5.9258426e-05 6.924618e-05 -7.419421e-05 6.269392e-05 -5.6848152e-05 -7.1328825e-05 8.522223e-05
-3.6602993e-05 1.9279323e-05 5.1300067e-05 -3.5105575e-05 3.5345878e-05 -4.329005e-05 -5.1571093e-05 5.2017873e-05
