out-tss50/ckpt_iter_3250.pt (torch, 48135 bytes, 64 tensors)

transformer.wte.weight f4 [5, 4]
0	0xbec61118	-0.38684916
1	0xbeac78d5	-0.33685938
2	0x3ed20122	0.4101649
3	0x3e531634	0.20613939
4	0x3e25ca5d	0.16190477
5	0x3e9f8e2d	0.3116316
6	0xbde11f4d	-0.10992298
7	0xbe8a3056	-0.26990002
8	0x3d9e8f05	0.077421226
9	0x3d483ed1	0.04888803
10	0xbe1f8841	-0.1557932
11	0x3dd51941	0.104052074
12	0x3dd438b3	0.10362377
13	0x3cdf6772	0.027271006
14	0xbe24d7ab	-0.16097896
15	0x3dac02a7	0.083989434
16	0x3e68a26c	0.22718209
17	0x3dc4a4a1	0.09601713
18	0xbe2763ed	-0.16346712
19	0xbe193ab5	-0.14963801

transformer.wpe.weight f4 [256, 4]
0	0x3e14750c	0.14497775
1	0x3d758600	0.059942245
2	0xbd6aa03d	-0.05728172
3	0xbd90cf30	-0.07070768
4	0x3de3d60d	0.11124811
5	0x3da1519c	0.07876894
6	0xbe0644c1	-0.13112165
7	0xbcf7aa99	-0.030232714
8	0x3d4d45a6	0.05011525
9	0xbc762650	-0.015023783
10	0xbdc72c24	-0.09725216
11	0x3aee7990	0.0018194187
12	0x3d0f3c29	0.034969483
13	0x3d17d76e	0.037070684
14	0xbd74b8c7	-0.05974653
15	0xbc78f712	-0.015195625
16	0x3d85fde8	0.065425694
17	0x3d5a00e2	0.0532235
18	0xbd16896e	-0.036752157
19	0xbd66428c	-0.056215808
20	0x3bd125c4	0.006382676
21	0xbbfde275	-0.007747943
22	0xbd5d725a	-0.054064132
23	0xbc5c0d11	-0.01343085
24	0x3d84ef73	0.06490984
25	0xbaf017dc	-0.0018317658
26	0xbd16d019	-0.03681955
27	0x3b0f43a5	0.0021860388
28	0x3cff2417	0.031145139
29	0xbbdf09f1	-0.006806605
30	0xbc0ddcd2	-0.008658605
31	0x3c2b7d81	0.010466934
32	0x3d27c70f	0.04096132
33	0xbc2f6bc3	-0.010706845
34	0x3b1a9827	0.0023589225
35	0x3ca55031	0.02017984
36	0xbca5d8c6	-0.020244967
37	0xbd3ddff0	-0.04635614
38	0xbd0a4499	-0.033756826
39	0x3c8f99d7	0.017529411
40	0xbb89193d	-0.004183917
41	0xb9bb8597	-0.00035766952
42	0x3be2c3e7	0.006920326
43	0xbc82b46e	-0.015955176
44	0xbb46e1db	-0.0030347023
45	0xbcb70da7	-0.022345377
46	0xbd149647	-0.03627613
47	0x3d06a679	0.032873604
48	0x3c8b711a	0.017021704
49	0xbc7e48df	-0.0155203035
50	0x3c942872	0.018085692
51	0x3bd36dd5	0.006452302
52	0xbc1e1b70	-0.009650096
53	0xbc5b02d8	-0.013367377
54	0xbcf04723	-0.029330796
55	0xbc391324	-0.011296067
56	0x3d045e0b	0.03231625
57	0x3bf0541a	0.0073342444
58	0x3cccaa78	0.02498363
59	0xbb0e16ed	-0.0021681145
60	0x3c036164	0.008018825
61	0x3caeb65c	0.02132719
62	0x3c2e8916	0.010652801
63	0xbc1e8934	-0.009676266
64	0x3cd2ac3b	0.025716892
65	0xba521b0e	-0.0008014896
66	0x3cba1d12	0.02271894
67	0xbc8bc633	-0.017062282
68	0x3d0adcc7	0.033901956
69	0x3bfaa9ec	0.007649651
70	0xbd0e126d	-0.03468554
71	0xbbd1712a	-0.006391664
72	0xbc3d9313	-0.01157071
73	0x3bf99a7b	0.0076172925
74	0xbba26b61	-0.004956648
75	0xbb41f1a8	-0.0029593501
76	0x3d47ad9a	0.048749544
77	0x3ca29c44	0.019849904
78	0xbd81a3f7	-0.06330102
79	0xbc715cb9	-0.014731579
80	0x3c810272	0.015748236
81	0xbb3754c5	-0.002797411
82	0x3be9337e	0.007116734
83	0xbbd879b6	-0.006606306
84	0xbc04d487	-0.008107311
85	0xbca2b19b	-0.01986008
86	0x37991b0c	1.8251616e-05
87	0x3cf2e1e6	0.029648732
88	0x3d01718c	0.031602427
89	0xbccafd6c	-0.024779044
90	0xbca12d12	-0.019674812
91	0x3c18e533	0.009331989
92	0x3ac02d9d	0.0014662031
93	0x3ca3bac6	0.019986521
94	0x3a585eb7	0.00082538597
95	0x3a59409e	0.0008287522
96	0xbd425c20	-0.04745114
97	0x384f593c	4.9435752e-05
98	0xbd339d12	-0.043850966
99	0x3cfa9076	0.030586462
100	0x3d2acc11	0.04169852
101	0xbc11d72b	-0.008901398
102	0x3924d546	0.0001571971
103	0xbc76b39d	-0.015057472
104	0x3d03e877	0.032204118
105	0x3ce5238c	0.027971052
106	0x3c6e86a9	0.014558473
107	0x3bc367b2	0.005963289
108	0x3d48b411	0.04899985
109	0xbbee1651	-0.007265844
110	0xbc7c731a	-0.015408302
111	0x3c16faca	0.009215066
112	0x3c3d572e	0.01155643
113	0xbc3cf49d	-0.01153293
114	0x3b1d626b	0.002401496
115	0xbb2dfb0b	-0.0026547338
116	0x3daad4ec	0.08341393
117	0x3c2556c9	0.010091492
118	0xbca94902	-0.020664696
119	0x3bf11fef	0.007358543
120	0x3cffdeab	0.031234106
121	0xba051953	-0.0005077321
122	0xbd383f47	-0.04498222
123	0xbc7ef54d	-0.015561414
124	0x3bbda9aa	0.005788048
125	0xbbfecc0c	-0.007775789
126	0x3cc38aa4	0.02386982
127	0xbcb4e5f7	-0.022082312
128	0x3d58c086	0.05291798
129	0xbcd4507d	-0.025917286
130	0x3cbfa35e	0.02339333
131	0x3c9fa12b	0.01948603
132	0xbb24930f	-0.0025112068
133	0xba91aab8	-0.00111135
134	0xbb0d5d76	-0.00215706
135	0x3b01f498	0.0019829627
136	0x3c849e76	0.016188841
137	0x3c98cd0d	0.018652463
138	0xbc8680e6	-0.016418885
139	0x3bf0e917	0.007352005
140	0xbc165550	-0.0091756135
141	0x3a8b1534	0.0010611177
142	0xbb71b67e	-0.0036882455
143	0x3cc71d3d	0.024305934
144	0xbc9f3fa3	-0.019439524
145	0x3d22e4d3	0.039769005
146	0x3cf911f6	0.030404072
147	0xbb711ca4	-0.0036790753
148	0x3d04b91c	0.032403097
149	0x3c4bcbbc	0.012438711
150	0xbbb39f2d	-0.0054816217
151	0x3ce79955	0.028271357
152	0x3b9e4f5f	0.004831239
153	0x3d0fd7cd	0.035117913
154	0x3c2b4dfe	0.0104556065
155	0x3c4fe1af	0.0126880845
156	0xbc04be0d	-0.008101952
157	0xbb99fdb3	-0.0046994328
158	0xbc8ccd93	-0.01718787
159	0x3cb53b85	0.022123108
160	0x3d0b36db	0.03398786
161	0x3cbaa189	0.022782104
162	0xbc1769d2	-0.009241538
163	0x3cf9fd54	0.030516304
164	0x3c46ea0e	0.012140764
165	0xbd008b93	-0.03138311
166	0x3c115df3	0.008872497
167	0xbc1fedda	-0.009761298
168	0x3d071992	0.03298337
169	0xbc1a80e9	-0.009430149
170	0xbc576667	-0.013146973
171	0xbca49045	-0.020088324
172	0x3ccc891f	0.024967728
173	0xbc2342de	-0.009964673
174	0xbcdde4b0	-0.027086586
175	0x3d247488	0.040150195
176	0xbd02a512	-0.031895705
177	0xbd08c844	-0.033394113
178	0xbc5f0647	-0.0136123365
179	0x3b8b180c	0.00424481
180	0x3b9f8b1b	0.0048688776
181	0xbd1a3b3d	-0.03765415
182	0xbcfddd6f	-0.030989377
183	0x3c0526a0	0.008126885
184	0x3c340fed	0.010990125
185	0x3c893283	0.016747719
186	0xbcc6bdf8	-0.024260506
187	0x3cf0b780	0.029384375
188	0x3d0c8016	0.03430184
189	0xbc1edaaf	-0.009695693
190	0x3bdc4cf6	0.0067230416
191	0x3d027e1d	0.031858552
192	0x3a223cab	0.000618885
193	0xbc1c95da	-0.009557212
194	0xbac5b025	-0.0015082402
195	0xbc3180ca	-0.010833928
196	0x3d8e6d21	0.069544084
197	0x3cc3f7ed	0.023921931
198	0x3d171583	0.03688575
199	0x3bc4ae88	0.006002251
200	0x3cc3210f	0.023819475
201	0xbc36fee7	-0.011169172
202	0x3a270290	0.0006370926
203	0x3c28d958	0.010305725
204	0xbaefff20	-0.0018310286
205	0x3bef6afd	0.007306455
206	0xbc3b84c4	-0.011445228
207	0x3d390c00	0.04517746
208	0x3cab59b2	0.020916793
209	0xbb562170	-0.003267374
210	0xbc6f01b1	-0.014587806
211	0x3a7f6867	0.0009743035
212	0x3cf08298	0.029359147
213	0x3cba3047	0.022728099
214	0xbd319d32	-0.043362804
215	0x3ce9f39f	0.02855855
216	0xbc2ebbcd	-0.010664892
217	0xbba741d6	-0.005104284
218	0x3c352804	0.011056904
219	0x3c79e393	0.015252012
220	0x3d22702f	0.039657768
221	0x3ba9e362	0.005184577
222	0xbc6f48b1	-0.014604733
223	0x3ca499a5	0.020092795
224	0x3d26c3b8	0.040713996
225	0xbcc4ec4b	-0.024038455
226	0xbbfd5c10	-0.007731922
227	0x3ca3bcb7	0.019987447
228	0x3cde7894	0.027157106
229	0xbc4fb462	-0.012677284
230	0xbc571e23	-0.013129744
231	0x3c4d6b8e	0.01253785
232	0xbc424c16	-0.011858961
233	0x3ac722dd	0.0015192885
234	0x3c9f8fd7	0.019477768
235	0x3b68acb5	0.0035503332
236	0x3d9d2874	0.076737314
237	0xbc1aa9c6	-0.009439891
238	0xbc2519e3	-0.010076973
239	0x3cc0fad5	0.023557106
240	0xbbf8b04b	-0.007589375
241	0xbc98dc63	-0.018659776
242	0xbc331830	-0.01093106
243	0x3c1b66f5	0.009484996
244	0x3d8fa1e2	0.070132986
245	0xbcd498fc	-0.025951855
246	0xbc99aa81	-0.01875806
247	0xbcd094b7	-0.025461538
248	0x3d00c96c	0.03144209
249	0xbbcdbba3	-0.0062784716
250	0x3cb779dd	0.022396976
251	0x3c9f04a9	0.019411402
252	0x3d2c27f1	0.04203028
253	0x3d07de83	0.033171188
254	0xbac53063	-0.0015044328
255	0xbbb399c0	-0.005480975

transformer.h.0.ln_1.weight f4 [4]
0	0x3f948a76	1.1604755
1	0x3f90e258	1.1319075
2	0x3f91f3f1	1.140257
3	0x3f984b92	1.1898062

transformer.h.0.attn.c_attn.weight f4 [12, 4]
0	0xbdb8285d	-0.08992074
1	0xbdc11194	-0.09427181
2	0x3dac4608	0.08411795
3	0x3dab6ebf	0.083707325
4	0xbd6904b6	-0.05688926
5	0xbd7e6c03	-0.062114727
6	0x3db89abb	0.090138875
7	0x3c100926	0.008791244
8	0x3dffc4e2	0.12488724
9	0x3e1d082d	0.1533515
10	0xbe642943	-0.22281365
11	0xbcc4b0f0	-0.024010152
12	0x3dd27257	0.10275715
13	0x3e259646	0.16170606
14	0xbe263733	-0.16231994
15	0xbd865208	-0.06558615
16	0x3da6d6e6	0.081464574
17	0x3dbdccfd	0.09267614
18	0xbdf991d9	-0.12186021
19	0xbd83caa8	-0.06435138
20	0x3e0e0869	0.13870396
21	0x3cf89d31	0.030348392
22	0xbd85e29b	-0.06537362
23	0xbdb2e904	-0.087358505
24	0xbe3d6683	-0.18496136
25	0xbde4c488	-0.11170298
26	0x3d24e9e6	0.040262125
27	0x3e89406c	0.26806962
28	0xbe06616c	-0.13123101
29	0xbe42f50d	-0.19038792
30	0x3ddaf8b9	0.10691971
31	0x3e2c837b	0.16847031
32	0x3d9592ba	0.073033765
33	0x3d5f688a	0.054543056
34	0xbe02b46e	-0.12764141
35	0xbd61818a	-0.05505518
36	0x3d1be48d	0.03805976
37	0x3b05afec	0.0020399047
38	0xbdbbc775	-0.09168903
39	0x3cdc32e5	0.026879737
40	0x3dc31130	0.09524763
41	0x3da3d4a6	0.07999544
42	0xbd37d9e8	-0.044885546
43	0xbe23cd00	-0.1599617
44	0x3d2b06a8	0.041754395
45	0x3d99d295	0.075108685
46	0xbd28f507	-0.0412493
47	0xbe3224f0	-0.17396903

transformer.h.0.attn.c_proj.weight f4 [4, 4]
0	0x3dff8dce	0.12478219
1	0x3dc37e9b	0.095456325
2	0x3e16f7e5	0.14743002
3	0x3e24a334	0.16077882
4	0x3d16f254	0.036852196
5	0xbc916778	-0.017749533
6	0x3d6f0ed8	0.058363765
7	0x3db82b4c	0.08992633
8	0xbe0bd930	-0.13657069
9	0xbd5edca4	-0.054409638
10	0xbd9fddb1	-0.07805956
11	0xbdf7358a	-0.12070759
12	0xb9e80708	-0.00044255727
13	0x3cfeec25	0.031118462
14	0xbc1ca15a	-0.009559954
15	0xbd6bfe4d	-0.057615567

transformer.h.0.ln_2.weight f4 [4]
0	0x3fb32466	1.3995483
1	0x3fbf26f4	1.4933763
2	0x3fb2a1b9	1.3955604
3	0x3fb59517	1.4186124

transformer.h.0.mlp.c_fc.weight f4 [16, 4]
0	0x3e10d692	0.14144352
1	0xbd7c8c5c	-0.061657295
2	0xbd9bc58b	-0.07606038
3	0x3bbd835c	0.0057834815
4	0x3dd24dd3	0.1026875
5	0xbc0c37c0	-0.008558214
6	0x3c1a2a48	0.009409495
7	0xbbe42aae	-0.0069630956
8	0xbdbb3164	-0.0914028
9	0x3e12d415	0.14338715
10	0xbc9888cb	-0.018619915
11	0x3d31d3ea	0.043414988
12	0x3da78305	0.08179287
13	0xbe240fa6	-0.16021594
14	0xbdbd71b4	-0.09250203
15	0x3e2b1e4c	0.16710776
16	0x3d50f02d	0.0510103
17	0x3d9f0ce6	0.07766132
18	0xbda17ecb	-0.07885512
19	0xbd5f980a	-0.054588355
20	0xbcdd5ee2	-0.027022783
21	0x3daae07e	0.083436
22	0xbd8ea09a	-0.06964226
23	0xbca414e5	-0.020029495
24	0xbec51406	-0.3849184
25	0xbee5ce3e	-0.44883913
26	0x3ebc3824	0.36761582
27	0x3ecc44df	0.39896294
28	0x3ddf02fb	0.1088924
29	0xbddc6504	-0.10761455
30	0xbd680846	-0.056648515
31	0x3db4b6d0	0.08823931
32	0xbd85b18c	-0.06528005
33	0x3d95a5b7	0.07306998
34	0xbd8825f7	-0.06647866
35	0x3c250436	0.010071805
36	0xbe56f6f8	-0.20992649
37	0x3dab83cf	0.0837475
38	0x3d675775	0.05647989
39	0x3e17d954	0.14828998
40	0xbdc8c1be	-0.098025784
41	0x3e6ed87a	0.23324767
42	0x3d6607c0	0.056159735
43	0xbdf4da61	-0.11955715
44	0x3d26561a	0.040609457
45	0xbdaf9e98	-0.08575171
46	0x3dd00296	0.10156743
47	0xbd21e2c3	-0.039522897
48	0x3da4f053	0.08053651
49	0xbe0e5d12	-0.13902691
50	0x3da99458	0.082802474
51	0xbd96853b	-0.073496304
52	0x3db77916	0.08958642
53	0xbcc7861a	-0.024355937
54	0x3dfdbc3d	0.12389419
55	0xbdf58820	-0.119888544
56	0xbcb9f535	-0.022699932
57	0x3d23eb92	0.04001958
58	0x3d46a984	0.048501506
59	0xbcfdc5a8	-0.030978039
60	0x3e27a1da	0.16370335
61	0xbc9b0b7a	-0.01892637
62	0xbd93c7a3	-0.07215812
63	0xbc2f014c	-0.010681462

transformer.h.0.mlp.c_proj.weight f4 [4, 16]
0	0xbde3bf9a	-0.111205295
1	0xbcec23d7	-0.028825684
2	0x3e01bfa1	0.12670757
3	0xbd9fb175	-0.07797519
4	0x3d1fef4f	0.03904658
5	0x3d6c4c98	0.057690233
6	0x3e8d73de	0.27627462
7	0xbe000213	-0.12500791
8	0x3d7577d4	0.05992873
9	0x3e30804e	0.17236444
10	0x3e4b3516	0.1984447
11	0x3d2336e6	0.039847277
12	0x3c8d2aad	0.017232263
13	0x3d1c3aa7	0.038141873
14	0x3dbf51ed	0.09341798
15	0xbda919ba	-0.0825686
16	0x3cc92bb8	0.02455698
17	0x3d58634e	0.05282908
18	0x3dccaa7e	0.09993456
19	0x3da46497	0.080269985
20	0xbda7e531	-0.08198012
21	0xbde08980	-0.10963726
22	0x3e63ae4e	0.2223446
23	0x3d481e27	0.04885688
24	0xbb5b2c01	-0.0033442976
25	0x3d9529c0	0.07283354
26	0x3cda61b8	0.026657924
27	0x3d9260af	0.07147347
28	0x3d211fb3	0.03933687
29	0xb81da4d3	-3.758522e-05
30	0x3b607238	0.0034247767
31	0x3ba1cb34	0.004937554
32	0xbdead780	-0.114668846
33	0xbdc9cd65	-0.09853629
34	0x3d436967	0.04770794
35	0xbda6ed1d	-0.081506945
36	0xbd06e33d	-0.032931555
37	0x3b4f9beb	0.0031678628
38	0xbea1e7f1	-0.3162227
39	0xbd9bffb1	-0.07617129
40	0xbd167a32	-0.03673763
41	0xbd62c0f6	-0.055359803
42	0x3d14ef51	0.036361042
43	0xbcca5643	-0.024699336
44	0xbc2cfbdd	-0.010558096
45	0x3d417a2f	0.047235664
46	0x3deab318	0.11459941
47	0xbda0e384	-0.07855895
48	0x3cec8dde	0.028876241
49	0x3d1b8791	0.037971083
50	0xbd9dcc14	-0.077049404
51	0xbc446adb	-0.011988367
52	0x3c0d1138	0.008610062
53	0xbc834251	-0.016022833
54	0xbe02cb0c	-0.12772769
55	0x3c9ded4a	0.019278187
56	0xbd0f7b45	-0.03502967
57	0xbd48be1b	-0.049009424
58	0xbdf61ce0	-0.12017226
59	0xbd06c7a3	-0.032905232
60	0xbd4cb985	-0.049981613
61	0xbd786816	-0.06064614
62	0xbce35318	-0.027749583
63	0x3c560593	0.013062852

transformer.h.1.ln_1.weight f4 [4]
0	0x3f96a519	1.1769134
1	0x3f948833	1.1604065
2	0x3f950a71	1.1643811
3	0x3fa25b8d	1.2684189

transformer.h.1.attn.c_attn.weight f4 [12, 4]
0	0xbe2a746a	-0.16645971
1	0xbe186371	-0.14881684
2	0x3e7d8331	0.24757077
3	0x3cb513d1	0.022104176
4	0xbe248d38	-0.16069496
5	0xbdc2920c	-0.095005125
6	0x3e34a835	0.17642291
7	0x3d559139	0.05214045
8	0xbe1f74a2	-0.15571836
9	0xbe01d785	-0.1267987
10	0x3e63dcaf	0.22252153
11	0x3d9b0ba6	0.07570581
12	0xbe292549	-0.1651813
13	0xbe092fc8	-0.13397133
14	0x3e53274c	0.2062046
15	0x3db4152e	0.08793102
16	0x3e4d87d9	0.20071353
17	0x3e2628ef	0.16226552
18	0xbd0c78e5	-0.03429498
19	0xbe93c8c2	-0.28864104
20	0x3e0ea2ba	0.13929263
21	0x3dd4ae66	0.10384826
22	0xbdde3f5f	-0.10851931
23	0xbe310f01	-0.1729088
24	0x3e33fa82	0.1757603
25	0x3e1bd98e	0.1521971
26	0xbdd72c85	-0.10506538
27	0xbe7a3743	-0.24435143
28	0x3e36306b	0.17791907
29	0x3e145345	0.1448489
30	0xbe13754e	-0.14400217
31	0xbe3a81ea	-0.18213621
32	0xbdc13811	-0.09434522
33	0xbd9fd1cd	-0.07803688
34	0x3d6a39ac	0.057183906
35	0x3e877942	0.264597
36	0x3dc3d6d3	0.09562459
37	0x3d9255e8	0.071452916
38	0xbda26da7	-0.07931071
39	0xbdf8372b	-0.121198975
40	0x3dd8cec3	0.10586312
41	0x3df69421	0.12039972
42	0xbde9128a	-0.11380489
43	0xbe63e8c4	-0.22256762
44	0xbd9d421e	-0.076786265
45	0xbdea4e5c	-0.11440727
46	0x3e0c6536	0.13710484
47	0x3e3c90d3	0.18414621

transformer.h.1.attn.c_proj.weight f4 [4, 4]
0	0xbe2b298c	-0.16715068
1	0x3e162bec	0.14665192
2	0x3e1a2ecd	0.15056916
3	0xbe020648	-0.12697709
4	0xbd9fb288	-0.07797724
5	0x3d50c5c9	0.050969873
6	0x3d63fc99	0.055660818
7	0xbd367ffc	-0.04455565
8	0x3e042e62	0.12908319
9	0xbe096c36	-0.13420185
10	0xbe1194ba	-0.14216891
11	0x3e079e6f	0.13244031
12	0x3d5ce9f3	0.05393405
13	0xbc156613	-0.009118575
14	0xbccc6bac	-0.024953686
15	0x3c362f73	0.011119711

transformer.h.1.ln_2.weight f4 [4]
0	0x3f966463	1.1749386
1	0x3fa5241b	1.2901644
2	0x3f950c74	1.1644425
3	0x3f9fb7e4	1.2477994

transformer.h.1.mlp.c_fc.weight f4 [16, 4]
0	0x3d943a3a	0.07237668
1	0xbe3fc5dd	-0.18727823
2	0xbd82c0de	-0.06384443
3	0x3e7cb5a6	0.24678668
4	0x3e2d2bc3	0.16911225
5	0xbd16e380	-0.036838055
6	0xbd26b739	-0.04070208
7	0xbd2ee177	-0.04269549
8	0x3d123950	0.03569919
9	0x3e00bb7c	0.1257152
10	0x3baa4157	0.0051957774
11	0xbdc9a587	-0.09846025
12	0xbcb3d7e9	-0.02195354
13	0x3e3cff8a	0.18456855
14	0x3d0fceb2	0.03510923
15	0xbe035d08	-0.12828457
16	0x3e00675d	0.1253943
17	0xbe8538a0	-0.26019764
18	0xbd84bc32	-0.06481208
19	0x3e1b2e5b	0.15154402
20	0xbe28898d	-0.16458721
21	0x3e59897c	0.21243852
22	0xbcd4a201	-0.025956156
23	0xbc965a04	-0.01835347
24	0xbe331403	-0.17488103
25	0x3e31b76d	0.17355128
26	0xbd28a058	-0.04116854
27	0x3d51b2a5	0.05119576
28	0x3ddc4a55	0.10756365
29	0x3ccd79bf	0.025082467
30	0x3cbc9b2b	0.023023209
31	0xbd8c5467	-0.06852036
32	0x3d1c8152	0.038209267
33	0xbe30816d	-0.17236872
34	0xbda9d0f4	-0.08291808
35	0x3ea08f45	0.31359306
36	0x3e308214	0.17237121
37	0xbd47cb25	-0.048777718
38	0xbcf20b32	-0.029546354
39	0xbd52d03e	-0.051468126
40	0x3e0f756b	0.14009635
41	0xbd3c13d5	-0.04591735
42	0xbcb5c937	-0.022190673
43	0xbce298bf	-0.027660726
44	0x3e1ce53c	0.15321821
45	0x3e1f45bb	0.15553944
46	0xbd735961	-0.05941141
47	0xbe421444	-0.18953043
48	0xbc87d7a5	-0.01658232
49	0xbe2ad076	-0.16681084
50	0x39e1ab32	0.00043042895
51	0x3e402452	0.18763855
52	0x3cf2b935	0.02962933
53	0xbe50e960	-0.20401525
54	0x3e1c802a	0.15283266
55	0xbd80e2f8	-0.06293291
56	0xbd312e15	-0.043256838
57	0x3ca8dbb1	0.02061257
58	0xbad21f4a	-0.0016031053
59	0x3c3b98a4	0.011449967
60	0xbd64623f	-0.055757757
61	0x3e1f3a9e	0.15549704
62	0xbd470f0b	-0.04859833
63	0xbdb7d509	-0.0897618

transformer.h.1.mlp.c_proj.weight f4 [4, 16]
0	0xbd908ff9	-0.070587106
1	0xbdd0b174	-0.101900965
2	0x3dc59bf0	0.09648883
3	0x3e37d2be	0.17951486
4	0xbda4633b	-0.08026739
5	0x3e22d5e0	0.159019
6	0x3e29ba61	0.16575004
7	0xbbb68c64	-0.005570935
8	0xbcb441f9	-0.022004114
9	0xbdea81ef	-0.11450564
10	0xbd8438db	-0.06456157
11	0x3ccf782a	0.025325853
12	0xbc96f714	-0.018428363
13	0x3da945b2	0.082652465
14	0x3bb3d247	0.0054877135
15	0x3e1baefe	0.15203473
16	0x3e403395	0.18769677
17	0xba979b9d	-0.0011566762
18	0xbd819e21	-0.06328989
19	0xbd32b461	-0.043629054
20	0x3e04915d	0.12946077
21	0x3b953b0d	0.0045541585
22	0x3ce6b0e5	0.028160522
23	0x3917e4b2	0.00014485678
24	0x3e2ea53c	0.1705522
25	0x3c278c1d	0.010226277
26	0x3c3a43a0	0.011368662
27	0xbcc320f8	-0.023819432
28	0x3e233f55	0.15942128
29	0x3e1c2b89	0.15250982
30	0x3c2d1960	0.010565132
31	0xbddcf1cf	-0.10788309
32	0xbdc3a7d2	-0.095534936
33	0xbdc82aee	-0.09773813
34	0xbdeb0431	-0.11475409
35	0xbdb22090	-0.08697617
36	0xbe3da4e9	-0.1851994
37	0xbccd9a43	-0.025097972
38	0xbd025ba4	-0.031825677
39	0xbdf4e2fd	-0.11957357
40	0xbdcb5432	-0.09928168
41	0xbdfce58e	-0.123484716
42	0xbda2bafa	-0.07945819
43	0xbcca6353	-0.024705565
44	0xbc7cafe0	-0.015422791
45	0xbd67ef2b	-0.056624573
46	0xbcbb0d69	-0.022833543
47	0xbd141ed6	-0.03616222
48	0xbd9d8e40	-0.07693148
49	0x3d4502a0	0.048098207
50	0x3d2c5e8e	0.042082362
51	0x3bac89fd	0.005265473
52	0xbcc08b5c	-0.023503952
53	0xbd37f4eb	-0.044911306
54	0xbd85dd26	-0.06536321
55	0x3d949daa	0.072566345
56	0xbdc647d0	-0.09681666
57	0x3d6e4fb6	0.058181487
58	0x3d008b3b	0.03138278
59	0x3c2b67fb	0.010461803
60	0xbda33618	-0.07969302
61	0xbd4f6338	-0.05063173
62	0xbcf6cba4	-0.0301264
63	0xbc30c22a	-0.01078848

transformer.h.2.ln_1.weight f4 [4]
0	0x3f8fb505	1.1227118
1	0x3f904976	1.1272418
2	0x3f90ef62	1.1323054
3	0x3fa1d412	1.2642844

transformer.h.2.attn.c_attn.weight f4 [12, 4]
0	0x3d9a0e89	0.075223036
1	0xbd07d3f9	-0.033161137
2	0x3a5e6bc3	0.00084846857
3	0xbd28f11c	-0.041245565
4	0xbd665ea6	-0.056242608
5	0xbd8be98e	-0.068316564
6	0x3daad407	0.08341222
7	0xbb090534	-0.0020907642
8	0xbdc5879e	-0.096450076
9	0xbd8002f9	-0.06250567
10	0x3dedf24f	0.11618482
11	0xbd25fb37	-0.04052278
12	0x3de89c08	0.113578856
13	0x3dce76eb	0.100812756
14	0xbe286d8e	-0.16448042
15	0xbc1a84f9	-0.009431117
16	0xbbae6def	-0.0053231637
17	0xbd2d8546	-0.042363428
18	0x3c5262c1	0.012840928
19	0x3cbeb60e	0.02328017
20	0x3da6c6f3	0.08143415
21	0x3d7ed017	0.06221017
22	0xbd9efc77	-0.077629976
23	0xbdebf0eb	-0.11520561
24	0x3c2e5254	0.010639746
25	0x3c7ed5dc	0.015553918
26	0xbcb39ed5	-0.021926323
27	0xbdc75b22	-0.09734179
28	0xbdf842d8	-0.121221244
29	0xbd5ed369	-0.054400835
30	0x3d057ed0	0.03259164
31	0x3e2a6af8	0.16642368
32	0xbd26ca8d	-0.04072051
33	0xbd721e09	-0.059110675
34	0x3d932245	0.07184271
35	0xbe23d6c3	-0.15999894
36	0xbd98cb8a	-0.07460697
37	0xbdccd5b6	-0.100016996
38	0x3da701be	0.08154629
39	0x3e2860e2	0.16443208
40	0x3d99e93b	0.07515188
41	0x3da6c8e5	0.08143786
42	0xbdbaf29d	-0.09128306
43	0xbe4606fb	-0.193386
44	0x3d817f69	0.0632313
45	0x3d72b75a	0.05925689
46	0xbd5a1da3	-0.05325092
47	0xbe7e089e	-0.24807975

transformer.h.2.attn.c_proj.weight f4 [4, 4]
0	0xbd889a0c	-0.06670007
1	0xbe084bf9	-0.13310231
2	0x3e050be6	0.1299282
3	0x3e0ea052	0.13928345
4	0x3d1335b5	0.03593989
5	0xbd37f566	-0.044911765
6	0x3d032dcb	0.032026093
7	0x3d7475c3	0.05968262
8	0x3da2fe2c	0.07958636
9	0x3e1279b3	0.14304237
10	0xbe0a999e	-0.13535163
11	0xbe08bbab	-0.1335284
12	0xbd6c56ef	-0.057700094
13	0x3c312647	0.010812349
14	0xbcbe1bb8	-0.023206577
15	0xbccab79f	-0.02474576

transformer.h.2.ln_2.weight f4 [4]
0	0x3f9928eb	1.1965612
1	0x3f98e100	1.1943665
2	0x3f8d65c5	1.1046683
3	0x3fa25e1c	1.268497

transformer.h.2.mlp.c_fc.weight f4 [16, 4]
0	0xbcb523ad	-0.022111738
1	0x3d4f62e5	0.050631423
2	0x3be8ce4d	0.007104671
3	0xbdbd0064	-0.0922859
4	0xbd1afea4	-0.0378405
5	0xbd91e78a	-0.07124241
6	0xbb30b162	-0.0026961197
7	0x3dd8e53c	0.10590598
8	0x3dafa006	0.08575444
9	0x3ce250ea	0.027626473
10	0x3c439bdc	0.011939015
11	0xbdc49292	-0.095982686
12	0xbd74b1e3	-0.05973996
13	0xbd8ddcb5	-0.06926862
14	0x3bf283d4	0.007400969
15	0x3e434f29	0.19073166
16	0xbcdaa5b1	-0.026690336
17	0x3dc9230d	0.098211385
18	0xbca369d9	-0.019947933
19	0xbe3b6e9a	-0.1830391
20	0xbdbea38f	-0.0930854
21	0xbdc9a70b	-0.09846314
22	0x394ce65a	0.00019540769
23	0x3e3d4f96	0.18487391
24	0x3de47df1	0.11156834
25	0xbdaf6618	-0.08564395
26	0x3e026ba2	0.12736371
27	0xbe5b2b3d	-0.21403213
28	0xbdd6b4ff	-0.10483741
29	0xbd04a2f2	-0.03238196
30	0xbd478913	-0.04871471
31	0x3e38b54b	0.18037908
32	0xbdcb81ff	-0.09936904
33	0xbdf9f10e	-0.12204181
34	0xbbbe7de1	-0.005813346
35	0x3e024cb2	0.1272457
36	0xbdb31c66	-0.08745651
37	0xbc8bccb7	-0.01706539
38	0x3b8a72c5	0.0042251074
39	0x3dd33efd	0.103147484
40	0x3d37c07c	0.0448613
41	0x3d3ffcc5	0.04687192
42	0x3d9562b6	0.07294218
43	0xbe3745f8	-0.17897785
44	0xbda3fb14	-0.08006874
45	0xbdc97f3b	-0.098387204
46	0xbc168039	-0.009185844
47	0x3e11ffcd	0.14257737
48	0x3ce9e50f	0.028551606
49	0x3de87708	0.113508284
50	0x3d40ed7a	0.047101475
51	0xbdff0fca	-0.124541834
52	0x3e605d5e	0.21910617
53	0xbe61a2f0	-0.22034812
54	0xbdc30823	-0.09523036
55	0x3e01250c	0.12611789
56	0xbdd2bdc5	-0.10290102
57	0x3e0be4f2	0.13661554
58	0xbe1f7ea8	-0.1557566
59	0x3e20790d	0.15671177
60	0x3d0403d7	0.032230224
61	0x3dc031f0	0.09384525
62	0x3d92cd7a	0.07168098
63	0xbe32c022	-0.17456105

transformer.h.2.mlp.c_proj.weight f4 [4, 16]
0	0x3df33833	0.118759535
1	0xbba3c5fe	-0.0049979677
2	0x3d3c5c27	0.04598632
3	0x3c71a1de	0.014748065
4	0x3df4351c	0.11924192
5	0x3cc463e6	0.023973417
6	0x3dec770a	0.115461424
7	0x3cdfa6f7	0.027301295
8	0x3c2fe19c	0.010734942
9	0x3da5fa0d	0.08104334
10	0x3e21d09a	0.15802231
11	0x3c0b429f	0.00849977
12	0x3e1aa217	0.15100895
13	0xbdfad8a7	-0.122483544
14	0x3de1c0da	0.11023112
15	0x3e461ea5	0.19347627
16	0xbdc69fbc	-0.09698436
17	0x3d3658a8	0.044518143
18	0xbc8f5ad6	-0.017499369
19	0x3d9443f3	0.07239523
20	0xbe0330bc	-0.1281156
21	0x3d7a68c3	0.061135065
22	0x3d942ae6	0.07234745
23	0x3db060ab	0.08612188
24	0x3d1effa0	0.038818
25	0x3d07b296	0.033129297
26	0xbd55508e	-0.052078776
27	0x3d4685c9	0.04846743
28	0xbd9477fa	-0.07249446
29	0x3decd78e	0.11564551
30	0x3afcab97	0.0019277212
31	0xbd94881e	-0.07252525
32	0x3bed186d	0.007235578
33	0x3d4d3a78	0.05010459
34	0xbdc10c71	-0.09426201
35	0x3d24f743	0.04027487
36	0x3c8fb93e	0.017544385
37	0x3d5af14d	0.05345278
38	0xbe47dbdf	-0.19517468
39	0x3d704cd2	0.05866701
40	0x3d7f0eaf	0.062269863
41	0x3d76e57c	0.060277447
42	0xbd939629	-0.07206375
43	0x3d8fe790	0.07026589
44	0xbd8bf1d8	-0.068332374
45	0xbddaf5d5	-0.1069142
46	0xbcf6c76f	-0.030124394
47	0xbdb352d8	-0.087560356
48	0xbbd84070	-0.0065994784
49	0xbd77c0f3	-0.060486745
50	0xbb2b2768	-0.0026116017
51	0xbd656acb	-0.05601005
52	0x3b316d1a	0.0027073086
53	0xbd9773c4	-0.073951274
54	0x3d15cba4	0.03657116
55	0xbe025539	-0.12727822
56	0xbd9168f1	-0.07100094
57	0xbd5e3338	-0.054248065
58	0x3d28dfa0	0.04122889
59	0xbdac0b2c	-0.08400568
60	0x3cba5b36	0.02274857
61	0xbc1d194d	-0.009588552
62	0xbd96151a	-0.073282436
63	0x3d7085b6	0.058721267

transformer.ln_f.weight f4 [4]
0	0x3fca0af0	1.5784588
1	0x3fc12587	1.5089577
2	0x3fc5779a	1.5427125
3	0x3fbaec3a	1.4603341

lm_head.weight f4 [5, 4]
0	0xbec61118	-0.38684916
1	0xbeac78d5	-0.33685938
2	0x3ed20122	0.4101649
3	0x3e531634	0.20613939
4	0x3e25ca5d	0.16190477
5	0x3e9f8e2d	0.3116316
6	0xbde11f4d	-0.10992298
7	0xbe8a3056	-0.26990002
8	0x3d9e8f05	0.077421226
9	0x3d483ed1	0.04888803
10	0xbe1f8841	-0.1557932
11	0x3dd51941	0.104052074
12	0x3dd438b3	0.10362377
13	0x3cdf6772	0.027271006
14	0xbe24d7ab	-0.16097896
15	0x3dac02a7	0.083989434
16	0x3e68a26c	0.22718209
17	0x3dc4a4a1	0.09601713
18	0xbe2763ed	-0.16346712
19	0xbe193ab5	-0.14963801

exp_avg f4 [5, 4]
0	0x39e70f6c	0.00044071244
1	0x397c377d	0.00024053264
2	0xb9a4cfd8	-0.00031435373
3	0xb95f5da1	-0.00021301817
4	0xbc27c59d	-0.010239986
5	0xbc1f8a60	-0.009737581
6	0x3c877a9a	0.016537953
7	0x3b234b30	0.0024916641
8	0x3bce2134	0.006290579
9	0xba9f425f	-0.0012150517
10	0xbb23bccc	-0.0024984358
11	0xbac4efb9	-0.0015025056
12	0x3b004a9c	0.001957572
13	0x3b4cc622	0.0031246026
14	0xbb0ddee6	-0.002164775
15	0xbad5cb40	-0.0016311184
16	0x3b441917	0.0029922181
17	0x3c08dd13	0.008353489
18	0xbc42e961	-0.011896462
19	0x39b29524	0.00034061924

exp_avg_sq f4 [5, 4]
0	0x366f4853	3.5655873e-06
1	0x35f9c59d	1.8609459e-06
2	0x3622da93	2.4267108e-06
3	0x3650a477	3.1090146e-06
4	0x39f99d11	0.00047610005
5	0x3929aad5	0.00016180736
6	0x3a778ef8	0.0009443606
7	0x38ada948	8.280814e-05
8	0x39b9c093	0.0003542943
9	0x38772148	5.8920385e-05
10	0x3a419fe8	0.00073861936
11	0x389727b3	7.207636e-05
12	0x39e58e0e	0.00043784123
13	0x38bd95a0	9.040092e-05
14	0x3a69ca00	0.0008918345
15	0x38a87f39	8.034561e-05
16	0x3a285a3d	0.0006422138
17	0x393ae248	0.00017822639
18	0x3a9098f7	0.0011031915
19	0x388b9ed4	6.6576205e-05

exp_avg f4 [256, 4]
0	0x382cf8a1	4.123955e-05
1	0x378d1970	1.6820355e-05
2	0xb8048ada	-3.1600568e-05
3	0xb9610007	-0.00021457682
4	0x37a695e6	1.9858544e-05
5	0x3703c8d7	7.85497e-06
6	0xb745424b	-1.175755e-05
7	0xb8e999ab	-0.00011138929
8	0xb869cb94	-5.5741126e-05
9	0x365dc3d6	3.3045558e-06
10	0x382e2f0b	4.1528645e-05
11	0x3917e72f	0.00014486605
12	0x383e3c79	4.535585e-05
13	0xb94029d2	-0.00018326126
14	0xb7ec6a79	-2.8182973e-05
15	0x38ef61d3	0.00011414629
16	0xb7fd8ff6	-3.0226987e-05
17	0x390b6e9c	0.00013297278
18	0xb6cbee07	-6.0775815e-06
19	0xb957cf64	-0.00020581257
20	0xb88a8cd2	-6.6065826e-05
21	0xb85e2665	-5.2964682e-05
22	0xb89c4514	-7.4515265e-05
23	0x39291138	0.0001612351
24	0x3817b38a	3.6168414e-05
25	0x38adbbe2	8.284279e-05
26	0x37762e2f	1.4673496e-05
27	0xb9651b7e	-0.00021849383
28	0xb7b5af4f	-2.1658516e-05
29	0xb711c72b	-8.689046e-06
30	0x382ce338	4.121961e-05
31	0x393c3509	0.00017948834
32	0xb73e0f2a	-1.1328413e-05
33	0xb62117ad	-2.400465e-06
34	0x388ffbc9	6.86567e-05
35	0x36dc0ae7	6.55778e-06
36	0xb6755430	-3.6556848e-06
37	0x38ba93e2	8.8967165e-05
38	0xb82c2781	-4.1044786e-05
39	0xb940051b	-0.00018312449
40	0x38be22c9	9.066385e-05
41	0x38b93715	8.831747e-05
42	0x37ce0450	2.4559122e-05
43	0xb9092ccc	-0.00013082026
44	0xb97f41b7	-0.00024343176
45	0xb8858bf7	-6.368005e-05
46	0x387a5b11	5.9689457e-05
47	0x3785e10e	1.5959635e-05
48	0x38799bee	5.9511447e-05
49	0x3935c262	0.00017333918
50	0x389915f8	7.2997005e-05
51	0xb92c3d08	-0.00016425934
52	0xb7044c76	-7.885616e-06
53	0xb9285cd3	-0.00016056308
54	0x3728b9da	1.0056852e-05
55	0x3911c3ca	0.00013901215
56	0x3631db97	2.6502873e-06
57	0x38e311ca	0.00010827517
58	0x382a4bcb	4.0601746e-05
59	0xb96f81bf	-0.0002284115
60	0xb820cf64	-3.834012e-05
61	0x37e82894	2.767545e-05
62	0x364d77f5	3.0617205e-06
63	0x385fc613	5.3351814e-05
64	0x356b7600	8.7716035e-07
65	0xb91a2934	-0.00014701934
66	0xb83d48a6	-4.512877e-05
67	0xb8f4c52a	-0.00011671551
68	0xb74649a7	-1.1818868e-05
69	0x391618fa	0.00014314419
70	0x38039a60	3.1376607e-05
71	0xb8eff08b	-0.00011441213
72	0x379e7b31	1.8892433e-05
73	0xb9108106	-0.00013780975
74	0xb78dc329	-1.6899388e-05
75	0x38d674ca	0.00010226069
76	0x37ede668	2.8359893e-05
77	0x37f214e5	2.8858378e-05
78	0xb757e00a	-1.2867162e-05
79	0xb8051d63	-3.173704e-05
80	0x37f1576f	2.8770153e-05
81	0x391d56f6	0.00015005082
82	0xb7bebb93	-2.2737111e-05
83	0xb8a33dd1	-7.78396e-05
84	0x3782e119	1.5602027e-05
85	0xb920c91f	-0.00015333713
86	0xb8828327	-6.223312e-05
87	0x392f4a9b	0.00016717093
88	0x377b395c	1.4974121e-05
89	0xb89fafa6	-7.614428e-05
90	0x37e85eea	2.7700753e-05
91	0xb88b9b99	-6.657019e-05
92	0xb8297174	-4.03984e-05
93	0xb8b9981e	-8.8498215e-05
94	0xb5ea4af3	-1.7456172e-06
95	0xb7dbba3c	-2.6193557e-05
96	0x38d130e9	9.975007e-05
97	0xb91240e8	-0.00013947824
98	0xb8259839	-3.9480834e-05
99	0x386c7cc9	5.6383e-05
100	0xb8905a3a	-6.883261e-05
101	0xb925c903	-0.00015810509
102	0xb79ddfac	-1.8820014e-05
103	0x398fe983	0.00027449065
104	0xb89da351	-7.5167634e-05
105	0xb884b82f	-6.328557e-05
106	0x381cd755	3.7393842e-05
107	0x380bb0fa	3.3305005e-05
108	0xb8010656	-3.0761898e-05
109	0x38583bfc	5.1554278e-05
110	0x38afd97b	8.385159e-05
111	0xb83eb9b0	-4.5472465e-05
112	0x37369e90	1.0884964e-05
113	0x372d638e	1.0334783e-05
114	0x379d39ba	1.874274e-05
115	0x3799ab10	1.8318678e-05
116	0xb8b4f809	-8.629269e-05
117	0xb85320ce	-5.0336872e-05
118	0x37ca0071	2.4080482e-05
119	0xb65f9093	-3.3313743e-06
120	0xb6896712	-4.094917e-06
121	0x38178db9	3.6133195e-05
122	0xb80f9858	-3.4235738e-05
123	0xb8109108	-3.4467346e-05
124	0x3819ce42	3.6670135e-05
125	0xb88b1854	-6.632568e-05
126	0xb872a591	-5.7851492e-05
127	0x392c729c	0.00016445894
128	0x3789f76c	1.6446887e-05
129	0x38bad1ef	8.908274e-05
130	0x37cdc7d4	2.4530957e-05
131	0xb8f0a701	-0.00011475199
132	0xb86fad85	-5.7143643e-05
133	0x37cd2655	2.4455754e-05
134	0x388a50ce	6.595404e-05
135	0xb8dd2c7d	-0.00010546388
136	0xb7150103	-8.881328e-06
137	0x37a9dfde	2.0250616e-05
138	0xb7a00260	-1.9074592e-05
139	0x380a6b85	3.30019e-05
140	0x37394fb6	1.1045418e-05
141	0x38c6cf3f	9.479978e-05
142	0xb8228f0a	-3.8757025e-05
143	0x380a9b01	3.3046123e-05
144	0x3824fa6b	3.9333867e-05
145	0x3903d8f9	0.00012573962
146	0xb80a2480	-3.2935757e-05
147	0xb8f1a799	-0.00011522993
148	0xb881c24b	-6.187389e-05
149	0xb680d2c6	-3.8392345e-06
150	0x37379673	1.0942679e-05
151	0x39545d4c	0.00020252651
152	0x374c36b0	1.21720805e-05
153	0x3920c33e	0.00015331522
154	0xb701b6a6	-7.731525e-06
155	0xb94a5cdf	-0.00019298818
156	0x382d79b6	4.1359766e-05
157	0xb88c9132	-6.702765e-05
158	0xb8418cc8	-4.61459e-05
159	0x38f761c8	0.00011796091
160	0xb77e7c42	-1.5168511e-05
161	0xb85fb3fd	-5.333497e-05
162	0x3896aafd	7.1844064e-05
163	0xb89a5ab1	-7.360185e-05
164	0x36d64541	6.385759e-06
165	0x3829778b	4.0404073e-05
166	0x381f54e4	3.7987615e-05
167	0xb92911fe	-0.00016123799
168	0xb833a723	-4.2832584e-05
169	0xb805da56	-3.1913012e-05
170	0x380e7539	3.396461e-05
171	0x39215b00	0.00015388057
172	0xb7729c12	-1.4460662e-05
173	0x392189f6	0.00015405551
174	0x380babab	3.330006e-05
175	0xb9527a04	-0.00020072615
176	0xb5984c3a	-1.1347067e-06
177	0xb95a8eb8	-0.00020843267
178	0x3526d77a	6.215338e-07
179	0x38e05fe8	0.00010699016
180	0x3856359b	5.10715e-05
181	0xb936b470	-0.00017424091
182	0x388f4d8f	6.833218e-05
183	0xb74cb6e6	-1.2201932e-05
184	0x372ca59b	1.0290557e-05
185	0x39282eaf	0.0001603912
186	0x379f9d41	1.9027504e-05
187	0xb93c7b33	-0.00017974972
188	0x37ac012d	2.0504545e-05
189	0xb68ab0bd	-4.1332955e-06
190	0x3846957f	4.7346108e-05
191	0xb74a61f5	-1.2062946e-05
192	0xb762eb78	-1.3525474e-05
193	0x37d33454	2.5177527e-05
194	0x386afee4	5.6027333e-05
195	0xb7c996e1	-2.4031326e-05
196	0x3734cff2	1.0777252e-05
197	0x38997863	7.318032e-05
198	0x3807bf7d	3.2364846e-05
199	0x376e6766	1.420998e-05
200	0x380574af	3.181834e-05
201	0xb8edb8ab	-0.00011335438
202	0xb7b3a92e	-2.1417243e-05
203	0xb7b67010	-2.1748274e-05
204	0x370fc403	8.569102e-06
205	0x389df9e5	7.53289e-05
206	0x38500d45	4.9603423e-05
207	0xb90db529	-0.00013514295
208	0x381fcb07	3.8097638e-05
209	0xb662bbb0	-3.3785873e-06
210	0xb85a2147	-5.2006242e-05
211	0x3846a6d6	4.7362257e-05
212	0xb77f0ae6	-1.5201722e-05
213	0xb874705d	-5.827878e-05
214	0x37b993ca	2.2122538e-05
215	0x39080add	0.00012974018
216	0x37a2b70a	1.939714e-05
217	0xb8950622	-7.106016e-05
218	0xb837156f	-4.365056e-05
219	0xb7609fb3	-1.3388623e-05
220	0x3833d761	4.2877513e-05
221	0xb7704648	-1.4321478e-05
222	0x37672761	1.3777842e-05
223	0x37ec1a20	2.8145558e-05
224	0x382a3d76	4.05884e-05
225	0x374fb3ab	1.2379994e-05
226	0x36c29ec8	5.800135e-06
227	0xb5a09520	-1.196433e-06
228	0xb88316a6	-6.2507854e-05
229	0xb8516b82	-4.9929607e-05
230	0x38a71efb	7.968951e-05
231	0xb8b71bc4	-8.731292e-05
232	0xb69c4ea4	-4.6583173e-06
233	0x3903e8ab	0.00012579809
234	0x381b91aa	3.709054e-05
235	0xb93596a4	-0.00017317623
236	0x3856047c	5.1025752e-05
237	0xb8b65440	-8.694129e-05
238	0xb839decf	-4.4314944e-05
239	0x3889ce35	6.571078e-05
240	0xb8840fc1	-6.297185e-05
241	0xb801af49	-3.0919244e-05
242	0xb805da5b	-3.191303e-05
243	0x394080f1	0.00018358581
244	0xb7b43c08	-2.1485626e-05
245	0xb7d58e58	-2.5457863e-05
246	0xb725e410	-9.887866e-06
247	0x38c05f30	9.1730035e-05
248	0xb7a81757	-2.003803e-05
249	0x38044bc6	3.1541822e-05
250	0x37f298ae	2.8919745e-05
251	0x3830ea59	4.2179923e-05
252	0x375917a4	1.2939712e-05
253	0x38a5a9ba	7.899427e-05
254	0xb7f55512	-2.924589e-05
255	0xb83018e7	-4.1984862e-05

exp_avg_sq f4 [256, 4]
0	0x33169108	3.50565e-08
1	0x348de151	2.6427236e-07
2	0x33a927c7	7.876911e-08
3	0x37435842	1.1643455e-05
4	0x32b93fab	2.1565787e-08
5	0x3423e57a	1.5264041e-07
6	0x330b853b	3.2484632e-08
7	0x34bdb310	3.5334278e-07
8	0x34d9ed22	4.0591937e-07
9	0x3559f439	8.119419e-07
10	0x32efce42	2.7917057e-08
11	0x35b0223d	1.3122987e-06
12	0x32d217f7	2.4458116e-08
13	0x34aa27e8	3.1694003e-07
14	0x32ad8aed	2.0203027e-08
15	0x34edd224	4.4297587e-07
16	0x32f751ce	2.8791785e-08
17	0x340ef519	1.3313947e-07
18	0x32f75d2a	2.879695e-08
19	0x34de6dd9	4.1430647e-07
20	0x330d11f7	3.284546e-08
21	0x345dbfc9	2.0652e-07
22	0x33031be4	3.052618e-08
23	0x34a1a5df	3.0109274e-07
24	0x3295caf0	1.7438168e-08
25	0x343821e1	1.714866e-07
26	0x32af1b1a	2.0385006e-08
27	0x34b6ab1f	3.402465e-07
28	0x32d58429	2.4856563e-08
29	0x3464c6e8	2.1306516e-07
30	0x330584f4	3.1087396e-08
31	0x348f88c9	2.673535e-07
32	0x32c3a882	2.2777616e-08
33	0x3428a201	1.5705156e-07
34	0x33039246	3.063385e-08
35	0x347b65d5	2.3413243e-07
36	0x3312b206	3.4155185e-08
37	0x342f661a	1.633529e-07
38	0x3306a9e6	3.1353828e-08
39	0x34862630	2.498723e-07
40	0x32e01c0f	2.6089792e-08
41	0x3454d931	1.9823052e-07
42	0x32ee1a80	2.7718897e-08
43	0x34c81f72	3.7275782e-07
44	0x33a17ff2	7.52042e-08
45	0x341062bd	1.3446966e-07
46	0x3326582e	3.8730086e-08
47	0x347dfd88	2.3654695e-07
48	0x329ff17e	1.8619854e-08
49	0x341cf0c2	1.461622e-07
50	0x331ec66d	3.696771e-08
51	0x349eab35	2.9554363e-07
52	0x32cd9b7a	2.3935844e-08
53	0x34335252	1.6700622e-07
54	0x32e1fa5d	2.63073e-08
55	0x349eac2c	2.9555065e-07
56	0x3281c5d6	1.5107542e-08
57	0x342cd107	1.6094792e-07
58	0x3308f671	3.1889105e-08
59	0x348c7517	2.6162226e-07
60	0x32888c0f	1.5896175e-08
61	0x34458aac	1.8397503e-07
62	0x3301bd96	3.020758e-08
63	0x349663ae	2.8012204e-07
64	0x32978823	1.7640621e-08
65	0x3437d7ce	1.7121712e-07
66	0x32d82807	2.5163912e-08
67	0x3494802e	2.766041e-07
68	0x328d6c81	1.6463902e-08
69	0x3424a411	1.5333377e-07
70	0x32c57251	2.2985803e-08
71	0x346b3c6d	2.1908063e-07
72	0x3288ae98	1.591188e-08
73	0x3425c15b	1.5437165e-07
74	0x32f627db	2.8656293e-08
75	0x34a0f210	2.9978446e-07
76	0x32355121	1.0554033e-08
77	0x340c793f	1.3082625e-07
78	0x32a7470f	1.9473672e-08
79	0x3454eab3	1.9829422e-07
80	0x329c3aa2	1.8187453e-08
81	0x34123ba2	1.3619004e-07
82	0x32cbd5f3	2.3729603e-08
83	0x3477560d	2.3034973e-07
84	0x32a0dd81	1.872718e-08
85	0x3435ea31	1.6942137e-07
86	0x330aacbe	3.2287737e-08
87	0x34879ca0	2.525967e-07
88	0x32871d84	1.572949e-08
89	0x34073ba0	1.2594546e-07
90	0x32d5ad20	2.4875192e-08
91	0x347c564d	2.3500725e-07
92	0x32862c0f	1.5619689e-08
93	0x3408a6bd	1.2726646e-07
94	0x32df4dff	2.5996085e-08
95	0x3467e5a4	2.1597094e-07
96	0x3301a1ce	3.0182314e-08
97	0x3433e7b2	1.6754964e-07
98	0x32cdb7ba	2.394869e-08
99	0x348619d1	2.497823e-07
100	0x3276fcf8	1.4376603e-08
101	0x342b2d72	1.5942149e-07
102	0x32c76286	2.3211452e-08
103	0x3483edff	2.4573816e-07
104	0x32899db1	1.6020609e-08
105	0x3430ac0f	1.6453872e-07
106	0x32c1c4a4	2.2557579e-08
107	0x348070cd	2.392393e-07
108	0x3294b407	1.7311335e-08
109	0x340120ab	1.2025946e-07
110	0x32f86669	2.891757e-08
111	0x3473cb1a	2.2705026e-07
112	0x328c0a83	1.6302925e-08
113	0x340dfe6c	1.3224206e-07
114	0x330d49a8	3.289611e-08
115	0x34723aa3	2.2559338e-07
116	0x3265ad29	1.3368926e-08
117	0x33dcd51d	1.02833134e-07
118	0x32bf0931	2.2239506e-08
119	0x344d0704	1.9094665e-07
120	0x3270d363	1.4017902e-08
121	0x342e59f4	1.6237738e-07
122	0x329ff112	1.8619662e-08
123	0x348abcfd	2.584201e-07
124	0x32844fa6	1.5403042e-08
125	0x342bddda	1.6006325e-07
126	0x32f16581	2.8102251e-08
127	0x34849806	2.4697528e-07
128	0x3266ae92	1.3427455e-08
129	0x341bfe0a	1.4527919e-07
130	0x3313e5ef	3.4435228e-08
131	0x3487dbe8	2.5305712e-07
132	0x329820ea	1.7710097e-08
133	0x341d9f50	1.4679722e-07
134	0x32f44707	2.8437638e-08
135	0x347a15d6	2.3291008e-07
136	0x3297329e	1.7601732e-08
137	0x3403a8af	1.2261692e-07
138	0x32d12a5c	2.4350065e-08
139	0x346a0e84	2.1798229e-07
140	0x329dc39e	1.8366162e-08
141	0x3439225e	1.724197e-07
142	0x32ef4d4a	2.7858409e-08
143	0x347843e7	2.3121503e-07
144	0x3267fef9	1.3503944e-08
145	0x3445b910	1.841438e-07
146	0x3320df92	3.745624e-08
147	0x34abce64	3.20014e-07
148	0x3296028a	1.7463453e-08
149	0x341f1527	1.4815724e-07
150	0x32ea3ed3	2.7269754e-08
151	0x348b4fde	2.594888e-07
152	0x321a0dc3	8.967109e-09
153	0x341b3e4d	1.4458165e-07
154	0x32fb0ed1	2.9226984e-08
155	0x3484796d	2.4675265e-07
156	0x327a935b	1.458542e-08
157	0x344eb11f	1.9249681e-07
158	0x330514d1	3.0985408e-08
159	0x3491a8f6	2.713129e-07
160	0x328b28d2	1.6200293e-08
161	0x34368f68	1.7002242e-07
162	0x32cfc0e3	2.4185686e-08
163	0x3478e722	2.3180885e-07
164	0x32848817	1.5428709e-08
165	0x343df601	1.7691492e-07
166	0x330391a9	3.063329e-08
167	0x349118c5	2.7026377e-07
168	0x327d02d0	1.4727178e-08
169	0x3408340e	1.2684924e-07
170	0x32fe4f88	2.9605658e-08
171	0x347f6cc6	2.3788297e-07
172	0x32f06112	2.798382e-08
173	0x3427bca9	1.5621721e-07
174	0x33672b2d	5.3823147e-08
175	0x3486fe82	2.5144624e-07
176	0x32b01597	2.0498915e-08
177	0x34333fab	1.6693836e-07
178	0x32cc55b7	2.3787704e-08
179	0x34891cf9	2.553932e-07
180	0x32fe252b	2.9586394e-08
181	0x34239e7e	1.5238217e-07
182	0x338c90f9	6.5456284e-08
183	0x34990d3a	2.8508094e-07
184	0x326aad67	1.366002e-08
185	0x341b9744	1.449053e-07
186	0x32b75650	2.1343254e-08
187	0x3485b2ae	2.4903187e-07
188	0x326b248b	1.3687109e-08
189	0x340d7a20	1.3176077e-07
190	0x332b337c	3.9860865e-08
191	0x3481e615	2.419553e-07
192	0x32f05f08	2.7982892e-08
193	0x344c2559	1.9012568e-07
194	0x334adb2b	4.7231122e-08
195	0x348ddc53	2.6423604e-07
196	0x3329cd7a	3.953526e-08
197	0x342d92fe	1.6165356e-07
198	0x3341055b	4.4941185e-08
199	0x3490b317	2.6952395e-07
200	0x327bdf67	1.4660919e-08
201	0x34384258	1.7160471e-07
202	0x330b659c	3.2455873e-08
203	0x348973b2	2.5602418e-07
204	0x329f4ddb	1.854544e-08
205	0x34530dee	1.9655974e-07
206	0x32d37d1c	2.4620526e-08
207	0x34aa22ab	3.1690192e-07
208	0x3243ef46	1.1404898e-08
209	0x342d2d37	1.612833e-07
210	0x32d855f3	2.5184795e-08
211	0x349423cc	2.7593194e-07
212	0x3254bd28	1.2383033e-08
213	0x341c5dcb	1.4562754e-07
214	0x32b53f29	2.1099895e-08
215	0x348d8392	2.6359027e-07
216	0x325ce256	1.2857148e-08
217	0x342bcd2a	1.6000254e-07
218	0x3319b1f6	3.5784943e-08
219	0x34845ec7	2.4655876e-07
220	0x325885f5	1.2603313e-08
221	0x341d2a0d	1.4637062e-07
222	0x32bab97d	2.17376e-08
223	0x3479a0dd	2.3248454e-07
224	0x327e99d8	1.4819726e-08
225	0x3408b8f6	1.2733275e-07
226	0x32d1bd53	2.4416897e-08
227	0x3473b0ac	2.2695411e-07
228	0x3279b9f8	1.4535992e-08
229	0x34477810	1.8576998e-07
230	0x32b78cd5	2.1368047e-08
231	0x349d7b83	2.9333395e-07
232	0x3278fcc5	1.4492973e-08
233	0x34214a50	1.5021328e-07
234	0x32e37117	2.6477705e-08
235	0x3484b053	2.471521e-07
236	0x32b997b3	2.160582e-08
237	0x3412ab54	1.3659638e-07
238	0x32dd4145	2.5757467e-08
239	0x3480e7f2	2.401062e-07
240	0x328b2058	1.6196438e-08
241	0x344444cd	1.8278952e-07
242	0x3301c821	3.021717e-08
243	0x34946817	2.7642884e-07
244	0x3268a467	1.3541558e-08
245	0x34219807	1.50496e-07
246	0x32b0fc45	2.0603816e-08
247	0x3493f2d7	2.7557573e-07
248	0x329e5d1c	1.8435962e-08
249	0x34298351	1.5787124e-07
250	0x334530b2	4.5911925e-08
251	0x348197e2	2.4138632e-07
252	0x324e66ad	1.2014124e-08
253	0x3409e4a0	1.2842293e-07
254	0x32c529c7	2.2952817e-08
255	0x348683fe	2.5055482e-07

exp_avg f4 [12, 4]
0	0x3665c91b	3.4240718e-06
1	0xb51f9b3d	-5.945802e-07
2	0x3682156d	3.876796e-06
3	0xb6e20f69	-6.737119e-06
4	0xb52102dd	-5.998134e-07
5	0x35b1a130	1.3234439e-06
6	0xb5162760	-5.593665e-07
7	0xb3762de0	-5.731806e-08
8	0xb6ad5dff	-5.1667444e-06
9	0xb67a39c8	-3.7286536e-06
10	0x369f2bf8	4.743688e-06
11	0x36906be4	4.3040945e-06
12	0xb7dbdfdb	-2.6211075e-05
13	0x37202203	9.544662e-06
14	0x3787d07e	1.619034e-05
15	0x339ca333	7.294002e-08
16	0xb615d21b	-2.2325028e-06
17	0x3138535c	2.6822908e-09
18	0x35a63547	1.238347e-06
19	0x35858800	9.948853e-07
20	0x35054852	4.96516e-07
21	0x34736a55	2.2669822e-07
22	0xb553ef6e	-7.895204e-07
23	0x346745c7	2.1538936e-07
24	0xb5d65cd3	-1.5971258e-06
25	0x3554c2fe	7.9259905e-07
26	0x358d7321	1.0538826e-06
27	0xb4ecd176	-4.4110828e-07
28	0xb4072ed6	-1.2589894e-07
29	0xb58030ff	-9.551003e-07
30	0xb60afe99	-2.0711798e-06
31	0x3688a7ef	4.072666e-06
32	0x373f2f8d	1.1395558e-05
33	0x38854d5a	6.356342e-05
34	0x38250450	3.9343082e-05
35	0xb8fa87f2	-0.00011946251
36	0x39283578	0.00016041647
37	0x38fbb740	0.00012002746
38	0xb916ecea	-0.00014393372
39	0xb9139375	-0.00014073944
40	0x3790e456	1.7272465e-05
41	0x387445ba	5.823907e-05
42	0xb8a72ef0	-7.971923e-05
43	0x369a4b79	4.598344e-06
44	0xb8d5d5ae	-0.000101964324
45	0xb6f14faa	-7.191634e-06
46	0x38a6079f	7.9169164e-05
47	0x37fce715	3.0148347e-05

exp_avg_sq f4 [12, 4]
0	0x3013e490	5.3803095e-10
1	0x2f4b035c	1.8463936e-10
2	0x30171ac8	5.497154e-10
3	0x2fc70749	3.6203066e-10
4	0x2dc761f7	2.2667186e-11
5	0x2d5a749e	1.24177595e-11
6	0x2dd97654	2.4722592e-11
7	0x2d7d9352	1.4414097e-11
8	0x3114018a	2.153771e-09
9	0x30405ac2	6.997817e-10
10	0x3163adca	3.3131635e-09
11	0x314286af	2.8307274e-09
12	0x31da135f	6.3468373e-09
13	0x30e949cf	1.6973959e-09
14	0x32398079	1.0797629e-08
15	0x31d70b79	6.258628e-09
16	0x2ea5fb80	7.548007e-11
17	0x2e1d50c4	3.57694e-11
18	0x2ecb5daf	9.248013e-11
19	0x2e2f9915	3.9926357e-11
20	0x2c875230	3.8460554e-12
21	0x2b980ec8	1.0804352e-12
22	0x2d00a398	7.312283e-12
23	0x2b1cfa45	5.576965e-13
24	0x30848410	9.641798e-10
25	0x3029ceec	6.1775896e-10
26	0x30870530	9.824017e-10
27	0x30ea8261	1.7062797e-09
28	0x30b366fb	1.3053233e-09
29	0x309d583d	1.1448332e-09
30	0x3095a858	1.0889023e-09
31	0x3143020c	2.8377398e-09
32	0x35005dc2	4.782015e-07
33	0x3429455b	1.5764583e-07
34	0x356583c7	8.550091e-07
35	0x33532366	4.915946e-08
36	0x34a7259d	3.113354e-07
37	0x3403cffa	1.2275987e-07
38	0x3510843d	5.383661e-07
39	0x33522941	4.8931955e-08
40	0x354a72eb	7.541809e-07
41	0x3466fb64	2.1511875e-07
42	0x35caf65c	1.5121873e-06
43	0x33301c65	4.1004018e-08
44	0x36444665	2.924725e-06
45	0x355f6f6f	8.323613e-07
46	0x36ab4d88	5.105223e-06
47	0x345f21b6	2.0780757e-07

exp_avg f4 [4, 4]
0	0x39c05567	0.00036684723
1	0x394e4039	0.00019669616
2	0x39922a7e	0.0002787895
3	0x397ef7bf	0.0002431562
4	0xb9b715b4	-0.0003492065
5	0xb8dad057	-0.000104338564
6	0xb9ccf91f	-0.00039095522
7	0xb9909b89	-0.00027581703
8	0x394be29a	0.00019444004
9	0x391c0568	0.00014879333
10	0x384f6a62	4.9451723e-05
11	0xb716caac	-8.987885e-06
12	0x3a21c7d1	0.00061714376
13	0x393f0a88	0.00018219103
14	0x3a242dd1	0.00062629307
15	0x3a0b6474	0.0005317398

exp_avg_sq f4 [4, 4]
0	0x35324252	6.6406676e-07
1	0x344c8a77	1.9049354e-07
2	0x34ccda37	3.8156733e-07
3	0x3483ce3c	2.4550707e-07
4	0x3702e058	7.800838e-06
5	0x360e0692	2.1163473e-06
6	0x369975c8	4.573467e-06
7	0x3647c4c6	2.9767848e-06
8	0x3592f585	1.0949303e-06
9	0x3499b2a9	2.8628463e-07
10	0x353f19f4	7.119081e-07
11	0x34f54155	4.5682341e-07
12	0x37835fae	1.5660971e-05
13	0x368a9c56	4.1309204e-06
14	0x371cb3cc	9.340187e-06
15	0x36ca90d8	6.036931e-06

exp_avg f4 [16, 4]
0	0xb6dc9b52	-6.5745926e-06
1	0x3763a50f	1.3568685e-05
2	0x39255035	0.00015765506
3	0xb92e9941	-0.00016651025
4	0x38409b40	4.5920955e-05
5	0xb68b29f8	-4.1474086e-06
6	0x384f083f	4.9360326e-05
7	0xb8c25b3b	-9.267634e-05
8	0xb81eec01	-3.788993e-05
9	0xb9b1ba7a	-0.00033899007
10	0x3897e4d9	7.242867e-05
11	0x399645d0	0.00028662244
12	0xb8890ecc	-6.535425e-05
13	0xb87fd1a0	-6.0991966e-05
14	0x3983c22b	0.00025130933
15	0xb908e69f	-0.00013055884
16	0x38bd8a34	9.0379646e-05
17	0x39701174	0.00022894685
18	0xb95be525	-0.0002097083
19	0xb8ca0a7e	-9.634065e-05
20	0x3950435f	0.00019861523
21	0x39824434	0.00024846348
22	0xb9afbcab	-0.0003351917
23	0xb8c99ba5	-9.613418e-05
24	0xb7372d1a	-1.0918151e-05
25	0xb6966302	-4.4818744e-06
26	0x38dd8c1b	0.00010564198
27	0xb8c04aa7	-9.1691785e-05
28	0xb853ebd9	-5.052597e-05
29	0xb87304f7	-5.794034e-05
30	0x395e49a9	0.0002119901
31	0xb8e5437c	-0.00010932141
32	0x37ad406f	2.0653211e-05
33	0xb84b6564	-4.84934e-05
34	0xb7a0e404	-1.9179664e-05
35	0x383bf9de	4.481698e-05
36	0x35d83060	1.6107333e-06
37	0xb8ecd876	-0.00011293676
38	0x37d59ff2	2.5466059e-05
39	0x38a85096	8.0258746e-05
40	0xb895fe13	-7.152199e-05
41	0xba053adc	-0.0005082318
42	0x384e40b8	4.91745e-05
43	0x3a0466e1	0.00050507305
44	0xb780cf0d	-1.5355205e-05
45	0xb8f10817	-0.00011493282
46	0x38075fb5	3.2275642e-05
47	0x38c027aa	9.1626614e-05
48	0x36f5262b	7.3060123e-06
49	0xb9014176	-0.00012326785
50	0xb7145725	-8.841777e-06
51	0x38f92717	0.00011880526
52	0x3596822a	1.1213754e-06
53	0xb89e2d10	-7.542421e-05
54	0xb7d118b8	-2.4926252e-05
55	0x38c8f276	9.581905e-05
56	0x37d14dcd	2.495097e-05
57	0x35bee5a3	1.4222936e-06
58	0xb8c59c35	-9.422788e-05
59	0x38905a8c	6.883321e-05
60	0x382d4b51	4.1316558e-05
61	0x37afd3c6	2.096024e-05
62	0x3827f1e1	4.004117e-05
63	0xb8d7cf95	-0.00010290664

exp_avg_sq f4 [16, 4]
0	0x355e7b71	8.2881076e-07
1	0x344417e9	1.8262621e-07
2	0x3595e86a	1.1169006e-06
3	0x3447888b	1.8582993e-07
4	0x347f06da	2.3751218e-07
5	0x33c27aff	9.056202e-08
6	0x3494185e	2.7584878e-07
7	0x33d95c8e	1.01216855e-07
8	0x35d625b9	1.5955221e-06
9	0x35461b19	7.380018e-07
10	0x363c41d1	2.8052493e-06
11	0x350c67e6	5.2305256e-07
12	0x3489575e	2.5581807e-07
13	0x33634c3d	5.2921894e-08
14	0x34f32de7	4.5295675e-07
15	0x33c611c9	9.2233286e-08
16	0x350ecb7e	5.319524e-07
17	0x349b605c	2.894111e-07
18	0x3542d470	7.257977e-07
19	0x349708a3	2.8132226e-07
20	0x34b387a1	3.344003e-07
21	0x347449ec	2.2751163e-07
22	0x350f5222	5.339117e-07
23	0x345a8949	2.0352776e-07
24	0x34f293fa	4.518368e-07
25	0x34dc00e1	4.0978833e-07
26	0x3557a63e	8.0335656e-07
27	0x3473b1ff	2.2695893e-07
28	0x34d5ed9d	3.9847228e-07
29	0x338ab24f	6.45856e-08
30	0x351c7caa	5.829594e-07
31	0x33a822bf	7.82943e-08
32	0x3432ce9a	1.6652703e-07
33	0x3308500c	3.173777e-08
34	0x349af50c	2.886303e-07
35	0x33000258	2.9804454e-08
36	0x34377875	1.7087025e-07
37	0x33cd22bc	9.5523745e-08
38	0x35079184	5.050317e-07
39	0x3389cdbc	6.4169825e-08
40	0x35fe66d4	1.8954402e-06
41	0x35a903fb	1.259264e-06
42	0x362da67f	2.5875922e-06
43	0x358810cf	1.0137682e-06
44	0x34c0879b	3.5861453e-07
45	0x33bca2b5	8.7840284e-08
46	0x34dc61ca	4.1049344e-07
47	0x33e92e18	1.08582924e-07
48	0x3500c294	4.7966864e-07
49	0x33e5da62	1.0703367e-07
50	0x35095046	5.115329e-07
51	0x3418aeb5	1.4219661e-07
52	0x351268a4	5.454151e-07
53	0x3456920d	1.9983436e-07
54	0x350eaf89	5.315456e-07
55	0x347ae452	2.3366127e-07
56	0x34ad892a	3.232356e-07
57	0x3411884b	1.355376e-07
58	0x34e3148e	4.2297e-07
59	0x33f66f78	1.1475544e-07
60	0x34e8fa11	4.3395315e-07
61	0x33d84443	1.00707005e-07
62	0x351b3ada	5.782764e-07
63	0x33d06d2e	9.7056144e-08

exp_avg f4 [4, 16]
0	0x38e86fe7	0.000110834655
1	0x378a0744	1.6454265e-05
2	0x3761f519	1.3468111e-05
3	0x39240698	0.00015642715
4	0x3843e154	4.6701476e-05
5	0x38288fa8	4.018811e-05
6	0xb9c83183	-0.00038183862
7	0x38ec0915	0.000112550486
8	0x3835784b	4.3265794e-05
9	0xb8713909	-5.7511996e-05
10	0xb905058d	-0.00012685936
11	0xb88cb27c	-6.7089655e-05
12	0xb8834cbf	-6.260862e-05
13	0xb8cebeda	-9.858394e-05
14	0xb84607ae	-4.721403e-05
15	0x38dee0ba	0.000106276435
16	0xb922bb6a	-0.00015519341
17	0xb8700521	-5.7225236e-05
18	0xb93ab186	-0.00017804475
19	0xb8a953ae	-8.0741345e-05
20	0xb9d4099e	-0.00040442956
21	0xb9964f89	-0.00028669488
22	0x39ba0838	0.00035482808
23	0xb80280d0	-3.111438e-05
24	0xb93f89d4	-0.00018266524
25	0x395cce4f	0.00021057691
26	0xba0d23d1	-0.000538406
27	0x394535cc	0.00018807425
28	0x393f3686	0.00018235491
29	0x37cc76da	2.437404e-05
30	0xb617118d	-2.251097e-06
31	0xb982040d	-0.0002479855
32	0xb85ca31c	-5.2603995e-05
33	0xb836bffa	-4.3570974e-05
34	0x388e285c	6.778605e-05
35	0x387508ab	5.8420625e-05
36	0xb806ae3b	-3.2110354e-05
37	0x3786d2a2	1.6072128e-05
38	0xb7436ee0	-1.1648721e-05
39	0xb5157a83	-5.5685103e-07
40	0x38365c6b	4.3478252e-05
41	0x38bc78e5	8.987057e-05
42	0x38269c25	3.9722905e-05
43	0xb7f95ca6	-2.9726256e-05
44	0xb85c7f76	-5.2570795e-05
45	0xb857cfda	-5.145357e-05
46	0x35a8bad3	1.2571348e-06
47	0xb896b170	-7.185608e-05
48	0xb98b1032	-0.00026524212
49	0xb859b3fb	-5.190445e-05
50	0x395f642b	0.00021304253
51	0xb9dde158	-0.000423203
52	0x395a1c7a	0.00020800708
53	0x394b877f	0.00019410065
54	0xb968bc11	-0.00022195304
55	0xb9b582dc	-0.00034620508
56	0x38f70766	0.00011779256
57	0xb888ec23	-6.528969e-05
58	0x3a5ad441	0.00083476683
59	0xb8557a48	-5.089704e-05
60	0xb8bb97fc	-8.945164e-05
61	0x3924b6aa	0.00015708306
62	0x3907d14a	0.0001295257
63	0xb9466f22	-0.00018924152

exp_avg_sq f4 [4, 16]
0	0x355f59e9	8.320481e-07
1	0x340906d3	1.2761602e-07
2	0x330d2ee0	3.2871753e-08
3	0x3525b5ec	6.173202e-07
4	0x34c4b73d	3.6641168e-07
5	0x33ee191e	1.10873074e-07
6	0x351cdbbf	5.84343e-07
7	0x34f93e33	4.642512e-07
8	0x33186b7d	3.5488018e-08
9	0x348b87c0	2.598954e-07
10	0x343bfdfc	1.7508131e-07
11	0x33c3c11e	9.115523e-08
12	0x33767bed	5.7389048e-08
13	0x33c5b575	9.206534e-08
14	0x334778a4	4.644302e-08
15	0x358e8b17	1.0620305e-06
16	0x36158dd0	2.2285276e-06
17	0x35042914	4.923361e-07
18	0x34156afd	1.3915628e-07
19	0x35bd2d50	1.4094785e-06
20	0x35d9bdb3	1.622297e-06
21	0x351f07c3	5.924341e-07
22	0x36ac99b3	5.1438924e-06
23	0x358f1687	1.0660887e-06
24	0x3433b11b	1.6735105e-07
25	0x35884fe7	1.0156044e-06
26	0x3595fad5	1.1174367e-06
27	0x34a3bab2	3.0496955e-07
28	0x344a1129	1.8818959e-07
29	0x34ae68c1	3.2486244e-07
30	0x33e08740	1.0455415e-07
31	0x3651f4c5	3.1285902e-06
32	0x34af6ccc	3.267545e-07
33	0x33abaf74	7.994723e-08
34	0x3306d81c	3.1395857e-08
35	0x3499981e	2.860915e-07
36	0x34ac2221	3.206233e-07
37	0x3406ce1b	1.2554703e-07
38	0x35251ade	6.1506387e-07
39	0x343f4b48	1.7815648e-07
40	0x331dfb73	3.6783103e-08
41	0x3441da48	1.8053936e-07
42	0x349ddef1	2.940574e-07
43	0x336e992c	5.5553002e-08
44	0x3335914e	4.22745e-08
45	0x339e77bf	7.37923e-08
46	0x3292145d	1.7005897e-08
47	0x3500a5c5	4.792494e-07
48	0x36c76488	5.9423655e-06
49	0x35abee3d	1.2809829e-06
50	0x346c9357	2.2032815e-07
51	0x36331501	2.6685304e-06
52	0x36997ef4	4.5745346e-06
53	0x35cb1a4b	1.5132331e-06
54	0x36c1c18e	5.774381e-06
55	0x361e0206	2.3545012e-06
56	0x34c9dc40	3.759942e-07
57	0x362d6ffe	2.5844197e-06
58	0x35f2f999	1.8103048e-06
59	0x354f2eda	7.718169e-07
60	0x34de9490	4.1458816e-07
61	0x352d8614	6.464263e-07
62	0x34795c18	2.3223436e-07
63	0x3711eb3c	8.697443e-06
