out-tss50/ckpt_iter_1250.pt (torch, 48135 bytes, 64 tensors)

transformer.wte.weight f4 [5, 4]
000000 31 e2 92 be f6 b0 99 be 24 16 b6 3e ba 92 51 3e
       -0.28688195 -0.30017823 0.35563767 0.20466128
000010 23 ec 3a 3e 7f ab 48 3e d6 ac 12 be 3e a9 22 be
       0.18254142 0.1959667 -0.14323744 -0.15884873
000020 db 3c 07 3e 7a 95 ed 3d 8b 9e 1a be c2 c8 05 be
       0.13206808 0.11600776 -0.15099542 -0.13064864
000030 e9 00 ff 3d 26 6f 01 3e 42 35 26 be 62 38 fe bd
       0.124513455 0.12640056 -0.16231254 -0.12413098
000040 20 64 44 3e 20 2e 41 3e ec 89 47 be 77 05 36 be
       0.1917882 0.18865252 -0.19486207 -0.17775522

transformer.wpe.weight f4 [256, 4]
000000 11 46 79 3c 9d c6 00 3c 5e 7d 5a bb 9a 21 f1 bc
       0.015214459 0.007859853 -0.0033338885 -0.029434968
000010 6a 57 b1 3d fe d2 03 3e 97 cb 80 bd 3f 54 cf bd
       0.08659251 0.12873456 -0.06288832 -0.101234905
000020 97 47 8f 3d d8 ad ba 3d 4d a8 e3 bc 05 30 b8 bd
       0.069960766 0.09115189 -0.027790213 -0.08993534
000030 d7 9c 8c 3d 17 20 32 3d 15 25 56 bd 2b f7 03 bd
       0.06865852 0.043487635 -0.052281458 -0.03221814
000040 82 51 e7 3c 89 3b 1f 3d 18 25 0c bd 50 97 5e bd
       0.028237108 0.038875137 -0.034215063 -0.05434352
000050 19 af d7 3c 46 10 8f 3c af b6 bb bc 0f 00 ff bc
       0.02632861 0.017463814 -0.022914259 -0.031127958
000060 39 18 6a 3d bf 26 4e 3c 3f 46 0d bd ef cc 62 bd
       0.057152007 0.01258248 -0.03449082 -0.05537122
000070 62 ae 36 3c 06 25 04 3d 28 34 93 bc 1b cd ed bc
       0.011149975 0.03226187 -0.017969206 -0.029028466
000080 ab 36 7c 3d b3 51 74 3c 7c 19 0b 3b 69 0c 54 bc
       0.061575573 0.014912057 0.0021224907 -0.012942412
000090 7f 2a fb 3b e1 9f 73 bc 24 ce f8 bb e6 9e fa bc
       0.007664978 -0.014869661 -0.0075929333 -0.030593347
0000a0 4c 5e ce 3c 1d 4f 0f 3d 48 60 63 bb 57 b9 37 bd
       0.025191449 0.034987558 -0.003469484 -0.04485449
0000b0 6a 05 44 3c 88 5b 89 3b 15 d8 87 bc 65 6f 4d bc
       0.011964181 0.0041918196 -0.016582528 -0.012538766
0000c0 14 3d 3a 3d 2d 8a 8c 3b 18 2f ee 3c a7 36 ee bc
       0.045468405 0.004288933 0.02907519 -0.029078795
0000d0 1f fc 8b 3c 63 cf fd 3c 96 d5 b3 bc 62 19 fb bc
       0.017087994 0.030982679 -0.021952432 -0.030651752
0000e0 88 83 a3 3b af 02 00 3d 4f 3a 48 ba 08 ad da bc
       0.004990045 0.03125256 -0.0007638083 -0.026693836
0000f0 55 08 17 3c 7e de 57 3d 78 ec 1a 3d c8 8d 55 bd
       0.009218295 0.05270242 0.03782317 -0.052137166
000100 42 26 c9 3c 19 0c 0c 3d 7f 9d db 3b fa 4a 32 bd
       0.024554376 0.034191225 0.0067021246 -0.043528534
000110 67 dc 3e 3d c6 98 19 3c 14 80 fb bc f3 f5 ad bc
       0.04659691 0.009374803 -0.03070072 -0.021235442
000120 7a 47 c4 3c 00 86 11 3d f2 30 4b 3c 24 5b 67 bd
       0.023959864 0.035528183 0.012401806 -0.056483403
000130 02 e0 c1 3c eb 8a 56 bb 9d 31 a7 bd a5 e6 dd ba
       0.023666386 -0.003273661 -0.0816376 -0.0016929699
000140 aa 0c 8c bb 49 8a 77 3c 73 e4 38 bc 84 64 b4 bc
       -0.0042739706 0.015108653 -0.011284935 -0.022020586
000150 9a c2 fb 3b 77 0e 30 3c ae 4b 56 bc c9 cc 12 3c
       0.0076831104 0.010745636 -0.013079567 0.008959957
000160 e4 ae 07 3d 1f 7b 2d 3d 68 bd cf 3a 68 8e b2 bc
       0.033125773 0.042353746 0.0015849294 -0.02179642
000170 cd d3 5c bc d8 97 a9 3b 8a 2e 81 bc 03 db 35 3b
       -0.013478232 0.005175572 -0.015769262 0.002774895
000180 8f 9b 40 bb 91 54 f2 3c dd c1 db bc 8d ea 0e bc
       -0.0029389595 0.02958134 -0.02682584 -0.008722913
000190 08 10 86 3c b3 07 93 b9 b9 83 22 bc 22 58 a1 3c
       0.016365066 -0.0002804376 -0.0099191 0.019695345
0001a0 e7 eb c3 3b e0 67 18 bb 38 5e 9f bc 73 98 73 bc
       0.0059790495 -0.0023255274 -0.019454107 -0.01486789
0001b0 27 c5 92 3c 77 53 60 bb 9e 4a 23 bd fc 03 fe 3b
       0.017916275 -0.0034229436 -0.039866082 0.00775194
0001c0 d1 4b ed 3b b4 e3 78 3c 03 c8 1e 3b 9a 71 46 bc
       0.007241704 0.015191007 0.0024228103 -0.012112046
0001d0 7f 23 8a 3d ba 66 09 3c 63 ec 06 bd 04 29 34 bc
       0.067450516 0.008386308 -0.03294028 -0.010996107
0001e0 19 5a 2b 3d d5 80 a9 3c 4e f0 9a bc dd 65 08 bd
       0.04183397 0.020691315 -0.018913414 -0.03330027
0001f0 ad 98 bf 3c 0e 9b 89 bc 5d 17 8c bc 03 32 36 bd
       0.023388231 -0.016797569 -0.017100984 -0.04448129
000200 ec e6 1b 3d 5d 65 68 3b cd ae ea bb 8c 22 70 3c
       0.03806202 0.0035460808 -0.007161951 0.014656674
000210 a9 b4 d1 3c 7b 50 40 3b 94 36 6a ba 53 0c 48 bc
       0.02559884 0.0029344845 -0.00089345244 -0.01220997
000220 9a a1 b0 3c 70 f4 ae 3b 46 8e 95 bc 64 6c 2b bd
       0.021561433 0.005339198 -0.018256318 -0.041851416
000230 63 63 b1 3b b2 88 fe ba 39 40 e9 bc 5f 20 fa 3a
       0.005413459 -0.00194194 -0.028473007 0.0019083134
000240 18 08 0b 38 77 1e 21 3b 38 56 51 bb 2f 47 3c 3c
       3.314772e-05 0.002458481 -0.003194226 0.011491581
000250 3c fb ec ba d9 7e be 3c a4 f2 68 bc 05 c0 8f 3c
       -0.0018080245 0.023253845 -0.014218006 0.017547617
000260 a0 be ff 3c 05 0b dc 3b a7 04 25 bd 34 b5 a1 3c
       0.031218827 0.006715181 -0.04028764 0.019739725
000270 44 db fd 3b a2 ce 95 bc d3 6b 57 bd ec 11 2a 3d
       0.0077470858 -0.018287007 -0.052593064 0.041520998
000280 04 0b ec 3c bf 33 94 3d 4e 23 05 3d 80 66 4f bd
       0.028813846 0.07236432 0.032504372 -0.05063486
000290 e2 d2 65 bc 6a d7 b6 3c 8e 6e 22 3d 66 50 2c bd
       -0.014027329 0.022319514 0.039656214 -0.04206886
0002a0 2c b2 ab 3c a2 27 e8 b9 7e 34 21 bd c0 36 a8 bc
       0.020958982 -0.00044280017 -0.0393567 -0.02053392
0002b0 8f 27 57 bc 50 62 03 3d 7b 62 32 bc 9f 08 2c bc
       -0.01313199 0.03207618 -0.010887737 -0.010500102
0002c0 ba 30 5e 3c c5 17 da bb 25 5b cf bb 20 7c 9e bc
       0.013561422 -0.0066556656 -0.006328004 -0.019346297
0002d0 04 c7 24 3b d5 a7 eb bb 9a 64 17 bd 91 83 1d bd
       0.0025143037 -0.007191638 -0.036961176 -0.03845555
0002e0 fc 75 51 3c aa 4b 18 3d 7f 63 32 bb a6 8b 10 bd
       0.012784477 0.037181534 -0.0027219949 -0.03528943
0002f0 d1 d1 18 3d 96 a3 94 bc c6 17 2c 3c 4d bd 08 3d
       0.03730947 -0.01814441 0.010503715 0.033383656
000300 40 b1 23 3d e7 02 53 3c e9 de 1c bc bb 75 3e bc
       0.03996396 0.01287911 -0.00957463 -0.011624749
000310 05 f1 49 3c 86 f9 41 3d 20 80 b4 3c ea 92 20 bd
       0.01232553 0.047357105 0.022033751 -0.03920261
000320 90 92 0a 3c 08 f2 ec bb ba b7 df 3a a2 c2 1f bc
       0.008457795 -0.007231001 0.0017068305 -0.009750994
000330 3b 29 44 3c 91 da 46 3d 87 a9 18 3b 2c 5b 99 bc
       0.011972721 0.048548285 0.0023294406 -0.018720232
000340 67 54 00 3d 92 15 59 3b 15 c8 ce bc 2c 7d cc bc
       0.031330492 0.003312443 -0.02524189 -0.02496203
000350 17 fe 35 3d e0 30 12 3c df 66 09 bd 3a 2a 11 3d
       0.044431772 0.0089227855 -0.03354537 0.03544066
000360 34 8d 9a 3c d5 48 61 bc 1b ec 91 bc bb b8 c4 bb
       0.018866159 -0.013750275 -0.01781278 -0.006003467
000370 fc 85 1d 3d b1 7d 28 bb 62 0e 30 bd 14 c1 d9 bc
       0.038457856 -0.0025709684 -0.042982467 -0.026581325
000380 d6 7b 1f 3d 8a f1 50 bc f7 98 95 bc b9 50 0b 3d
       0.03893646 -0.0127529 -0.018261416 0.03401253
000390 c1 06 07 3d 87 18 13 3b 5c 6c 14 bd f2 ce ef 3b
       0.032965425 0.002244504 -0.036236152 0.007318371
0003a0 f6 26 8a bb f3 c4 1c bc 78 76 20 bc 0c 01 a7 bc
       -0.0042160703 -0.009568441 -0.00979387 -0.020386241
0003b0 6a 9e 04 3d 91 c2 01 bc 15 6f 44 bd 5d 80 8a 3c
       0.032377638 -0.007919923 -0.0479575 0.016906912
0003c0 2c 2b 85 3c 59 32 58 3c 53 4d 27 bd 83 98 03 3c
       0.016255938 0.013195598 -0.040845226 0.008031967
0003d0 d5 73 2a 3d 22 53 23 bb cd 1c b0 bc 90 70 5f bd
       0.041614372 -0.0024921377 -0.021498108 -0.054550707
0003e0 f0 ef a2 3b 6c 59 03 bb d8 8a b4 3c f6 1f 46 bc
       0.0049724504 -0.0020042313 0.022038862 -0.012092581
0003f0 02 ef 69 3c 18 55 31 bb ef 26 d1 bc 40 40 ed ba
       0.014278175 -0.0027058776 -0.02553126 -0.0018100813

transformer.h.0.ln_1.weight f4 [4]
000000 ba 31 99 3f 9b 8d 94 3f dc 99 96 3f ac b3 93 3f
       1.19683 1.1605715 1.1765704 1.1539207

transformer.h.0.attn.c_attn.weight f4 [12, 4]
000000 d4 f4 e4 bd 4c d8 11 be be 27 e5 3d 08 46 e2 3d
       -0.1117951 -0.14242667 0.11189221 0.11048514
000010 21 3c 3e bd ad 0a 8f bd 00 97 8e 3d 1e 7d c5 3c
       -0.046444062 -0.06984458 0.06962395 0.024107512
000020 ec 5d c1 3d cb 79 02 3e 2b be 24 be 91 c8 07 bd
       0.09441742 0.12741773 -0.16088168 -0.03315026
000030 b7 02 c2 3d e7 62 17 3e 62 03 13 be ae b6 a1 bd
       0.09473174 0.14783822 -0.14356759 -0.078961715
000040 48 ca d1 3d 0e 19 01 3e 61 d7 0e be ff 34 cc bd
       0.1024366 0.12607214 -0.13949348 -0.09971046
000050 0e ce 0c 3e cc cb 7a 3c 5c d9 41 bd 41 f6 ae bd
       0.13750479 0.015307378 -0.04732643 -0.08543063
000060 c6 19 06 be 7a 59 15 bd 74 46 4f 3d a1 ca 1d 3e
       -0.1309577 -0.036462285 0.0506043 0.15409328
000070 8d 2b f3 bd 35 fe 31 be 2a 51 0e 3e ea 06 f2 3d
       -0.11873541 -0.17382129 0.13898149 0.11817725
000080 1b 9e e5 3d 5f c1 da 3d cd 3a 27 be c9 6f f1 bd
       0.11211797 0.10681414 -0.16331024 -0.117888995
000090 d3 3d 87 3d 57 2d 3e 3d c8 b5 e3 bd 44 2b a7 bd
       0.06603589 0.04642996 -0.111186564 -0.08162549
0000a0 2e 26 f3 3d fb dc af 3d da 03 9f bd fe a0 f5 bd
       0.118725166 0.085870706 -0.077644065 -0.119935974
0000b0 fe 98 fc 3d 6d 55 0f 3e f1 ff 2e be da 9d 0c be
       0.123338684 0.13997431 -0.17089821 -0.1373209

transformer.h.0.attn.c_proj.weight f4 [4, 4]
000000 b0 77 f9 3d 95 5c b5 3d 19 93 d8 3d 9d e0 15 3e
       0.12181032 0.08855549 0.10574932 0.14636464
000010 ce 00 d0 3d f3 cf 6b 3d 91 d0 b3 3d 0a 5d 17 3e
       0.101564035 0.057571363 0.08780015 0.14781585
000020 8d fb 03 be 81 8d 2f bd c2 bf ad bd 1e dd 16 be
       -0.12888928 -0.042859558 -0.084838405 -0.14732787
000030 4f f8 9f bd f4 b5 1c bd 40 66 5c bd 84 6b e5 bd
       -0.07811033 -0.03825946 -0.05380845 -0.112021476

transformer.h.0.ln_2.weight f4 [4]
000000 b0 1b 9d 3f 05 9f a3 3f 7a 41 a6 3f 0c 96 9e 3f
       1.2274075 1.2782904 1.2988732 1.2389541

transformer.h.0.mlp.c_fc.weight f4 [16, 4]
000000 c9 61 ef 3d 7c aa a6 bd 34 4c ea 3c 6c 52 d7 bd
       0.11688573 -0.08137986 0.02860079 -0.105137676
000010 c4 48 f3 3d 3a cf 47 3c 96 c2 e1 3d 61 c3 34 be
       0.11879113 0.012195403 0.110234424 -0.17652656
000020 1d a3 73 bd f8 ad e0 3d b5 04 1c bd f9 84 7f 3d
       -0.05948173 0.10970682 -0.038090426 0.062382672
000030 ba 63 e9 3d 41 8c 06 be 6e 06 92 bd fd 4f 39 3d
       0.113959745 -0.1313944 -0.071301326 0.0452423
000040 50 e9 b6 bc 9a 97 bd 3d a5 98 a2 bd cc 6e 04 3d
       -0.022328049 0.09257431 -0.07939271 0.032332227
000050 68 e0 4f bd 83 32 27 3e a2 cb 17 be 96 bd 68 3d
       -0.05075112 0.16327862 -0.14823774 0.05682143
000060 a4 cc 68 be f9 21 7f be 00 3f 6e 3e b5 72 22 3e
       -0.22734314 -0.24915303 0.2326622 0.1586407
000070 b8 80 0b 3e 07 a8 dd bd 2a 89 17 bc 48 27 1e bd
       0.13623321 -0.10823064 -0.009249011 -0.03861168
000080 37 6b a5 bd e6 4e 06 3e fa ab fc bd 5d 9c 3e 3d
       -0.0807709 0.13116035 -0.123374894 0.04653584
000090 06 a7 fd bd 3b a7 77 3d 35 50 6b 3d 57 ce d4 3c
       -0.12385373 0.060462218 0.05744954 0.025977297
0000a0 bf 8f c9 bd 32 ae 50 3e 91 7f a5 3d da 8f ea bd
       -0.098418705 0.2037895 0.08080972 -0.11453219
0000b0 27 dd 2e 3d 33 a3 ad bd dc 35 c2 3d 15 59 bd bc
       0.042691376 -0.084783934 0.09482929 -0.023113767
0000c0 55 52 bf 3d 06 96 0e be 47 c1 86 3d b6 b4 7b bd
       0.093418755 -0.13924417 0.065798335 -0.061451636
0000d0 28 22 ec 3d 41 ff 36 bd 40 f5 e7 3d 33 57 c3 bd
       0.11529952 -0.044677023 0.113260746 -0.09538116
0000e0 d2 b1 41 bb b0 b5 bc 3c f9 04 bb 3c d4 36 23 3c
       -0.0029555452 0.023035854 0.02282952 0.0099618025
0000f0 f8 d5 ff 3d 24 c8 83 bd 93 8c 0f 3d 88 9a 9b bd
       0.12491983 -0.06434658 0.03504617 -0.07597834

transformer.h.0.mlp.c_proj.weight f4 [4, 16]
000000 d8 94 c1 bd 85 70 d4 bc dc 4d b0 3d 5d 43 df bd
       -0.09452218 -0.02593256 0.086086005 -0.109015204
000010 5d 10 39 3d dc 78 89 3d b1 e0 33 3e e8 e4 d5 bd
       0.04518162 0.06712505 0.17566182 -0.10444051
000020 43 13 8c 3d f3 54 ef 3d be 74 1d 3e 78 f3 f1 bc
       0.068396114 0.11686125 0.15376565 -0.02953504
000030 a7 8e 83 bd f8 0e 01 bd cc 3c 20 3c 93 85 8a bd
       -0.06423693 -0.031508416 0.00978012 -0.067637585
000040 a6 74 90 3d 38 3a c8 3d 89 65 27 bd 31 01 8a 3d
       0.07053499 0.09776729 -0.040868316 0.067385085
000050 a0 3b b4 bd 01 f2 1a be dd ea 33 3e 24 c9 b8 3d
       -0.08800435 -0.1513138 0.17570062 0.090227395
000060 8f 67 8c bd db 20 69 3c 94 9c a1 bd 7b 76 84 3d
       -0.0685569 0.014229025 -0.07891193 0.06467911
000070 b4 b9 9f 3d fd 86 71 3d 14 43 dc bb 8c 93 51 3d
       0.07799092 0.058966625 -0.0067218635 0.051166102
000080 8a 6a a3 bd 52 cc 20 be 9e 87 1f 3d a7 6a ce 3d
       -0.07979305 -0.15702942 0.038947694 0.10078936
000090 7d 6f 3d 3d 16 45 b8 3d 97 45 0e be c3 cf d9 3a
       0.0462489 0.08997552 -0.13893734 0.0016617704
0000a0 f4 12 23 3d 77 f0 25 bd 71 ec 0d be 94 35 30 bd
       0.039812997 -0.04051253 -0.13859726 -0.043019846
0000b0 37 27 43 bd 67 13 69 bd 4d 78 e5 3b 42 5c 21 bd
       -0.04764482 -0.05690327 0.0070028664 -0.039394625
0000c0 8b 24 f3 3c 5c 4f a6 3d 8a ce 06 bd 12 be 3a bd
       0.029680511 0.08120605 -0.032911815 -0.04559142
0000d0 35 ef 28 bc e5 ac d1 bc cf 88 28 be 76 58 39 3c
       -0.010310938 -0.025595138 -0.16458438 0.011312595
0000e0 54 16 0b bd 40 1e 14 bd 21 c4 33 3c 50 7f ac bc
       -0.03395684 -0.03616166 0.010972054 -0.021056801
0000f0 13 08 ae bc 5b 89 4f 3c 7a 15 33 3b 7a 60 21 3c
       -0.021244084 0.012667025 0.0027326033 0.009849662

transformer.h.1.ln_1.weight f4 [4]
000000 e5 f8 94 3f ae 5e 93 3f 7a 6b 95 3f 31 47 8f 3f
       1.1638457 1.1513269 1.1673424 1.1193601

transformer.h.1.attn.c_attn.weight f4 [12, 4]
000000 00 f1 c5 bd 92 8d b8 bd c8 49 0b 3e 1d 79 68 3d
       -0.09665108 -0.090113774 0.13602364 0.056756128
000010 2c 1e 04 be 6b 03 c6 bd 2f 5f dc 3d 59 17 f7 3d
       -0.12902135 -0.09668621 0.10760342 0.12065
000020 42 2a 10 be f5 e5 d1 bd bf 67 0e 3e 60 41 12 3e
       -0.1407862 -0.10248939 0.13906763 0.14282751
000030 70 76 f7 bd d6 93 cd bd 53 1f e7 3d ee a8 09 3e
       -0.12083137 -0.10037963 0.112852715 0.13443348
000040 21 b9 12 3e 6b 10 b9 3d d8 0d b5 bd 8d 46 27 be
       0.14328434 0.090363346 -0.08840531 -0.16335507
000050 74 47 d8 3d 73 89 ae 3d 06 cd 00 be e9 fe e5 bd
       0.105605036 0.0852231 -0.1257821 -0.11230261
000060 9d 5a 06 3e 6a 1e de 3d 68 f3 08 be 22 71 18 be
       0.13120504 0.10845645 -0.13374102 -0.14886907
000070 da 77 01 3e 5f e9 c8 3d e9 50 03 be a6 d9 cd bd
       0.12643376 0.09810137 -0.12823834 -0.10051279
000080 bb bc f9 bd 9e 89 c6 bd de 08 f7 3d ba 05 bc 3d
       -0.121942006 -0.09694217 0.12062238 0.0918078
000090 6a 2b e3 3d 84 8a ce 3d 07 76 db bd c2 18 55 bd
       0.11092265 0.100850135 -0.10715871 -0.052025564
0000a0 23 71 ee 3d 53 f3 09 3e 99 95 14 be 86 b0 d4 bd
       0.11642673 0.13471727 -0.14510192 -0.10385232
0000b0 e0 ff a8 bd 40 5e 0f be d5 68 21 3e 75 02 fe 3d
       -0.08251929 -0.14000797 0.15762646 0.124028124

transformer.h.1.attn.c_proj.weight f4 [4, 4]
000000 b0 f8 e1 bd 62 5b e7 3d f1 19 d9 3d 7a f6 b0 bd
       -0.110337615 0.11296727 0.10600651 -0.08640762
000010 ef 82 bc bd 8b 7a cb 3d 27 71 b2 3d 30 b6 a7 bd
       -0.09204661 0.099354826 0.08712988 -0.081890464
000020 5e 26 09 3e a2 74 e2 bd eb 74 04 be 41 05 f2 3d
       0.13393542 -0.11057402 -0.12935226 0.11817408
000030 b2 f2 b5 3d 49 95 97 bd 79 79 a1 bd a0 dd 8d 3d
       0.08884181 -0.07401521 -0.07884497 0.06927037

transformer.h.1.ln_2.weight f4 [4]
000000 21 ce 91 3f a7 74 9c 3f 8c 9d 95 3f d3 b2 95 3f
       1.139103 1.22231 1.1688704 1.1695198

transformer.h.1.mlp.c_fc.weight f4 [16, 4]
000000 5e b0 02 3e 20 be ed bd a2 87 c9 bd 12 50 c1 3d
       0.12762591 -0.11608529 -0.09840323 0.094391
000010 6f 19 0e 3e 81 59 01 bd 4a f0 32 3b 04 72 d0 bd
       0.1387689 -0.0315795 0.0027303868 -0.10177997
000020 b7 23 27 3c c8 db 16 3e 8b b3 16 3d 46 17 0d be
       0.010201386 0.14732277 0.03679232 -0.1377841
000030 cf 16 cc bc 17 63 54 3e 6f 0f 3d 3d 17 2e 20 be
       -0.02491322 0.20740925 0.046157297 -0.15642582
000040 ee 32 08 3e f2 ad 14 be 98 91 a0 bd 3a af 1b bc
       0.13300678 -0.1451948 -0.0784027 -0.0095022265
000050 22 42 00 be 71 f3 3e 3e 3e 27 4f bd f2 29 94 bb
       -0.12525228 0.18647553 -0.050574534 -0.004521602
000060 05 9f 01 be 24 43 22 3e 75 88 95 bd b8 ca 0a 3d
       -0.12658317 0.15845925 -0.07301418 0.033884734
000070 5c ed af 3d c3 9d 48 3d 0e 47 78 3d ba 89 03 be
       0.085901946 0.04897858 0.060614638 -0.12845507
000080 02 c2 c0 3d 12 3d bc bd 9a 15 eb bd 82 44 01 3e
       0.09412004 -0.09191336 -0.114787295 0.1262379
000090 b2 5e 15 3e 8c b4 26 bd 13 52 61 3c 36 5b f1 bd
       0.14586905 -0.040699527 0.013752478 -0.11784975
0000a0 98 c8 b1 3d 61 dd 30 bd 75 4d fd 3c 6f bc 5b bd
       0.08680838 -0.043179873 0.030920723 -0.0536465
0000b0 54 31 e6 3c 37 fd a6 3d e6 ae 5e 3d 40 aa f9 bd
       0.028099693 0.08153766 0.054366015 -0.12190676
0000c0 5d 5e 20 3d 53 9a cc bd 96 dc 19 bd 25 f3 4f 3d
       0.03915249 -0.099903725 -0.037563883 0.05076899
0000d0 16 e0 88 3d 86 a1 b9 bd 22 f8 95 3d b2 5f 8d bd
       0.06683366 -0.09064011 0.07322718 -0.06903018
0000e0 de be f9 bc b5 8e d0 3c db d4 c2 bc cd d9 10 3d
       -0.03048652 0.025458673 -0.023783138 0.03536396
0000f0 ff 2a c1 bd cb 73 14 3e 43 a2 04 bd d9 a6 5b bd
       -0.09432029 0.14497297 -0.032381307 -0.053625915

transformer.h.1.mlp.c_proj.weight f4 [4, 16]
000000 db 63 b9 bd 35 8f 43 bd b8 0b c8 3d c7 57 00 3e
       -0.09052249 -0.047743995 0.0976786 0.12533484
000010 07 43 c2 bd f8 0d 06 3e f2 c6 11 3e 67 c2 d5 3c
       -0.09485441 0.13091266 0.14236048 0.026093675
000020 f3 a9 44 bd a4 93 8d bd 03 5c f7 bc 7b 2c 3a 3d
       -0.04801364 -0.06912926 -0.030195242 0.045452576
000030 84 5c 7a bd 76 f6 89 bc 53 14 2d 3c 41 8b 17 3e
       -0.061123386 -0.016841155 0.010563928 0.14799215
000040 ec 1d fd 3d ea cf 39 3d 20 b3 d2 bc 48 90 e2 bc
       0.12359223 0.045364298 -0.02572018 -0.02765669
000050 93 e0 c3 3d 3f d7 1c bd 2c 95 40 bd c1 d8 54 3d
       0.095643185 -0.038291212 -0.04701726 0.051964525
000060 7c 02 9d 3d e3 2b 66 3d 3c 38 59 3d 8b 16 ea 3c
       0.076664895 0.056194197 0.053032145 0.028575202
000070 57 b3 7c 3d 68 f6 b7 3d a5 aa 09 bd 82 ca bc bd
       0.06169447 0.08982545 -0.033610005 -0.09218313
000080 0e 91 aa 3d a5 9e 9a bd ca 8a 28 be d3 06 10 be
       0.08328448 -0.0754979 -0.16459194 -0.14065103
000090 9f e7 5f bc aa 55 70 bc 37 f5 25 3c 88 a7 20 be
       -0.013666063 -0.014668861 0.010129265 -0.15688908
0000a0 16 38 8e 3d 7b f2 d9 bd d6 e0 63 bd bf e8 9c bd
       0.06944291 -0.106419526 -0.055634342 -0.0766158
0000b0 89 8d 49 3d bd 0c 5b bd 1a b2 bc 3c fe 8e 63 bd
       0.049207244 -0.053478945 0.023034144 -0.05555629
0000c0 d6 20 aa bd 8f af ce 3c d8 74 52 3d 1f e6 0f 3d
       -0.08307044 0.025230197 0.051380962 0.03513157
0000d0 32 56 14 bd c4 2c 53 bc ca 5b f5 bc 89 21 9c 3d
       -0.036215015 -0.012889091 -0.029950995 0.07623584
0000e0 66 72 ab bd ed 0a 22 3d da 29 76 3c 38 b9 a0 3c
       -0.08371429 0.0395612 0.015024627 0.01961957
0000f0 d8 04 3e bd 13 db 0e bc e8 58 d8 bc 21 85 7f bb
       -0.046391338 -0.008719224 -0.026409581 -0.0038989263

transformer.h.2.ln_1.weight f4 [4]
000000 f9 b7 93 3f c1 6f 93 3f 05 ce 95 3f 49 81 8b 3f
       1.1540519 1.151848 1.1703497 1.089883

transformer.h.2.attn.c_attn.weight f4 [12, 4]
000000 a9 5e 34 3d 71 dd 1b bd 7d 4b 2a 3d 64 87 a2 bd
       0.044035587 -0.03805298 0.041575897 -0.0793598
000010 31 ca bd bd 50 7b cf bd a6 84 dd 3d 7f 10 55 3d
       -0.092670806 -0.10130942 0.10816316 0.052017685
000020 ab 5a e9 bd 29 9f db bd 3d 8b 03 3e 7b 76 66 3d
       -0.11394247 -0.10723717 0.12846084 0.056265336
000030 1d 05 bf 3d 71 90 b4 3d 57 73 1d be 26 08 15 bd
       0.09327147 0.088166125 -0.1537603 -0.036384724
000040 57 d6 0a 3c 15 39 bc bc 8c e4 d6 bb a7 89 25 3d
       0.008473954 -0.022976438 -0.0065580066 0.04041448
000050 87 eb ed 3d d2 ed ac 3d 4a 23 fd bd 93 16 c3 bd
       0.11617189 0.08443798 -0.123602465 -0.0952579
000060 ee de ba 3d cc e6 a5 3d bb 1f e3 bd 23 83 06 be
       0.09124552 0.08100662 -0.110900365 -0.13135962
000070 72 19 16 be 17 d0 8a bd ad f1 94 3d c0 b9 0c 3e
       -0.14658144 -0.06777971 0.072726585 0.13742733
000080 af 68 4c bb db 7d a6 bc fe 6a 2d 3c 8b 53 4d 3c
       -0.0031190326 -0.020323684 0.010584591 0.012532125
000090 28 94 ed bd 22 e0 05 be 00 bf 0d 3e 09 a8 55 3d
       -0.11600524 -0.13073781 0.13842392 0.052162204
0000a0 4f 39 f4 3d 2f 86 fe 3d 58 12 1c be ce b5 a8 bd
       0.11924993 0.12427937 -0.15241373 -0.082378015
0000b0 06 43 de 3d bf fe db 3d a5 d2 f6 bd 2b 1d da bd
       0.108526275 0.10741948 -0.12051896 -0.106500946

transformer.h.2.attn.c_proj.weight f4 [4, 4]
000000 b1 9e e1 bc dd 28 c7 bd d1 9d c9 3d 63 44 d6 3d
       -0.02754149 -0.09724591 0.09844554 0.104622625
000010 6c a2 55 3b ed 90 b6 bd fd 7f 8a 3d 2f 19 c1 3d
       0.0032598032 -0.08914361 0.06762693 0.094286315
000020 5f c5 a6 3c 3c 57 c8 3d f3 74 b9 bd 21 f9 ce bd
       0.020357786 0.09782264 -0.090555094 -0.10106111
000030 ef 31 e9 3b 73 a9 a4 3d b5 40 bb bd 47 0f ad bd
       0.0071165483 0.080401324 -0.09143201 -0.084501795

transformer.h.2.ln_2.weight f4 [4]
000000 8b 32 96 3f f2 23 96 3f fd 0a 90 3f 8b 62 99 3f
       1.1734174 1.172972 1.1253353 1.1983198

transformer.h.2.mlp.c_fc.weight f4 [16, 4]
000000 07 f3 fa bc 9b 6d b8 3c 5f e5 16 3c 55 c3 16 bd
       -0.030633463 0.022513201 0.00920996 -0.036807377
000010 16 e5 09 bd b7 c8 60 bd ac cd 3b bc 53 89 83 3d
       -0.03366574 -0.054878917 -0.01146261 0.06422677
000020 a6 4d d0 3d fe 34 98 3d 54 c5 22 bc 85 38 f1 bd
       0.1017106 0.074319825 -0.009934742 -0.11778358
000030 f1 b4 4e bd 37 e3 20 bd 06 12 dc 3a 5c 46 b4 3d
       -0.050465528 -0.03927919 0.0016790039 0.088024825
000040 dd 40 8c bd 1f 5f 19 3d 9e fb 92 bc 29 95 e8 3b
       -0.06848309 0.03744423 -0.017942246 0.0070978594
000050 1c 78 95 bd 61 39 6b bd 4e ba c1 bc 14 73 ac 3d
       -0.072983 -0.057427768 -0.023648407 0.08420387
000060 3c df f6 3d ec b9 49 bd 90 3b e4 3d 03 5f 60 be
       0.12054297 -0.049249575 0.11144173 -0.21911244
000070 60 ef a7 bd 6c a1 5a 3c 2b 38 ab bd 46 3a c6 3d
       -0.08199954 0.01334415 -0.083603226 0.096790835
000080 bd dc a1 bd b7 06 a7 bd 1a a6 18 bd 26 87 55 3d
       -0.079034306 -0.08155578 -0.03726778 0.05213084
000090 a5 71 91 bd 2b 80 9f 3c 80 42 a2 bc fa a3 77 3d
       -0.07101754 0.019470295 -0.0198071 0.060459115
0000a0 37 bf 1f 3d 14 07 25 3d db 6a a6 3d 18 3e 1d be
       0.039000716 0.040289953 0.0812585 -0.15355718
0000b0 79 2a 6f bd d9 a9 6e bd 59 77 21 bd 1f 31 89 3d
       -0.058390114 -0.058267448 -0.03942046 0.06698822
0000c0 2c a4 3a 3d 08 99 f6 3d 04 20 06 3d 6a c6 c5 bd
       0.045566723 0.12040907 0.032745376 -0.09656985
0000d0 8b a8 62 3e d0 b4 2e be 45 bd 82 bd 88 dc c3 bd
       0.22134607 -0.17061162 -0.063837565 -0.095635474
0000e0 11 82 6d bd 0f 90 4a 3e 41 48 5e be 47 d6 bc 3d
       -0.05798537 0.19781516 -0.2170725 0.09220558
0000f0 68 f4 d3 3c 9d ba ac 3d 50 78 aa 3d 05 c2 14 be
       0.025873378 0.08434031 0.08323729 -0.14527138

transformer.h.2.mlp.c_proj.weight f4 [4, 16]
000000 a6 52 c8 3c dc 34 1a bd 5d cd 3b 3d 14 97 5b bc
       0.024453472 -0.037648067 0.045850147 -0.013402719
000010 66 ec 9f 3d eb c8 96 bc a8 4b a6 bc 5a d8 02 3d
       0.07808761 -0.018406352 -0.020299748 0.03194461
000020 72 59 15 bd 9a 6a 86 3d b9 e8 46 3d 34 a0 e3 bc
       -0.036462255 0.065633014 0.048561785 -0.027786352
000030 a1 5d ab 3d 8d 74 ef bd ea 7e 05 3e dc c3 b6 3d
       0.08367468 -0.11692152 0.13036695 0.08924076
000040 f0 b4 34 bc 3a e8 13 bd 51 3f 7b 3d 2d 14 81 bc
       -0.011029467 -0.03611014 0.06133968 -0.01575669
000050 1f fa 96 bd fc d2 b9 bc 56 93 eb 3d ed d9 5a bd
       -0.073719256 -0.022683613 0.115027115 -0.053430486
000060 4a 3e 15 bd 8b c8 25 bd 73 16 5a 3d d1 c6 15 bd
       -0.036436357 -0.040474456 0.053244065 -0.03656656
000070 fb 4d 63 3d 61 6c ce 3d 0c 27 c9 bc 61 c7 4c 3d
       0.05549429 0.100792654 -0.024554752 0.04999483
000080 8d 87 9f bc fb 4d 5c 3d 8b f0 dc bd bc 58 28 3d
       -0.019473815 0.053785305 -0.107880674 0.04110025
000090 d9 ee f2 3c b1 a1 58 3d 7a 08 48 be f1 f0 dc 3d
       0.029654907 0.052888576 -0.19534484 0.107881434
0000a0 33 85 7a 3d 70 b4 9c 3d 7f e0 bb bd 17 45 9d 3d
       0.061162185 0.07651603 -0.091736786 0.076791935
0000b0 14 58 b5 bd 9a 8a 86 bd 36 c5 46 3d 78 f0 df bd
       -0.0885469 -0.06569405 0.04852792 -0.10934538
0000c0 e5 52 62 3c 3a f2 cf bc 03 db eb bc 3a a2 73 bc
       0.013813709 -0.025384057 -0.028790956 -0.014870221
0000d0 19 a0 21 bc 8a ad 00 bd 97 44 a0 3d 05 01 ce bd
       -0.00986483 -0.0314155 0.078255825 -0.10058788
0000e0 cc d8 00 bd 9d 55 c1 bc 3f 4a 65 3d e9 1c 41 bd
       -0.031456754 -0.023600394 0.05597901 -0.04714671
0000f0 8f d2 3e ba 14 86 da bc 32 e6 ed bd d0 e0 81 3d
       -0.00072793005 -0.026675262 -0.11616172 0.06341708

transformer.ln_f.weight f4 [4]
000000 bc 5f b4 3f 95 ca b4 3f c9 b2 b9 3f 88 d1 b1 3f
       1.4091716 1.4124323 1.4507686 1.3892069

lm_head.weight f4 [5, 4]
000000 31 e2 92 be f6 b0 99 be 24 16 b6 3e ba 92 51 3e
       -0.28688195 -0.30017823 0.35563767 0.20466128
000010 23 ec 3a 3e 7f ab 48 3e d6 ac 12 be 3e a9 22 be
       0.18254142 0.1959667 -0.14323744 -0.15884873
000020 db 3c 07 3e 7a 95 ed 3d 8b 9e 1a be c2 c8 05 be
       0.13206808 0.11600776 -0.15099542 -0.13064864
000030 e9 00 ff 3d 26 6f 01 3e 42 35 26 be 62 38 fe bd
       0.124513455 0.12640056 -0.16231254 -0.12413098
000040 20 64 44 3e 20 2e 41 3e ec 89 47 be 77 05 36 be
       0.1917882 0.18865252 -0.19486207 -0.17775522

exp_avg f4 [5, 4]
000000 fc 2a 31 38 50 da 2f b8 03 3a 98 b8 62 55 a8 38
       4.224012e-05 -4.192657e-05 -7.25873e-05 8.026768e-05
000010 13 7f 10 3b 37 ae 9a 3a 00 b3 41 bb af 22 fb b9
       0.0022048398 0.0011801188 -0.0029556155 -0.00047900292
000020 c5 04 92 bb ca 39 3e bb b5 98 ae 3b 98 d6 13 3b
       -0.004456135 -0.0029026144 0.0053282627 0.0022558328
000030 e2 a1 8a 3b f5 86 8a 3b ab 0d b1 bb 39 08 50 bb
       0.0042307237 0.004227514 -0.0054032407 -0.0031743182
000040 41 22 06 bb 40 2e 1f bb 2b c4 49 3b a2 69 bb 3a
       -0.0020467194 -0.0024289042 0.0030787091 0.0014298449

exp_avg_sq f4 [5, 4]
000000 c2 aa 8e 35 cd 81 84 35 31 97 7e 35 3a 2f e0 35
       1.0629522e-06 9.872543e-07 9.4842386e-07 1.6703045e-06
000010 e1 db e2 39 8f e3 a5 39 40 55 24 3a b6 34 4f 39
       0.00043269902 0.00031640797 0.0006268807 0.00019760695
000020 34 85 a6 39 bc c3 7d 39 df 0a f5 39 5b 27 1b 39
       0.0003176123 0.00024200877 0.0004673814 0.00014796613
000030 8d b7 d3 39 31 f7 96 39 4d 12 18 3a 4a 0a 3d 39
       0.00040381812 0.000287944 0.0005801067 0.00018028278
000040 ea 3f f9 39 d1 15 bb 39 da 4b 36 3a 08 07 66 39
       0.000475406 0.00035683674 0.0006954052 0.00021937129

exp_avg f4 [256, 4]
000000 c2 4d d6 36 d7 e6 b0 b6 3a 50 6f b7 58 5b 82 37
       6.386749e-06 -5.272082e-06 -1.4264189e-05 1.5539743e-05
000010 08 9a 99 b7 4d 1f ac b6 16 38 20 36 13 4c a6 37
       -1.8310748e-05 -5.1296433e-06 2.3874504e-06 1.9824167e-05
000020 b7 ae 34 37 e5 ef 40 b6 57 20 ed b6 29 f6 ea b6
       1.0769515e-05 -2.8749866e-06 -7.0669153e-06 -7.0024003e-06
000030 e6 7c f6 36 47 af 25 37 d9 94 e6 36 26 2f 92 b7
       7.3459114e-06 9.875576e-06 6.8718623e-06 -1.7426511e-05
000040 00 bc 4e 35 58 29 ae 36 1c 96 b6 b5 cb 53 51 b6
       7.7014556e-07 5.190417e-06 -1.3603744e-06 -3.11922e-06
000050 7e 08 8a b5 76 0d 2b 36 fc 4b ba 36 7b 76 fe 34
       -1.0284273e-06 2.548882e-06 5.5520777e-06 4.7397393e-07
000060 48 69 f9 35 84 2e 07 b6 4e 26 6f b6 23 13 d3 36
       1.8582587e-06 -2.0143643e-06 -3.5636072e-06 6.290518e-06
000070 06 e0 aa b5 2c fb e9 b5 c8 26 c9 b5 4f 2a 9b b6
       -1.2731186e-06 -1.7432953e-06 -1.4986954e-06 -4.6242853e-06
000080 ae 7b a0 b4 40 bb b7 36 4e cb 5a 35 f8 be 4c b7
       -2.989231e-07 5.4756238e-06 8.1507176e-07 -1.2203811e-05
000090 5a a0 8f 35 3d c1 5e 36 e0 f5 96 b5 2f 64 04 35
       1.0700999e-06 3.3193057e-06 -1.124743e-06 4.931962e-07
0000a0 7f 9a da b5 e2 a7 22 37 bb ba 1b 37 e4 51 45 b7
       -1.628723e-06 9.695041e-06 9.2821965e-06 -1.1761182e-05
0000b0 56 91 8a b6 b8 dc 2f 35 16 a5 64 35 42 21 fe b6
       -4.12964e-06 6.551377e-07 8.517685e-07 -7.5736616e-06
0000c0 86 58 34 36 e6 82 5a b6 f1 de ab b5 d4 d0 8b b6
       2.6873618e-06 -3.2560724e-06 -1.2805377e-06 -4.1668336e-06
0000d0 7c c9 0c 36 32 b8 24 36 51 59 c6 36 fe 92 37 b7
       2.0978905e-06 2.454512e-06 5.9112576e-06 -1.0941874e-05
0000e0 2f bc e7 b6 61 4b 30 37 54 57 73 35 2b 9f 10 b5
       -6.906244e-06 1.0507968e-05 9.0651633e-07 -5.38758e-07
0000f0 a6 23 02 35 72 d1 83 b6 45 3e 27 b6 5a 54 3f 36
       4.848065e-07 -3.928487e-06 -2.4921185e-06 2.8510317e-06
000100 30 f1 41 b6 cb b6 f3 36 8f 2a 26 37 ad 72 0d b7
       -2.889963e-06 7.2632442e-06 9.90428e-06 -8.430955e-06
000110 27 28 b1 35 3d e8 72 b6 32 f6 24 b5 3b ff 33 36
       1.3199214e-06 -3.619599e-06 -6.145302e-07 2.6821642e-06
000120 8f f8 68 b7 23 6e 1b 37 6b d5 0b 37 e8 27 a8 35
       -1.388615e-05 9.264363e-06 8.334736e-06 1.252859e-06
000130 db 81 bc 36 da 50 e6 b6 0a 2c 24 36 69 20 8b 36
       5.617954e-06 -6.8639465e-06 2.4463538e-06 4.146296e-06
000140 5d c7 41 36 b2 b4 85 b6 cc bb e4 b5 c7 bb 16 35
       2.8875286e-06 -3.9847446e-06 -1.704198e-06 5.6152606e-07
000150 82 9e cc b5 18 37 66 36 c3 6e 97 b6 0e 6c 41 b6
       -1.5245316e-06 3.430474e-06 -4.513045e-06 -2.8822137e-06
000160 35 55 78 35 4d b1 9c b5 5a 03 1c b5 b9 1c 03 37
       9.251119e-07 -1.1674507e-06 -5.8119406e-07 7.814896e-06
000170 14 d4 02 b5 56 ff 08 36 d5 c2 97 b6 d4 dd f2 36
       -4.873739e-07 2.0414204e-06 -4.522832e-06 7.237986e-06
000180 98 f9 fa b5 19 5c f6 b5 64 2c 18 b6 b9 c6 94 b6
       -1.8699093e-06 -1.8355232e-06 -2.2675604e-06 -4.433878e-06
000190 af 03 97 b5 8f 87 8e 36 1c 92 e5 35 7e 06 9b b6
       -1.1251449e-06 4.247711e-06 1.7104353e-06 -4.6201158e-06
0001a0 4a a3 31 b6 b0 d2 32 b5 17 d7 d4 35 04 d0 11 37
       -2.6470102e-06 -6.661676e-07 1.585783e-06 8.691106e-06
0001b0 ce 0a 07 b6 75 a0 f4 35 66 62 b1 b5 f3 d7 e9 b6
       -2.0122857e-06 1.8226116e-06 -1.3216165e-06 -6.969081e-06
0001c0 74 3b 1d 36 99 06 54 b6 fd 97 9e b6 bc 56 b5 36
       2.342943e-06 -3.1594302e-06 -4.7264607e-06 5.4043176e-06
0001d0 96 4d c6 34 11 b2 76 36 c0 30 2f 37 de 42 3d b7
       3.6936825e-07 3.6760505e-06 1.0442163e-05 -1.1280847e-05
0001e0 4f f0 cc 34 3e 97 ee b6 c2 bf c5 b6 a0 0a 4a 37
       3.8172809e-07 -7.1105596e-06 -5.893381e-06 1.2042612e-05
0001f0 7d 44 f6 35 f3 89 01 b6 9a 87 58 b4 81 1d ad 35
       1.8348361e-06 -1.9302795e-06 -2.0165899e-07 1.2898091e-06
000200 1b b5 09 36 17 52 88 35 9b 28 72 b5 69 2a 2f b6
       2.0520008e-06 1.0156681e-06 -9.0211114e-07 -2.6101718e-06
000210 65 05 a4 b4 0a d9 f5 b5 13 2b 7a b5 d5 4e a2 36
       -3.0551305e-07 -1.8317089e-06 -9.319494e-07 4.8371535e-06
000220 16 4a c2 b5 fa d1 c1 33 47 df 4c b6 e1 18 8f 35
       -1.4475688e-06 9.0254574e-08 -3.0528333e-06 1.0661571e-06
000230 09 bd 7c 35 c9 94 73 34 ab 4c 8f b6 b3 4d 9c b6
       9.41524e-07 2.2685266e-07 -4.2706574e-06 -4.6582077e-06
000240 af 51 47 36 51 fe da b4 df bb 3d b6 97 4e 2e 36
       2.9700857e-06 -4.0790704e-07 -2.827255e-06 2.5973766e-06
000250 82 65 ff b3 ea f2 83 34 b9 63 13 b6 23 1b b6 35
       -1.1892827e-07 2.4577395e-07 -2.1962753e-06 1.3567955e-06
000260 c1 6c 2b 36 b2 1c e4 b6 f5 89 2f b7 a3 2a 47 37
       2.5544289e-06 -6.79827e-06 -1.04629335e-05 1.1871251e-05
000270 7c b7 c0 35 fd 1b 63 b6 3f 34 b3 b5 85 5e 01 b6
       1.4358516e-06 -3.3841927e-06 -1.3351745e-06 -1.9277516e-06
000280 35 5f 42 36 90 90 be 33 8b 21 5a 36 e3 f5 ef b6
       2.896367e-06 8.87386e-08 3.2504056e-06 -7.15138e-06
000290 f7 5a 10 36 e6 d2 12 b6 aa 94 2d 36 fa 66 b2 b6
       2.151062e-06 -2.1878454e-06 2.5865543e-06 -5.3168014e-06
0002a0 8b 1a c2 35 e4 eb d0 b5 95 45 05 36 9a 15 6c 34
       1.4461851e-06 -1.5565861e-06 1.9859046e-06 2.1987071e-07
0002b0 4d db 9d 35 55 03 d4 b5 cd 4f db b6 7b ce 32 36
       1.1761236e-06 -1.5796201e-06 -6.5359986e-06 2.6644254e-06
0002c0 6b 17 81 b5 2b 31 3b 36 e2 54 61 b6 d5 45 58 b5
       -9.618064e-07 2.789379e-06 -3.357702e-06 -8.056789e-07
0002d0 96 57 d0 35 ee ca 2b b5 6f 8b 31 b7 2c 58 50 36
       1.5522699e-06 -6.3997766e-07 -1.05824865e-05 3.1045738e-06
0002e0 20 a5 5e 36 62 39 87 34 f8 df bd 36 c3 28 c7 b6
       3.3176693e-06 2.518746e-07 5.6587123e-06 -5.9354074e-06
0002f0 ad 56 03 35 d9 c4 45 b6 5a 4f c1 36 3f cf b6 b6
       4.892743e-07 -2.9469868e-06 5.761086e-06 -5.4481493e-06
000300 ca c5 90 36 10 56 4f b6 0a bb 60 b6 d8 bc 14 37
       4.31456e-06 -3.0895499e-06 -3.3487472e-06 8.865456e-06
000310 37 78 ae 35 51 04 4f 36 b8 26 54 35 a2 2b fd b5
       1.2998997e-06 3.0847916e-06 7.90325e-07 -1.8862668e-06
000320 83 54 83 35 1a 7a 18 35 30 5e 03 37 9e a8 c8 b6
       9.784857e-07 5.6802094e-07 7.830138e-06 -5.980094e-06
000330 00 27 82 b4 77 c6 3f b6 86 c5 10 36 f1 70 c6 b5
       -2.4242763e-07 -2.857674e-06 2.1572646e-06 -1.478502e-06
000340 4b b5 21 35 92 a8 94 b6 86 d5 c0 b5 96 12 29 36
       6.024099e-07 -4.430368e-06 -1.4367258e-06 2.519378e-06
000350 d4 58 8d b4 a0 b2 a4 36 48 f2 ab 36 2f 9e 2b b7
       -2.6327928e-07 4.9083756e-06 5.1244024e-06 -1.0229224e-05
000360 59 c4 35 b6 38 a7 85 35 b3 c4 06 37 91 ee 03 b7
       -2.7085391e-06 9.957939e-07 8.03282e-06 -7.863754e-06
000370 80 a9 e7 b5 70 b5 86 b5 c4 94 48 b6 79 f1 75 36
       -1.7260172e-06 -1.0036583e-06 -2.9888915e-06 3.66484e-06
000380 fa 22 bc b5 02 34 13 37 af 29 26 37 a6 18 88 b7
       -1.4017271e-06 8.773992e-06 9.904076e-06 -1.6223941e-05
000390 14 b8 57 36 8f fe 45 b6 39 5e 0c b7 58 96 45 37
       3.2144644e-06 -2.950346e-06 -8.366588e-06 1.177712e-05
0003a0 28 5c 09 36 a8 62 4f b6 aa 2f 9c b6 97 9f 02 37
       2.0468233e-06 -3.090283e-06 -4.654711e-06 7.785761e-06
0003b0 5a de 61 b5 0a aa ea 36 68 8e 2a 37 f0 3a 8d 36
       -8.4142596e-07 6.9935386e-06 1.0165946e-05 4.2089887e-06
0003c0 b7 3e 00 36 22 64 96 b5 44 52 5e b5 56 6e 04 36
       1.9109991e-06 -1.1205013e-06 -8.2821157e-07 1.9733757e-06
0003d0 ab b8 03 36 f1 8b a1 b6 b5 22 25 b6 9f 49 1e 36
       1.9628012e-06 -4.8144652e-06 -2.4607118e-06 2.3586688e-06
0003e0 df 42 08 36 23 c9 db 35 6c b3 80 b6 f4 90 89 b5
       2.0304503e-06 1.637531e-06 -3.8355847e-06 -1.0249482e-06
0003f0 64 aa 0d 34 ca 73 c0 35 8c 32 03 36 f0 c8 0e b6
       1.3193636e-07 1.4338814e-06 1.9549943e-06 -2.127661e-06

exp_avg_sq f4 [256, 4]
000000 66 19 00 32 41 cc 94 31 ef b3 4b 31 66 92 a7 31
       7.4563555e-09 4.330588e-09 2.9642668e-09 4.8769833e-09
000010 f1 0b 43 34 19 0f 41 34 b2 c1 75 33 21 64 9d 34
       1.8165134e-07 1.7980018e-07 5.7219673e-08 2.9316382e-07
000020 16 3a 4d 34 c6 f2 18 34 15 c1 9a 30 b2 d6 8b 35
       1.9113244e-07 1.4244424e-07 1.1259852e-09 1.0418792e-06
000030 7f ae ed 2f a3 4b 2c 30 68 0f 77 30 9c f8 9b 30
       4.3234036e-10 6.268072e-10 8.987997e-10 1.1348393e-09
000040 6a 9f 37 30 8d 65 19 30 d7 f7 b7 2f ef c5 9b 30
       6.6801553e-10 5.580539e-10 3.3463607e-10 1.133399e-09
000050 92 71 0b 2f 13 25 9c 2f 1d 4b df 2f 4e df 4d 30
       1.2682325e-10 2.8402578e-10 4.0616835e-10 7.48959e-10
000060 83 4a 2e 2f 61 bb 9e 2f ea 5a c8 2f f8 bb 5d 30
       1.585168e-10 2.8873173e-10 3.6444386e-10 8.066645e-10
000070 5f 5d 3c 2f 01 fb f9 2f 89 73 02 30 e6 f3 a3 30
       1.7131672e-10 4.5471185e-10 4.745791e-10 1.1929131e-09
000080 59 cc 1a 2f af e5 c0 2f f6 67 07 30 60 2a 8c 30
       1.4078817e-10 3.5087797e-10 4.926045e-10 1.0198384e-09
000090 24 6b 10 2f 96 37 ff 2f 80 16 0e 30 14 15 66 30
       1.3134788e-10 4.6423726e-10 5.1691273e-10 8.3703466e-10
0000a0 03 59 32 2f 83 15 8e 30 a9 ad 87 30 0b 02 b7 31
       1.6220629e-10 1.0337974e-09 9.8719e-10 5.3262332e-09
0000b0 ba c2 38 2f df 6e 9c 2f fa 08 13 30 71 dd b0 30
       1.6803883e-10 2.8455013e-10 5.3491045e-10 1.2868623e-09
0000c0 7e 51 27 2f 67 03 b3 2f 04 58 0b 30 87 fa 7a 30
       1.5217513e-10 3.2562328e-10 5.0692983e-10 9.130549e-10
0000d0 69 b0 97 2f e2 73 9d 2f 9a c6 f3 2f 6e ca 8f 30
       2.7592087e-10 2.8640473e-10 4.4342557e-10 1.0462153e-09
0000e0 5a 3d 85 2f c1 e2 b4 2f 0a c3 eb 2f ce 1a 53 30
       2.4236152e-10 3.2902928e-10 4.2884835e-10 7.6799445e-10
0000f0 ee 7b 1d 2f e9 ab 81 2f d8 b5 d4 2f 15 bb 40 30
       1.4323095e-10 2.3587113e-10 3.8691783e-10 7.011505e-10
000100 af 63 15 2f 9d 85 24 30 a6 00 12 30 04 ea 7b 30
       1.3586886e-10 5.985273e-10 5.311541e-10 9.1645824e-10
000110 64 21 7e 2f b7 81 c4 2f 47 74 e3 2f af b6 6b 30
       2.3113028e-10 3.574436e-10 4.137368e-10 8.575211e-10
000120 c9 8b a9 2f 81 1f b2 2f 61 0d cc 2f d4 c5 46 30
       3.0840244e-10 3.2400396e-10 3.711689e-10 7.231311e-10
000130 08 0b 41 2f 6c c7 dd 2f 61 6d f2 2f 8c 6a 82 30
       1.7557167e-10 4.0341364e-10 4.4097262e-10 9.489027e-10
000140 36 23 00 2f b9 dd d0 2f ed 6e 0b 30 f5 7c 2c 30
       1.1654042e-10 3.7992523e-10 5.072554e-10 6.275081e-10
000150 07 4f ea 2e 3e 7e b4 2f 4c b0 08 30 33 d5 ad 30
       1.0655126e-10 3.283151e-10 4.9727045e-10 1.2648002e-09
000160 30 cc b6 2e 37 28 52 2f 08 e5 a6 2f b5 e9 45 30
       8.312673e-11 1.9113676e-10 3.035796e-10 7.20003e-10
000170 bb 54 b9 2e b1 f3 99 2f 7b 61 18 30 ba bf 7d 30
       8.427877e-11 2.800369e-10 5.5435806e-10 9.2313324e-10
000180 94 16 01 30 59 e5 01 30 2e a8 15 30 ff df c3 30
       4.696201e-10 4.725585e-10 5.444488e-10 1.4251781e-09
000190 2b 82 35 2f 71 2d c1 2f ea 12 bb 2f 4e ee 5d 30
       1.6508099e-10 3.5138784e-10 3.402854e-10 8.0737983e-10
0001a0 de c3 4f 2f 56 ee f4 2f b8 4c 2c 30 93 46 96 30
       1.8896126e-10 4.455269e-10 6.268226e-10 1.0933995e-09
0001b0 ae 33 71 2f e3 d3 9c 2f 2c a1 ef 2f 67 76 89 30
       2.1937183e-10 2.852679e-10 4.3588366e-10 1.0001714e-09
0001c0 82 1f ff 2e 8d 62 b3 2f c7 38 ce 2f ba c8 56 30
       1.16016544e-10 3.2629935e-10 3.7511524e-10 7.8137996e-10
0001d0 7b 7a 70 2f ed 4d 8b 2f a2 91 e7 2f 4a 56 47 30
       2.1871387e-10 2.5339322e-10 4.2122134e-10 7.25184e-10
0001e0 31 b1 3a 2f ae 35 1e 30 a5 e3 fa 2f 5c 45 92 30
       1.6979552e-10 5.755635e-10 4.5636486e-10 1.0642611e-09
0001f0 f9 42 ed 2e 2e 60 80 2f de ba cf 2f ce 41 47 30
       1.0789409e-10 2.3351404e-10 3.7785858e-10 7.248929e-10
000200 df 9a 7b 2f 33 a0 05 30 1b 55 06 30 a4 9c 6b 30
       2.2883338e-10 4.8612775e-10 4.886986e-10 8.57151e-10
000210 79 1e 4e 2f db 50 8e 2f 1a e2 c0 2f 5b fb 5e 30
       1.8746417e-10 2.58871e-10 3.508525e-10 8.1120327e-10
000220 f3 2c 34 2f b0 76 ab 2f a7 94 cf 2f 91 bf 47 30
       1.6386874e-10 3.118905e-10 3.7758704e-10 7.266801e-10
000230 e1 76 08 2f 4c d3 8c 2f 42 25 03 30 57 d3 78 30
       1.2411362e-10 2.5615987e-10 4.771047e-10 9.0522206e-10
000240 b5 79 f3 2e 38 06 a1 2f df e0 12 30 fe 6f 61 30
       1.107198e-10 2.9290148e-10 5.343405e-10 8.2013674e-10
000250 b1 ab 12 2f 1c 79 8f 2f 31 3c 05 30 49 e8 90 30
       1.333962e-10 2.6097602e-10 4.8470655e-10 1.0543398e-09
000260 18 19 18 2f 7b 2f b9 30 29 41 e9 2f 92 01 00 31
       1.3833235e-10 1.3474016e-09 4.2428752e-10 1.8627344e-09
000270 11 8d 1e 2f ff 7d c2 2f a1 54 14 30 a2 d0 a7 30
       1.4420133e-10 3.537792e-10 5.396235e-10 1.2210146e-09
000280 7f c0 2b 2f 7f cb 9a 2f b1 5f 0a 30 69 f1 85 30
       1.5620748e-10 2.815703e-10 5.0340093e-10 9.745637e-10
000290 33 d5 ef 2e c4 87 82 2f c9 3d bf 2f d5 f1 0f 30
       1.09063335e-10 2.374333e-10 3.4786599e-10 5.236676e-10
0002a0 12 ca f2 2e 38 72 8e 2f de 1c 02 30 3b b2 35 30
       1.1040781e-10 2.5910807e-10 4.733475e-10 6.6100697e-10
0002b0 16 5f 2b 2f b7 01 a8 2f ab 7c c5 2f e0 50 75 30
       1.5586141e-10 3.056024e-10 3.5922673e-10 8.924541e-10
0002c0 4a bf 2e 2f a0 28 1c 30 aa d5 0a 30 eb 86 77 30
       1.5893167e-10 5.68102e-10 5.050774e-10 9.0049807e-10
0002d0 75 15 47 2f fb b3 d3 2f 19 8d 16 30 68 87 93 30
       1.8106568e-10 3.850856e-10 5.4770194e-10 1.0734142e-09
0002e0 16 8a d4 2e 96 3d ad 2f 2a a0 e4 2f d2 d1 65 30
       9.665173e-11 3.1512276e-10 4.1586762e-10 8.360789e-10
0002f0 33 cf 22 2f 1a 0d db 2f 95 33 e1 2f 06 32 91 30
       1.4807426e-10 3.9845177e-10 4.0963913e-10 1.0564356e-09
000300 4d 1e 23 2f 68 d9 a8 2f 0f 27 fa 2f a5 08 49 30
       1.4835529e-10 3.0713498e-10 4.5502488e-10 7.313566e-10
000310 ca 47 e7 2e 37 19 7f 2f 58 35 dd 2f a3 1b 6f 30
       1.0517416e-10 2.3201073e-10 4.023757e-10 8.698697e-10
000320 7c be bb 2e 1d 11 88 2f 7d b4 00 30 f3 de 4e 30
       8.537612e-11 2.4750416e-10 4.682262e-10 7.5259193e-10
000330 96 00 16 2f bf 3c 99 2f 43 ce e9 2f 38 66 4f 30
       1.3642629e-10 2.78737e-10 4.252901e-10 7.5451423e-10
000340 13 c1 85 2f ae 38 d0 2f 85 5e dd 2f 56 1f 5e 30
       2.4329747e-10 3.7875253e-10 4.0266826e-10 8.080766e-10
000350 d6 4f 42 2f f8 7f da 2f 24 17 e0 2f 26 70 75 30
       1.767256e-10 3.9744896e-10 4.0761805e-10 8.9289853e-10
000360 9a ca d5 31 05 c4 b9 2f 55 13 6d 30 32 9b 90 31
       6.222149e-09 3.3790584e-10 8.624757e-10 4.2085953e-09
000370 63 91 17 2f 64 fb 9b 2f a0 f1 e6 2f ac 47 83 30
       1.3785022e-10 2.837296e-10 4.200844e-10 9.551875e-10
000380 46 94 04 2f bd 71 b0 2f dd 33 07 30 76 e3 82 30
       1.2058007e-10 3.209503e-10 4.9186416e-10 9.523393e-10
000390 28 75 2b 2f d8 7d ae 2f f7 c0 1f 30 f0 2a 90 30
       1.5593982e-10 3.1739833e-10 5.811808e-10 1.0489583e-09
0003a0 de a9 a4 2e 0f 9c 98 2f a9 b9 d4 2f 1a 94 68 30
       7.488031e-11 2.7759525e-10 3.8694495e-10 8.4611573e-10
0003b0 7c 2b 37 2f 5c c4 bc 2f f3 ab 16 30 92 0f 7f 30
       1.6659202e-10 3.4336523e-10 5.4814037e-10 9.2790586e-10
0003c0 ff bf 1f 2f 52 cb 9b 2f 24 8d f5 2f d3 38 79 30
       1.4529176e-10 2.8338804e-10 4.4665527e-10 9.0666424e-10
0003d0 c2 2d 4d 2f c2 81 fa 2f ce 14 21 30 a0 1e 4c 30
       1.8660898e-10 4.5566934e-10 5.8601024e-10 7.425829e-10
0003e0 ac 9a 30 2f 2a 78 d4 2f 35 29 ef 2f 50 28 80 30
       1.6062057e-10 3.8647957e-10 4.3503126e-10 9.324683e-10
0003f0 3e 81 15 2f eb 77 d8 2f 44 7a 00 30 65 92 95 30
       1.3597387e-10 3.9375378e-10 4.673988e-10 1.0882785e-09

exp_avg f4 [12, 4]
000000 ef 84 ea 34 9d 89 49 35 f7 eb 1f 35 57 42 eb b5
       4.3682618e-07 7.507859e-07 5.957549e-07 -1.7528172e-06
000010 9f 85 90 34 f2 8a 4d 34 e2 55 03 34 62 b9 18 b5
       2.6919312e-07 1.9142661e-07 1.223157e-07 -5.689418e-07
000020 2e 8c 1b 35 79 49 21 35 f8 61 5c b5 f3 34 bc b4
       5.794599e-07 6.008409e-07 -8.209895e-07 -3.5056254e-07
000030 7a 16 e8 35 96 79 3c 35 80 62 fc b5 49 93 0b b5
       1.7291889e-06 7.021239e-07 -1.880413e-06 -5.1995863e-07
000040 0c d9 8a b5 88 e5 8b b4 62 db 28 35 09 ec 2a 35
       -1.034497e-06 -2.6057774e-07 6.290412e-07 6.367341e-07
000050 10 c5 0a b4 73 6f 8c b3 17 2d 8b 33 40 9d 08 34
       -1.2923942e-07 -6.5395305e-08 6.480894e-08 1.2723194e-07
000060 cc 86 2f b5 3a f9 6a b5 42 14 5e 35 ce 54 39 35
       -6.5388735e-07 -8.7534465e-07 8.2730924e-07 6.904128e-07
000070 57 f9 36 b5 da c2 b1 b5 97 ca c2 35 1e 02 14 35
       -6.816312e-07 -1.3244237e-06 1.4513088e-06 5.513738e-07
000080 f1 91 1f b7 aa 87 c1 b6 3e 16 48 37 f5 aa 57 36
       -9.511118e-06 -5.7676416e-06 1.1926108e-05 3.2137007e-06
000090 33 c4 dc b6 29 cd c4 b6 83 c4 10 37 66 e7 78 36
       -6.5793515e-06 -5.865139e-06 8.628823e-06 3.7089571e-06
0000a0 8e 3d 9a b6 89 d2 3f b6 56 99 9f 36 65 29 2f 36
       -4.5967236e-06 -2.8583765e-06 4.75642e-06 2.6101127e-06
0000b0 9f c3 9b b6 03 c2 5a b6 cb 33 a4 36 1f 0d 44 36
       -4.6421333e-06 -3.259746e-06 4.8936104e-06 2.9213913e-06

exp_avg_sq f4 [12, 4]
000000 0e 71 10 31 46 b4 2a 31 e4 28 37 31 e3 35 15 31
       2.1019022e-09 2.484073e-09 2.6653248e-09 2.1712985e-09
000010 c5 e9 98 2e ef 2d a9 2e 94 75 7a 2e 2a 99 e5 2e
       6.9536855e-11 7.69339e-11 5.694785e-11 1.0440922e-10
000020 c5 5b ea 2f da 17 e8 2f 10 e3 bd 2f 05 84 28 30
       4.2629558e-10 4.2217502e-10 3.4540237e-10 6.1305655e-10
000030 dd d5 11 32 90 dc 23 32 13 e8 0a 32 a0 ca 41 32
       8.488738e-09 9.537999e-09 8.085425e-09 1.128015e-08
000040 3b df 14 31 c0 4d 21 31 fb 41 4c 31 9a 81 e4 30
       2.1663726e-09 2.347278e-09 2.9723413e-09 1.6626018e-09
000050 96 99 20 2e 2e 81 27 2e 05 b9 41 2e 87 37 0f 2e
       3.65162e-11 3.808614e-11 4.404745e-11 3.2563754e-11
000060 fb 3d 1c 30 ab 87 d3 2f 82 a7 17 30 cc b5 de 2f
       5.684055e-10 3.8477074e-10 5.5171523e-10 4.051074e-10
000070 30 1f f2 31 60 ad c5 31 20 dd f8 31 f0 00 be 31
       7.0466726e-09 5.753165e-09 7.242889e-09 5.5298344e-09
000080 68 c4 4d 32 b0 13 d8 31 05 fe 53 32 8d f6 d9 31
       1.1977228e-08 6.2886656e-09 1.2339574e-08 6.343561e-09
000090 10 25 9d 30 47 ef 89 30 f5 10 cc 30 53 de 88 30
       1.1433787e-09 1.0036069e-09 1.4847773e-09 9.958491e-10
0000a0 44 22 b3 31 2f 38 7a 31 57 3d eb 31 50 31 22 31
       5.213481e-09 3.6411725e-09 6.8463737e-09 2.3602134e-09
0000b0 bc cf ae 32 2c 12 64 32 92 c0 dd 32 f5 58 07 32
       2.0350733e-08 1.32754785e-08 2.5815357e-08 7.878261e-09

exp_avg f4 [4, 4]
000000 32 d3 2c b8 80 82 ca b7 1a 4e d0 b7 a0 a2 0a b8
       -4.1204687e-05 -2.4141045e-05 -2.4831901e-05 -3.305322e-05
000010 0d 04 93 b6 d8 c2 e6 b5 52 aa 66 b6 e2 58 16 b6
       -4.381413e-06 -1.7193042e-06 -3.437181e-06 -2.2403478e-06
000020 fc f3 1f b7 0f b9 2b b7 68 07 5b b7 93 4e 97 b7
       -9.533946e-06 -1.0235482e-05 -1.3055142e-05 -1.8037192e-05
000030 00 bb 00 b5 65 26 e6 36 c9 de 90 b6 ee cf 8f b5
       -4.7955837e-07 6.859004e-06 -4.31747e-06 -1.0714846e-06

exp_avg_sq f4 [4, 4]
000000 a3 b8 b0 32 80 41 8f 31 1a 37 62 32 fd fe ee 32
       2.057306e-08 4.1692942e-09 1.316746e-08 2.7822802e-08
000010 f2 65 73 33 02 15 53 32 7d 57 02 33 43 22 8b 33
       5.6670565e-08 1.2286593e-08 3.0347554e-08 6.478924e-08
000020 b5 c3 8f 33 28 11 c6 32 19 ec 2e 33 ea cb bd 33
       6.694555e-08 2.3058035e-08 4.072726e-08 8.83809e-08
000030 79 02 3c 34 bf 48 63 33 00 b1 df 33 99 65 86 34
       1.7509764e-07 5.291872e-08 1.0416443e-07 2.5033367e-07

exp_avg f4 [16, 4]
000000 47 71 d8 b5 27 c5 d3 36 57 5d 57 b6 17 df bd b5
       -1.6126222e-06 6.3112416e-06 -3.2091828e-06 -1.4146525e-06
000010 30 09 85 b7 57 8b 8c 36 a2 6b f5 36 24 19 a7 36
       -1.5859114e-05 4.1885464e-06 7.314099e-06 4.9799146e-06
000020 d5 ef c7 b5 7e f6 fb b6 b5 9d c3 36 35 b6 57 36
       -1.4896456e-06 -7.5090784e-06 5.8298124e-06 3.2143555e-06
000030 df 43 84 37 48 f8 1e 37 89 8c 5e b7 9a d7 50 b7
       1.5767231e-05 9.475341e-06 -1.3264952e-05 -1.2447965e-05
000040 21 aa 22 b5 a2 ee 8b b6 b7 dc 39 36 bc 06 06 36
       -6.0597273e-07 -4.1703033e-06 2.7695621e-06 1.9971476e-06
000050 c4 cc ca b3 54 f5 11 b7 23 09 b6 36 83 90 5f 36
       -9.443605e-08 -8.699793e-06 5.4250863e-06 3.3313706e-06
000060 67 3b 54 37 47 96 c1 37 35 ad 6a b7 90 c1 b6 b7
       1.2650015e-05 2.3077371e-05 -1.3987815e-05 -2.1786225e-05
000070 32 08 c5 36 fd ad 00 37 f8 3c 00 b7 2f 7f cb b6
       5.8720116e-06 7.669904e-06 -7.64359e-06 -6.0646776e-06
000080 ba f0 8a b5 8d de 00 b7 d4 a9 b0 36 e9 13 68 36
       -1.0351862e-06 -7.681211e-06 5.2649793e-06 3.4582283e-06
000090 69 ef 1f b6 4e 20 72 b6 23 2a 71 36 7e bc 25 36
       -2.3832201e-06 -3.6079614e-06 3.5936325e-06 2.4696633e-06
0000a0 9d 64 9a b7 3b 16 cc b5 68 7a 2a 37 6c 78 2d 37
       -1.8405082e-05 -1.5205654e-06 1.01612895e-05 1.0339641e-05
0000b0 57 c4 95 34 2a 1e dc 35 98 a1 92 b5 b4 bd 5c b5
       2.789627e-07 1.6400056e-06 -1.0924878e-06 -8.223244e-07
0000c0 81 bd 97 35 98 d0 67 36 e0 4e 42 b6 eb a8 e6 b5
       1.130553e-06 3.45431e-06 -2.8954164e-06 -1.7185497e-06
0000d0 b4 5d 30 b6 1f 64 f1 35 d2 5c c2 34 c5 6f 18 35
       -2.6280586e-06 1.7985038e-06 3.6202852e-07 5.678706e-07
0000e0 d8 48 64 b4 ea 26 ed b4 bb e8 09 35 6d 3e 22 34
       -2.1260655e-07 -4.4173004e-07 5.1375144e-07 1.5110136e-07
0000f0 db 2e 89 35 b1 34 9e 36 1a b2 74 b6 3d 5b 0e b6
       1.0220932e-06 4.714901e-06 -3.6462502e-06 -2.1212757e-06

exp_avg_sq f4 [16, 4]
000000 b1 38 c1 31 92 98 7b 31 b5 95 97 31 5a 15 b9 31
       5.6234843e-09 3.6612033e-09 4.411698e-09 5.386636e-09
000010 73 68 a1 32 fd eb 52 32 36 31 95 32 5b 92 8d 32
       1.8790365e-08 1.2277266e-08 1.7368261e-08 1.6481115e-08
000020 73 3e 44 31 7c 2e 20 31 a1 00 18 31 17 d5 68 31
       2.8557252e-09 2.3309488e-09 2.2119269e-09 3.388157e-09
000030 82 a4 61 32 1c da f8 31 91 48 3f 32 bb ce 30 32
       1.31341285e-08 7.242546e-09 1.1134163e-08 1.0291553e-08
000040 31 de 99 31 05 4b 82 31 42 b4 46 31 2a 9a f2 31
       4.4781463e-09 3.7920267e-09 2.8915257e-09 7.0606534e-09
000050 b4 bc 73 32 bb 31 4c 32 dd d8 2b 32 66 b5 b0 32
       1.4187368e-08 1.188567e-08 1.0002819e-08 2.0571587e-08
000060 de 74 3b 34 cf cf 1e 34 2f 44 19 34 9f f2 94 34
       1.7458248e-07 1.4790497e-07 1.427404e-07 2.7743678e-07
000070 49 57 7b 31 63 86 37 31 f7 98 5e 31 f8 ec 6e 31
       3.6574923e-09 2.6706395e-09 3.2392202e-09 3.476826e-09
000080 0f 93 8a 31 e4 45 67 31 17 ca 4d 31 4c 1e b6 31
       4.0330472e-09 3.3654652e-09 2.99463e-09 5.3003415e-09
000090 27 db a1 31 24 b2 8c 31 76 2a 88 31 95 fb f1 31
       4.7106314e-09 4.0947885e-09 3.962948e-09 7.0426247e-09
0000a0 d4 c3 58 32 77 42 56 32 cc d3 76 32 bb bb 67 32
       1.2617381e-08 1.2471552e-08 1.4367242e-08 1.3488655e-08
0000b0 4b 9b 3d 31 bd 80 31 31 34 8d 00 31 8e ba ae 31
       2.7591394e-09 2.583007e-09 1.8706716e-09 5.0852753e-09
0000c0 df 41 6b 31 98 d6 4e 31 56 bf 28 31 04 e2 c2 31
       3.4234444e-09 3.0098928e-09 2.455598e-09 5.671838e-09
0000d0 43 6a 49 31 0f 9f 01 31 40 e7 04 31 88 39 80 31
       2.9309752e-09 1.8862385e-09 1.9339979e-09 3.731831e-09
0000e0 cb ec ae 2e b8 b8 97 2e d7 7d 5c 2e 83 44 0b 2f
       7.954667e-11 6.8994976e-11 5.0133977e-11 1.2666317e-10
0000f0 63 ab 06 31 9f ad bc 30 7b b6 ce 30 12 81 0f 31
       1.9596988e-09 1.3728146e-09 1.5040337e-09 2.0882607e-09
