out-tss50/ckpt_iter_750.pt (torch, 48048 bytes, 64 tensors)

transformer.wte.weight f4 [5, 4]
0	0xbe9014c4	-0.28140843
1	0xbe99efac	-0.30065668
2	0x3eaa0946	0.332102
3	0x3e629df9	0.22130574
4	0x3e4542a2	0.192637
5	0x3e5072f3	0.2035635
6	0xbe1f45ff	-0.15554045
7	0xbe214f14	-0.15752822
8	0x3e114857	0.14187752
9	0x3df2cd82	0.11855604
10	0xbe17ab91	-0.14811541
11	0xbe1bd0fc	-0.1521644
12	0x3df62be9	0.12020094
13	0x3e103b27	0.14085065
14	0xbe2b33cd	-0.16718979
15	0xbe06669e	-0.13125083
16	0x3e4e2f72	0.20135286
17	0x3e410724	0.1885038
18	0xbe51a602	-0.20473483
19	0xbe33d9bc	-0.17563528

transformer.wpe.weight f4 [256, 4]
0	0x3cbc1068	0.022957042
1	0xbc0facdf	-0.008769243
2	0xbcdb0847	-0.026737345
3	0x3c1b7b11	0.009489791
4	0x3d483e50	0.04888755
5	0x3db42488	0.0879603
6	0xbd20c88c	-0.039253756
7	0xbd7e47a0	-0.062080026
8	0x3d835015	0.06411759
9	0x3da73055	0.081635155
10	0xbd1d269e	-0.038366906
11	0xbdae94a1	-0.085244425
12	0x3d484988	0.04889825
13	0x3d6890e2	0.056778796
14	0xbcfcea35	-0.030873397
15	0xbd238373	-0.03992028
16	0x3d099cd4	0.03359683
17	0x3cad8fcb	0.02118673
18	0xbcee5c54	-0.02909676
19	0xbd55c554	-0.05219014
20	0x3c6e3723	0.014539513
21	0x3c474bee	0.012164099
22	0xbc0fecf8	-0.008784525
23	0xbc4b7cd9	-0.012419903
24	0x3d1d2c74	0.038372472
25	0x3cb60cd3	0.022222912
26	0xbcd0dba6	-0.025495362
27	0xbd5e23de	-0.054233424
28	0x3caa732c	0.020806871
29	0x3ced98a4	0.029003449
30	0xbc2b2c21	-0.010447533
31	0xbd1060b4	-0.035248473
32	0x3d426bbb	0.04746602
33	0x3b82dfd4	0.0039939675
34	0x3b63d3ab	0.0034763615
35	0xbbc0b181	-0.005880535
36	0x3c0f0d8c	0.008731257
37	0x3b107687	0.0022043304
38	0xbc8bd222	-0.017067973
39	0xbca6767b	-0.020320168
40	0x3d041615	0.03224762
41	0x3c4a1024	0.01233295
42	0xbcaca3e4	-0.021074243
43	0xbc6ad85d	-0.014333812
44	0x3caf2ca3	0.02138359
45	0x3b465e61	0.0030268657
46	0xbc21e088	-0.009880193
47	0xbcb60118	-0.022217318
48	0x3c2c8652	0.010530071
49	0x3c77bcff	0.015120744
50	0x3c964362	0.018342678
51	0xbcc6dd65	-0.024275491
52	0x3cde250a	0.027117271
53	0x3c82dc26	0.015974116
54	0xbcd668dc	-0.026173048
55	0xbd214dc6	-0.03938081
56	0x3c1a9c96	0.009436747
57	0x3c33fcf3	0.010985601
58	0x3baaa2fe	0.0052074185
59	0xbc726315	-0.014794131
60	0x3ccb0c25	0.024786064
61	0x3bf57b07	0.0074914726
62	0xbc43d701	-0.011953116
63	0xbcaaa59b	-0.02083092
64	0x3c9ddf89	0.019271629
65	0x3c9fd334	0.01950989
66	0xbc1abbe9	-0.009444215
67	0xbc1d5d84	-0.009604815
68	0x3d0affd1	0.03393537
69	0x3cdf0039	0.027221786
70	0xbc820fa6	-0.015876602
71	0xbcee0d2f	-0.02905902
72	0x3c968cd5	0.0183777
73	0x3d40b704	0.047049537
74	0x3c026baf	0.007960244
75	0xbd549e3b	-0.051908713
76	0x3cd422a9	0.025895434
77	0x3b3b72ef	0.0028602441
78	0xbd094a45	-0.033518095
79	0xbcff44ff	-0.03116083
80	0x3c12e340	0.008965313
81	0x3c6ea481	0.014565588
82	0x3a934bd3	0.0011237807
83	0xbd1864e8	-0.037205607
84	0x3cf5069d	0.02991038
85	0x3cecf7e5	0.0289268
86	0xbb9c3772	-0.004767352
87	0x3c922f6e	0.017844882
88	0x3d1e7b0e	0.038691573
89	0x3c93e030	0.018051237
90	0xbc0f188e	-0.008733882
91	0xbcad899c	-0.021183781
92	0x3b7f7dde	0.0038984935
93	0x3bcdefe6	0.0062847016
94	0xbcc15a30	-0.023602575
95	0x3c20c941	0.009813608
96	0xba072966	-0.000515601
97	0x3cdcf4ee	0.02697226
98	0xbc890b6d	-0.016729081
99	0xbc749c9b	-0.014929916
100	0x3c3e7517	0.011624596
101	0x3aacff8e	0.001319872
102	0xbc359b42	-0.01108438
103	0x3c8da2c7	0.017289532
104	0xbc1ff774	-0.009763587
105	0x3b3986af	0.0028309037
106	0xbbe05399	-0.006845903
107	0xbd19f72b	-0.037589233
108	0x3cae0648	0.02124323
109	0xbb017c89	-0.0019758067
110	0xbba60d27	-0.005067486
111	0xbc3ed73f	-0.011647998
112	0x3bfbca4b	0.0076840273
113	0x3ce775e5	0.028254459
114	0xbbe6f77d	-0.007048546
115	0xbcefa201	-0.029252054
116	0x3caa5490	0.020792276
117	0x3c79af7d	0.015239594
118	0xbce8c829	-0.028415756
119	0xbca5ebff	-0.020254133
120	0x3d269c0a	0.040676154
121	0x3c13805c	0.009002771
122	0xbc6ce402	-0.014458658
123	0xbd0d8c64	-0.034557715
124	0x3d1bb04d	0.03800993
125	0xbcc4ff93	-0.024047649
126	0xbc4af359	-0.01238712
127	0xbd3a741a	-0.04552088
128	0x3c956fcc	0.018241785
129	0x3b995353	0.0046791225
130	0x3c340bda	0.010989154
131	0x3c865fb7	0.016403062
132	0x3c6e4fe7	0.014545417
133	0x3bfb448c	0.0076680835
134	0x3b9c692f	0.004773281
135	0xbce6a2e8	-0.028153852
136	0x3c675034	0.014118243
137	0x3b8592b2	0.0040763253
138	0xbaf14226	-0.0018406555
139	0xbd51a25c	-0.05118023
140	0x3bb4059d	0.005493833
141	0x3c823277	0.015893204
142	0xbc915cd2	-0.017744455
143	0xbc6166d6	-0.013757428
144	0x3b0a459b	0.0021098617
145	0x3c760ccc	0.015017699
146	0xbbef6541	-0.0073057716
147	0x3c507137	0.012722305
148	0x3cba9363	0.022775358
149	0x3c6cfb49	0.014464208
150	0x3bed0717	0.007233511
151	0xbc7303b0	-0.014832422
152	0x3cddd1ef	0.027077643
153	0x3bb33e31	0.0054700603
154	0xbc8a1180	-0.016854048
155	0xbc084898	-0.008318089
156	0x3ca7969e	0.020457562
157	0xbc8acb89	-0.016942756
158	0xbc289c52	-0.010291176
159	0xbc879c04	-0.016553886
160	0x3c851d63	0.016249364
161	0x3d36c01a	0.044616796
162	0x3bdbc0d0	0.0067063347
163	0xbca28c83	-0.019842392
164	0xbbb113f1	-0.0054039885
165	0x3bd4167d	0.0064724074
166	0xbb68e0f9	-0.0035534485
167	0xbc9861b9	-0.018601285
168	0x3d088e26	0.03333869
169	0xbb6dd6b3	-0.00362913
170	0xbcbcb360	-0.023034751
171	0xbce7e5f1	-0.028307887
172	0xbba30b2d	-0.0049756975
173	0x3cc205b6	0.023684364
174	0xbcb9c20d	-0.022675538
175	0xbb8e2041	-0.004337341
176	0xbc40778b	-0.011747251
177	0xbb1722d7	-0.0023061538
178	0xbc69ecf7	-0.014277688
179	0xb7034c18	-7.825925e-06
180	0x3bc81eda	0.0061071934
181	0xbac0322a	-0.0014663388
182	0xbd1c8729	-0.038214836
183	0xbd0b1ea5	-0.03396477
184	0x3c924876	0.017856818
185	0x3cbec323	0.023286408
186	0xbbeb041e	-0.0071721217
187	0xbd049837	-0.032371726
188	0x3c190f3a	0.009342009
189	0x3b6bf363	0.0036003224
190	0xbbf64450	-0.0075154677
191	0x3d0bc66f	0.034124788
192	0x3cdd2b85	0.02699829
193	0x3cbd052a	0.023073751
194	0x391d1b1a	0.00014982783
195	0x3bc3c324	0.0059741903
196	0x3c269c04	0.010169033
197	0x3d0eca0b	0.034860652
198	0x3c09d0c7	0.008411593
199	0xbcd9675f	-0.026538549
200	0x3b80b9b9	0.00392839
201	0xbbd9cf6d	-0.0066470415
202	0x3bfb1e21	0.0076635038
203	0xbc8d56ce	-0.017253306
204	0x3a9b8808	0.0011866102
205	0x3ce1d709	0.027568357
206	0xbcb1f31d	-0.02172237
207	0x3b1a85c7	0.0023578273
208	0x3ce6b77f	0.02816367
209	0x3ca752e0	0.02042526
210	0xbc90f69d	-0.01769572
211	0xbd036a86	-0.03208401
212	0x3c9de6fd	0.019275183
213	0x3c20484f	0.009782865
214	0xbc90633c	-0.017625444
215	0x3c81d712	0.015849624
216	0x3c9ecf20	0.019385874
217	0x3a0814f9	0.00051911135
218	0xbc91712f	-0.017754165
219	0xbc2e9833	-0.010656404
220	0x3ca9ad50	0.020712525
221	0xbbaecb45	-0.00533429
222	0xbc122f2b	-0.0089223785
223	0xbcd7e6a4	-0.026355095
224	0x3bec0233	0.0072024106
225	0x3c326f01	0.010890723
226	0xbbe4b089	-0.0069790524
227	0x3ba47c64	0.0050197113
228	0x3cf15202	0.02945805
229	0x3ca5cee7	0.02024026
230	0xbb838085	-0.0040131235
231	0xbd22f96a	-0.03978864
232	0x3bde5410	0.0067849234
233	0xbbcb7f61	-0.006210253
234	0xbc5057eb	-0.012716274
235	0xbd05ecf8	-0.032696694
236	0xbb8b35f4	-0.004248375
237	0x3c20a3e4	0.0098047
238	0xbbf9b813	-0.0076208203
239	0x3c2610b5	0.010135819
240	0x3c3e4f19	0.011615538
241	0x3c97d73a	0.018535245
242	0xb97af314	-0.00023932412
243	0xbc844aed	-0.016149009
244	0x3d0ab4d7	0.03386387
245	0xbc439fa2	-0.011939915
246	0xbc788028	-0.015167274
247	0xbce2e312	-0.027696166
248	0x3cbbde32	0.0229331
249	0x3c04c060	0.008102506
250	0xb89a75d7	-7.3652416e-05
251	0x3befc470	0.0073171183
252	0xbccde174	-0.025131918
253	0x3c5a18c9	0.013311573
254	0xbc976d45	-0.018484721
255	0xbbdef728	-0.0068043657

transformer.h.0.ln_1.weight f4 [4]
0	0x3f99acd3	1.2005867
1	0x3f95c5a2	1.1700938
2	0x3f976b5b	1.1829637
3	0x3f94ed6d	1.1634957

transformer.h.0.attn.c_attn.weight f4 [12, 4]
0	0xbdf7055d	-0.1206157
1	0xbe201a46	-0.15635023
2	0x3df1fe02	0.11816026
3	0x3e0111b4	0.1260441
4	0xbd6348ed	-0.05548947
5	0xbdac64fc	-0.08417699
6	0x3d9f40e3	0.07776048
7	0x3d187df5	0.037229497
8	0x3dc8de9f	0.098080866
9	0x3e0e19fa	0.13877097
10	0xbe27f35c	-0.16401428
11	0xbd2e25a9	-0.042516384
12	0x3dcfb557	0.1014201
13	0x3e224483	0.15846448
14	0xbe18270e	-0.14858648
15	0xbdbaccb0	-0.09121072
16	0x3de502c0	0.11182165
17	0x3e0e2e7d	0.13884921
18	0xbe1728b2	-0.14761618
19	0xbdee79e4	-0.116443425
20	0x3e1aa51e	0.1510205
21	0x3cdb2d11	0.026754888
22	0xbd644497	-0.055729475
23	0xbdd24c5d	-0.102684714
24	0xbe08482d	-0.13308783
25	0xbd3236cf	-0.0435093
26	0x3d503c77	0.050838914
27	0x3e29e0e3	0.16589694
28	0xbdffcaa3	-0.12489822
29	0xbe3e4ffe	-0.18585202
30	0x3e13a001	0.14416505
31	0x3e0739a8	0.13205588
32	0x3dff5539	0.12467427
33	0x3e029094	0.12750465
34	0xbe39d46c	-0.18147439
35	0xbe0cc336	-0.13746342
36	0x3d60f61e	0.054922216
37	0x3d23cf32	0.03999252
38	0xbdd68d51	-0.10476173
39	0xbd9885cb	-0.07447394
40	0x3dfba2ed	0.12286935
41	0x3db29e87	0.08721643
42	0xbdb2fa12	-0.087391034
43	0xbdec0ece	-0.11526261
44	0x3e0943d6	0.13404784
45	0x3e1e25b5	0.15444072
46	0xbe3ffc7d	-0.1874866
47	0xbe1a622f	-0.15076517

transformer.h.0.attn.c_proj.weight f4 [4, 4]
0	0x3df524e1	0.11969925
1	0x3d942a6a	0.07234652
2	0x3dd9bbb7	0.10631507
3	0x3e19f31b	0.15034144
4	0x3dfde2ec	0.123967975
5	0x3d6cda62	0.057825454
6	0x3dbd1dfe	0.09234236
7	0x3e287dad	0.16454192
8	0xbde9dc09	-0.114189215
9	0xbcfa85f8	-0.03058146
10	0xbd953e15	-0.07287232
11	0xbe133424	-0.14375359
12	0xbdd28cd7	-0.10280769
13	0xbd118767	-0.03552952
14	0xbd6dd3a3	-0.05806316
15	0xbe015880	-0.12631416

transformer.h.0.ln_2.weight f4 [4]
0	0x3f97d6f1	1.186247
1	0x3f9bde5a	1.2177231
2	0x3fa08a12	1.2542136
3	0x3f990fdd	1.1957966

transformer.h.0.mlp.c_fc.weight f4 [16, 4]
0	0x3e03e8a2	0.12881711
1	0xbda603ef	-0.08106219
2	0x3cd6e8cd	0.026234055
3	0xbded37d5	-0.11582915
4	0x3e0161fc	0.12635034
5	0xb968fc7e	-0.00022219305
6	0x3de6584e	0.112473115
7	0xbe349b86	-0.17637452
8	0xbd8a064a	-0.06739481
9	0x3dc8ee92	0.09811129
10	0xbd16ec82	-0.036846645
11	0x3da6ffc4	0.08154252
12	0x3df6730c	0.12033662
13	0xbdce964c	-0.100872606
14	0xbdb1d48f	-0.086831205
15	0x3cd7a1c2	0.02632225
16	0xbd09c66d	-0.0336365
17	0x3dae8a1b	0.08522435
18	0xbda6b5c9	-0.081401415
19	0x3d437881	0.047722343
20	0xbd67e8d6	-0.056618534
21	0x3e2cb516	0.16865954
22	0xbe283e64	-0.1643005
23	0x3d8d1246	0.06888251
24	0xbe3bd720	-0.18343782
25	0xbe47f734	-0.19527894
26	0x3e3c827c	0.18409151
27	0x3dd81f72	0.10552873
28	0x3e1a71bc	0.15082449
29	0xbdab2891	-0.08357347
30	0xbcb2dffb	-0.021835318
31	0xbd7ab7ab	-0.061210316
32	0xbdba85e9	-0.091075726
33	0x3dfa5bfb	0.12224575
34	0xbe023214	-0.12714416
35	0x3d84ba02	0.06480791
36	0xbddb03d3	-0.10694089
37	0x3d87fff5	0.06640617
38	0x3d2217f0	0.03957361
39	0x3cb977aa	0.022640068
40	0xbdda7767	-0.106673054
41	0x3e38b9d4	0.18039638
42	0x3db894b1	0.09012736
43	0xbdc5fdb9	-0.096675344
44	0x3d8de07b	0.06927582
45	0xbd6ab140	-0.057297945
46	0x3d8cd6e2	0.06876923
47	0xbd2bffc5	-0.041991968
48	0x3de9eadb	0.11421748
49	0xbdf1a4d1	-0.11799014
50	0x3d3d5c0b	0.046230357
51	0xbd9fec37	-0.07808726
52	0x3e0698a3	0.13144164
53	0xbd22c6b0	-0.039740264
54	0x3dd34e22	0.10317637
55	0xbdcf1ff2	-0.10113515
56	0x3bdd624a	0.0067561017
57	0x3cc4b6a8	0.024012879
58	0x3c3d0cf3	0.011538732
59	0x3c4f2a65	0.012644385
60	0x3e0e3cb8	0.1389035
61	0xbd5685b4	-0.052373603
62	0x3ce66174	0.028122641
63	0xbdb91f85	-0.09039215

transformer.h.0.mlp.c_proj.weight f4 [4, 16]
0	0xbdce1ce2	-0.10064103
1	0xbd20fdbb	-0.039304476
2	0x3da23dc5	0.07921938
3	0xbdc18ac8	-0.094502985
4	0x3d3207ea	0.04346458
5	0x3d7411c1	0.059587244
6	0x3e1f9ba2	0.15586713
7	0xbdd2041d	-0.10254691
8	0x3d798224	0.060915127
9	0x3dd49b99	0.103812404
10	0x3e045617	0.12923466
11	0xbd1f14ae	-0.03883808
12	0xbd8887cd	-0.06666527
13	0xbd1f11f9	-0.0388355
14	0x3c4f77f9	0.012662881
15	0xbd91b51c	-0.07114622
16	0x3da0e976	0.07857029
17	0x3dd05e17	0.10174196
18	0xbd401c1c	-0.046901807
19	0x3d8526fe	0.06501578
20	0xbd95e32f	-0.073187225
21	0xbe15194e	-0.14560434
22	0x3df57420	0.1198504
23	0x3dd65687	0.104657225
24	0xbd7e4735	-0.062079627
25	0xbc81faa0	-0.015866578
26	0xbda35c5d	-0.07976601
27	0x3d3087a9	0.043098126
28	0x3d888501	0.066659935
29	0x3d6859d9	0.05672631
30	0xbaf3c287	-0.0018597402
31	0x3d7d2372	0.06180138
32	0xbdb395a6	-0.087687775
33	0xbe225894	-0.15854102
34	0x3d6c3d0e	0.057675414
35	0x3db9cf65	0.090727605
36	0x3d7aa981	0.061196808
37	0x3de2b508	0.11069685
38	0xbdde60c7	-0.108583026
39	0xbc165dd7	-0.009177647
40	0x3d6d2597	0.057897177
41	0xbcb8bf9b	-0.022552302
42	0xbe0172f8	-0.12641513
43	0xbd4b34b8	-0.049610823
44	0xbd8affc3	-0.06787064
45	0xbd838cdf	-0.064233534
46	0xb991030e	-0.0002765883
47	0xbd3b4648	-0.045721322
48	0x3d24fac0	0.040278196
49	0x3dc2bfc9	0.09509236
50	0xbd2cf3ae	-0.04222458
51	0xbd254edd	-0.040358413
52	0xbcbc9e44	-0.023024686
53	0xbd06724a	-0.03282384
54	0xbdffe2e9	-0.124944516
55	0x3c8fa790	0.017535955
56	0xbd30ade1	-0.043134574
57	0xbccfa46b	-0.025346955
58	0x3c86c139	0.016449558
59	0xbb2ae6fc	-0.0026077619
60	0xbb002174	-0.001955119
61	0x3cdbafc3	0.026817208
62	0x3ab1a485	0.0013553059
63	0x3c8b60d2	0.017013941

transformer.h.1.ln_1.weight f4 [4]
0	0x3f9520ab	1.1650594
1	0x3f93e254	1.1553445
2	0x3f957aeb	1.1678137
3	0x3f9028e3	1.1262478

transformer.h.1.attn.c_attn.weight f4 [12, 4]
0	0xbdebf52e	-0.11521374
1	0xbdccfe1b	-0.10009404
2	0x3e20debb	0.15709965
3	0x3d8811e8	0.0664404
4	0xbe1ff6b8	-0.1562146
5	0xbde61874	-0.11235133
6	0x3e035078	0.12823665
7	0x3e11bd70	0.14232421
8	0xbe200fd4	-0.15631038
9	0xbde678d3	-0.11253514
10	0x3e1a873f	0.15090655
11	0x3e24862b	0.16066806
12	0xbe085641	-0.13314153
13	0xbdded25a	-0.10879965
14	0x3e002433	0.12513809
15	0x3e17d2ee	0.14826557
16	0x3e25f590	0.16206956
17	0x3dd3ad56	0.103357956
18	0xbdd1ff98	-0.10253829
19	0xbe3b3994	-0.18283683
20	0x3e0280c0	0.12744427
21	0x3dd7800b	0.10522469
22	0xbe169014	-0.14703399
23	0xbe0b1d06	-0.1358529
24	0x3e14fcf5	0.1454962
25	0x3df48eec	0.11941323
26	0xbe152cf0	-0.14567924
27	0xbe29f827	-0.16598569
28	0x3e0d75ab	0.13814418
29	0x3dda9660	0.10673213
30	0xbe0f8dc7	-0.14018928
31	0xbde3ad0e	-0.11116992
32	0xbdf19083	-0.117951415
33	0xbdcf7692	-0.10130037
34	0x3df70455	0.12061373
35	0x3dcca181	0.09991742
36	0x3dea3d8d	0.11437521
37	0x3e022d3e	0.12712571
38	0xbde50745	-0.11183027
39	0xbd9399e2	-0.07207085
40	0x3df11136	0.11770861
41	0x3e0c676b	0.13711326
42	0xbe1c9bd4	-0.15293819
43	0xbdcf3904	-0.10118297
44	0xbda50f53	-0.080595635
45	0xbe0c92c3	-0.1372786
46	0x3e2621f2	0.16223887
47	0x3dfe10b9	0.12405533

transformer.h.1.attn.c_proj.weight f4 [4, 4]
0	0xbdd8fc84	-0.105950385
1	0x3dd08277	0.10181134
2	0x3ddb0513	0.10694327
3	0xbdb2fe61	-0.08739925
4	0xbdb21f0f	-0.0869733
5	0x3def391e	0.11680816
6	0x3daf136c	0.08548626
7	0xbd94dff5	-0.07269279
8	0x3df4e153	0.1195704
9	0xbdd81e62	-0.1055267
10	0xbde8703c	-0.11349532
11	0x3dd16402	0.10224153
12	0x3dd3aa47	0.10335212
13	0xbdd17680	-0.1022768
14	0xbdc5f65f	-0.09666132
15	0x3da4c64e	0.08045636

transformer.h.1.ln_2.weight f4 [4]
0	0x3f91abd6	1.1380565
1	0x3f9ac414	1.2091088
2	0x3f96dbea	1.1785862
3	0x3f95c020	1.1699257

transformer.h.1.mlp.c_fc.weight f4 [16, 4]
0	0x3e0aa562	0.13539651
1	0xbdda4fa2	-0.1065972
2	0xbde08017	-0.10961931
3	0x3db568c8	0.08857876
4	0x3e112ae4	0.14176518
5	0xbca20bf6	-0.019781094
6	0x3c0206a1	0.007936151
7	0xbdf55a52	-0.11980118
8	0x3beab437	0.0071625966
9	0x3e179f77	0.14806925
10	0x3d41c5d8	0.04730782
11	0xbe111267	-0.14167176
12	0xbcdd569b	-0.027018836
13	0x3e5439b5	0.20725138
14	0x3d62122c	0.05519311
15	0xbe218780	-0.15774345
16	0x3e0ea288	0.13929188
17	0xbe0a931c	-0.1353268
18	0xbda7b6f5	-0.08189193
19	0xbcdf9d75	-0.027296761
20	0xbdff691d	-0.12471221
21	0x3e35b03f	0.17743014
22	0xbd4100bd	-0.047119845
23	0x3afaa5c8	0.0019122893
24	0xbe00bd6c	-0.12572259
25	0x3e175eec	0.14782304
26	0xbd92afa1	-0.07162405
27	0x3d2f78b9	0.04283974
28	0x3dab5104	0.08365062
29	0x3d5d4d57	0.054028835
30	0x3d8ed089	0.06973369
31	0xbe0be2a3	-0.13660674
32	0x3dce2177	0.10064977
33	0xbda9c775	-0.082899965
34	0xbe01550c	-0.12630099
35	0x3dfb137d	0.122595765
36	0x3e178f2f	0.14800714
37	0xbd025f08	-0.03182891
38	0x3ca53f3c	0.020171754
39	0xbe0a05b1	-0.13478734
40	0x3db10d3b	0.08645102
41	0xbcfbff00	-0.030761242
42	0x3d25515b	0.04036079
43	0xbd8fc0a8	-0.07019168
44	0x3cee5059	0.029091047
45	0x3daa6427	0.08319884
46	0x3d7048ff	0.058663364
47	0xbe00914f	-0.12555431
48	0x3d38da70	0.045130193
49	0xbdc40955	-0.095720924
50	0xbd5090c7	-0.05091932
51	0x3d554344	0.052066103
52	0x3d746571	0.059667055
53	0xbda3e504	-0.08002666
54	0x3da0e8ff	0.078569405
55	0xbd9ecc2a	-0.07753785
56	0xbd176ef7	-0.03697106
57	0x3c85cb2c	0.016332231
58	0xbd1b5168	-0.037919432
59	0x3d77b137	0.06047174
60	0xbdca3cdf	-0.098748915
61	0x3e0b3b76	0.13596901
62	0xbcc855b6	-0.024454933
63	0xbd46d71f	-0.048545

transformer.h.1.mlp.c_proj.weight f4 [4, 16]
0	0xbddc99cb	-0.10771521
1	0xbd611fa9	-0.054961834
2	0x3dbf537a	0.09342094
3	0x3df74f44	0.120756656
4	0xbde00413	-0.10938277
5	0x3dfebd1b	0.12438413
6	0x3e0bfefb	0.13671486
7	0x3ca58690	0.020205766
8	0xbd802123	-0.0625632
9	0xbd9fea53	-0.07808366
10	0xbd134483	-0.03595401
11	0x3d275406	0.040851615
12	0xbd912462	-0.070870176
13	0xbca9a6b7	-0.020709379
14	0x3bffadd8	0.007802706
15	0x3e14cf5c	0.14532226
16	0x3dc9211f	0.098207705
17	0x3d48818e	0.048951678
18	0xbcb10968	-0.02161093
19	0xbcd98085	-0.02655054
20	0x3d9eb6fb	0.077497445
21	0xbd274563	-0.040837657
22	0xbd4eb735	-0.05046769
23	0x3d6bf82d	0.057609726
24	0x3d54002d	0.05175798
25	0x3d6e4528	0.05817142
26	0x3d5b4491	0.053532187
27	0x3d129d75	0.035794694
28	0x3d1f145e	0.038837783
29	0x3da8baf0	0.082387805
30	0xbd2a8cb1	-0.04163808
31	0xbdbfa517	-0.0935766
32	0x3df65462	0.120278135
33	0xbd9e91fa	-0.077426866
34	0xbe31ab72	-0.17350557
35	0xbe1681f0	-0.14698005
36	0x3c4a77d5	0.012357672
37	0xbb8e565b	-0.0043437905
38	0x3ce29827	0.027660443
39	0xbe2b67a2	-0.16738752
40	0x3dd325a2	0.10309912
41	0xbde0e0a6	-0.10980348
42	0xbd818ac2	-0.06325294
43	0xbdadacf0	-0.08480251
44	0x3d957121	0.07296968
45	0xbd8d5ccf	-0.069024675
46	0x3d2f1000	0.04273987
47	0xbd5ceb5f	-0.053935405
48	0xbd94b807	-0.07261663
49	0x3cdbf0e7	0.02684827
50	0x3d801bdc	0.06255314
51	0x3d479bb2	0.048732467
52	0xbd00b14a	-0.031419076
53	0x3af34ac9	0.0018561716
54	0xbc8b0509	-0.016970174
55	0x3da970ed	0.08273492
56	0xbd9403f1	-0.07227314
57	0x3d2d9e09	0.042387042
58	0x3c66000e	0.014038099
59	0x3ccc6e1e	0.024954852
60	0xbd31f864	-0.043449774
61	0xbc17e250	-0.009270266
62	0xbc9da0cb	-0.019241711
63	0x3c1c1a10	0.009527698

transformer.h.2.ln_1.weight f4 [4]
0	0x3f94d6ea	1.1628087
1	0x3f94889c	1.160419
2	0x3f96bee0	1.1777
3	0x3f8d02e2	1.1016505

transformer.h.2.attn.c_attn.weight f4 [12, 4]
0	0x3d4baafc	0.04972361
1	0xbd0b8f2f	-0.034072097
2	0x3d18914b	0.037247937
3	0xbdabb5e9	-0.08384306
4	0xbdce88a9	-0.100846596
5	0xbdf06d4b	-0.11739596
6	0x3df5a95a	0.11995192
7	0x3d90bcf5	0.07067291
8	0xbdf7a9bc	-0.12092921
9	0xbdf2085f	-0.11818003
10	0x3e0b30a6	0.13592777
11	0x3d8d78c1	0.069077976
12	0x3dd64ba1	0.10463644
13	0x3dd99d80	0.10625744
14	0xbe30edae	-0.17278168
15	0xbd56bb62	-0.052424796
16	0x3cb3c6b2	0.021945331
17	0xbc0ab26d	-0.008465392
18	0xbc845775	-0.016154984
19	0x3ca78714	0.020450152
20	0x3e028980	0.12747765
21	0x3dcbf64a	0.09959085
22	0xbe0c0073	-0.13672046
23	0xbde18c60	-0.110131025
24	0x3dc59ab9	0.09648652
25	0x3db8d62d	0.09025226
26	0xbdf0aa62	-0.11751248
27	0xbe1325b6	-0.14369854
28	0xbe27e063	-0.1639419
29	0xbdad1db9	-0.08452935
30	0x3db11045	0.08645681
31	0x3e21866d	0.15773936
32	0xbbf3be5f	-0.0074384655
33	0xbcbd7650	-0.023127705
34	0x3c1fca2b	0.00975279
35	0x3cbb447e	0.022859808
36	0xbe098ee5	-0.13433416
37	0xbe12da7c	-0.14341158
38	0x3e1ccd0f	0.15312599
39	0x3d815cd9	0.063165374
40	0x3e059585	0.13045318
41	0x3e0c1094	0.13678199
42	0xbe29e85e	-0.16592547
43	0xbdba7633	-0.09104576
44	0x3df9bac8	0.12193829
45	0x3df090f0	0.11746395
46	0xbdfd1069	-0.123566456
47	0xbe0135f7	-0.12618242

transformer.h.2.attn.c_proj.weight f4 [4, 4]
0	0xbce76a33	-0.028248882
1	0xbdce2f82	-0.10067655
2	0x3dcdc60b	0.10047539
3	0x3ddd95f4	0.10819617
4	0x3b8dc8c5	0.004326912
5	0xbdcb2027	-0.09918242
6	0x3d961053	0.07327332
7	0x3dd85dd3	0.105647705
8	0x3c46570c	0.0121057145
9	0x3dbb29a3	0.09138801
10	0xbda7737e	-0.08176325
11	0xbdcbede9	-0.09957487
12	0x3c089836	0.008337071
13	0x3dc81d8a	0.09771259
14	0xbdcfdec0	-0.10149908
15	0xbdb962f3	-0.09052076

transformer.h.2.ln_2.weight f4 [4]
0	0x3f95b254	1.1695046
1	0x3f929fda	1.1455033
2	0x3f8e5687	1.1120156
3	0x3f95389e	1.1657903

transformer.h.2.mlp.c_fc.weight f4 [16, 4]
0	0xbd107b2e	-0.035273723
1	0x38e3b1fa	0.00010857354
2	0x3cda00e9	0.026611762
3	0xbd067fbd	-0.032836664
4	0xbd6d30ef	-0.057907995
5	0xbd1d519e	-0.038407914
6	0xbc007ee7	-0.007842756
7	0x3d7a9f82	0.061187275
8	0x3e0451d2	0.12921837
9	0x3d8c1e26	0.06841688
10	0xbceb1461	-0.02869624
11	0xbde2825f	-0.110600226
12	0xbda67f93	-0.081298016
13	0xbcc0695b	-0.023487737
14	0x3bd75ad8	0.0065721087
15	0x3db84b49	0.089987345
16	0xbd9fe235	-0.078068174
17	0x3cdff659	0.027339147
18	0x3b9e15ee	0.0048243916
19	0xbbdfdf76	-0.0068320585
20	0xbdbe95a4	-0.093058854
21	0xbd215759	-0.03938994
22	0xbcc6545d	-0.02421015
23	0x3da55681	0.0807314
24	0x3ddf96b6	0.10917418
25	0xbd7bf066	-0.06150856
26	0x3dd59783	0.10429289
27	0xbe3ae652	-0.18251923
28	0xbda94e60	-0.08266902
29	0x3ccc0845	0.024906287
30	0xbdab5306	-0.08365445
31	0x3da3a6a1	0.07990766
32	0xbdd289ed	-0.102802135
33	0xbd83d3a7	-0.06436854
34	0xbd1801fc	-0.037111267
35	0x3d42ad7e	0.047528736
36	0xbda16065	-0.07879714
37	0x3cc3cb8e	0.023900773
38	0xbbedd6bc	-0.0072582643
39	0x3d354780	0.04425764
40	0x3d2c6d7e	0.042096607
41	0x3cbc3639	0.022975074
42	0x3d909bb0	0.07060945
43	0xbdfa1f10	-0.12212956
44	0xbd924d2d	-0.07143626
45	0xbd2756bd	-0.040854204
46	0xbd279602	-0.040914543
47	0x3d70cbc5	0.05878808
48	0x3da1cbad	0.07900176
49	0x3dd8d33c	0.10587165
50	0x3c78f317	0.015194676
51	0xbdabc765	-0.08387641
52	0x3e4e685e	0.20157
53	0xbe234438	-0.15943992
54	0xbd91c999	-0.0711853
55	0xbd9d8699	-0.07691688
56	0xbd30d6e8	-0.0431737
57	0x3e4156b9	0.18880738
58	0xbe55f29b	-0.20893328
59	0x3d842dd0	0.064540505
60	0x3d0bf229	0.03416649
61	0x3d8458ea	0.064622715
62	0x3d96f084	0.073700935
63	0xbded783b	-0.11595198

transformer.h.2.mlp.c_proj.weight f4 [4, 16]
0	0x3c4b8714	0.012422342
1	0xbd45fe55	-0.048338253
2	0x3d680ab7	0.056650843
3	0xbce3054c	-0.027712487
4	0x3d3a42ea	0.04547397
5	0xbd0560c2	-0.03256298
6	0xbc69776a	-0.014249662
7	0x3c5cd978	0.013479583
8	0xbd4cb640	-0.049978495
9	0x3d24213f	0.04007077
10	0x3d424b8e	0.047435336
11	0xbd229bba	-0.039699294
12	0x3dac5008	0.08413702
13	0xbda36121	-0.0797751
14	0x3ddfcbc2	0.109275356
15	0x3daae3cc	0.0834423
16	0xbcbab1c3	-0.022789842
17	0xbd0aec2a	-0.03391663
18	0x3d6eee91	0.058332983
19	0xbc82e5a3	-0.01597864
20	0xbdac5d2f	-0.08416211
21	0xbca7c577	-0.0204799
22	0x3db516aa	0.088422135
23	0xbd45c8f5	-0.04828735
24	0xbd0e263e	-0.03470444
25	0xbd29a13a	-0.041413523
26	0x3d0ba99d	0.034097303
27	0xbcfb6f53	-0.030692732
28	0x3d5b6304	0.053561226
29	0x3da7f036	0.082001135
30	0xbc9e36fe	-0.019313332
31	0x3d066c27	0.032817986
32	0xbc2c6908	-0.010523088
33	0x3d37ac4f	0.04484206
34	0xbdd36212	-0.1032144
35	0x3d0f03f9	0.034915898
36	0x3d3bed77	0.04588076
37	0x3d40c99f	0.04706728
38	0xbe38d98b	-0.18051736
39	0x3dec40da	0.11535807
40	0x3d5db5b3	0.05412836
41	0x3dac7a69	0.084217854
42	0xbd918ffb	-0.0710754
43	0x3d9177cf	0.0710293
44	0xbd992711	-0.074781545
45	0xbd9446d7	-0.07240074
46	0x3d78ce1b	0.060743432
47	0xbdb0c78c	-0.086318105
48	0x3cd7f4ec	0.026361905
49	0xbba1ca79	-0.0049374667
50	0xbd3f8dac	-0.04676597
51	0x3c0817b9	0.008306437
52	0x3cc4c735	0.02402077
53	0xbc1fc6e7	-0.009752012
54	0x3d88ef1a	0.0668623
55	0xbda10fff	-0.07864379
56	0xbc248d51	-0.010043458
57	0x3b586341	0.0033018144
58	0x3d315f32	0.043303676
59	0xbce96e85	-0.028495083
60	0xbc8cc972	-0.0171859
61	0xbd39fad5	-0.045405228
62	0xbddf32bb	-0.10898348
63	0x3d5897fd	0.052879322

transformer.ln_f.weight f4 [4]
0	0x3fb34b45	1.4007345
1	0x3fb29e3a	1.3954537
2	0x3fb73026	1.4311569
3	0x3faf1c64	1.3680539

lm_head.weight f4 [5, 4]
0	0xbe9014c4	-0.28140843
1	0xbe99efac	-0.30065668
2	0x3eaa0946	0.332102
3	0x3e629df9	0.22130574
4	0x3e4542a2	0.192637
5	0x3e5072f3	0.2035635
6	0xbe1f45ff	-0.15554045
7	0xbe214f14	-0.15752822
8	0x3e114857	0.14187752
9	0x3df2cd82	0.11855604
10	0xbe17ab91	-0.14811541
11	0xbe1bd0fc	-0.1521644
12	0x3df62be9	0.12020094
13	0x3e103b27	0.14085065
14	0xbe2b33cd	-0.16718979
15	0xbe06669e	-0.13125083
16	0x3e4e2f72	0.20135286
17	0x3e410724	0.1885038
18	0xbe51a602	-0.20473483
19	0xbe33d9bc	-0.17563528

exp_avg f4 [5, 4]
0	0xb9339dde	-0.0001712958
1	0x392d9c2c	0.00016556744
2	0xb9ae2046	-0.00033211912
3	0x39994d17	0.0002923987
4	0x3acf4b84	0.0015815352
5	0x399bd65d	0.00029723617
6	0xba9e83e9	-0.0012093756
7	0xba3001ec	-0.00067141536
8	0x3b3b6f95	0.0028600444
9	0x3b2b6dd3	0.002615799
10	0xbb6ec4c9	-0.003643321
11	0xbaf6323b	-0.001878328
12	0x3ad03b70	0.0015886854
13	0x3b12a10b	0.002237382
14	0xbb1e2a8b	-0.0024134244
15	0xbab78750	-0.0014002118
16	0xbbd257ba	-0.006419149
17	0xbbb803dd	-0.005615695
18	0x3bff7cf3	0.0077968775
19	0x3b8deb1d	0.004331006

exp_avg_sq f4 [5, 4]
0	0x38499c56	4.8067734e-05
1	0x385f6375	5.325997e-05
2	0x386ac824	5.5976343e-05
3	0x38512cf1	4.9871338e-05
4	0x39c3aa8b	0.00037320363
5	0x39b6a553	0.0003483692
6	0x3a04a7c3	0.0005060399
7	0x398262ee	0.0002486924
8	0x398f05cb	0.00027279402
9	0x39892120	0.00026155356
10	0x39c41aa3	0.0003740388
11	0x393f590c	0.00018248352
12	0x39ab9d3d	0.00032732813
13	0x39a7ccf3	0.0003200542
14	0x39f29bb8	0.00046273856
15	0x395e47fd	0.00021198388
16	0x39da9030	0.00041687628
17	0x39ccd63b	0.00039069526
18	0x3a14a3f8	0.0005670185
19	0x39915800	0.0002772212

exp_avg f4 [256, 4]
0	0x376ca3b7	1.4104814e-05
1	0x3718c8ee	9.106689e-06
2	0xb6ad2cae	-5.161003e-06
3	0xb6658b0b	-3.4204593e-06
4	0xb9ddd85a	-0.000423136
5	0xb98f960a	-0.00027386873
6	0x394fa1be	0.00019801312
7	0x39fb74f1	0.0004796158
8	0xb7c4a6ee	-2.3442753e-05
9	0xb8ae1977	-8.30171e-05
10	0xb6c32358	-5.8155674e-06
11	0x388e4085	6.783105e-05
12	0xb61e3da2	-2.357971e-06
13	0xb698bb88	-4.5517845e-06
14	0x356de873	8.862764e-07
15	0x370eef49	8.5195725e-06
16	0xb53aa819	-6.9535014e-07
17	0x368baf2d	4.162916e-06
18	0x36a13aab	4.8050038e-06
19	0xb6e7ebcd	-6.9117873e-06
20	0x33a69cc5	7.7584936e-08
21	0x3613cc31	2.2023562e-06
22	0x350822ed	5.071477e-07
23	0xb62503e8	-2.458919e-06
24	0x36795eb8	3.7159025e-06
25	0xb63e6172	-2.8368927e-06
26	0xb62658d1	-2.4787626e-06
27	0xb56f5d40	-8.9170135e-07
28	0xb6906ade	-4.3039754e-06
29	0xb6075631	-2.0166738e-06
30	0xb7071c1b	-8.053171e-06
31	0x3738ccc7	1.1014933e-05
32	0x35c6a64b	1.4800547e-06
33	0xb5bfcc08	-1.428999e-06
34	0xb67ce28c	-3.7682794e-06
35	0x34fdfef2	4.731042e-07
36	0xb6864fb1	-4.0027885e-06
37	0x36932461	4.3851765e-06
38	0x3589bb79	1.0261857e-06
39	0x3682b109	3.8949115e-06
40	0xb561adde	-8.407204e-07
41	0x35d9d330	1.6229224e-06
42	0x354be872	7.5961646e-07
43	0xb64a0bf6	-3.0107308e-06
44	0xb5d060a8	-1.5525338e-06
45	0xb54f83c1	-7.7305236e-07
46	0x361f468d	2.3733912e-06
47	0xb5d61bb3	-1.5952304e-06
48	0x35afb3fb	1.3090897e-06
49	0xb69e4588	-4.7168614e-06
50	0xb560b75c	-8.3713326e-07
51	0x33a87326	7.844055e-08
52	0xb5584513	-8.0566787e-07
53	0x3605b32d	1.9922838e-06
54	0xb696bd64	-4.4923963e-06
55	0x33c87281	9.334054e-08
56	0xb52adc15	-6.3650197e-07
57	0x3724874c	9.806663e-06
58	0x36c5b15d	5.8917053e-06
59	0xb7123a3b	-8.715836e-06
60	0x35bc868a	1.4046248e-06
61	0xb5463fa7	-7.3853374e-07
62	0x36561bd3	3.190468e-06
63	0xb55d0283	-8.233257e-07
64	0xb62aba5d	-2.5440452e-06
65	0xb5a00eed	-1.1925273e-06
66	0xb63fa8fc	-2.855958e-06
67	0x36adedfd	5.1835073e-06
68	0xb5c4b41a	-1.4655554e-06
69	0xb456453a	-1.9955488e-07
70	0xb621d4e4	-2.4114788e-06
71	0x363b5bf2	2.791869e-06
72	0xb70f86e0	-8.554867e-06
73	0x3763491c	1.35472765e-05
74	0xb61080f2	-2.1532728e-06
75	0xb6b7bffe	-5.476176e-06
76	0x362c8aa7	2.5710704e-06
77	0xb4f2239a	-4.5101916e-07
78	0xb5f0e883	-1.7949063e-06
79	0x3631b8f8	2.6482721e-06
80	0x360cb970	2.0969565e-06
81	0xb6b644a9	-5.4320158e-06
82	0x368bbdbd	4.1646113e-06
83	0xb68aebcd	-4.1401713e-06
84	0xb4181b71	-1.4166086e-07
85	0xb5dfecee	-1.668375e-06
86	0xb60e0196	-2.1160572e-06
87	0x36c7b230	5.951406e-06
88	0xb655793c	-3.181004e-06
89	0x36820632	3.875023e-06
90	0xb6762f0c	-3.6684241e-06
91	0xb61f7d42	-2.3765756e-06
92	0xb6329721	-2.6612036e-06
93	0xb4dadf0d	-4.0767955e-07
94	0xb6b400f1	-5.3645276e-06
95	0x3681510a	3.853934e-06
96	0x3613f94e	2.2049821e-06
97	0xb5a370bf	-1.217726e-06
98	0xb6110fab	-2.1615804e-06
99	0x352e3c3b	6.49077e-07
100	0x336212ae	5.2636715e-08
101	0xb6c7cd3f	-5.954556e-06
102	0xb6a748a5	-4.985445e-06
103	0x363e3478	2.8342747e-06
104	0xb4b9536d	-3.4519636e-07
105	0x3622b8ca	2.4247443e-06
106	0xb74ea42a	-1.2316779e-05
107	0x36dc380d	6.563036e-06
108	0x36813396	3.850505e-06
109	0xb6c90b8e	-5.991612e-06
110	0x366747c6	3.446346e-06
111	0x35b150f7	1.3211092e-06
112	0x3581efc9	9.681036e-07
113	0xb6621b24	-3.3692422e-06
114	0x36f4fe0a	7.3013407e-06
115	0xb6c9bfec	-6.0126094e-06
116	0x359f40e0	1.1865304e-06
117	0x322ca20d	1.0048564e-08
118	0xb6211d2b	-2.4007848e-06
119	0x36471957	2.966806e-06
120	0xb542f9f9	-7.263439e-07
121	0x3693e6d7	4.4078147e-06
122	0x3618a5ed	2.2746347e-06
123	0x3657e947	3.2173282e-06
124	0xb5067bd2	-5.009907e-07
125	0xb6a43667	-4.893914e-06
126	0xb6aa60a6	-5.077646e-06
127	0x3786fe5f	1.6092496e-05
128	0x361937c3	2.2831234e-06
129	0xb6866943	-4.0057653e-06
130	0xb59a2d87	-1.1487144e-06
131	0x368d4a06	4.210745e-06
132	0xb69f0868	-4.739548e-06
133	0x36e71679	6.8869526e-06
134	0x365ee943	3.3216354e-06
135	0xb62089c2	-2.3922044e-06
136	0xb6765336	-3.6705292e-06
137	0xb54d33f2	-7.644404e-07
138	0xb53c11c1	-7.0061293e-07
139	0x3585102a	9.913977e-07
140	0x3683fd29	3.933576e-06
141	0xb62879c4	-2.5104828e-06
142	0x36d82696	6.4417936e-06
143	0xb6a255f1	-4.837981e-06
144	0x3689ebf8	4.1103885e-06
145	0xb69f227e	-4.7425847e-06
146	0x3510eb6f	5.398678e-07
147	0x35571bf9	8.0134447e-07
148	0xb59c7976	-1.1658256e-06
149	0x35d3d952	1.5783974e-06
150	0xb6943415	-4.416807e-06
151	0x368ac23c	4.1353323e-06
152	0x351bca1b	5.80361e-07
153	0xb57c991e	-9.410013e-07
154	0x34fcda58	4.7097524e-07
155	0xb5893b3a	-1.0224533e-06
156	0x33f6370e	1.1465282e-07
157	0x36a6eda8	4.9748523e-06
158	0xb583430c	-9.779774e-07
159	0x34ebd6a2	4.3928327e-07
160	0x3544eb46	7.335806e-07
161	0xb612ca0a	-2.1873298e-06
162	0xb663104a	-3.3835117e-06
163	0x35b40312	1.3411939e-06
164	0x364a38e0	3.0133451e-06
165	0xb62185c2	-2.4068727e-06
166	0xb634ec53	-2.695965e-06
167	0x35ea97db	1.7478554e-06
168	0xb56d076b	-8.8300175e-07
169	0x363379d3	2.674399e-06
170	0xb591d15e	-1.0864276e-06
171	0x350724d4	5.034501e-07
172	0xb6b3b475	-5.3556237e-06
173	0x366d99ff	3.540539e-06
174	0xb6ad78d9	-5.1698703e-06
175	0x36d94acc	6.4758115e-06
176	0x3540a09f	7.175931e-07
177	0xb6650eba	-3.413223e-06
178	0xb618661f	-2.2709207e-06
179	0x35d663fa	1.597334e-06
180	0x361a7a1f	2.3018872e-06
181	0xb5247bfe	-6.1275193e-07
182	0x365b5ca7	3.2687474e-06
183	0xb6f9cdf5	-7.444755e-06
184	0x3643bad2	2.9166008e-06
185	0xb648e5fd	-2.9936193e-06
186	0xb5aa5d5c	-1.2693158e-06
187	0x36af05f0	5.2160976e-06
188	0xb66c099f	-3.517234e-06
189	0x37310c0b	1.0552826e-05
190	0x366c21b9	3.518637e-06
191	0xb781f5fd	-1.5492546e-05
192	0x365c892c	3.28624e-06
193	0xb632276e	-2.6547018e-06
194	0x35d4e0fb	1.5860709e-06
195	0x340872a1	1.2707689e-07
196	0x36059f0b	1.991112e-06
197	0xb5d12563	-1.5582594e-06
198	0xb6193fe6	-2.283597e-06
199	0x363f33f4	2.8491459e-06
200	0x352c4287	6.4171803e-07
201	0xb6ce2633	-6.1437254e-06
202	0xb64a7ef4	-3.0174242e-06
203	0x37000592	7.6306915e-06
204	0xb5e03cae	-1.6706961e-06
205	0x366f32d1	3.5643354e-06
206	0xb46c0ca4	-2.1983811e-07
207	0xb62a6e0d	-2.5396032e-06
208	0x35ca4973	1.5071549e-06
209	0xb5d8fc07	-1.6166604e-06
210	0xb6e1f2a4	-6.7337696e-06
211	0x36d695c9	6.3951343e-06
212	0x3652be8d	3.1403354e-06
213	0xb6aceeee	-5.1538145e-06
214	0xb54074a4	-7.169531e-07
215	0x36d8d869	6.462495e-06
216	0xb516c76f	-5.616957e-07
217	0xb5f0c49b	-1.7938613e-06
218	0xb67b2be7	-3.742747e-06
219	0x36effdbd	7.152294e-06
220	0xb3b0b808	-8.229114e-08
221	0x34568775	1.9979582e-07
222	0xb62c84c2	-2.5707272e-06
223	0x36a9181e	5.0394e-06
224	0x36332fa3	2.6700807e-06
225	0xb48742be	-2.519427e-07
226	0x3656c8bb	3.2005325e-06
227	0x35ec67ce	1.7613581e-06
228	0x34bd468f	3.5255331e-07
229	0x35afcde5	1.3098439e-06
230	0x36271ed4	2.4902884e-06
231	0xb656e297	-3.2020378e-06
232	0xb6d6a3cf	-6.396767e-06
233	0x36f4d499	7.2965163e-06
234	0x3603c12e	1.9632967e-06
235	0xb599b0d1	-1.1450849e-06
236	0x36b8458d	5.491724e-06
237	0xb636a66b	-2.7216981e-06
238	0xb5309137	-6.5776425e-07
239	0xb561a778	-8.406273e-07
240	0xb51993d0	-5.7212037e-07
241	0xb6651247	-3.4134298e-06
242	0x368f6467	4.2734205e-06
243	0xb6647cce	-3.4047293e-06
244	0x35ee9f68	1.7778775e-06
245	0x351a25b9	5.7424364e-07
246	0xb4695ccb	-2.1733574e-07
247	0x36c41d3a	5.8446576e-06
248	0xb6042e2c	-1.9696408e-06
249	0x36bdb776	5.6539966e-06
250	0x36050727	1.9822708e-06
251	0xb680fa46	-3.843833e-06
252	0x36906159	4.302867e-06
253	0xb5c5e134	-1.4743187e-06
254	0xb6b4ca23	-5.38795e-06
255	0x3688e6a9	4.079968e-06

exp_avg_sq f4 [256, 4]
0	0x331e174d	3.6808434e-08
1	0x33e9d13d	1.0887968e-07
2	0x33f67e41	1.1478233e-07
3	0x333a11ec	4.33228e-08
4	0x364fc10a	3.0957767e-06
5	0x35b73e49	1.365269e-06
6	0x34e5bcd9	4.279198e-07
7	0x3693b04a	4.401464e-06
8	0x34a6e57b	3.1086878e-07
9	0x342d6da7	1.6151772e-07
10	0x33dce80a	1.0286756e-07
11	0x3624d89b	2.4563985e-06
12	0x323eddb8	1.1109869e-08
13	0x3120d90e	2.3406446e-09
14	0x31d3b8e5	6.1619283e-09
15	0x31a1b914	4.7067577e-09
16	0x312553d1	2.4058304e-09
17	0x30a07ec0	1.1677557e-09
18	0x30426ce3	7.0731526e-10
19	0x318100c9	3.7544834e-09
20	0x30bb32eb	1.3620512e-09
21	0x308dbf5a	1.0313486e-09
22	0x30823269	9.473072e-10
23	0x30c3aefb	1.423785e-09
24	0x2fdd8e8c	4.0300951e-10
25	0x30e0760e	1.6331698e-09
26	0x30276312	6.0895033e-10
27	0x309fdbb4	1.1631216e-09
28	0x324b2378	1.182422e-08
29	0x31c0df50	5.613323e-09
30	0x310c1312	2.0383522e-09
31	0x32a73bf2	1.9468619e-08
32	0x2ff688d5	4.4844364e-10
33	0x30c6bdc7	1.4460334e-09
34	0x303ee4cb	6.944673e-10
35	0x3090fc97	1.0549169e-09
36	0x30e8df7f	1.6943743e-09
37	0x30924c8d	1.0644655e-09
38	0x30692f68	8.4832275e-10
39	0x3151a265	3.0505813e-09
40	0x3001cda6	4.722217e-10
41	0x30905477	1.0501385e-09
42	0x301f34b2	5.791875e-10
43	0x3080f55a	9.382959e-10
44	0x30fa0bbb	1.8193228e-09
45	0x313c2598	2.737897e-09
46	0x301a2c7d	5.6088095e-10
47	0x310c0fbe	2.038163e-09
48	0x309723f6	1.0996917e-09
49	0x30a6e58c	1.2143331e-09
50	0x30e16802	1.6400465e-09
51	0x3028d7ef	6.1424904e-10
52	0x32c375e8	2.2754605e-08
53	0x3215c5ba	8.717899e-09
54	0x3204ad71	7.722847e-09
55	0x32d47b2e	2.4736064e-08
56	0x301fa9e6	5.8085303e-10
57	0x309db8ba	1.1475756e-09
58	0x303b392f	6.8111466e-10
59	0x3087c301	9.877966e-10
60	0x30757dbc	8.930916e-10
61	0x30d8d2f0	1.577602e-09
62	0x30473496	7.247051e-10
63	0x30a827f5	1.2234965e-09
64	0x3054c888	7.741012e-10
65	0x3024215d	5.9710265e-10
66	0x3031507a	6.450659e-10
67	0x30a56cc8	1.2036248e-09
68	0x312c0575	2.5032396e-09
69	0x3032bbf2	6.502311e-10
70	0x3041ee30	7.0551476e-10
71	0x31b9e300	5.4100155e-09
72	0x303804fb	6.694589e-10
73	0x3002c37f	4.757154e-10
74	0x2fe5648d	4.1726303e-10
75	0x303305fc	6.5128325e-10
76	0x301fc80e	5.812816e-10
77	0x303e1972	6.915776e-10
78	0x3024bdbd	5.9932487e-10
79	0x3037f8df	6.692868e-10
80	0x2ffa70f5	4.5554996e-10
81	0x3010e3f0	5.2710813e-10
82	0x302f7d02	6.3842276e-10
83	0x301a2772	5.608093e-10
84	0x30d9e9b7	1.5855254e-09
85	0x308bed87	1.018109e-09
86	0x304c66ae	7.4360684e-10
87	0x30e1f2ad	1.6439877e-09
88	0x3044df56	7.1621764e-10
89	0x303734bf	6.664997e-10
90	0x3006295e	4.88077e-10
91	0x30a3bee5	1.1914066e-09
92	0x303e6f18	6.927947e-10
93	0x3056783e	7.802362e-10
94	0x3028442b	6.1214916e-10
95	0x309a87d9	1.1243585e-09
96	0x33504484	4.849109e-08
97	0x325844ef	1.2588528e-08
98	0x318b72f0	4.0584993e-09
99	0x339f4a99	7.417584e-08
100	0x30561903	7.788829e-10
101	0x312b14ec	2.4895668e-09
102	0x307d1d5d	9.208259e-10
103	0x31943760	4.3136623e-09
104	0x314631ca	2.8841094e-09
105	0x30bb2890	1.3617569e-09
106	0x308759ef	9.848103e-10
107	0x30ae5a58	1.2685843e-09
108	0x323beb87	1.0938385e-08
109	0x3136221f	2.6503881e-09
110	0x305533b6	7.7562434e-10
111	0x32682c80	1.35142955e-08
112	0x2ffcce34	4.598505e-10
113	0x3003972e	4.787236e-10
114	0x3019a9b8	5.590226e-10
115	0x305bd660	7.997638e-10
116	0x30af4cf0	1.2754793e-09
117	0x30230266	5.9302463e-10
118	0x303d1cdb	6.8798806e-10
119	0x30ca69e7	1.4727534e-09
120	0x2ff222dd	4.4044315e-10
121	0x303be185	6.8350686e-10
122	0x30158811	5.4399246e-10
123	0x30597f24	7.912482e-10
124	0x2ff3d76d	4.4354512e-10
125	0x305b4bbd	7.9779366e-10
126	0x300e5763	5.1783483e-10
127	0x302eace8	6.3546546e-10
128	0x309a4daa	1.1227048e-09
129	0x31054faa	1.939933e-09
130	0x3038ad4d	6.7185085e-10
131	0x3157383c	3.1318583e-09
132	0x300d4c97	5.140434e-10
133	0x307e03f5	9.2410285e-10
134	0x3061eee7	8.2194024e-10
135	0x30830396	9.532524e-10
136	0x2fd1b4f6	3.814546e-10
137	0x304b1e0e	7.389368e-10
138	0x301fbcb3	5.811202e-10
139	0x2ff48630	4.4478687e-10
140	0x2ffd25d4	4.604731e-10
141	0x3027713d	6.091517e-10
142	0x3034d25a	6.5782546e-10
143	0x30382fe2	6.7006856e-10
144	0x30910425	1.0551316e-09
145	0x30eb0ce5	1.7102165e-09
146	0x303ab276	6.7920014e-10
147	0x315379ca	3.077377e-09
148	0x30009a41	4.6785337e-10
149	0x302568e0	6.0175687e-10
150	0x3022b17e	5.918749e-10
151	0x304b4d62	7.396094e-10
152	0x3008c18d	4.9751564e-10
153	0x2fcfdb2b	3.780881e-10
154	0x30182baa	5.535933e-10
155	0x305a5b6a	7.9437845e-10
156	0x303eca7b	6.940934e-10
157	0x309c0aae	1.1353529e-09
158	0x3011e9a9	5.3082744e-10
159	0x303fb324	6.973997e-10
160	0x30389593	6.715137e-10
161	0x3008b58e	4.9734517e-10
162	0x30189f07	5.552327e-10
163	0x308fe3b7	1.046934e-09
164	0x305c9fa7	8.0262413e-10
165	0x308d8a3e	1.0298391e-09
166	0x30265b48	6.0520167e-10
167	0x306d6514	8.636374e-10
168	0x30024efa	4.7405957e-10
169	0x30254235	6.0120736e-10
170	0x2fcaa404	3.6860126e-10
171	0x301f7352	5.8007743e-10
172	0x30ed1338	1.7249482e-09
173	0x30b076b3	1.2839422e-09
174	0x30b53059	1.3183225e-09
175	0x31022844	1.8940378e-09
176	0x30be1981	1.3831568e-09
177	0x30a678bd	1.2112406e-09
178	0x3046c029	7.2305056e-10
179	0x310058c1	1.8676902e-09
180	0x31ae370c	5.0703246e-09
181	0x307f2fbf	9.283631e-10
182	0x2fe76c20	4.2095483e-10
183	0x321d08b7	9.140584e-09
184	0x2fbd8c76	3.4478703e-10
185	0x2fd25947	3.8262213e-10
186	0x2ff408af	4.4389512e-10
187	0x3010d01a	5.2682625e-10
188	0x316f833f	3.4853682e-09
189	0x3122be18	2.3682158e-09
190	0x308c26e9	1.01974e-09
191	0x323be5af	1.0937057e-08
192	0x306af57e	8.547757e-10
193	0x304955de	7.32454e-10
194	0x30327f93	6.4937317e-10
195	0x30703e49	8.7400004e-10
196	0x2fd173b2	3.8099085e-10
197	0x30041a29	4.8058496e-10
198	0x3017483d	5.5036137e-10
199	0x302b9b66	6.243027e-10
200	0x3008116e	4.950128e-10
201	0x30b2b413	1.3002385e-09
202	0x3024633a	5.980386e-10
203	0x3083590f	9.556816e-10
204	0x304239be	7.0658845e-10
205	0x2feaf042	4.2735065e-10
206	0x30277ce7	6.0931743e-10
207	0x3035865f	6.603837e-10
208	0x313ff931	2.7935807e-09
209	0x3157ecdd	3.142126e-09
210	0x31057eb5	1.9426072e-09
211	0x31504161	3.0305147e-09
212	0x3038aeb5	6.7187084e-10
213	0x309e5e92	1.1522892e-09
214	0x3023f097	5.9640953e-10
215	0x30d9a6dc	1.5836252e-09
216	0x356c9846	8.813844e-07
217	0x30c97930	1.4659118e-09
218	0x338a02b1	6.426615e-08
219	0x350551ad	4.9665215e-07
220	0x30313596	6.4468375e-10
221	0x3033ecab	6.5456146e-10
222	0x30405918	6.9975803e-10
223	0x304abdbe	7.375681e-10
224	0x304fcd7b	7.5598167e-10
225	0x307a1ebc	9.0993146e-10
226	0x3014d79a	5.4148475e-10
227	0x31004479	1.8665374e-09
228	0x2fe786ad	4.2114348e-10
229	0x30187944	5.5469607e-10
230	0x300ff687	5.2373433e-10
231	0x30352df2	6.591271e-10
232	0x30607a25	8.1664303e-10
233	0x3080efa9	9.381341e-10
234	0x30060a55	4.87636e-10
235	0x303af1ec	6.80102e-10
236	0x30a1e08d	1.1778113e-09
237	0x30d915f0	1.5795063e-09
238	0x30a5e7d5	1.2071221e-09
239	0x30a2ac7c	1.1836074e-09
240	0x304b27d0	7.3907547e-10
241	0x303ebc7c	6.938945e-10
242	0x302a1a81	6.1883304e-10
243	0x309267ec	1.0652434e-09
244	0x301ca593	5.6987765e-10
245	0x306fac19	8.719226e-10
246	0x300b1cdf	5.0608934e-10
247	0x301ff2b5	5.818877e-10
248	0x301b50aa	5.65033e-10
249	0x30a5121d	1.2010478e-09
250	0x3055b630	7.774785e-10
251	0x30a6ad6c	1.2127379e-09
252	0x305bc65a	7.995361e-10
253	0x306d0460	8.6226315e-10
254	0x305a96fb	7.9522494e-10
255	0x306b30ef	8.556204e-10

exp_avg f4 [12, 4]
0	0x37f5bfdd	2.929562e-05
1	0x37efb856	2.8576858e-05
2	0xb831aacb	-4.2359152e-05
3	0xb77e0d50	-1.5142679e-05
4	0x35a969ff	1.262233e-06
5	0x35b76306	1.3663382e-06
6	0xb62aba76	-2.5440509e-06
7	0xb3a7b807	-7.810018e-08
8	0xb70139fa	-7.702498e-06
9	0xb7033760	-7.8211015e-06
10	0x37578ab5	1.2847294e-05
11	0x362ec64e	2.604345e-06
12	0xb8185c60	-3.6325655e-05
13	0xb81c3e40	-3.7251273e-05
14	0x3874b6ff	5.834456e-05
15	0x3779cbc6	1.4889001e-05
16	0xb8335d43	-4.2763782e-05
17	0xb777cdba	-1.4770247e-05
18	0x384585db	4.7093123e-05
19	0x3724e91e	9.829439e-06
20	0xb5cff81e	-1.5494913e-06
21	0xb5131442	-5.4791246e-07
22	0x35fd5f77	1.8877753e-06
23	0x344add84	1.8893303e-07
24	0x3792a8d1	1.7483168e-05
25	0x36b800e1	5.4837296e-06
26	0xb7a237d6	-1.9337906e-05
27	0xb6621302	-3.3687688e-06
28	0x38609262	5.354209e-05
29	0x3789ab27	1.6411372e-05
30	0xb8798a9a	-5.949531e-05
31	0xb72296f5	-9.6911e-06
32	0xb8b0dec0	-8.4338244e-05
33	0x37dc5667	2.6266278e-05
34	0x388f639d	6.837326e-05
35	0xb742f02c	-1.16192205e-05
36	0xb8232041	-3.8892267e-05
37	0xb6fe52fb	-7.57945e-06
38	0x380b28da	3.317823e-05
39	0x3753ae81	1.261721e-05
40	0xb83cf2f2	-4.5048953e-05
41	0x376afaac	1.4005851e-05
42	0x3812fc15	3.5043882e-05
43	0xb69ed307	-4.7333338e-06
44	0xb8d7ca2a	-0.00010289655
45	0x37f8824e	2.9624582e-05
46	0x38b65c8c	8.6956745e-05
47	0xb77e9aa1	-1.5175582e-05

exp_avg_sq f4 [12, 4]
0	0x335fe6fa	5.2131305e-08
1	0x32f0d270	2.8035373e-08
2	0x32d98c41	2.5325905e-08
3	0x33631adb	5.287698e-08
4	0x3009258c	4.9893667e-10
5	0x2f56c6a7	1.9533762e-10
6	0x2f3c6ec7	1.7137856e-10
7	0x30137755	5.364787e-10
8	0x31e90475	6.781699e-09
9	0x3141c3c3	2.8196474e-09
10	0x3148de4e	2.9230196e-09
11	0x31e2ed98	6.604477e-09
12	0x3401361d	1.2033748e-07
13	0x338bccec	6.509967e-08
14	0x33829a76	6.081693e-08
15	0x34023bd0	1.2128953e-07
16	0x3318b323	3.555318e-08
17	0x32ef639e	2.7868563e-08
18	0x331ec4c3	3.6966195e-08
19	0x32e52d8b	2.667982e-08
20	0x2f2509e9	1.5010183e-10
21	0x2efb1ed8	1.14196375e-10
22	0x2f1546d8	1.357664e-10
23	0x2f09923a	1.2512028e-10
24	0x31acec3e	5.0327165e-09
25	0x31972c7d	4.399736e-09
26	0x31d6ed08	6.255167e-09
27	0x31539b88	3.079295e-09
28	0x33675afb	5.3866625e-08
29	0x334fb18f	4.8357432e-08
30	0x33892723	6.3866786e-08
31	0x33234d58	3.802174e-08
32	0x33d275bc	9.800303e-08
33	0x340e7824	1.3268487e-07
34	0x33efec66	1.11723054e-07
35	0x3380a2d1	5.9900806e-08
36	0x32720233	1.4086754e-08
37	0x3289471b	1.5981234e-08
38	0x329df910	1.8390466e-08
39	0x32521f30	1.22307e-08
40	0x33522d3e	4.8935583e-08
41	0x338f947f	6.685968e-08
42	0x3344611e	4.5723134e-08
43	0x333270fa	4.1546606e-08
44	0x344131f0	1.7992693e-07
45	0x3483f423	2.4578284e-07
46	0x345cde31	2.056993e-07
47	0x33ef0ef1	1.11320226e-07

exp_avg f4 [4, 4]
0	0xb829ce63	-4.0484952e-05
1	0xb7d603e8	-2.5512607e-05
2	0xb80e6874	-3.3952718e-05
3	0xb849f5c4	-4.815102e-05
4	0xb7bee4d6	-2.2756325e-05
5	0xb7ea7cd3	-2.79531e-05
6	0xb7777068	-1.4748519e-05
7	0xb78f447a	-1.7078815e-05
8	0xb7b20949	-2.1223577e-05
9	0x37d4eb2e	2.5381883e-05
10	0xb7c7c9d7	-2.3816638e-05
11	0xb740a062	-1.1481434e-05
12	0x3901bef2	0.00012373531
13	0x38adce60	8.287723e-05
14	0x3885161d	6.346053e-05
15	0x38f2bb99	0.00011574402

exp_avg_sq f4 [4, 4]
0	0x350ec7bd	5.318978e-07
1	0x3361e2a5	5.2593027e-08
2	0x345825e4	2.0130352e-07
3	0x350ef114	5.3249937e-07
4	0x340ff7da	1.340808e-07
5	0x3365648d	5.3409668e-08
6	0x33fc4caa	1.17486096e-07
7	0x349ff971	2.979755e-07
8	0x3390192f	6.7101034e-08
9	0x32a2b93c	1.8943517e-08
10	0x32fc3c52	2.9364092e-08
11	0x33baea06	8.7038686e-08
12	0x34665274	2.1450415e-07
13	0x333b8e6a	4.3668855e-08
14	0x33efb9b9	1.11630875e-07
15	0x349c1be4	2.9077557e-07

exp_avg f4 [16, 4]
0	0xb5c87cda	-1.4937498e-06
1	0xb810294a	-3.437073e-05
2	0x381f5bbf	3.7994e-05
3	0xb590f4d7	-1.0800094e-06
4	0x374e2765	1.2287729e-05
5	0xb7e866a7	-2.7704356e-05
6	0x379e6890	1.8883758e-05
7	0xb659f8a2	-3.2480243e-06
8	0x375cd501	1.3162616e-05
9	0x37a8e5ce	2.0134172e-05
10	0xb7eab21f	-2.7977918e-05
11	0xb6d33ed1	-6.295603e-06
12	0xb7b94c0f	-2.2089136e-05
13	0xb7d54b21	-2.5426563e-05
14	0x382f8fad	4.185706e-05
15	0x36f0ff21	7.1822583e-06
16	0x36a8a6d2	5.0262106e-06
17	0x3751645b	1.2480737e-05
18	0xb738a763	-1.1006227e-05
19	0xb6e44bbd	-6.8037466e-06
20	0x37486ba7	1.1945994e-05
21	0x37aacb60	2.0360283e-05
22	0xb7602cf3	-1.3361906e-05
23	0xb7a189da	-1.9256888e-05
24	0x3934a55a	0.00017227736
25	0x395fa2e8	0.00021327625
26	0xb999ac25	-0.00029310692
27	0xb8d82bd9	-0.0001030785
28	0xb72ba83c	-1.0231564e-05
29	0xb8126623	-3.4904235e-05
30	0x383c38ca	4.487558e-05
31	0x35e01c7f	1.6697594e-06
32	0x370f38c8	8.536685e-06
33	0x3753c612	1.2622697e-05
34	0xb7886918	-1.6261401e-05
35	0xb6b7b63f	-5.4750412e-06
36	0x3806b770	3.211893e-05
37	0x38186629	3.6334768e-05
38	0xb8799dcd	-5.951319e-05
39	0xb73b7b90	-1.1174838e-05
40	0x381d2702	3.7468046e-05
41	0x381579f5	3.563795e-05
42	0xb888153b	-6.48894e-05
43	0xb733d692	-1.071919e-05
44	0xb57cd0c0	-9.4181087e-07
45	0xb710633a	-8.606172e-06
46	0x36ef8627	7.1383724e-06
47	0x362c9e43	2.5722118e-06
48	0xb65a6e68	-3.2548796e-06
49	0xb78b63e3	-1.6616605e-05
50	0x378698cd	1.6045198e-05
51	0x368ebbec	4.2538068e-06
52	0x360c4f05	2.090762e-06
53	0xb7830e52	-1.5623085e-05
54	0x377552e7	1.462244e-05
55	0xb54b8d94	-7.5829416e-07
56	0x3675266f	3.6530216e-06
57	0x36a8eeca	5.034589e-06
58	0xb6df025a	-6.6461917e-06
59	0xb6189bbf	-2.2740421e-06
60	0xb6454aa8	-2.9398743e-06
61	0xb7b7d82d	-2.1915965e-05
62	0x37d7ff69	2.5748932e-05
63	0xb3f6703d	-1.1475684e-07

exp_avg_sq f4 [16, 4]
0	0x3323c79f	3.813295e-08
1	0x32891323	1.5957601e-08
2	0x3289e73e	1.6054056e-08
3	0x332ccf20	4.023525e-08
4	0x3373e686	5.6787506e-08
5	0x33164f88	3.499693e-08
6	0x32b95263	2.15743e-08
7	0x33a12903	7.504607e-08
8	0x326b7656	1.3705707e-08
9	0x3223029a	9.48844e-09
10	0x32329b15	1.0396225e-08
11	0x3242f3e2	1.1347739e-08
12	0x3282f966	1.5247405e-08
13	0x3216da54	8.780791e-09
14	0x326f3380	1.3923341e-08
15	0x3234663f	1.0500627e-08
16	0x322fd995	1.0235813e-08
17	0x3250dce3	1.2157417e-08
18	0x31dbaf16	6.393644e-09
19	0x325af358	1.27446e-08
20	0x333053fe	4.1054584e-08
21	0x338879d1	6.355152e-08
22	0x32ca2c0b	2.3535923e-08
23	0x338f4d9d	6.673074e-08
24	0x34f44047	4.549531e-07
25	0x346ca384	2.20387e-07
26	0x34dffb9f	4.1720065e-07
27	0x34278456	1.560123e-07
28	0x3313bf80	3.4400273e-08
29	0x3269d7c4	1.3611444e-08
30	0x328b5390	1.621973e-08
31	0x330dce17	3.301656e-08
32	0x32376c10	1.06765725e-08
33	0x322ea211	1.0164983e-08
34	0x320ac7c8	8.078082e-09
35	0x32277951	9.7482635e-09
36	0x330a0212	3.213251e-08
37	0x3284dd1a	1.5467368e-08
38	0x32ca5088	2.3552516e-08
39	0x32be8b65	2.21823e-08
40	0x3344338f	4.56817e-08
41	0x32eefaa7	2.782083e-08
42	0x33228d3b	3.7847013e-08
43	0x33130282	3.4228385e-08
44	0x31992996	4.457614e-09
45	0x319320ee	4.2820067e-09
46	0x3133d87c	2.6170985e-09
47	0x31d769ec	6.2693655e-09
48	0x3238b986	1.0752393e-08
49	0x321efb14	9.253899e-09
50	0x31ce0b0c	5.996645e-09
51	0x32666581	1.3410841e-08
52	0x324bfa35	1.1873046e-08
53	0x31d3c481	6.163248e-09
54	0x31997cd7	4.4670787e-09
55	0x3276e0a6	1.4370164e-08
56	0x2ffb24dd	4.5682827e-10
57	0x2f9d0903	2.8564537e-10
58	0x30017e76	4.710964e-10
59	0x30263d23	6.047733e-10
60	0x3292f8b6	1.7109738e-08
61	0x31f5b5ad	7.1510926e-09
62	0x31f714c7	7.1910082e-09
63	0x32988022	1.7753397e-08

exp_avg f4 [4, 16]
0	0xb78a6285	-1.6496759e-05
1	0xb7f4b743	-2.9172405e-05
2	0x37b71793	2.1826278e-05
3	0x37a612e0	1.9797531e-05
4	0x3827d415	4.001342e-05
5	0x38897fbe	6.556463e-05
6	0xb99003ae	-0.00027468562
7	0x365d28aa	3.2955236e-06
8	0x3850a1fc	4.9741924e-05
9	0xb7a54a28	-1.9704064e-05
10	0xb6d17f61	-6.2435142e-06
11	0xb80d6216	-3.370837e-05
12	0xb815febe	-3.5761615e-05
13	0xb8117fdd	-3.4689776e-05
14	0x36afc6b9	5.238541e-06
15	0xb708a818	-8.145369e-06
16	0xb6e0c9b6	-6.6992025e-06
17	0xb77f1f76	-1.52065095e-05
18	0x35ce7650	1.538263e-06
19	0x35481193	7.453138e-07
20	0xb5f2f5c3	-1.8101931e-06
21	0xb73a869f	-1.1117808e-05
22	0xb89ca772	-7.469849e-05
23	0xb6b2ae79	-5.3251247e-06
24	0xb5acd506	-1.2876997e-06
25	0xb68e3abe	-4.2387683e-06
26	0xb7915a01	-1.7327258e-05
27	0xb56ef3eb	-8.9016856e-07
28	0xb50c3e32	-5.224457e-07
29	0xb6cc0b1f	-6.0809684e-06
30	0xb50e0904	-5.291224e-07
31	0xb6e6d6a4	-6.8795216e-06
32	0x36baabba	5.5632236e-06
33	0x379e6970	1.8884166e-05
34	0xb71082ac	-8.613493e-06
35	0xb7950a49	-1.7766974e-05
36	0xb794a9e5	-1.7722088e-05
37	0xb7f4744a	-2.9141218e-05
38	0x390836e8	0.00012990425
39	0xb6db9e9e	-6.545174e-06
40	0xb7b80a88	-2.1939413e-05
41	0x37698c31	1.3920523e-05
42	0x379dfdfc	1.883413e-05
43	0x3761619d	1.3433772e-05
44	0x373fd029	1.1432953e-05
45	0x3784c1ee	1.5825932e-05
46	0xb5fe8432	-1.8962949e-06
47	0x3605c4c4	1.9933077e-06
48	0x383b171a	4.460579e-05
49	0x3880ace4	6.135719e-05
50	0xb7ebe6d0	-2.8121663e-05
51	0xb5150475	-5.551331e-07
52	0xb80f1031	-3.4108936e-05
53	0xb83cf4c5	-4.5050652e-05
54	0x397cdf36	0.00024115745
55	0x37da3179	2.6010663e-05
56	0xb839e991	-4.4324963e-05
57	0x369a9cde	4.6078194e-06
58	0x370411f8	7.871997e-06
59	0x3825dd99	3.9545444e-05
60	0x385def4b	5.2913365e-05
61	0x386c0e1a	5.6279918e-05
62	0xb6897143	-4.0961036e-06
63	0x38157a80	3.5638455e-05

exp_avg_sq f4 [4, 16]
0	0x33b439b3	8.3923986e-08
1	0x340d2bb1	1.3147543e-07
2	0x335a4d99	5.0827655e-08
3	0x32ce564f	2.4020805e-08
4	0x33062f8d	3.1242553e-08
5	0x340debba	1.3217405e-07
6	0x3502be16	4.8705385e-07
7	0x338f897c	6.683965e-08
8	0x33d62a4d	9.972846e-08
9	0x331cf0d3	3.654061e-08
10	0x331a84bf	3.597665e-08
11	0x32ca50a5	2.3552568e-08
12	0x3373ef41	5.6795447e-08
13	0x33a3758b	7.61166e-08
14	0x3001142f	4.695861e-10
15	0x339d9edc	7.3397786e-08
16	0x332f8554	4.0866624e-08
17	0x33ea2bb1	1.09044215e-07
18	0x3258997d	1.2607754e-08
19	0x32b7f36a	2.1414696e-08
20	0x31eaa3ef	6.8289334e-09
21	0x3314c907	3.464177e-08
22	0x3480f7f2	2.4022262e-07
23	0x330d81b7	3.2947096e-08
24	0x3283bcc8	1.5336255e-08
25	0x32d2179e	2.4457957e-08
26	0x33d21728	9.783099e-08
27	0x3207455d	7.873806e-09
28	0x32a71bc9	1.9453994e-08
29	0x3310fdf6	3.375859e-08
30	0x30ee9823	1.7360019e-09
31	0x332904f7	3.9352894e-08
32	0x3309f045	3.2116322e-08
33	0x338b326c	6.4818636e-08
34	0x32867df4	1.565693e-08
35	0x324074d7	1.1202437e-08
36	0x32537b6b	1.23098784e-08
37	0x336bfed9	5.4946984e-08
38	0x345334e9	1.9670155e-07
39	0x32d7c3e6	2.5118378e-08
40	0x330e3d90	3.3117942e-08
41	0x325baba8	1.2786508e-08
42	0x3333ee44	4.1893387e-08
43	0x3222d6e8	9.478505e-09
44	0x32ab8ec4	1.9971942e-08
45	0x32fdc485	2.9542443e-08
46	0x3082070e	9.46075e-10
47	0x32f8727c	2.8923061e-08
48	0x3468ec67	2.1692686e-07
49	0x34e0fc9a	4.1907043e-07
50	0x3339260c	4.3108273e-08
51	0x331127ae	3.3796532e-08
52	0x32d9fb2b	2.5376343e-08
53	0x33beef0f	8.891049e-08
54	0x3505e3a2	4.987761e-07
55	0x341b8466	1.4483666e-07
56	0x33879629	6.313741e-08
57	0x332c6779	4.014098e-08
58	0x33bc1645	8.758483e-08
59	0x3326c0ac	3.882512e-08
60	0x33faa1c0	1.1670954e-07
61	0x34595f52	2.0244377e-07
62	0x3089b739	1.0020137e-09
63	0x344803f4	1.862789e-07
