out-tss50/ckpt_iter_1750.pt (torch, 48135 bytes, 64 tensors)

transformer.wte.weight f4 [5, 4]
0	0xbe9d0198	-0.30665278
1	0xbe944853	-0.2896143
2	0x3ec86986	0.39143008
3	0x3e30a2ad	0.17249556
4	0x3e3945f3	0.1809309
5	0x3e505c5d	0.20347734
6	0xbe00e9ce	-0.1258919
7	0xbe551994	-0.20810539
8	0x3df97d9a	0.1218216
9	0x3dcdf1f9	0.10055918
10	0xbe1f645c	-0.15565628
11	0xbd9a6bd9	-0.075401016
12	0x3df7be54	0.12096849
13	0x3ddd6c0a	0.108116224
14	0xbe278048	-0.16357529
15	0xbda13a84	-0.07872489
16	0x3e3c7614	0.18404418
17	0x3e4006d0	0.18752599
18	0xbe3dd025	-0.18536432
19	0xbe3d312b	-0.18475787

transformer.wpe.weight f4 [256, 4]
0	0x3d6b52f2	0.05745215
1	0x3dadbfb4	0.0848383
2	0x3d4b2f3f	0.049605604
3	0xbdd85839	-0.10563702
4	0x3dcac952	0.0990168
5	0x3e0619f1	0.13095833
6	0xbdb623d2	-0.08893551
7	0xbdbced02	-0.09224893
8	0x3d7b582a	0.061363377
9	0x3d98c83b	0.07460066
10	0xbd725123	-0.05915941
11	0xbd869025	-0.06570462
12	0x3d5f4ecd	0.05451851
13	0x3d57633e	0.05258488
14	0xbd4ef4c5	-0.0505264
15	0xbd163c60	-0.03667867
16	0x3d2563ae	0.040378265
17	0x3d446040	0.047943354
18	0xbd20f074	-0.039291814
19	0xbd5b3b2e	-0.053523235
20	0x3c28fdb6	0.010314396
21	0x3c25d750	0.010122135
22	0xbcced1ac	-0.025246464
23	0xbd6e5b02	-0.05819226
24	0x3d9b5f11	0.07586492
25	0x3b975555	0.0046183267
26	0xbd8fed50	-0.07027686
27	0xbce1f0ae	-0.027580585
28	0x3d63cb05	0.055613536
29	0x3d75fcfa	0.06005571
30	0x3c9a457b	0.018831959
31	0xbd470b82	-0.04859496
32	0x3cecb76b	0.028896054
33	0xbc26b994	-0.010176081
34	0xbd1a043a	-0.037601687
35	0x3ca9c387	0.020723118
36	0x395ca5c2	0.00021042585
37	0xbd001dad	-0.0312783
38	0xb9a175bf	-0.0003079604
39	0xbc52e2b2	-0.012871431
40	0xbbd6aa19	-0.006551039
41	0x3cc5c34d	0.024140978
42	0xbc57d947	-0.013174362
43	0xbd3651d5	-0.044511635
44	0x3c64c67a	0.013963336
45	0xbc73ca0b	-0.014879714
46	0xbd153a68	-0.036432654
47	0x3c2da4f3	0.010598409
48	0x3cf6e398	0.030137822
49	0x3c180386	0.009278184
50	0x3ccb488d	0.024814868
51	0xbc46417a	-0.012100572
52	0x3c9b683b	0.0189706
53	0x3cd54982	0.026036028
54	0xbce68a25	-0.028142044
55	0xbd359c74	-0.04433866
56	0x3ce05f93	0.027389323
57	0x3d174ae9	0.036936674
58	0x3c946549	0.018114703
59	0xbd18705b	-0.037216526
60	0x3ccc449e	0.024935063
61	0x3d532097	0.051544752
62	0x3d072caa	0.03300158
63	0xbd64df9a	-0.055877306
64	0x3ce332b8	0.027734146
65	0x3cc897cd	0.024486447
66	0xbc2a095d	-0.010378209
67	0xbd014e06	-0.03156855
68	0x3ccf59e2	0.025311414
69	0x3c0f5b69	0.008749821
70	0xbd81027c	-0.06299302
71	0xbbea4f1c	-0.007150544
72	0x3cb6bab0	0.022305816
73	0x3ce4e9ee	0.027943578
74	0xbbf8e9ba	-0.0075962218
75	0xbd4bb1b2	-0.04973001
76	0x3cb8bc93	0.022550857
77	0x3ca7c014	0.020477332
78	0xbda72cd3	-0.081628464
79	0xbc038717	-0.008027813
80	0x3cab6f78	0.020927176
81	0x3c438f83	0.011936071
82	0xbb7624f2	-0.0037558642
83	0xbcb5c74f	-0.022189764
84	0x3b743415	0.0037262489
85	0x3c804539	0.015658008
86	0xbc1082ee	-0.008820279
87	0x3b883cb1	0.0041576256
88	0x3cf9b54c	0.030481957
89	0x3d001466	0.031269453
90	0xbc88c0f6	-0.016693573
91	0xbbbad547	-0.005701694
92	0x3a71f13b	0.00092293666
93	0x3d14fca2	0.036373742
94	0xbccb32c3	-0.024804479
95	0xbcaaf365	-0.020868013
96	0xbbc7f5dd	-0.0061023072
97	0x3cdbbc5a	0.026823211
98	0xbd14d16b	-0.03633253
99	0x3aacdbf5	0.0013188111
100	0x3d0820dd	0.033234466
101	0xbc1a8b92	-0.00943269
102	0xbc2d8c7f	-0.010592579
103	0xbc26a1d5	-0.01017042
104	0x3c048e52	0.008090572
105	0xbd04966a	-0.03237001
106	0xbd17f65d	-0.037100185
107	0x3c966dcf	0.018362908
108	0x3c34dd7c	0.011039134
109	0xbd242a75	-0.040079553
110	0xbd8ea66a	-0.06965335
111	0x3d037d82	0.032102115
112	0x3cd0678d	0.025440002
113	0xbc2daf60	-0.010600895
114	0xbb835d76	-0.004008944
115	0xbbe012b9	-0.0068381694
116	0x3d83c799	0.064345546
117	0xbbdd0cc0	-0.0067459047
118	0xbd70d035	-0.05879231
119	0x3cbee5fc	0.023303024
120	0x3cc8cb0e	0.024510887
121	0xbbce0c4c	-0.006288087
122	0xbd6021d6	-0.05471977
123	0x3bd89df5	0.006610627
124	0x3d23d15b	0.03999458
125	0x3a368b11	0.00069634715
126	0x3aa0dd36	0.0012272957
127	0xbd73a2ac	-0.059481308
128	0x3d0d0a2c	0.03443353
129	0x3bb0985e	0.0053892573
130	0xbc0f068a	-0.008729586
131	0x3c8f2106	0.017471801
132	0x3d13855c	0.036015853
133	0x3c9dc39a	0.01925831
134	0x3a4108f6	0.0007363701
135	0xbd165b8c	-0.0367084
136	0x3bcd4d52	0.006265321
137	0x3a06d140	0.0005142875
138	0xbd145062	-0.03620947
139	0xbc7517e0	-0.0149593055
140	0x39df85de	0.00042633613
141	0x3c43fcf8	0.011962168
142	0xbc81cd61	-0.015845003
143	0x3b80f876	0.003935869
144	0xbcc8f631	-0.024531456
145	0x3d0384f5	0.03210922
146	0x3cca7553	0.024714148
147	0xbc4a5754	-0.012349922
148	0x3c51a5f1	0.012795911
149	0x3ce34160	0.027741134
150	0xbc8f41a8	-0.017487362
151	0x3c74ee52	0.014949398
152	0x3cf2fb14	0.029660739
153	0x3d2c2562	0.04202784
154	0xbcd4a836	-0.025959115
155	0x3c73c20f	0.01487781
156	0x3c99b0e5	0.018761108
157	0x3c1d8a38	0.009615473
158	0xbc8205f6	-0.015871983
159	0x3b41686a	0.0029511699
160	0x3d2a06bd	0.041510332
161	0x3d712188	0.05886987
162	0x3c447bff	0.011992454
163	0xbc42b9d5	-0.011885126
164	0x3be9e8fb	0.007138369
165	0xba9658ab	-0.0011470517
166	0x3d2eb41b	0.04265223
167	0xbd2420ce	-0.040070347
168	0x3d1e34e6	0.038624667
169	0x3cb88881	0.022526028
170	0xbcabaa59	-0.020955252
171	0xbce5890f	-0.028019456
172	0x3cdef18b	0.027214786
173	0x3d3efb23	0.04662622
174	0xbc4448d6	-0.011980256
175	0xbc4569d9	-0.012049162
176	0xbbbdde57	-0.0057943272
177	0xbceb8572	-0.028750155
178	0xbc45f019	-0.0120811695
179	0xbc3a650e	-0.011376632
180	0x3c83cc7a	0.016088713
181	0xbbdbc05c	-0.0067062806
182	0xbc9c0206	-0.019043934
183	0xbd54d1d2	-0.051957913
184	0x3cd9c01c	0.026580863
185	0x3d0eb103	0.03483678
186	0xbc12f24c	-0.008968901
187	0xbce253a1	-0.027627768
188	0x3d11d9f0	0.035608232
189	0x389ddc16	7.5273376e-05
190	0x3c9ee110	0.019394428
191	0x3befb6e9	0.0073155058
192	0x3c20d8b1	0.009817288
193	0x3c204d7e	0.009784101
194	0xbc92a1c2	-0.017899398
195	0xbc8dd209	-0.017312067
196	0x3d1d64b9	0.038426135
197	0x3d48b10a	0.048996963
198	0x3cc3d64d	0.023905898
199	0xbcbe897c	-0.023258917
200	0x3c5f6384	0.013634566
201	0xbc3ef406	-0.011654859
202	0xbbd65c60	-0.0065417737
203	0x3c57be4b	0.013167928
204	0x3bc03a2d	0.00586631
205	0x3d4ccc6b	0.049999636
206	0x3c33ffd4	0.010986287
207	0xbc8b8ef0	-0.017035931
208	0x3d2e1450	0.04249984
209	0x3c81f76e	0.015865054
210	0xbbf3b0f9	-0.0074368683
211	0xbd233270	-0.039843023
212	0x3c9faf6a	0.019492824
213	0x3c068927	0.008211411
214	0xbd8fd138	-0.07022327
215	0x3d96f636	0.0737118
216	0x3c280489	0.0102549875
217	0xbc3400e4	-0.0109865405
218	0xbcdce9be	-0.026966926
219	0xbba4d80f	-0.005030639
220	0x3ccfd21e	0.025368746
221	0x394e3a52	0.00019667417
222	0xbd337ff7	-0.04382321
223	0x3acbfb0a	0.0015562486
224	0x3d364f88	0.04450944
225	0xbd088584	-0.033330455
226	0xbd1db11f	-0.038498994
227	0x3d3f60e7	0.046723273
228	0x3d35cf00	0.044386864
229	0x3bc9a1e4	0.006153332
230	0xbd01ffc4	-0.031738058
231	0xbc8a13cd	-0.016855145
232	0xbc515a00	-0.012777805
233	0x3d0891e7	0.03334227
234	0x3cbf7ba9	0.023374395
235	0xbcdda4d9	-0.027056145
236	0x3da4f0e2	0.08053757
237	0x3c112bd9	0.008860552
238	0xbd12a269	-0.035799418
239	0x3c31ed29	0.010859766
240	0xbbed9ab5	-0.0072511085
241	0x3c9f9f5e	0.019485172
242	0xbd38d0b9	-0.04512093
243	0x3bf11e64	0.007358359
244	0x3d8bd2d7	0.06827324
245	0x3c336206	0.010948664
246	0x3c6d7dc5	0.014495318
247	0xbd5e8bfa	-0.05433271
248	0x3c317ff1	0.010833726
249	0x3bc9fff7	0.0061645466
250	0x3d3bb09b	0.04582272
251	0xbcdcdfdb	-0.026962211
252	0x3b89c668	0.00420456
253	0x3d002f94	0.031295374
254	0xbc29f914	-0.010374326
255	0xbd053a37	-0.03252622

transformer.h.0.ln_1.weight f4 [4]
0	0x3f969b18	1.1766081
1	0x3f9231f4	1.1421494
2	0x3f9432c9	1.1577998
3	0x3f909efc	1.1298518

transformer.h.0.attn.c_attn.weight f4 [12, 4]
0	0xbdc6cc82	-0.097069755
1	0xbe05b78a	-0.13058296
2	0x3dc5b1da	0.09653063
3	0x3dd0778f	0.10179054
4	0xbced472a	-0.028964598
5	0xbd5382e6	-0.051638506
6	0x3d3b0974	0.045663312
7	0x3c7af3b4	0.015316892
8	0x3d8788c7	0.06617885
9	0x3dca069a	0.098645404
10	0xbe07267b	-0.13198273
11	0xbc2141dc	-0.009842362
12	0x3dc2912a	0.09500344
13	0x3e188f3e	0.14898393
14	0xbe169703	-0.14706044
15	0xbd932223	-0.071842454
16	0x3db709d7	0.08937424
17	0x3deaa0da	0.11456461
18	0xbe031ff2	-0.12805155
19	0xbdb28911	-0.087175496
20	0x3df990a0	0.12185788
21	0x3bf2b4ce	0.0074068075
22	0xbd1d3c7d	-0.038387764
23	0xbd93d304	-0.072179824
24	0xbde6ac92	-0.11263384
25	0xbcb57109	-0.022148626
26	0x3d029923	0.031884324
27	0x3e0f8e18	0.14019048
28	0xbdefb506	-0.11704449
29	0xbe31d146	-0.17364988
30	0x3e0e6a0e	0.13907644
31	0x3df24e85	0.11831383
32	0x3dbf6365	0.0934513
33	0x3da8bf44	0.08239606
34	0xbe18c77d	-0.14919849
35	0xbdadd01e	-0.08486961
36	0x3cb5d8d4	0.022198118
37	0x3c754408	0.014969833
38	0xbd7809fc	-0.060556397
39	0xbd69aebc	-0.057051405
40	0x3ddd9e24	0.108211786
41	0x3da8e714	0.082472
42	0xbd96d38a	-0.073645666
43	0xbdc5967f	-0.096478455
44	0x3db65768	0.0890339
45	0x3dc6d7b1	0.097091086
46	0xbdfc80e6	-0.12329273
47	0xbde57219	-0.11203403

transformer.h.0.attn.c_proj.weight f4 [4, 4]
0	0x3dbc74b8	0.0920195
1	0x3d71e137	0.059052672
2	0x3dc6e930	0.09712446
3	0x3de8e469	0.11371691
4	0x3da638d0	0.08116305
5	0x3cf26b0a	0.029592056
6	0x3da1b205	0.07895283
7	0x3df0d671	0.117596515
8	0xbe0ea05d	-0.13928361
9	0xbd4b64c4	-0.049656644
10	0xbdc66d90	-0.09688866
11	0xbe194df2	-0.1497114
12	0xbd4429f5	-0.047891576
13	0xbc649bf6	-0.0139532
14	0xbd0478ce	-0.03234177
15	0xbda4241d	-0.080147006

transformer.h.0.ln_2.weight f4 [4]
0	0x3fa7bf07	1.3105172
1	0x3faa1330	1.3287106
2	0x3fa9e0de	1.3271749
3	0x3fa392d9	1.2779189

transformer.h.0.mlp.c_fc.weight f4 [16, 4]
0	0x3e1c8763	0.15286021
1	0xbd51febc	-0.051268324
2	0xbd14a456	-0.036289535
3	0xbdc43472	-0.09580316
4	0x3e0d9994	0.13828117
5	0x3cc369fa	0.023854245
6	0x3d5ec748	0.05438927
7	0xbe129e0a	-0.143181
8	0xbdea49a5	-0.11439828
9	0x3da86846	0.082230136
10	0x3c80a543	0.015703803
11	0x3daf7a45	0.08568243
12	0x3db36863	0.087601446
13	0xbe22168f	-0.15828918
14	0xbcd9f996	-0.02660827
15	0x3d2aecff	0.041729923
16	0xbc505a90	-0.012716904
17	0x3db3cca7	0.08779269
18	0xbdab6517	-0.08368891
19	0x3cee1d53	0.029066717
20	0xbd68895b	-0.056771617
21	0x3e109a26	0.14121303
22	0xbe0118bb	-0.1260709
23	0x3d46d139	0.048539374
24	0xbe91712a	-0.2840665
25	0xbea0c7e2	-0.31402498
26	0x3e8dfd54	0.27732337
27	0x3e71d0c1	0.2361479
28	0x3e1cbe97	0.1530708
29	0xbdbb8cb3	-0.091576956
30	0xbcf48111	-0.0298467
31	0xbd586677	-0.052832093
32	0xbdc7aa7b	-0.097493134
33	0x3dd0eee8	0.10201818
34	0xbdbd3777	-0.09239095
35	0x3d5f06ee	0.054449968
36	0xbe4ecb00	-0.20194626
37	0x3ca11b70	0.019666404
38	0x3def83b4	0.11695042
39	0x3db0be64	0.08630064
40	0xbdcf1be2	-0.1011274
41	0x3e40fde7	0.18846856
42	0x3d8862e7	0.06659489
43	0xbd95e3b2	-0.0731882
44	0x3c2f071f	0.01068285
45	0xbdf8cb24	-0.12148121
46	0x3e0769a2	0.1322389
47	0x37ccc840	2.4411944e-05
48	0x3da23d83	0.07921889
49	0xbe261a41	-0.16220953
50	0x3dbadf7a	0.09124656
51	0xbd6941c0	-0.05694747
52	0x3de67a45	0.1125379
53	0xbd22981c	-0.039695844
54	0x3dd82de0	0.10555625
55	0xbdbf1de5	-0.09331874
56	0xbd03af13	-0.032149386
57	0x3cb574b8	0.022150382
58	0x3d702e0a	0.058637656
59	0xbb8f3466	-0.00437026
60	0x3e227b16	0.15867266
61	0xbd2586e5	-0.04041185
62	0xbca43595	-0.020045081
63	0xbd943c79	-0.07238097

transformer.h.0.mlp.c_proj.weight f4 [4, 16]
0	0xbe0fb71b	-0.14034693
1	0xbd87c34a	-0.06629045
2	0x3e045634	0.12923509
3	0xbdcd4799	-0.10023422
4	0x3c6328ee	0.013864739
5	0x3d28c5ea	0.04120437
6	0x3e769efc	0.24084085
7	0xbe1531bd	-0.14569755
8	0x3d621d3c	0.05520366
9	0x3e4111cb	0.18854444
10	0x3e15a67e	0.14614293
11	0x3cb23210	0.021752387
12	0xbd1ad3d3	-0.037799668
13	0xbd43a03d	-0.047760237
14	0x3d98a387	0.07453065
15	0xbdeb24dd	-0.114816405
16	0x3d571bdf	0.052516814
17	0x3db8d981	0.090258606
18	0xbc16e109	-0.009208926
19	0x3d80f8fa	0.062974885
20	0xbde3c6cb	-0.11121901
21	0xbe2d7857	-0.16940437
22	0x3e6001ff	0.21875761
23	0x3d8e3a57	0.06944721
24	0xbda7803a	-0.08178754
25	0x3d657efc	0.056029305
26	0xbd4a36cc	-0.049368665
27	0x3dd7648f	0.10517227
28	0x3de6ba90	0.11266053
29	0x3d89b753	0.067244194
30	0x3ce58380	0.028016806
31	0x3d05d906	0.032677673
32	0xbdb10ae3	-0.086446546
33	0xbe01b49b	-0.12666552
34	0x3cf3501f	0.02970129
35	0x3d0324b7	0.032017436
36	0xbb2b61b3	-0.0026150763
37	0x3d105df9	0.03524587
38	0xbe1f395c	-0.15549225
39	0xbccf9bbc	-0.025342815
40	0xbc2790ac	-0.010227364
41	0xbca13e9f	-0.01968318
42	0xbda3fc16	-0.08007066
43	0xbc3ac1d2	-0.011398749
44	0xbc16e5ff	-0.009210109
45	0xbc7d8761	-0.015474171
46	0x3d47ae02	0.04874993
47	0xbd4ee4f0	-0.0505113
48	0x3d1f66cf	0.038916405
49	0x3d87316f	0.066012256
50	0xbd39c1eb	-0.04535095
51	0xbccef4de	-0.025263246
52	0x3cd4efaa	0.025993187
53	0x3c1eca95	0.009691854
54	0xbe5b89c5	-0.21439274
55	0x3cef7e9e	0.02923518
56	0xbb763381	-0.003756732
57	0xbd9d9bca	-0.0769573
58	0xbd11d7a8	-0.035606056
59	0xbd873619	-0.06602115
60	0xbd928324	-0.07153919
61	0xbcb6c2a9	-0.022309618
62	0xbd0d2683	-0.034460556
63	0x3cb52554	0.022112526

transformer.h.1.ln_1.weight f4 [4]
0	0x3f93048f	1.1485766
1	0x3f8fd56d	1.1237007
2	0x3f93532b	1.1509756
3	0x3f8eadbc	1.114677

transformer.h.1.attn.c_attn.weight f4 [12, 4]
0	0xbdb18400	-0.08667755
1	0xbdb4025f	-0.08789515
2	0x3dfd07d7	0.12355011
3	0x3d6f29aa	0.058389343
4	0xbde8397d	-0.1133909
5	0xbdbdb36a	-0.09262736
6	0x3dc0b1fa	0.09408946
7	0x3dedb6f8	0.11607164
8	0xbe002976	-0.12515816
9	0xbdc79c3d	-0.09746597
10	0x3df94771	0.121718295
11	0x3e1478c6	0.14499196
12	0xbdf3c070	-0.11901939
13	0xbddd9864	-0.10820082
14	0x3ddfb011	0.10922254
15	0x3e1172ac	0.142039
16	0x3e047652	0.1293576
17	0x3da9e495	0.08295552
18	0xbd9f754e	-0.07786046
19	0xbe1da36d	-0.15394373
20	0x3dc873c1	0.09787703
21	0x3da87df8	0.08227152
22	0xbdf1d5e7	-0.11808377
23	0xbddf9ba3	-0.10918357
24	0x3dfbc31a	0.12293072
25	0x3dd4a43e	0.10382889
26	0xbe005b74	-0.12534887
27	0xbe157fa2	-0.1459947
28	0x3e027935	0.1274155
29	0x3dd41e5e	0.103573546
30	0xbe05fc81	-0.13084604
31	0xbdd34f5d	-0.10317872
32	0xbdc83622	-0.0977595
33	0xbd7c3c61	-0.06158102
34	0x3dc1e50f	0.094675176
35	0x3d97e9d2	0.074176446
36	0x3db4900a	0.08816536
37	0x3d69224b	0.05691747
38	0xbda4bf57	-0.08044308
39	0xbd08b1cd	-0.03337269
40	0x3dccde6f	0.10003363
41	0x3dd45e93	0.10369601
42	0xbe00c18b	-0.12573831
43	0xbdbedba5	-0.093192376
44	0xbd89ad19	-0.06722469
45	0xbdcfa6c9	-0.101392336
46	0x3e0cc6f2	0.13747767
47	0x3dddc266	0.10828094

transformer.h.1.attn.c_proj.weight f4 [4, 4]
0	0xbdc7edbf	-0.09762143
1	0x3dc5ffa1	0.09667898
2	0x3dbe438f	0.092902295
3	0xbd8b1df9	-0.06792826
4	0xbd995f82	-0.0748892
5	0x3da3dcc6	0.080010936
6	0x3d94dd37	0.07268756
7	0xbd848979	-0.06471533
8	0x3e15a902	0.14615253
9	0xbe00f757	-0.12594353
10	0xbe11275d	-0.14175172
11	0x3e06284b	0.13101308
12	0x3d51e849	0.051246915
13	0xbd143780	-0.03618574
14	0xbd35fd3a	-0.04443095
15	0x3d05b14e	0.032639794

transformer.h.1.ln_2.weight f4 [4]
0	0x3f92bbb9	1.1463538
1	0x3f9c65c7	1.221856
2	0x3f930ff2	1.1489241
3	0x3f93c6b4	1.1545014

transformer.h.1.mlp.c_fc.weight f4 [16, 4]
0	0x3de66318	0.112493694
1	0xbe026e3f	-0.12737368
2	0xbd9ca1e8	-0.07648069
3	0x3dbe9e76	0.09307568
4	0x3e1d94f7	0.15388857
5	0xbd10b78c	-0.035331294
6	0xbc6a02d2	-0.014282899
7	0xbdaa57e1	-0.08317543
8	0x3c222f65	0.009898995
9	0x3e096da5	0.13420732
10	0x3cd7a5c8	0.026324168
11	0xbddb7f55	-0.10717646
12	0xbcf91f74	-0.030410506
13	0x3e43ca03	0.1912003
14	0x3d251c7c	0.040310368
15	0xbe005157	-0.12531029
16	0x3e064239	0.131112
17	0xbe1ce1f0	-0.15320563
18	0xbd8c4f1a	-0.06851025
19	0xbc1668c8	-0.009180255
20	0xbe169d51	-0.14708449
21	0x3e2e3c9f	0.17015313
22	0xbd1f9f1e	-0.038970105
23	0x3ca7b33b	0.020471206
24	0xbe23b59d	-0.15987249
25	0x3e0decc7	0.13859855
26	0xbd4b5160	-0.049638152
27	0x3d73a102	0.05947972
28	0x3db944b1	0.09046305
29	0x3d1f06df	0.038824912
30	0x3d40d2ff	0.04707622
31	0xbdd15f90	-0.10223305
32	0x3d9d2fb9	0.07675118
33	0xbdde497b	-0.10853859
34	0xbdb950f5	-0.090486445
35	0x3e06a3a1	0.13148357
36	0x3e23eeba	0.16009036
37	0xbd2d17e4	-0.042259112
38	0xbb955c54	-0.0045581255
39	0xbdcbb527	-0.099466614
40	0x3de66910	0.11250508
41	0xbd20985b	-0.039207797
42	0x3bc13622	0.0058963457
43	0xbd59acda	-0.05314336
44	0x3cd7e2c2	0.026353244
45	0x3d886ced	0.06661401
46	0x3d460fda	0.04835496
47	0xbdc5180d	-0.09623728
48	0x3ce1e976	0.027577143
49	0xbddc4908	-0.10756117
50	0xbc890157	-0.016724272
51	0x3d38e3f3	0.045139264
52	0x3d8a89b2	0.067645445
53	0xbddf1bab	-0.10893949
54	0x3daf8ff1	0.085723765
55	0xbda732bf	-0.08163976
56	0xbd19e7bf	-0.037574526
57	0x3c7c2f3c	0.015392121
58	0xbc5bd6c5	-0.013417904
59	0x3d174dfd	0.03693961
60	0xbdcc5786	-0.09977631
61	0x3e0b3597	0.13594662
62	0xbd17ff65	-0.037108798
63	0xbcea45d6	-0.028597753

transformer.h.1.mlp.c_proj.weight f4 [4, 16]
0	0xbda137be	-0.0787196
1	0xbdb86e3d	-0.09005401
2	0x3d97a787	0.07405
3	0x3de5273a	0.111891225
4	0xbdc76341	-0.09735728
5	0x3e03e903	0.12881856
6	0x3e16874f	0.14700054
7	0xbc254d17	-0.01008918
8	0xbd060064	-0.032715216
9	0xbde08557	-0.109629326
10	0xbd7dce95	-0.06196459
11	0x3cc041d0	0.023468882
12	0xbd0ab7b3	-0.033866595
13	0xbba82f63	-0.005132602
14	0x3cc1d6ef	0.023662059
15	0x3e099cb2	0.13438681
16	0x3def10fe	0.11673163
17	0x3d48fab0	0.0490672
18	0xbcbbdf89	-0.022933738
19	0xbcb8f1a8	-0.022576168
20	0x3dc256ac	0.094891876
21	0xbd42520e	-0.047441535
22	0xbd6e708c	-0.0582128
23	0x3d76fc84	0.06029941
24	0x3d934d35	0.071924604
25	0x3d7f8343	0.06238104
26	0x3d8a3383	0.06748106
27	0x3d18d46c	0.037311956
28	0x3d8d3881	0.06895543
29	0x3de641bf	0.11243009
30	0xbd2c612f	-0.04208487
31	0xbdc5123e	-0.0962262
32	0x3c43d6d4	0.0119530745
33	0xbd8da394	-0.06915966
34	0xbe0e4638	-0.13893974
35	0xbdea09cb	-0.11427649
36	0xbd7b9e16	-0.06143006
37	0xbc5d506d	-0.0135079445
38	0xbbdbb685	-0.0067051076
39	0xbe053ea3	-0.13012175
40	0xbb58226e	-0.0032979506
41	0xbdc68007	-0.09692388
42	0xbd15ead6	-0.03660091
43	0xbd383491	-0.044972006
44	0x3c639977	0.013891569
45	0xbd22c4cd	-0.039738465
46	0xbc935361	-0.017984094
47	0xbd2f21c1	-0.0427568
48	0xbd5da63e	-0.05411362
49	0x3cdb93cf	0.026803879
50	0x3d3a4255	0.045473415
51	0x3cd4df08	0.025985256
52	0xbc9d25dc	-0.019183092
53	0xbc2af40c	-0.010434162
54	0xbcae52b7	-0.021279676
55	0x3d871858	0.0659644
56	0xbd62eb7d	-0.05540036
57	0x3d1c64aa	0.03818194
58	0x3bc62ae0	0.0060475916
59	0x3bdd2f82	0.006750048
60	0xbd33c317	-0.043887224
61	0xbce10d13	-0.027472055
62	0xbc285555	-0.010274251
63	0xbb8713b9	-0.004122224

transformer.h.2.ln_1.weight f4 [4]
0	0x3f913609	1.1344615
1	0x3f918929	1.1369983
2	0x3f937679	1.152053
3	0x3f89de29	1.0770923

transformer.h.2.attn.c_attn.weight f4 [12, 4]
0	0x3d539f43	0.051665556
1	0xbcf40286	-0.02978636
2	0x3d014d23	0.031567704
3	0xbdaa580a	-0.08317573
4	0xbdc41d43	-0.09575894
5	0xbdb3ba80	-0.087758064
6	0x3dc9be62	0.09850766
7	0x3d4b4ccf	0.049633797
8	0xbdb2198d	-0.0869628
9	0xbd7f2fb2	-0.062301345
10	0x3dbe865c	0.09302971
11	0x3cf064b5	0.029344896
12	0x3ddba37f	0.10724544
13	0x3da14e65	0.07876281
14	0xbe148f7b	-0.14507858
15	0xbd633b87	-0.05547669
16	0xbbed64e0	-0.0072446913
17	0xbd15b304	-0.036547676
18	0x3c44e5bb	0.012017663
19	0x3d3bee11	0.045881335
20	0x3ddff5ae	0.109355316
21	0x3d9bcc59	0.076073356
22	0xbde64c6d	-0.11245046
23	0xbdbe8e64	-0.093045026
24	0x3d6c07b7	0.057624545
25	0x3d414037	0.04718038
26	0xbd9ae0ac	-0.07562384
27	0xbdcc3125	-0.09970311
28	0xbe15a4fd	-0.1461372
29	0xbd85e102	-0.065370575
30	0x3d8c74e8	0.068582356
31	0x3e161c15	0.1465915
32	0x39a9821d	0.00032331134
33	0xbc8ca372	-0.01716778
34	0x3c377487	0.011197216
35	0x3aa36026	0.0012464568
36	0xbdb449df	-0.08803152
37	0xbdf12806	-0.11775212
38	0x3deb1e5b	0.11480399
39	0x3d28926c	0.041155264
40	0x3dc0d3ac	0.09415373
41	0x3ddac157	0.10681408
42	0xbe065732	-0.131192
43	0xbd83a0ae	-0.064271316
44	0x3da796c8	0.08183056
45	0x3daa2be3	0.08309152
46	0xbdbc3918	-0.09190577
47	0xbdbb3005	-0.091400184

transformer.h.2.attn.c_proj.weight f4 [4, 4]
0	0xbcf6b54b	-0.030115744
1	0xbdc77ca3	-0.097405694
2	0x3dc3a0ad	0.09552131
3	0x3dc7a6f1	0.097486384
4	0xbba7d83d	-0.005122213
5	0xbdab925d	-0.08377526
6	0x3d8a6cc5	0.067590274
7	0x3db66c82	0.08907415
8	0x3cc5bbb6	0.02413736
9	0x3dde5dc2	0.10857727
10	0xbdd1e64b	-0.10249003
11	0xbddf573d	-0.10905311
12	0xbbf36bc8	-0.00742862
13	0x3d57de6f	0.052702364
14	0xbd846f0d	-0.06466494
15	0xbd680260	-0.05664289

transformer.h.2.ln_2.weight f4 [4]
0	0x3f97cd76	1.1859577
1	0x3f9407b5	1.1564852
2	0x3f8deeb6	1.1088474
3	0x3f9ac670	1.2091808

transformer.h.2.mlp.c_fc.weight f4 [16, 4]
0	0xbd39523c	-0.04524444
1	0x3d01c493	0.03168161
2	0x3c51b2a9	0.012798944
3	0xbd13c247	-0.03607395
4	0xbd239a47	-0.039942052
5	0xbd7a75d3	-0.061147522
6	0xbb50c552	-0.0031855893
7	0x3d8bd320	0.06827378
8	0x3d938670	0.07203376
9	0x3d4f51ae	0.050615005
10	0x3c8c7953	0.017147696
11	0xbdd4c0ef	-0.10388362
12	0xbd707e68	-0.0587143
13	0xbd489506	-0.048970245
14	0x3c5c45b6	0.013444355
15	0x3dbaf9c3	0.091296695
16	0xbd9278e7	-0.071519665
17	0x3d4917bb	0.049094897
18	0xbcabdb15	-0.02097849
19	0x3c074999	0.008257293
20	0xbdb08f4f	-0.08621084
21	0xbd913dfc	-0.07091901
22	0xbbc40fb6	-0.005983318
23	0x3dbf8659	0.09351797
24	0x3dfa3cad	0.12218604
25	0xbd332726	-0.043738507
26	0x3dd66540	0.10468531
27	0xbe6304e7	-0.22169839
28	0xbdcd00ab	-0.10009893
29	0xbbafaddf	-0.005361303
30	0xbd73b6b9	-0.05950043
31	0x3dde8dc7	0.10866886
32	0xbdb42529	-0.0879615
33	0xbdbb3208	-0.09140402
34	0xbcbf3c87	-0.023344291
35	0x3d790902	0.060799606
36	0xbda69de0	-0.08135581
37	0x3c27dd78	0.010245673
38	0xbc011ace	-0.007879926
39	0x3d8a852c	0.06763682
40	0x3d26ea29	0.040750656
41	0x3d3e02f0	0.04638952
42	0x3d9a06c2	0.0752082
43	0xbe218e70	-0.15776992
44	0xbd922a3f	-0.07136964
45	0xbd92af32	-0.07162322
46	0xbcb04ce8	-0.021521047
47	0x3d9cbca1	0.076531656
48	0x3cbdac61	0.023153486
49	0x3de8054c	0.11329135
50	0x3d49b161	0.049241427
51	0xbdc1f4c7	-0.09470516
52	0x3e663529	0.22481216
53	0xbe36f551	-0.17867018
54	0xbd84203a	-0.06451459
55	0xbdaff17b	-0.085909806
56	0xbdb5114f	-0.08841192
57	0x3e30c026	0.17260799
58	0xbe3b2f42	-0.18279746
59	0x3ddf8c50	0.10915434
60	0x3cd6f974	0.026241995
61	0x3db9d804	0.09074405
62	0x3d9dd49f	0.0770657
63	0xbe1956f6	-0.14974579

transformer.h.2.mlp.c_proj.weight f4 [4, 16]
0	0x3d8243d3	0.06360593
1	0xbc82caa7	-0.015965773
2	0x3cfefe94	0.031127252
3	0x3c490b7e	0.012270806
4	0x3db7fc8a	0.08983715
5	0x3c04e980	0.008112311
6	0xbbe34bba	-0.0069365175
7	0x3d3757e0	0.04476154
8	0xbc34f8f2	-0.011045681
9	0x3db15f16	0.08660714
10	0x3d844e91	0.06460298
11	0xbb98e76c	-0.0046662595
12	0x3db12253	0.08649125
13	0xbe13945b	-0.14412062
14	0x3df5d533	0.12003555
15	0x3ddb363f	0.10703706
16	0xbc1effc2	-0.009704532
17	0xbce2abf4	-0.027669884
18	0x3d4f1e80	0.050566196
19	0xbbd5f460	-0.006529376
20	0xbdac1bd3	-0.084037445
21	0xbc62b489	-0.013836988
22	0x3e092296	0.133921
23	0xbd85db7c	-0.06536004
24	0xbcd7ed5e	-0.026358303
25	0xbd1d67fa	-0.038429238
26	0x3d82d495	0.06388203
27	0xbd004425	-0.031314988
28	0x3d3daf07	0.046309497
29	0x3dd3cdca	0.103419855
30	0xbd3a86ff	-0.0455389
31	0x3d62e118	0.055390447
32	0xbc95c80d	-0.018283868
33	0x3d53b701	0.051688198
34	0xbdd68360	-0.104742765
35	0x3d23e72a	0.040015377
36	0x3c81b014	0.01583103
37	0x3d52ac48	0.05143383
38	0xbe3e6c55	-0.18596013
39	0x3daa89b3	0.08327045
40	0x3d745e32	0.059660144
41	0x3d84f8b1	0.064927466
42	0xbdafbee3	-0.085813306
43	0x3d94938a	0.07254703
44	0xbdb0f709	-0.08640868
45	0xbd875901	-0.06608773
46	0x3cfceff6	0.030876141
47	0xbdd77ff5	-0.10522453
48	0xbc97ee95	-0.018546382
49	0xbd2d0b9f	-0.04224741
50	0xbc58a71c	-0.013223436
51	0xbd100333	-0.0351593
52	0xbb4f721c	-0.0031653708
53	0xbd54a33b	-0.05191348
54	0x3d8dc604	0.06922534
55	0xbdd5b757	-0.1043536
56	0xbd50041b	-0.050785165
57	0xbd277c16	-0.040889822
58	0x3d4e6fe2	0.05039967
59	0xbd82ffc7	-0.06396442
60	0x3c21aa72	0.0098672975
61	0xbbe575c1	-0.0070025628
62	0xbdb894ae	-0.090127334
63	0x3d7d4953	0.061837506

transformer.ln_f.weight f4 [4]
0	0x3fb66824	1.4250531
1	0x3fb6313a	1.4233773
2	0x3fba9ae5	1.457852
3	0x3fb69ef7	1.4267262

lm_head.weight f4 [5, 4]
0	0xbe9d0198	-0.30665278
1	0xbe944853	-0.2896143
2	0x3ec86986	0.39143008
3	0x3e30a2ad	0.17249556
4	0x3e3945f3	0.1809309
5	0x3e505c5d	0.20347734
6	0xbe00e9ce	-0.1258919
7	0xbe551994	-0.20810539
8	0x3df97d9a	0.1218216
9	0x3dcdf1f9	0.10055918
10	0xbe1f645c	-0.15565628
11	0xbd9a6bd9	-0.075401016
12	0x3df7be54	0.12096849
13	0x3ddd6c0a	0.108116224
14	0xbe278048	-0.16357529
15	0xbda13a84	-0.07872489
16	0x3e3c7614	0.18404418
17	0x3e4006d0	0.18752599
18	0xbe3dd025	-0.18536432
19	0xbe3d312b	-0.18475787

exp_avg f4 [5, 4]
0	0xb7895157	-1.636955e-05
1	0x36988ea9	4.546561e-06
2	0x39bd3571	0.00036088706
3	0xb914508e	-0.00014144389
4	0x3c5fae54	0.013652403
5	0x3c4fe5e2	0.012689086
6	0xbcbf9cdc	-0.023390226
7	0xbb794541	-0.0038035663
8	0xba400f67	-0.0007326514
9	0xb9977a63	-0.0002889215
10	0x3b39fae1	0.0028378295
11	0xbae1aa66	-0.001721692
12	0xbc0df8bc	-0.00866526
13	0xbbd9895b	-0.0066386885
14	0x3c79392d	0.015211386
15	0xb9726f38	-0.0002312035
16	0xbb89da1b	-0.0042069084
17	0xbb943f46	-0.0045241443
18	0x3bca2423	0.0061688586
19	0x3b231fb6	0.0024890727

exp_avg_sq f4 [5, 4]
0	0x35d31ad9	1.5728539e-06
1	0x352b3697	6.37819e-07
2	0x3562b742	8.4458236e-07
3	0x35cd4e30	1.5296446e-06
4	0x39be1b02	0.00036259746
5	0x39b35d02	0.00034210837
6	0x3a59eac9	0.0008312879
7	0x38dc08b2	0.00010492037
8	0x3988f36b	0.00026121302
9	0x39767fe5	0.00023508033
10	0x3a242293	0.00062612555
11	0x3883554d	6.262455e-05
12	0x39a6171e	0.0003167921
13	0x398e217a	0.00027109293
14	0x3a494072	0.00076771446
15	0x388931a8	6.541918e-05
16	0x39c4b3bc	0.00037517946
17	0x39b09697	0.00033681534
18	0x3a638c43	0.00086802634
19	0x38c0a1d9	9.18542e-05

exp_avg f4 [256, 4]
0	0xb8994ffc	-7.310507e-05
1	0xb88b3035	-6.637016e-05
2	0x3888011e	6.4851934e-05
3	0x3941c70e	0.00018480068
4	0x36301495	2.6238024e-06
5	0x37136bfe	8.787027e-06
6	0x37f47d50	2.914542e-05
7	0xb853b6cc	-5.0476563e-05
8	0x35f15bf2	1.7982659e-06
9	0x383008c3	4.196983e-05
10	0x37f038df	2.8636712e-05
11	0xb8829b02	-6.2277555e-05
12	0x3695970c	4.45813e-06
13	0x374ba210	1.2137476e-05
14	0x37862e5a	1.5995629e-05
15	0xb81ef689	-3.789974e-05
16	0x364d5a61	3.0599988e-06
17	0xb7310375	-1.0550827e-05
18	0xb7db41df	-2.6137508e-05
19	0x388181b3	6.175358e-05
20	0x364e4b22	3.0740125e-06
21	0x3686d8fa	4.0187706e-06
22	0x36f5f935	7.3305805e-06
23	0xb78252a7	-1.5535696e-05
24	0xb5968644	-1.1214947e-06
25	0x37b0c059	2.1070404e-05
26	0x3704dda6	7.91942e-06
27	0xb7a5c285	-1.9760113e-05
28	0xb6c70b65	-5.9319887e-06
29	0xb784db00	-1.5837606e-05
30	0xb7221d64	-9.6627955e-06
31	0x36ad57ae	5.166009e-06
32	0x374d803a	1.2248807e-05
33	0x3790fd3a	1.7284056e-05
34	0x37f54771	2.9239543e-05
35	0xb6126093	-2.181191e-06
36	0x371496f1	8.856631e-06
37	0x37cfdbfc	2.4778761e-05
38	0x37f4916e	2.9154788e-05
39	0xb86b69da	-5.6126948e-05
40	0x36cfb186	6.189747e-06
41	0xb78b6d7f	-1.662108e-05
42	0xb68a5973	-4.1231337e-06
43	0xb81ab8ec	-3.6888683e-05
44	0xb7a6abb9	-1.9868707e-05
45	0xb7589b8c	-1.2910819e-05
46	0xb768616a	-1.3850959e-05
47	0x37411006	1.1507427e-05
48	0x3703b7f1	7.851036e-06
49	0x3793fa2f	1.7640266e-05
50	0x379f1170	1.8962397e-05
51	0xb7c9e5a2	-2.4067998e-05
52	0xb60354fc	-1.9569989e-06
53	0xb716068f	-8.942224e-06
54	0xb71196d0	-8.677787e-06
55	0xb6d9f5a8	-6.495702e-06
56	0xb4f3c5dc	-4.540624e-07
57	0xb67406b0	-3.6362726e-06
58	0xb6d6d28f	-6.4022092e-06
59	0x3635f4a7	2.7113508e-06
60	0xb5915a8e	-1.0829697e-06
61	0x3788b306	1.6295828e-05
62	0x380c8eac	3.3511475e-05
63	0xb880e1a0	-6.1455416e-05
64	0xb6ec2c00	-7.0384704e-06
65	0x37580ca1	1.2877544e-05
66	0xb7594289	-1.2949699e-05
67	0xb83b65c9	-4.467907e-05
68	0xb482c70e	-2.4359218e-07
69	0x370aeb36	8.280205e-06
70	0xb7e4444b	-2.721152e-05
71	0x3792d74a	1.7504808e-05
72	0xb6bc6754	-5.6148656e-06
73	0xb616f805	-2.2496108e-06
74	0xb79a47f2	-1.8391733e-05
75	0xb6b65f80	-5.4351403e-06
76	0x36ef888f	7.1386526e-06
77	0x364fa4c5	3.0941312e-06
78	0x37b6e97e	2.1804819e-05
79	0xb8597d25	-5.185338e-05
80	0x37681310	1.3832716e-05
81	0x37b4bbc2	2.1545104e-05
82	0x38029cb5	3.114036e-05
83	0xb8bdc54b	-9.048971e-05
84	0xb63d1e82	-2.8180953e-06
85	0x3587f73c	1.0130238e-06
86	0xb6a0b2ef	-4.789202e-06
87	0x37618429	1.3441816e-05
88	0xb742b68b	-1.1605803e-05
89	0x35362e88	6.7867995e-07
90	0xb7afd6c4	-2.0961634e-05
91	0x37c1ad9d	2.3088238e-05
92	0xb612b338	-2.1860014e-06
93	0xb73c8708	-1.1237113e-05
94	0xb6692001	-3.4738334e-06
95	0xb692a586	-4.3704085e-06
96	0xb703c2d1	-7.853568e-06
97	0xb73df6e0	-1.1322758e-05
98	0xb8285f59	-4.014312e-05
99	0x37f39ba9	2.9040342e-05
100	0xb6be0e56	-5.66411e-06
101	0x374b88bd	1.213158e-05
102	0x379c7ba6	1.8654227e-05
103	0xb6da5714	-6.5070435e-06
104	0xb652dbad	-3.1420307e-06
105	0x37b97819	2.2109643e-05
106	0x37bc7991	2.2467955e-05
107	0xb84e45c8	-4.9179216e-05
108	0xb7364053	-1.0863022e-05
109	0x373e118b	1.1328967e-05
110	0x34b72bad	3.4118185e-07
111	0x37c71689	2.3733142e-05
112	0xb72eb216	-1.0412672e-05
113	0xb70fe315	-8.576336e-06
114	0xb705da67	-7.9782685e-06
115	0xb798e744	-1.8227503e-05
116	0xb6c8746a	-5.974017e-06
117	0xb7c9124a	-2.3969584e-05
118	0xb7fd8c43	-3.0225265e-05
119	0x38535025	5.038096e-05
120	0x362cfba2	2.5776467e-06
121	0x35d236b3	1.5662139e-06
122	0x3700c245	7.674626e-06
123	0x35368410	6.799246e-07
124	0xb6e314f1	-6.767565e-06
125	0xb78e139e	-1.6936854e-05
126	0xb6ea18c2	-6.9766256e-06
127	0xb7c794a1	-2.379186e-05
128	0x368d4ee3	4.211311e-06
129	0x37e7a009	2.7611868e-05
130	0x3800d5fe	3.0716874e-05
131	0xb85da203	-5.284139e-05
132	0xb5f210bd	-1.8035277e-06
133	0x3786473e	1.600722e-05
134	0x37f8daf9	2.966587e-05
135	0xb8816404	-6.169829e-05
136	0x35bf42ee	1.4250088e-06
137	0x377e3411	1.5151702e-05
138	0x37daac0b	2.6067739e-05
139	0xb6a14979	-4.8067272e-06
140	0xb6c5ad13	-5.891206e-06
141	0xb7a3a7b3	-1.9509205e-05
142	0xb82c117e	-4.1024286e-05
143	0x389f32cb	7.591172e-05
144	0xb6f5d38d	-7.3261967e-06
145	0xb75712b4	-1.2819353e-05
146	0xb7ce75cc	-2.4611967e-05
147	0x3854c1b8	5.0725153e-05
148	0xb4bf86b2	-3.5674526e-07
149	0x37631e25	1.3537273e-05
150	0x3733033c	1.06699845e-05
151	0x378e36e2	1.6953276e-05
152	0x3705fa80	7.985742e-06
153	0x37929997	1.7476077e-05
154	0x3775993a	1.4638814e-05
155	0xb790f0c9	-1.7278262e-05
156	0xb54c9498	-7.6212154e-07
157	0xb757393a	-1.2828323e-05
158	0xb73ad1af	-1.1135285e-05
159	0x37dde6be	2.64527e-05
160	0xb6459e7b	-2.9447535e-06
161	0x3799aedc	1.8320447e-05
162	0x372b8037	1.0222247e-05
163	0xb845cd20	-4.7159498e-05
164	0x3731716b	1.0576429e-05
165	0xb639b7ad	-2.7674062e-06
166	0x3772c499	1.4470098e-05
167	0x36e8c4cb	6.9370485e-06
168	0xb6f6771f	-7.345239e-06
169	0x370360ac	7.830717e-06
170	0xb6eb0080	-7.003604e-06
171	0x36aed530	5.2104224e-06
172	0xb630523f	-2.6273917e-06
173	0xb74804b4	-1.1922024e-05
174	0xb7b9c18f	-2.2143851e-05
175	0x37faa51f	2.9879213e-05
176	0xb5c3c822	-1.4586878e-06
177	0x37c5e25f	2.3589642e-05
178	0x3799754b	1.829364e-05
179	0xb72d9647	-1.0346593e-05
180	0x36e12df3	6.7108717e-06
181	0x37adec8c	2.0733358e-05
182	0x372dcab4	1.0358799e-05
183	0xb8c7a645	-9.5200296e-05
184	0x3656d17f	3.2010428e-06
185	0xb75cfbd2	-1.3171653e-05
186	0xb82b129e	-4.0786916e-05
187	0x38951e9f	7.110577e-05
188	0xb6052abf	-1.9843426e-06
189	0xb6a63614	-4.953481e-06
190	0xb70b2218	-8.292984e-06
191	0x378e335b	1.6951633e-05
192	0x3663c05e	3.3937608e-06
193	0xb5136ec2	-5.492294e-07
194	0x3771ca39	1.4411803e-05
195	0xb870daa8	-5.74241e-05
196	0xb5c5ab6d	-1.4727535e-06
197	0xb70e0b48	-8.466486e-06
198	0x376a0618	1.3948906e-05
199	0xb7b20176	-2.1219934e-05
200	0xb66bfdd2	-3.5165472e-06
201	0x36ca3063	6.025702e-06
202	0xb6e06120	-6.687027e-06
203	0xb7827797	-1.5552896e-05
204	0x3682f766	3.903103e-06
205	0x37a4c717	1.9643032e-05
206	0x38211899	3.84083e-05
207	0xb861bd02	-5.3820208e-05
208	0xb64a9b37	-3.0190693e-06
209	0xb6906ebf	-4.304427e-06
210	0x35220d91	6.0369445e-07
211	0x37b3b401	2.1422284e-05
212	0xb69a11b0	-4.5916167e-06
213	0xb7d53a88	-2.5418834e-05
214	0xb592f626	-1.0949486e-06
215	0x387ad85a	5.9806138e-05
216	0x3659995d	3.242479e-06
217	0x34f1a980	4.5013076e-07
218	0xb73071dc	-1.0516927e-05
219	0x36c1954b	5.769228e-06
220	0xb748a05d	-1.1958266e-05
221	0xb74601f2	-1.1802173e-05
222	0xb821b990	-3.855821e-05
223	0x37daa9e9	2.6066746e-05
224	0xb636d1f8	-2.7242331e-06
225	0x37b4e916	2.1566211e-05
226	0x3627a730	2.4982255e-06
227	0xb7767c16	-1.4691634e-05
228	0xb6af6412	-5.227056e-06
229	0xb778a182	-1.4819556e-05
230	0xb7053aa8	-7.941075e-06
231	0x381e419f	3.773125e-05
232	0xb5bca088	-1.4053812e-06
233	0xb7443d77	-1.1696821e-05
234	0xb714b356	-8.863242e-06
235	0xb6cfbd29	-6.191102e-06
236	0xb70dfcf9	-8.463155e-06
237	0x376564f8	1.3672972e-05
238	0xb5aa0466	-1.2667267e-06
239	0xb852a726	-5.022357e-05
240	0x365d7f35	3.300561e-06
241	0x35d23ffd	1.5664842e-06
242	0xb757bb65	-1.285863e-05
243	0xb7e1bd1e	-2.6910155e-05
244	0xb45b56e7	-2.0427579e-07
245	0x32d59433	2.4863857e-08
246	0x3834c743	4.310092e-05
247	0xb6fda2c4	-7.558936e-06
248	0x352ea87a	6.5065217e-07
249	0xb718be4f	-9.104216e-06
250	0xb6b5bfb6	-5.4165384e-06
251	0xb6e2b6a1	-6.7565857e-06
252	0x35788f17	9.259542e-07
253	0x37a5d82a	1.9770192e-05
254	0x3834f8e9	4.314716e-05
255	0xb843590a	-4.6574547e-05

exp_avg_sq f4 [256, 4]
0	0x3366ca32	5.3734944e-08
1	0x334419a4	4.5658126e-08
2	0x3605cca4	1.993766e-06
3	0x33b510da	8.4315346e-08
4	0x32813ba3	1.5044696e-08
5	0x320e47d7	8.281822e-09
6	0x32194a50	8.922669e-09
7	0x32de5645	2.5883432e-08
8	0x30ed3f7f	1.7262066e-09
9	0x316918bb	3.392002e-09
10	0x31b90586	5.3848366e-09
11	0x32b315ae	2.0848201e-08
12	0x2fa5b935	3.0144923e-10
13	0x3133c222	2.615828e-09
14	0x3193ebcb	4.3050696e-09
15	0x32989439	1.7762533e-08
16	0x302a06f0	6.18555e-10
17	0x312c9987	2.5116564e-09
18	0x31ba6265	5.4244986e-09
19	0x32b79735	2.1372765e-08
20	0x303dc84e	6.904245e-10
21	0x314358c0	2.8426683e-09
22	0x31c19ef5	5.6351106e-09
23	0x327ffba0	1.4900166e-08
24	0x30f2536f	1.7631531e-09
25	0x31668436	3.3544558e-09
26	0x31dfa1a7	6.508532e-09
27	0x32b5cb7d	2.1163709e-08
28	0x2fe4ef26	4.1642884e-10
29	0x3108da1c	1.9914586e-09
30	0x31c21fe7	5.64977e-09
31	0x32947eac	1.7287071e-08
32	0x30570c0a	7.8233653e-10
33	0x315d8a07	3.2238192e-09
34	0x31ec0846	6.8694446e-09
35	0x329f3b78	1.853708e-08
36	0x302e32a1	6.337278e-10
37	0x315900cc	3.157811e-09
38	0x31c9d640	5.8742273e-09
39	0x32a99d3e	1.9745695e-08
40	0x300e198c	5.1695603e-10
41	0x31253a45	2.4043783e-09
42	0x31ced045	6.0190666e-09
43	0x328897da	1.5901538e-08
44	0x2fede589	4.3273143e-10
45	0x31211f94	2.3446534e-09
46	0x319b1e09	4.5145083e-09
47	0x3286c882	1.5690834e-08
48	0x300dc3d5	5.1573795e-10
49	0x316333f7	3.3062386e-09
50	0x31cfa099	6.0427507e-09
51	0x32a6ddd7	1.9425825e-08
52	0x300b2fc4	5.0635784e-10
53	0x310cc381	2.0483812e-09
54	0x31a7140f	4.86262e-09
55	0x328e9784	1.6599877e-08
56	0x2fda17b6	3.9670817e-10
57	0x30e1a89f	1.641883e-09
58	0x318adbbe	4.0413104e-09
59	0x3288c0a1	1.5920081e-08
60	0x2fd3990d	3.8489426e-10
61	0x310c033f	2.0374527e-09
62	0x31a1adad	4.7054614e-09
63	0x328552e3	1.552093e-08
64	0x2fe6a39b	4.1953005e-10
65	0x31242977	2.388871e-09
66	0x31c1476f	5.6251603e-09
67	0x329bba23	1.812902e-08
68	0x3007cef4	4.940681e-10
69	0x31276764	2.436047e-09
70	0x31b33c78	5.21646e-09
71	0x327f1ab2	1.4849023e-08
72	0x2f9fb297	2.9048827e-10
73	0x312fa878	2.5561615e-09
74	0x31bb3e50	5.4495004e-09
75	0x328f498e	1.668084e-08
76	0x300a50a7	5.031872e-10
77	0x31316fbc	2.5820404e-09
78	0x31d4e28b	6.195767e-09
79	0x32947116	1.7280893e-08
80	0x301b01c7	5.63912e-10
81	0x3111e4d2	2.1230346e-09
82	0x31bc5fee	5.482426e-09
83	0x3284c727	1.5457386e-08
84	0x309dd58e	1.1483949e-09
85	0x31414309	2.8123301e-09
86	0x31c13309	5.6228413e-09
87	0x32bc4a85	2.1919968e-08
88	0x30145aa5	5.39709e-10
89	0x31291efb	2.4610347e-09
90	0x31ab6cbc	4.9891167e-09
91	0x3289e12b	1.6051294e-08
92	0x30145f89	5.397785e-10
93	0x3123cf54	2.3837474e-09
94	0x31a86af2	4.901602e-09
95	0x329a453b	1.7959442e-08
96	0x30136f02	5.363604e-10
97	0x31fdb44b	7.383766e-09
98	0x320c6f9c	8.17445e-09
99	0x32b05675	2.0528413e-08
100	0x357e093e	9.463582e-07
101	0x32381acf	1.0716305e-08
102	0x327fa269	1.4879881e-08
103	0x352a4e00	6.344344e-07
104	0x301496bd	5.40563e-10
105	0x316269d7	3.2947491e-09
106	0x31cb959f	5.9250875e-09
107	0x32a63ea4	1.9353429e-08
108	0x3022a9bc	5.9176464e-10
109	0x315b0a18	3.1874432e-09
110	0x319fed64	4.6544972e-09
111	0x32c7fdf2	2.328213e-08
112	0x30045b91	4.8151444e-10
113	0x312b1a4d	2.4898725e-09
114	0x31c3db44	5.7001746e-09
115	0x3288dc8d	1.5932779e-08
116	0x3182902d	3.799889e-09
117	0x31a375ba	4.7573083e-09
118	0x31c93f45	5.857063e-09
119	0x32dad9ce	2.5477586e-08
120	0x2ffffa4a	4.656207e-10
121	0x317fd3c4	3.7227759e-09
122	0x31bfd2a7	5.58278e-09
123	0x329caa78	1.823831e-08
124	0x2fca1fa6	3.6766074e-10
125	0x311b9683	2.2641025e-09
126	0x31c677e3	5.776188e-09
127	0x329b64b8	1.8090176e-08
128	0x2fe97049	4.2462237e-10
129	0x313e5e3b	2.7702203e-09
130	0x31c13690	5.6232423e-09
131	0x32b63ffe	2.1216689e-08
132	0x300a7ca6	5.0381244e-10
133	0x3114353b	2.1567093e-09
134	0x31ac6569	5.017388e-09
135	0x326be50c	1.37308795e-08
136	0x3001330b	4.7002463e-10
137	0x311981a9	2.2338134e-09
138	0x31991e21	4.4563113e-09
139	0x32833d9d	1.5278426e-08
140	0x30079beb	4.9334287e-10
141	0x313626dc	2.6506575e-09
142	0x31a8736e	4.9025664e-09
143	0x32b1fa87	2.0719439e-08
144	0x300b40ca	5.0659976e-10
145	0x3175f144	3.5789336e-09
146	0x31d1b4aa	6.1032397e-09
147	0x32aa4a3c	1.9824363e-08
148	0x2fd094fa	3.7940834e-10
149	0x312627c4	2.4178783e-09
150	0x31a0289d	4.66123e-09
151	0x326ff972	1.3968348e-08
152	0x306054f2	8.161144e-10
153	0x312a194c	2.4752635e-09
154	0x31b22401	5.184575e-09
155	0x329d913b	1.8343249e-08
156	0x3001efdf	4.7270804e-10
157	0x311e24d8	2.301297e-09
158	0x31a9bd8d	4.9400968e-09
159	0x329cc318	1.8249509e-08
160	0x2fb4f632	3.2916742e-10
161	0x30fdf64d	1.8478176e-09
162	0x319f5d32	4.638104e-09
163	0x328ab818	1.614903e-08
164	0x304cedbb	7.4552603e-10
165	0x31289e1c	2.4537092e-09
166	0x31987444	4.437e-09
167	0x3280c018	1.4988515e-08
168	0x3021010d	5.857295e-10
169	0x3113e7a3	2.1522986e-09
170	0x31942209	4.3112363e-09
171	0x326375e9	1.3239949e-08
172	0x2fc73f34	3.6242798e-10
173	0x310b7747	2.0294963e-09
174	0x31a49078	4.7894524e-09
175	0x3280ff29	1.5017195e-08
176	0x2fe1ddc5	4.1084838e-10
177	0x311f2489	2.3158313e-09
178	0x3197329f	4.4004334e-09
179	0x32995bb8	1.7853253e-08
180	0x2fd1feb5	3.819786e-10
181	0x312d125b	2.5185247e-09
182	0x31ba8cb8	5.4293103e-09
183	0x329b174b	1.8054967e-08
184	0x2f9854eb	2.7708977e-10
185	0x31115768	2.1149962e-09
186	0x31951fec	4.3401e-09
187	0x328c079c	1.6301605e-08
188	0x30092fe9	4.9908394e-10
189	0x315e99cf	3.2392682e-09
190	0x31c93ff3	5.85714e-09
191	0x32998ee9	1.7876532e-08
192	0x2fc731f1	3.6233375e-10
193	0x313e87c9	2.7725824e-09
194	0x31ba0970	5.4143854e-09
195	0x329a6243	1.7972644e-08
196	0x2fd98715	3.9568052e-10
197	0x31139399	2.1475215e-09
198	0x319d36f6	4.5755497e-09
199	0x32816812	1.5064902e-08
200	0x30389dda	6.716313e-10
201	0x3155b7cc	3.1100056e-09
202	0x31d40b63	6.1713066e-09
203	0x32af36df	2.0397634e-08
204	0x300c0cfd	5.095016e-10
205	0x3117217e	2.199243e-09
206	0x31b8ece5	5.3820366e-09
207	0x3299dc98	1.7911859e-08
208	0x301c42fd	5.6847665e-10
209	0x3144fff3	2.8667244e-09
210	0x31bb38fa	5.448894e-09
211	0x329fd812	1.8608294e-08
212	0x303b2360	6.8080475e-10
213	0x3152a035	3.065009e-09
214	0x31e8219b	6.755909e-09
215	0x32b103b8	2.0607203e-08
216	0x300205a9	4.730177e-10
217	0x3135e1a6	2.6467233e-09
218	0x31b5c6fc	5.290415e-09
219	0x329c2924	1.8179499e-08
220	0x2ffe9a53	4.6311985e-10
221	0x313bfd14	2.735594e-09
222	0x31c9785a	5.8635523e-09
223	0x32992380	1.7827688e-08
224	0x3083bbf4	9.584924e-10
225	0x31744708	3.554705e-09
226	0x31bfcc29	5.582042e-09
227	0x32c6e891	2.3155993e-08
228	0x2fee7a81	4.3378992e-10
229	0x314785d5	2.9034386e-09
230	0x31b62334	5.3008993e-09
231	0x32898e0f	1.60135e-08
232	0x2fbf9c98	3.4853964e-10
233	0x310eea29	2.0796824e-09
234	0x31b54aa1	5.2762776e-09
235	0x32581370	1.2577274e-08
236	0x3025255f	6.007976e-10
237	0x3157a3c0	3.1379699e-09
238	0x31cc1ef4	5.9407004e-09
239	0x32ea7a40	2.7296778e-08
240	0x3011cffe	5.304627e-10
241	0x31225e5e	2.3627744e-09
242	0x31c5a839	5.7525793e-09
243	0x32a1d0fb	1.88379e-08
244	0x2fb67e99	3.319556e-10
245	0x31a54d09	4.81089e-09
246	0x31bf99cc	5.5763163e-09
247	0x32ab66f4	1.9953838e-08
248	0x2fdfd92d	4.0717776e-10
249	0x3127b8d8	2.440677e-09
250	0x31c62226	5.7664407e-09
251	0x328ca9ad	1.6375305e-08
252	0x3008f7a1	4.9828414e-10
253	0x31675591	3.3663563e-09
254	0x31f7c1db	7.210685e-09
255	0x32895031	1.5985366e-08

exp_avg f4 [12, 4]
0	0xb684c6a9	-3.9570336e-06
1	0xb699b5ab	-4.5809043e-06
2	0x36ade7c0	5.182781e-06
3	0x365986c9	3.2413975e-06
4	0x33447df1	4.574935e-08
5	0xb2a4bd58	-1.9178216e-08
6	0x32ab7033	1.9958042e-08
7	0xb35d362c	-5.150484e-08
8	0x3663649c	3.3884198e-06
9	0x35a54983	1.2314853e-06
10	0xb6329ae4	-2.6614225e-06
11	0xb5fa343e	-1.8641656e-06
12	0x370bb66c	8.327519e-06
13	0xb5417375	-7.2066115e-07
14	0xb6ae0a69	-5.186816e-06
15	0xb6145189	-2.2101178e-06
16	0x3614bb9c	2.2162922e-06
17	0x36177283	2.2567408e-06
18	0xb61509b0	-2.220837e-06
19	0xb613ff9f	-2.2053498e-06
20	0x32c6b3d0	2.3132003e-08
21	0x333e1c87	4.4263768e-08
22	0xb30e4ed8	-3.313366e-08
23	0xb2a23d9d	-1.88873e-08
24	0xb5f17bc2	-1.7991918e-06
25	0xb5d8b410	-1.6145659e-06
26	0x35e69b12	1.7181467e-06
27	0x35df2727	1.662619e-06
28	0xb62f873f	-2.6155756e-06
29	0xb6628f7c	-3.3760143e-06
30	0x3637bcde	2.737906e-06
31	0x3653c1c8	3.1554246e-06
32	0x3937824e	0.00017500782
33	0x392d6d9f	0.00016539403
34	0xb95fc94d	-0.00021341928
35	0xb90142ba	-0.00012327256
36	0x388bee1f	6.67239e-05
37	0x3881a4c8	6.181892e-05
38	0xb8b1ee79	-8.484437e-05
39	0xb8318628	-4.232503e-05
40	0x3920ad8b	0.00015323439
41	0x3914fac5	0.00014207799
42	0xb943e155	-0.00018680592
43	0xb8dc8cef	-0.000105166684
44	0x39aa7219	0.00032509936
45	0x39975b3b	0.00028868936
46	0xb9c30f52	-0.00037204713
47	0xb975d3c3	-0.00023443908

exp_avg_sq f4 [12, 4]
0	0x2f3e5550	1.7310708e-10
1	0x2f299492	1.5423243e-10
2	0x2f908932	2.629093e-10
3	0x2ee1f66a	1.0275587e-10
4	0x2c4e6c36	2.933443e-12
5	0x2c40a36d	2.737556e-12
6	0x2c9beed4	4.43188e-12
7	0x2c0d0ff3	2.0046159e-12
8	0x2e445740	4.4642734e-11
9	0x2e07f28f	3.091088e-11
10	0x2e8e572d	6.472898e-11
11	0x2dd8ef2a	2.4662567e-11
12	0x30436ae2	7.1092476e-10
13	0x302c4130	6.266587e-10
14	0x30911e05	1.0558671e-09
15	0x2fef06a5	4.3478568e-10
16	0x2f184aa8	1.3850843e-10
17	0x2f271b46	1.5198251e-10
18	0x2f5c1594	2.001655e-10
19	0x2ee88a94	1.0574755e-10
20	0x2b9a9f29	1.0986534e-12
21	0x2ba75858	1.1890584e-12
22	0x2c06854c	1.911654e-12
23	0x2b35cb08	6.458588e-13
24	0x2e31ddc0	4.0442094e-11
25	0x2e5c8b0f	5.0145717e-11
26	0x2e863558	6.10309e-11
27	0x2e13313f	3.346767e-11
28	0x301a9c4e	5.6246996e-10
29	0x300c9904	5.114915e-10
30	0x3025b76e	6.028732e-10
31	0x3002cdf2	4.758639e-10
32	0x34779bd8	2.3060363e-07
33	0x34612416	2.0967886e-07
34	0x35cad406	1.511188e-06
35	0x345a605f	2.0337892e-07
36	0x3283f48e	1.5361618e-08
37	0x32547bbc	1.2368158e-08
38	0x32a38001	1.9033907e-08
39	0x32389494	1.0743992e-08
40	0x3443cd5f	1.8235504e-07
41	0x343439d5	1.6784846e-07
42	0x35a2c7e0	1.2128112e-06
43	0x342bd06e	1.6001442e-07
44	0x340669c2	1.2518197e-07
45	0x33c8012e	9.31344e-08
46	0x3415bbb2	1.394499e-07
47	0x33c08863	8.965505e-08

exp_avg f4 [4, 4]
0	0x3904da32	0.00012669785
1	0x3852724e	5.0174356e-05
2	0x38ce207e	9.8288976e-05
3	0x39021f84	0.00012409507
4	0x39e62fc5	0.0004390461
5	0x39327ce4	0.00017021928
6	0x39c59567	0.00037686081
7	0x39ea6c0f	0.00044712468
8	0x39a13f94	0.00030755682
9	0x38fa3420	0.00011930638
10	0x399a3183	0.00029410058
11	0x39a8d3da	0.000322013
12	0xbab1e1f7	-0.0013571371
13	0xba0aea2d	-0.0005299177
14	0xba9ba6b4	-0.0011875243
15	0xbab4535e	-0.0013757756

exp_avg_sq f4 [4, 4]
0	0x35554536	7.94494e-07
1	0x3383cab2	6.137033e-08
2	0x34bf0650	3.5581115e-07
3	0x34473405	1.8552244e-07
4	0x357ab8bb	9.3401076e-07
5	0x3385d37b	6.231763e-08
6	0x34e553a0	4.271542e-07
7	0x34ab46bd	3.19027e-07
8	0x3556ff42	8.009266e-07
9	0x33f84c93	1.1562329e-07
10	0x3500b7cf	4.795119e-07
11	0x351e4874	5.896502e-07
12	0x3611c216	2.1719657e-06
13	0x34f90e6f	4.6390366e-07
14	0x35e0c83b	1.6747575e-06
15	0x3620a3c3	2.393718e-06

exp_avg f4 [16, 4]
0	0xb965c7b1	-0.00021913533
1	0xb9445da5	-0.00018726902
2	0x39872067	0.00025773348
3	0x3918c709	0.00014569996
4	0xb990b08c	-0.00027597358
5	0xb9726649	-0.00023117023
6	0x39a1e594	0.00030879362
7	0x394b90a3	0.0001941347
8	0x38e9c945	0.00011147795
9	0x38beefc4	9.104566e-05
10	0xb90c11cf	-0.00013358075
11	0xb88df219	-6.768498e-05
12	0x38c5c9e5	9.431298e-05
13	0x38915c38	6.931316e-05
14	0xb8ca7046	-9.653023e-05
15	0xb889f048	-6.577425e-05
16	0xb9362944	-0.00017372245
17	0xb917d5fd	-0.00014480199
18	0x3952b61d	0.00020095003
19	0x38f1a671	0.00011522778
20	0xb90dcdc1	-0.00013523457
21	0xb8f15c3c	-0.000115089555
22	0x39288d8a	0.00016074456
23	0x38b83d4c	8.785221e-05
24	0x38552b2c	5.0823364e-05
25	0x378497c1	1.5806292e-05
26	0xb882f684	-6.2448e-05
27	0xb6a1b088	-4.818725e-06
28	0xb8a565a1	-7.886743e-05
29	0xb8910f61	-6.917003e-05
30	0x38d452a3	0.0001012434
31	0x3840cecc	4.596896e-05
32	0xb87b97ad	-5.9984322e-05
33	0xb868a9f7	-5.5471402e-05
34	0x388fefc5	6.863432e-05
35	0x38401a31	4.580076e-05
36	0x38d464d9	0.00010127732
37	0x38a068b6	7.6488985e-05
38	0xb9026e0d	-0.00012438763
39	0xb85c86eb	-5.257774e-05
40	0xb7864300	-1.6005244e-05
41	0xb7e44c7a	-2.721533e-05
42	0xb4a970d0	-3.1560785e-07
43	0x38309e46	4.2109074e-05
44	0x38fbbfac	0.00012004314
45	0x38bd3af9	9.023207e-05
46	0xb90e3eb4	-0.00013565534
47	0xb899b8b4	-7.330012e-05
48	0x392b4096	0.00016331891
49	0x390137b5	0.00012323151
50	0xb93d7ff1	-0.00018072106
51	0xb8d9cf86	-0.000103860206
52	0x38a42b5c	7.828206e-05
53	0x387de3a6	6.0531915e-05
54	0xb8b1dc50	-8.481054e-05
55	0xb85e288b	-5.2966683e-05
56	0x390ae665	0.00013246534
57	0x38e456ed	0.000108880784
58	0xb91f9e37	-0.00015222361
59	0xb8b72548	-8.733064e-05
60	0xb90573bd	-0.00012726984
61	0xb8e7e69e	-0.00011057894
62	0x39209060	0.00015312573
63	0x38ae2cf4	8.30534e-05

exp_avg_sq f4 [16, 4]
0	0x338a7bf5	6.4486734e-08
1	0x33657dcd	5.3432633e-08
2	0x33d18a48	9.757474e-08
3	0x330d63a9	3.291976e-08
4	0x33fe5106	1.1842535e-07
5	0x33df705e	1.0404686e-07
6	0x34432eca	1.8177812e-07
7	0x3399d67f	7.163634e-08
8	0x32a6a305	1.9399076e-08
9	0x32a32d57	1.8996316e-08
10	0x3361f56d	5.261011e-08
11	0x31e78824	6.7384622e-09
12	0x3296d420	1.7558762e-08
13	0x325a1ef5	1.2696309e-08
14	0x330d207c	3.2858665e-08
15	0x31fb57ff	7.3150654e-09
16	0x33693826	5.4300607e-08
17	0x334cb2fd	4.766024e-08
18	0x3434ec2d	1.6849727e-07
19	0x327c5ab2	1.4688952e-08
20	0x33af7248	8.16986e-08
21	0x33966a02	7.004202e-08
22	0x34b0c36e	3.2924748e-07
23	0x32797bd1	1.452186e-08
24	0x343af791	1.7412664e-07
25	0x34068df8	1.253137e-07
26	0x34c04fa5	3.5820736e-07
27	0x334ae4bb	4.723982e-08
28	0x32965a91	1.7503483e-08
29	0x327093a6	1.400341e-08
30	0x3336dba4	4.257494e-08
31	0x31d47c5e	6.184151e-09
32	0x31d20b5b	6.1130954e-09
33	0x31cc5fb9	5.948064e-09
34	0x329885ec	1.775603e-08
35	0x311fd889	2.3260631e-09
36	0x32da15c5	2.538844e-08
37	0x32a32f89	1.8997314e-08
38	0x339a7e23	7.194128e-08
39	0x31b8b62e	5.3758162e-09
40	0x32d2de26	2.4548239e-08
41	0x32cd13b3	2.38741e-08
42	0x33ce925a	9.619244e-08
43	0x31f9bc3b	7.268253e-09
44	0x32bacee2	2.174733e-08
45	0x3271c745	1.4073355e-08
46	0x3342d116	4.5359307e-08
47	0x31ee2713	6.931154e-09
48	0x331c7234	3.6425448e-08
49	0x32c9b92a	2.3483683e-08
50	0x338db03e	6.5978824e-08
51	0x32692fde	1.3573269e-08
52	0x3204fd9c	7.741075e-09
53	0x31ca3708	5.88523e-09
54	0x32944d51	1.7264627e-08
55	0x31436509	2.8433667e-09
56	0x32b32a26	2.085751e-08
57	0x32a37d6c	1.9032733e-08
58	0x3338791d	4.295099e-08
59	0x321e3204	9.208183e-09
60	0x32d58299	2.4855852e-08
61	0x32b12281	2.0621203e-08
62	0x3340336b	4.4750248e-08
63	0x324342a9	1.1365651e-08

exp_avg f4 [4, 16]
0	0x387ede5e	6.0765415e-05
1	0x382e5d61	4.15718e-05
2	0xb7e5baf6	-2.7385988e-05
3	0xb6fe320d	-7.5756166e-06
4	0x3850a8f2	4.9748407e-05
5	0x388c4771	6.689027e-05
6	0xb9479787	-0.00019034567
7	0x3829ac65	4.0453295e-05
8	0x37dd8d1e	2.6410966e-05
9	0xb8c18ed2	-9.2295595e-05
10	0xb6746c6a	-3.6421939e-06
11	0xb894492a	-7.070818e-05
12	0xb83a0b1e	-4.435621e-05
13	0xb71b7ebf	-9.26823e-06
14	0xb7d22d78	-2.5055124e-05
15	0x386602f8	5.4839038e-05
16	0x3954e318	0.00020302495
17	0x3939c477	0.00017716164
18	0xb8b434e8	-8.5929234e-05
19	0xb7d62814	-2.552945e-05
20	0x3904a9b4	0.0001265172
21	0x3931d123	0.00016957945
22	0xb98bdc4e	-0.00026676286
23	0x3909c399	0.00013138204
24	0x38543649	5.0595296e-05
25	0xb961a6ce	-0.00021519812
26	0x37f73042	2.9467166e-05
27	0xb922ccaa	-0.00015525767
28	0xb8b52786	-8.6381144e-05
29	0x37a44aa8	1.9585088e-05
30	0xb870c4ce	-5.7403748e-05
31	0x393f1e03	0.0001822636
32	0x3992119b	0.00027860407
33	0x398b2247	0.00026537685
34	0xb8e7be8a	-0.00011050429
35	0xb857b21c	-5.142587e-05
36	0x39253e5f	0.00015758861
37	0x395f7864	0.00021311786
38	0xb896003f	-7.152603e-05
39	0x393422f1	0.00017179154
40	0x385e7f20	5.304732e-05
41	0xb96873ed	-0.0002216843
42	0x388856ef	6.501178e-05
43	0xb92c4d6b	-0.00016432039
44	0xb8be3677	-9.070051e-05
45	0x385934eb	5.1786115e-05
46	0xb87d7c5f	-6.043573e-05
47	0x39824dd8	0.0002485353
48	0xba027d33	-0.00049777626
49	0xb9da5805	-0.0004164578
50	0x3959d7be	0.00020775103
51	0x3852915a	5.020327e-05
52	0xb99a3895	-0.00029415326
53	0xb9ccc920	-0.00039059762
54	0x39f61eea	0.0004694381
55	0xb9aca0ab	-0.00032926103
56	0xb8dfed5f	-0.000106776824
57	0x39f7f3e6	0.0004729323
58	0xb80f13ed	-3.4112414e-05
59	0x39b3b787	0.0003427828
60	0x3944ba2d	0.00018761372
61	0xb85c2b4b	-5.2492407e-05
62	0x390d454a	0.0001347262
63	0xb9ea778d	-0.0004472103

exp_avg_sq f4 [4, 16]
0	0x32ae2ff3	2.027807e-08
1	0x31f28511	7.058255e-09
2	0x31412f47	2.811207e-09
3	0x3111c83e	2.1214102e-09
4	0x33906b05	6.724989e-08
5	0x34262e77	1.5476859e-07
6	0x341b390e	1.4456256e-07
7	0x32681a68	1.3510181e-08
8	0x3344b900	4.5803063e-08
9	0x336b4225	5.477536e-08
10	0x31ed0f48	6.899345e-09
11	0x334391a5	4.553444e-08
12	0x32f245a7	2.8204182e-08
13	0x32781664	1.4440591e-08
14	0x3220f42c	9.368744e-09
15	0x32a72987	1.9460243e-08
16	0x33687282	5.4120854e-08
17	0x3305eb94	3.1180733e-08
18	0x321ba51c	9.059729e-09
19	0x31bfa106	5.577138e-09
20	0x33bf6b86	8.913689e-08
21	0x345871f6	2.0158026e-07
22	0x348a671c	2.5779525e-07
23	0x3303560b	3.057907e-08
24	0x3376794d	5.738666e-08
25	0x33c48780	9.1516085e-08
26	0x3260cfc6	1.3085758e-08
27	0x339211a5	6.801864e-08
28	0x33241d7e	3.821105e-08
29	0x32964011	1.7491432e-08
30	0x3261e17c	1.3147993e-08
31	0x334de3b0	4.7937363e-08
32	0x33c86c6c	9.3329476e-08
33	0x33a8aacd	7.854178e-08
34	0x3281d7f7	1.5115786e-08
35	0x320bec50	8.144596e-09
36	0x33da2f8c	1.0160065e-07
37	0x3473eb1e	2.2716674e-07
38	0x348fd2d9	2.6789237e-07
39	0x333d7c61	4.4118114e-08
40	0x33859637	6.220619e-08
41	0x33fe7cb3	1.1850479e-07
42	0x32bd5afc	2.204387e-08
43	0x33b92355	8.621161e-08
44	0x334749fd	4.640059e-08
45	0x32bf3e1c	2.226357e-08
46	0x32800e8e	1.490778e-08
47	0x33a99f47	7.898648e-08
48	0x34b4dd06	3.3688428e-07
49	0x3490ba73	2.695775e-07
50	0x335c61ca	5.131168e-08
51	0x32c586a3	2.2995044e-08
52	0x346609c1	2.1423968e-07
53	0x34f405b0	4.545268e-07
54	0x3503c9be	4.9094876e-07
55	0x3424a12d	1.5332326e-07
56	0x33d39ace	9.853612e-08
57	0x34aa19e9	3.168382e-07
58	0x3373bf4d	5.6751833e-08
59	0x345d62ba	2.0618145e-07
60	0x33cc3fee	9.511119e-08
61	0x331059ac	3.360917e-08
62	0x331150c3	3.3833896e-08
63	0x34962f25	2.797398e-07
