out-tss50/ckpt_iter_2750.pt (torch, 48135 bytes, 64 tensors)

transformer.wte.weight f4 [5, 4]
00000000: 9a24 b8be b5f1 aabe 1773 ce3e c93b 413e
00000010: 941a 3a3e c5f7 853e 2e82 d4bd 16fd 94be
00000020: 56e4 ca3d ad66 223d 4770 22be 0eba ad3d
00000030: cdb3 dc3d d2fe 553d 3479 2bbe 28dc a33d
00000040: aaf1 463e a811 2a3e e22e 2ebe 7d61 25be
-0.35965425 -0.33387533 0.40322182 0.18870462 0.18174201 0.26165596 -0.10376392 -0.2909934
0.09906833 0.0396487 -0.15863143 0.08482753 0.10776482 0.05224497 -0.16745454 0.08000976
0.19428125 0.16608298 -0.17010072 -0.1615047

transformer.wpe.weight f4 [256, 4]
00000000: 1338 063e 0fa6 cc3d db42 42bc 3e4d aabd
00000010: 9aca ce3d 4e92 bb3d 1693 09be 7bad 19bd
00000020: 9cbe 693d d577 5a3c d698 b3bd 9b1a 90bc
00000030: 2fc1 463d 062f 553d c85a 4ebd 32e5 d7bc
00000040: 4347 853d e3d6 683d 65c9 16bd 1544 62bd
00000050: 206a 323c 2431 143b 6eca 3ebd 5850 adbc
00000060: f6ad ad3d 8d0e 593c 4aab 38bd 98f5 62bc
00000070: 1f5a b33c 50db 02bc 7be8 8fbc 5fa8 9a3c
00000080: b906 2b3d 5061 b43b f1b0 ba3b 3976 da3a
00000090: a2ff 2fbc 495f 51bd 2ad5 eebc 4e48 713c
000000a0: 27e7 c839 4be3 463c 103f ec3b 3b78 aebc
000000b0: ee6f f6b9 0d70 42bc 8f3a 1cbd f110 063d
000000c0: 0f6b 6a3c d9ac 28bc 4a14 253c 0709 ac3b
000000d0: 9f65 0bbc d3c4 a5bc a6e6 10bd e65e 95bc
000000e0: 311d c83c 7520 8a3b 90c5 893c f9fe 463b
000000f0: d905 843c 6217 003d feb1 cc3c 701b 8abc
00000100: 582e 183d 8a0c 8e3b ff56 603c 4b36 eabc
00000110: 7450 1b3d 7578 843c bc5d 61bd 6dad 22bb
00000120: aefb 85bb 076c 2a3c 98bc 99bc 5669 0ebc
00000130: f705 6d3d 3568 0f3d d865 5ebd 6f45 27bd
00000140: db8c 803c e895 003c 93c8 8d3a 93fe efbb
00000150: c5a0 14bc c6d3 b8bc 1bdc e6bb 7dfc e43c
00000160: 2a21 233d 8291 4dbc 70f0 97bc 56e1 b23b
00000170: adfd 683a 6c0e 413c 786d a0bb 73c9 073c
00000180: f2ea 02bd 64fb 93bb 3d3f 5dbd bdb9 063d
00000190: 1163 173d e7c6 d0bc f774 5ebc 720f 3d3b
000001a0: 5909 1e3d 28e2 3b3c 6a0c c83b 8bf5 313b
000001b0: ec88 133d c398 85bc ca3a a3bc d61d 883c
000001c0: 6c56 ea3b 0725 87bc e07d e1b9 3b24 993b
000001d0: 31fb 933d 55e8 c53c aa96 adbc 8b6d 8c3b
000001e0: b0a7 183d 4e48 363c 0340 13bd ca5c f9bc
000001f0: 388f f33b 1add f3bb be58 973c a6b1 e9bc
00000200: 5013 7e3d 436f bcbc 7b82 d63b f278 8f3c
00000210: eab3 bebb c18e 49bc cdab 023b 40f3 d73b
00000220: 4faa b83c 01d6 903c 7b70 90bc bfee 9f3b
00000230: e8e9 81bc d9d0 83bb ca1e b33b fec3 e73c
00000240: e868 90bc 3324 673d 5a4b 0d3d 923c babc
00000250: 8e85 0a3d c180 5c3c d999 16bc 7315 b03c
00000260: 8a73 af3c 3b3e 643d 6add b53c 28cf 81bb
00000270: 2d0c c03a aab4 673c 8957 80bc b715 303c
00000280: fd0a ae3c 7707 ae3c 6b32 f9bb 50b3 db3c
00000290: a2bf 94bb 72ae 0abd d982 be3b 30cd a4b8
000002a0: 079f 323d db95 203b e7ba 6dbb 47de 07bd
000002b0: 04c9 f33c 23d2 4d3c e700 bebc 2c5d b63c
000002c0: 8388 17bd fb49 06bd 48c1 e7bb 78b9 29bc
000002d0: 81b6 483c 692b 0ebd f307 e8bc 9605 b13b
000002e0: b639 863c c807 813c 2a53 05bd 1c53 d53c
000002f0: 25ea f43c 9974 0f3c 478b 3a3b 7f83 983c
00000300: fe99 e8bb b174 9ebc 4288 9cbb 4ed7 eebb
00000310: 8f2f a13d 6c3f 023d b0b7 1d3d a829 31bc
00000320: 3cee 353d 8665 2c3b 5ec0 383c 3c6d 023a
00000330: 7ef2 963b 744b bf3c ca6a ea39 6987 b93c
00000340: bd2d a03c 33c6 a4bc b648 0fbd 6eac 4f3c
00000350: 2df3 063d 9c43 063d 0e92 31bd ec14 a43c
00000360: a09c 9fbb 3b74 a9bc 64ab 03bb 75e3 b33c
00000370: 7784 233d 8d99 553c a6c4 9abc 0f97 033c
00000380: 01e8 603d 4677 d2bc e052 2abc 465a 933c
00000390: 6e8d 233d 3805 a6bb af30 7abc b45b 6d3b
000003a0: 5fa6 25bc aeed 383c 5b1d 513c 2bca 60bb
000003b0: f8c6 a13d 6aaf a0ba 63f6 1ebc 198e c23c
000003c0: ebb4 6dbc ae08 2c3b 993d 0abc 4106 9fbb
000003d0: fe60 5d3d 4af6 08bd 9429 00bd 7f13 b4bc
000003e0: 3800 013d 5592 77bb 5fa2 9e3c cc02 723c
000003f0: fbfc 013d 376a 3b3d fd4b 183c 2f29 09bc
0.13107328 0.09992611 -0.01185676 -0.08315514 0.10097237 0.09158765 -0.13435015 -0.03751896
0.057066545 0.013334234 -0.087693855 -0.017590811 0.048524078 0.0520468 -0.050379544 -0.026354406
0.06507733 0.056845557 -0.03681316 -0.05524071 0.01088956 0.0022612298 -0.04657977 -0.021156475
0.08480446 0.013248098 -0.04508523 -0.013852499 0.021893559 -0.0079868585 -0.01756691 0.018879114
0.041754458 0.0055047646 0.0056973626 0.0016667313 -0.0107421 -0.05111626 -0.029154379 0.014726711
0.00038319195 0.012139152 0.007209666 -0.021297565 -0.0004700417 -0.011867535 -0.038141783 0.032731
0.014307751 -0.010295116 0.010075638 0.0052500996 -0.008508115 -0.020235455 -0.035376213 -0.018233728
0.024427982 0.004215295 0.016817838 0.0030364378 0.01611607 0.0312723 0.024987217 -0.016858786
0.03715357 0.004334991 0.0136926165 -0.028590342 0.037918523 0.01617072 -0.055021033 -0.0024822608
-0.0040888404 0.010401732 -0.018766686 -0.008692106 0.057867017 0.03501149 -0.054296345 -0.0408377
0.015692165 0.00784824 0.0010817222 -0.007324049 -0.009071534 -0.022561919 -0.0070452816 0.027952427
0.03982655 -0.012546899 -0.018547267 0.005458991 0.00088878983 0.011783224 -0.004895862 0.008287775
-0.031962343 -0.004516052 -0.054015387 0.032891978 0.03695971 -0.025485469 -0.013577691 0.0028848317
0.038583133 0.011467494 0.0061049955 0.0027154412 0.03601925 -0.016308194 -0.019925494 0.01661579
0.0071514156 -0.016497148 -0.00043009128 0.0046735085 0.07225645 0.024158636 -0.021190006 0.0042855195
0.037269294 0.011125637 -0.03594972 -0.030439753 0.0074328445 -0.007442129 0.018474933 -0.028527092
0.062030137 -0.023002272 0.006546316 0.017513726 -0.0058197873 -0.012302102 0.0019938827 0.006590277
0.022542147 0.01768017 -0.01763176 0.0048807557 -0.015858606 -0.0040226993 0.005466317 0.028291699
-0.017628148 0.056431007 0.03449569 -0.02273396 0.033818774 0.013458432 -0.009191954 0.021494603
0.021417398 0.05572341 0.022200305 -0.0039614625 0.0014652066 0.014142195 -0.01566674 0.010747365
0.021245474 0.021243794 -0.0076048872 0.026818901 -0.004539446 -0.03385777 0.005813938 -7.8583485e-05
0.04360869 0.0024503383 -0.0036274733 -0.033170965 0.029758938 0.0125623075 -0.02319379 0.022261225
-0.036995422 -0.032785397 -0.0070726015 -0.010359161 0.012250544 -0.034709368 -0.028324103 0.005402277
0.01638494 0.01575078 -0.032550015 0.026040606 0.029896805 0.008755826 0.0028464363 0.01861739
-0.0070984354 -0.019342752 -0.0047769854 -0.00728885 0.07870399 0.031798765 0.038505256 -0.010813154
0.04441665 0.002630563 0.011276333 0.00049753836 0.004606544 0.023351409 0.00044711522 0.022647576
0.01955306 -0.02011404 -0.034981452 0.012675388 0.032946754 0.03277932 -0.04335218 0.020029508
-0.004870966 -0.020685306 -0.002009117 0.021959046 0.03992125 0.013037098 -0.018892597 0.008031621
0.054908756 -0.02569164 -0.0103957355 0.017987382 0.0399298 -0.00506654 -0.015270396 0.003621799
-0.010110467 0.011287136 0.012763347 -0.003430019 0.078992784 -0.0012259309 -0.009702298 0.023749398
-0.014508466 0.002625029 -0.008437538 -0.0048530404 0.054047577 -0.033438005 -0.031289652 -0.021981953
0.03149435 -0.003777643 0.019364534 0.014771175 0.0317354 0.04575559 0.009295461 -0.008371635

transformer.h.0.ln_1.weight f4 [4]
00000000: 5bf6 943f bee7 903f 7fe2 913f 273f 933f
1.1637682 1.1320722 1.1397246 1.1503648

transformer.h.0.attn.c_attn.weight f4 [12, 4]
00000000: 7426 90bd 4cae e2bd 350d 883d 0592 c83d
00000010: 8a60 68bd 1532 aabd d3fd 9d3d 5ff2 1d3d
00000020: 3d45 c83d 1ea3 173e 23f7 35be f713 33bd
00000030: a5c2 753d d942 1c3e 39ba e7bd d351 a5bd
00000040: c5a6 b13d 4b53 cd3d ae4b 04be f018 8cbd
00000050: 1eaa 093e 77c8 e43c bcde 5fbd f22f b9bd
00000060: 4ddf 23be 9f8a 9cbd c681 323d 695e 613e
00000070: 2c8f cdbd b18e 22be 2799 cc3d 4047 013e
00000080: 5172 a43d b027 8e3d 08fe 09be c35d a5bd
00000090: de31 203d 4638 963c 80f4 a5bd 7217 0abd
000000a0: 9d5e dc3d f537 ab3d e2dc 84bd 0d07 fcbd
000000b0: c870 4d3d 88a0 923d ab10 73bd d122 05be
-0.07038584 -0.11068401 0.06643144 0.09793476 -0.05673269 -0.08310334 0.07714429 0.03856122
0.09778831 0.14808318 -0.17770056 -0.04372021 0.06000008 0.15259875 -0.11314816 -0.08072247
0.08674387 0.100256525 -0.12919495 -0.06840694 0.13443801 0.02792762 -0.054655775 -0.09042348
-0.16003151 -0.076436274 0.043580793 0.22008671 -0.100370735 -0.15874745 0.09990149 0.12624836
0.080296166 0.069411635 -0.13475811 -0.08074524 0.039110057 0.01833738 -0.08103275 -0.033713765
0.107602336 0.08360282 -0.064874426 -0.12306032 0.050156385 0.07159525 -0.059342068 -0.13001563

transformer.h.0.attn.c_proj.weight f4 [4, 4]
00000000: 532f 073e a2d2 d33d e440 183e 4c92 253e
00000010: 1899 3b3d 3aea 24bb 7327 5d3d ff72 a73d
00000020: a785 0cbe 8b3e 3cbd e181 b7bd 17a8 0ebe
00000030: 9e39 d9ba 4918 be3c 8eae f13a c99c 2fbd
0.13201647 0.103429094 0.14868504 0.16169089 0.0458003 -0.0025164024 0.0539927 0.08176231
-0.1372286 -0.045958083 -0.08960319 -0.13931309 -0.0016572957 0.02320494 0.0018438862 -0.04287413

transformer.h.0.ln_2.weight f4 [4]
00000000: 181a b33f 8b98 b83f f2df b03f 8df5 b13f
1.3992338 1.4421552 1.3818343 1.3903061

transformer.h.0.mlp.c_fc.weight f4 [16, 4]
00000000: 4b68 193e 9d02 2cbd edc1 85bd ed48 50bd
00000010: 589a 033e 7559 7f3c eba4 913c ebb5 99bd
00000020: 6753 b3bd 90cf fa3d d1b9 3ebc f504 3a3d
00000030: 717f 9f3d 50f8 ebbd ecb2 1dbd af70 123d
00000040: 4a6a e23b 3a86 8c3d 5cac 95bd 3bd1 e23b
00000050: 0d07 1cbd e18c d53d 4ec6 cdbd 88a0 bc3c
00000060: ea58 c2be 176b d7be 492f b53e e119 c23e
00000070: 44dc 083e fdff 94bd 25bf 2bbd 4a47 98bc
00000080: 0880 45bd c083 d73d 82db d4bd 646f 923c
00000090: 6d6a 5cbe 9f73 753d e5e5 9d3d afb6 0c3e
000000a0: 94fd c4bd 4c75 553e e516 763d 4d18 cebd
000000b0: 608d 123d 7b38 d2bd a416 f63d d469 36bd
000000c0: 664d c33d 6e74 0fbe d696 aa3d 2fbb c1bd
000000d0: 9838 e03d 98df 8abc 0c16 ec3d 54ba 0dbe
000000e0: 187f 7abc 8df7 3c3d 70b3 253d 9816 02bd
000000f0: 9c9c 293e bbc2 2abc bb91 70bd 4961 4fbd
0.14981191 -0.04199468 -0.06531129 -0.050850797 0.12851846 0.015585293 0.017778834 -0.07505401
-0.08756142 0.12246621 -0.011640982 0.045414884 0.077879794 -0.11521971 -0.03850071 0.035751995
0.0069096433 0.06861539 -0.073082656 0.006921915 -0.03809266 0.10427261 -0.10047589 0.023025766
-0.3795846 -0.4207389 0.35387638 0.3791037 0.13365275 -0.072753884 -0.041930337 -0.01858868
-0.048217803 0.10523176 -0.1039343 0.01787538 -0.21524973 0.059924718 0.077098645 0.13741563
-0.09618679 0.20845526 0.060080428 -0.10063229 0.035779357 -0.10264679 0.12016037 -0.04453452
0.09536247 -0.14009258 0.08329551 -0.094595306 0.109482944 -0.016952321 0.115276426 -0.1384061
-0.015289091 0.04613452 0.040454328 -0.03175983 0.16563648 -0.010422404 -0.05873273 -0.050629888

transformer.h.0.mlp.c_proj.weight f4 [4, 16]
00000000: 51eb f0bd 6400 5dbd 0607 133e 9ad0 35bd
00000010: ab05 ef3c fc3d 683d 835d 883e d274 f1bd
00000020: ace4 973d a7c8 3f3e f5d9 153e 8acd c73c
00000030: 792f 90bc 4d28 dfbc 2909 823d 4d7f bcbd
00000040: 112d 113d a535 a13d fa07 113d 1531 2c3d
00000050: 3778 b9bd ad2d 0abe ca94 623e 686f 483d
00000060: 00f7 1dbd 22b6 813d 8d8d 7b3c 9c9d c73d
00000070: 80e0 bf3d 7e72 603d 17bc de3c 4d92 873c
00000080: 5e48 e4bd 808f d0bd eba0 1a3d 46ed 70bd
00000090: 2571 1bbd 555d d4ba 73f6 97be db46 82bd
000000a0: 2a42 21bd fb4f 4fbd c5f1 c33c 4f78 babc
000000b0: e038 b5bb 587a 343d db12 da3d 89bb 9cbd
000000c0: 2e50 9c3c f8ee dd3c f67f 1bbd de31 33bc
000000d0: 81a7 233c 4f6f e9bb 3ad7 10be c9a1 2f3c
000000e0: dfec afbc 703d 3cbd 7077 cbbd 9c60 24bd
000000f0: 1038 8dbd 159e 9abd 7b1d d1bc eef5 513b
-0.11763633 -0.05395545 0.14358148 -0.04438839 0.029177507 0.056699738 0.26633844 -0.1178986
0.074166626 0.18728887 0.14633925 0.02439 -0.017600762 -0.027240897 0.063494034 -0.09203968
0.03544337 0.0787156 0.035407998 0.042038996 -0.09056132 -0.13493986 0.22127071 0.04893437
-0.038565636 0.06333567 0.015353573 0.097468585 0.09368992 0.05479669 0.027189298 0.016549254
-0.111466154 -0.101836205 0.03775112 -0.05882003 -0.0379497 -0.0016202132 -0.29680213 -0.06361171
-0.03936974 -0.050613385 0.023918996 -0.022762446 -0.0055304617 0.04406199 0.10648128 -0.07652957
0.019081201 0.027091488 -0.03796383 -0.010937182 0.0099886665 -0.0071238647 -0.14144602 0.010719725
-0.021475254 -0.04595703 -0.0993489 -0.040131196 -0.06895459 -0.07549683 -0.025526753 0.0032037455

transformer.h.1.ln_1.weight f4 [4]
00000000: 3a5b 953f b53a 933f 8e44 943f a1d3 993f
1.1668465 1.1502291 1.1583421 1.2017709

transformer.h.1.attn.c_attn.weight f4 [12, 4]
00000000: cb48 07be 8858 ebbd 88f9 223e ad59 a43d
00000010: 6e25 0abe bf15 b8bd 4f5e f83d 48a7 da3d
00000020: be2f 0cbe 2711 ccbd 838c 073e ac82 1b3e
00000030: 0527 16be 9989 f3bd aea0 0d3e 9e3b 1e3e
00000040: 3638 133e b821 dd3d da93 2ebd 341b 68be
00000050: 1fc1 f53d 5c12 b73d a2f4 e8bd 3dc4 14be
00000060: 40d7 103e b3be 003e 70b3 debd 9870 57be
00000070: fd6a 1d3e a448 003e cbd0 0bbe 6e04 20be
00000080: 3606 b9bd 9bdd 94bd 9d78 8f3d e5a8 323e
00000090: adde c63d 7daa 913d 57b3 adbd d46f c4bd
000000a0: bbed d83d 81c3 f03d 24ae fbbd 1fd9 2dbe
000000b0: ec66 9cbd 986a eabd cc10 133e 3716 1d3e
-0.13211362 -0.11491495 0.15915501 0.08024917 -0.13490841 -0.08988523 0.12127363 0.106764376
-0.13690087 -0.09964209 0.13237195 0.15186566 -0.14663322 -0.11891479 0.13830826 0.1545243
0.14376912 0.10797447 -0.04262147 -0.22666627 0.119997256 0.08939049 -0.11374785 -0.14527984
0.14144611 0.12572746 -0.10874069 -0.21039045 0.15372844 0.1252771 -0.13653867 -0.1562669
-0.09034388 -0.072688304 0.07005427 0.1744724 0.09710441 0.07112596 -0.08481472 -0.09591642
0.105922185 0.117560394 -0.12289074 -0.16977356 -0.07636818 -0.114461124 0.14361876 0.15340506

transformer.h.1.attn.c_proj.weight f4 [4, 4]
00000000: fbaf 1fbe c6c8 153e cf40 173e 1502 00be
00000010: 7697 55bd 1feb 3c3d b884 393d ddc7 1fbd
00000020: 9bc9 163e 0592 0ebe ba33 19be a175 0b3e
00000030: 3ce6 ed3c b1b9 7bbb d2fd 7fbc 503a c13b
-0.15594475 0.1462737 0.14770816 -0.12500794 -0.052146398 0.046122666 0.045292586 -0.039008964
0.14725344 -0.1392289 -0.14961138 0.1361909 0.029040448 -0.0038410241 -0.01562448 0.005896844

transformer.h.1.ln_2.weight f4 [4]
00000000: 5c78 953f 72e1 a13f 738d 933f 87a5 9b3f
1.1677356 1.2646925 1.1527542 1.215989

transformer.h.1.mlp.c_fc.weight f4 [16, 4]
00000000: 857c a33d eea5 33be 2f80 76bd b050 533e
00000010: 87b5 2a3e 0cf6 08bd 4bb4 e2bc 03a9 9ebd
00000020: 5e90 ce3c 4fc5 003e ea49 233c 85ed b5bd
00000030: 77bd f2bc 6d39 373e c7a5 093d 0075 d7bd
00000040: fecb 033e 0e59 70be 9bbb 5dbd 8ee7 af3d
00000050: e326 2ebe e1af 373e a568 18bd 7ab6 443d
00000060: b5f4 2fbe f4f8 1b3e 0f18 5dbd bb1e c43d
00000070: 623c d73d c585 ff3c 2c25 f53c 9330 aabd
00000080: e99b 3a3d 7781 24be b02f a6bd 3391 8e3e
00000090: fb6e 313e d540 2ebd 948d 9abc fae4 b4bd
000000a0: a048 113e 7c76 21bd 82f4 6ebc 3b0c 6bbd
000000b0: d32d d63d 29ab 003e a301 c1bc 9de8 1abe
000000c0: e222 14bc eaee 1fbe 18ef aa39 f32c 243e
000000d0: 32df 133d 73d3 3ebe 37e9 0b3e 0425 52bd
000000e0: 62fc e5bc ff49 c03c f8fe cabc ced9 373d
000000f0: 9db6 84bd 4385 173e 3afb 77bd 6189 35bd
0.079827346 -0.17543766 -0.06018084 0.20636249 0.1667081 -0.033437774 -0.027673861 -0.0774708
0.025215324 0.12575267 0.009966353 -0.08883194 -0.02963136 0.17893 0.033605363 -0.10520363
0.12870786 -0.23471472 -0.054133993 0.085890874 -0.17007022 0.17938186 -0.03720917 0.048025586
-0.17183192 0.15231687 -0.053978022 0.09576174 0.10509564 0.031191716 0.029924951 -0.08310046
0.045558844 -0.16065012 -0.081145644 0.27845153 0.17327492 -0.042542297 -0.018866338 -0.08832736
0.1418786 -0.039419636 -0.014584662 -0.05738471 0.10457959 0.12565292 -0.02356035 -0.15127797
-0.00904152 -0.15618482 0.00032603065 0.16032772 0.036101528 -0.18635349 0.13663183 -0.051304832
-0.028074447 0.023472784 -0.024779782 0.04488545 -0.06480143 0.14796929 -0.060542323 -0.044320468

transformer.h.1.mlp.c_proj.weight f4 [4, 16]
00000000: 37d4 a3bb 6689 e6bd ac61 173d dfc0 da3d
00000010: aef2 0bbd da73 1a3e bc26 343e 9130 58bd
00000020: 19d2 453d a974 05be 0976 93bd 7936 3fbc
00000030: eb19 263d a994 5c3d 7e32 253d 84b0 013e
00000040: 3b71 2a3e 73e8 673c 9f67 5bbd fb5f 28bd
00000050: 6155 f23d a9e1 c9bc 780b babb cc7b 8e3c
00000060: 8585 123e 4441 d93c 51a1 db3c dded 18bc
00000070: 2deb 093e 9d6b 173e e425 00bc 07cc dbbd
00000080: e24d 88bd cb1e b5bd 44bc ecbd c70f b5bd
00000090: 4413 1cbe cc8a 59bc 62b3 82bc 356b f0bd
000000a0: ff70 8ebd 0ae4 eabd 14b6 8ebd 23c4 a4bc
000000b0: 0c3a 17bc f456 6bbd 6f44 78bc 7aea 03bd
000000c0: 7ece a5bd 4d04 3b3d c90c 4b3d 7acc a93c
000000d0: 435f ecbc 65f4 ecbc 87b6 68bd 01f6 9b3d
000000e0: 9174 cabd 3c86 663d 1e9a e73c 19c4 443c
000000f0: e5be a2bd 8930 39bd a596 01bd cdb3 75bb
-0.004999663 -0.112566754 0.03695838 0.106813185 -0.034166984 0.15083256 0.17592901 -0.05278069
0.048296068 -0.13032784 -0.07200248 -0.011670702 0.04055206 0.05385271 0.040331356 0.12664992
0.16644756 0.014154541 -0.053565618 -0.04110716 0.11832691 -0.024643736 -0.0056776367 0.017393015
0.14308746 0.026520379 0.02681032 -0.009334055 0.13468619 0.14787145 -0.007821534 -0.107322745
-0.0665548 -0.08843764 -0.11559346 -0.088409 -0.15241724 -0.013277721 -0.015954677 -0.11739198
-0.06955146 -0.11469276 -0.069683224 -0.020113057 -0.009230148 -0.05745597 -0.015153035 -0.032206036
-0.08096026 0.0456584 0.04957274 0.020727385 -0.028854018 -0.02892513 -0.056814697 0.07615281
-0.098855145 0.05628036 0.028271731 0.012009644 -0.079465665 -0.045212302 -0.031637806 -0.0037491203

transformer.h.2.ln_1.weight f4 [4]
00000000: 31ad 903f a266 913f f8d0 913f ccdc 963f
1.1302854 1.1359446 1.1391897 1.1786132

transformer.h.2.attn.c_attn.weight f4 [12, 4]
00000000: 3551 863d 7e80 07bd 40e8 343c 629d 3ebd
00000010: e196 13bd b48d 2dbd 04d5 403d a661 ed3c
00000020: ca0e 68bd 3466 e3bc d60e 843d be22 7fbb
00000030: 63c2 863d e623 5e3d 22ae c9bd 60b3 7dbd
00000040: 6fba 763c e608 85bc 49b6 55bb ebc4 ac3c
00000050: 211a 893d 59e0 483d 0375 89bd 8319 ccbd
00000060: a013 e339 dfb0 a63b 1cfb 9cbc a1b9 93bd
00000070: 9b81 ddbd 49db 21bd d2d6 fe3c ec21 0e3e
00000080: 8b7a 3fbd 6856 6abd f0f3 893d f4c7 80bd
00000090: 6aef a6bd 7143 e4bd 244e c03d 5079 003e
000000a0: 03a6 a73d a0d8 bf3d 1dc3 d6bd 9b88 13be
000000b0: 3c10 8c3d 49eb 933d d2cf 89bd 53bb 33be
0.06558458 -0.033081524 0.011041701 -0.04653681 -0.03603256 -0.042371467 0.047078148 0.028977226
-0.05665473 -0.027758695 0.06448142 -0.003893062 0.06580045 0.054233454 -0.09847666 -0.061938643
0.015059098 -0.016239595 -0.003260987 0.021089992 0.06694437 0.04904208 -0.06711771 -0.099658035
0.00043311436 0.0050870026 -0.019162707 -0.0721314 -0.10815736 -0.039515767 0.031108294 0.13880128
-0.046747725 -0.05721131 0.067359805 -0.06288138 -0.08151133 -0.11145676 0.09389904 0.12546277
0.08185961 0.0936749 -0.10486434 -0.1440758 0.06839034 0.072226115 -0.06729092 -0.17551927

transformer.h.2.attn.c_proj.weight f4 [4, 4]
00000000: a22e c8bd 879c 1fbe 51b6 1b3e bfd1 213e
00000010: d8e3 dd3c e4ce 34bd b5d2 f43c 75a7 5b3d
00000020: 6fec 503d 2528 073e 259f ffbd fecb 03be
00000030: 80fa 37bd 1e7b 2d3c 6b08 bbbc 5c90 99bc
-0.097745195 -0.15587054 0.15206267 0.15802668 0.027086183 -0.04414262 0.02988563 0.053626496
0.05100673 0.13198908 -0.12481526 -0.12870786 -0.04491663 0.010588435 -0.022831162 -0.018745594

transformer.h.2.ln_2.weight f4 [4]
00000000: bf3e 993f 1484 983f 6064 8d3f 02ec 9f3f
1.1972274 1.1915307 1.1046257 1.2493899

transformer.h.2.mlp.c_fc.weight f4 [16, 4]
00000000: fd52 d9bc eec9 4a3d bcc8 053c 1e5a a9bd
00000010: 6592 3fbd 7064 98bd 0f38 a63b d159 c73d
00000020: a875 ab3d fb89 dd3c 54f2 193c b2ae a3bd
00000030: fb93 72bd 8b3f 86bd 40e3 2a3c ba43 263e
00000040: 8833 9ebc 9648 e13d f1dd 3ebd 8d60 00be
00000050: e033 c3bd 633b c2bd 3ce7 f13a 36b5 2c3e
00000060: f8a0 003e 4f61 8fbd cb4c e33d cc5d 5fbe
00000070: 77a1 d7bd 4771 d2bc 5a29 4fbd f9b6 2b3e
00000080: cb44 d0bd 41c2 edbd 58df fabb 30b5 fa3d
00000090: 35be adbd 6f6b d9bb 07bb 17bb 779c d63d
000000a0: a8e6 443d 0972 383d b2bd 8d3d 1f35 2bbe
000000b0: 726b a7bd 2f50 bfbd 99e1 21bc 35cf 083e
000000c0: 5dc1 023d 1046 e43d b050 2b3d 98fe dabd
000000d0: 1dac 653e 962e 62be f70d 98bd a768 f73c
000000e0: 7570 cabd 34bc 193e 9b6d 2cbe 3954 2e3e
000000f0: 43d4 0c3d 0896 ba3d 4332 8e3d 45be 26be
-0.02652883 0.04950898 0.008165535 -0.082691416 -0.046770472 -0.07441032 0.0050726007 0.09733928
0.083720505 0.027043333 0.009396154 -0.07992305 -0.059223156 -0.065550886 0.010430157 0.16236773
-0.019311681 0.11000173 -0.04659838 -0.12536831 -0.09531379 -0.09483983 0.0018455754 0.16866001
0.12561405 -0.07000982 0.110986315 -0.21813124 -0.10528844 -0.02568878 -0.050576545 0.16769017
-0.10169371 -0.116093166 -0.007656019 0.1224159 -0.08483545 -0.0066351215 -0.0023152248 0.10479062
0.048071533 0.045030627 0.06920947 -0.16719483 -0.081747904 -0.09341466 -0.009880447 0.13360293
0.031922687 0.11146176 0.041824996 -0.10693091 0.22428937 -0.22088084 -0.074245386 0.03020127
-0.09884731 0.150132 -0.16838686 0.17024316 0.034382116 0.091106474 0.069431804 -0.1628352

transformer.h.2.mlp.c_proj.weight f4 [4, 16]
00000000: b8cb 953d 2710 a13b 9b60 053d f495 003d
00000010: 2b6c c63d fb28 013d 1431 893d f947 913d
00000020: 8769 3f3c 838e bd3d ca02 dc3d 3127 953c
00000030: 6b5c c53d 3f77 e4bd 9d47 0a3e 8b1d 113e
00000040: 79e8 73bd cb9d bf3c ef2f 8739 15c6 333d
00000050: 6c4e e2bd 8a8c 1a3d f209 c63d f1d0 123d
00000060: 7bb4 ae3c 640f 2d3c e434 9cbc bbc2 c73c
00000070: 7caf 20bd b8e3 e63d 3d71 cdbc 495f 1cbd
00000080: 60d6 063a c1f4 6a3d c122 d5bd 7aed 483d
00000090: a819 653c 7b66 793d ab38 4ebe 694e 9a3d
000000a0: ffd1 8b3d 8d64 8e3d e04e a6bd dd32 a03d
000000b0: 9067 9cbd feef d7bd 1c42 17bc 0fea c4bd
000000c0: b733 b0bb ee76 75bd ec1e 093a dd0c 60bd
000000d0: 93d1 1f3b b61a 94bd caf5 593d b93c 05be
000000e0: bbe6 8dbd 1d3d 64bd b001 593d e11a aabd
000000f0: 9782 d43c fbdf 03bc 2317 a6bd 8f35 8c3d
0.07314247 0.0049152556 0.032562833 0.031393006 0.096886 0.031533223 0.06698814 0.07093806
0.0116828745 0.092556976 0.107427195 0.018207164 0.09636768 -0.11155557 0.13503881 0.14171426
-0.059547875 0.023390671 0.0002578492 0.043890078 -0.11050114 0.037731685 0.09669866 0.035843793
0.021326294 0.010562751 -0.019068189 0.024384847 -0.039229855 0.11273903 -0.02507841 -0.03817681
0.00051436387 0.05736232 -0.104070194 0.0490546 0.013983168 0.06088875 -0.20138805 0.07534487
0.06827163 0.06952772 -0.08120513 0.078222014 -0.076369405 -0.10543822 -0.00923207 -0.09614956
-0.0053772586 -0.059927873 0.0005230743 -0.054699767 0.002438639 -0.07231657 0.05321292 -0.13011445
-0.06928774 -0.055722345 0.052980125 -0.08305908 0.025941176 -0.008049007 -0.08109882 0.06846153

transformer.ln_f.weight f4 [4]
00000000: eff7 c33f b24e be3f 1179 c23f 92b5 bc3f
1.5310038 1.4867766 1.5193197 1.4742911

lm_head.weight f4 [5, 4]
00000000: 9a24 b8be b5f1 aabe 1773 ce3e c93b 413e
00000010: 941a 3a3e c5f7 853e 2e82 d4bd 16fd 94be
00000020: 56e4 ca3d ad66 223d 4770 22be 0eba ad3d
00000030: cdb3 dc3d d2fe 553d 3479 2bbe 28dc a33d
00000040: aaf1 463e a811 2a3e e22e 2ebe 7d61 25be
-0.35965425 -0.33387533 0.40322182 0.18870462 0.18174201 0.26165596 -0.10376392 -0.2909934
0.09906833 0.0396487 -0.15863143 0.08482753 0.10776482 0.05224497 -0.16745454 0.08000976
0.19428125 0.16608298 -0.17010072 -0.1615047

exp_avg f4 [5, 4]
00000000: 9e8e 9d39 f50c 8fb9 f5f0 ebb8 51df 6d38
00000010: 25e5 723b 9fe1 9fb9 63a5 99bb 6f7f 6eb9
00000020: 484b 563b 44dc 343a ce75 19bb 289d d8ba
00000030: 66e8 57b7 987c 333a 2ed4 d83a 9e5c e2ba
00000040: c6c3 03bc e3a2 76b9 f000 ba3b 3cb2 be3a
0.00030051632 -0.0002728474 -0.00011250555 5.6713183e-05 0.003706285 -0.00030494944 -0.004688905 -0.00022744921
0.003269868 0.0006899277 -0.0023416164 -0.0016526328 -1.2869108e-05 0.0006846874 0.0016542727 -0.0017270034
-0.0080422815 -0.00023521068 0.0056763813 0.0014548968

exp_avg_sq f4 [5, 4]
00000000: 9ab4 2c36 1f53 9435 cdf2 8336 6f43 5436
00000010: d07c 0c3a 1932 2f39 16ea 823a c729 9138
00000020: 8d4d bb39 5e0e 9f38 6296 4a3a 40ea 2f38
00000030: cc66 e039 072c c238 3d0b 793a 5745 4038
00000040: d6f6 113a 040d 1a39 becb 8a3a 8f6c 4d38
2.5735121e-06 1.1051051e-06 3.93237e-06 3.1629713e-06 0.00053591747 0.00016707963 0.0009987976 6.9219204e-05
0.000357252 7.584387e-05 0.0007728097 4.1941414e-05 0.000428012 9.2588416e-05 0.0009500271 4.5840945e-05
0.00055680925 0.00014691433 0.0010589284 4.897691e-05

exp_avg f4 [256, 4]
00000000: 8314 41b8 f546 ef37 4788 96b7 8044 bd36
00000010: 8372 d2b5 f08d 9838 b186 6938 4ac8 38b9
00000020: 932a c7b4 8b3e 6638 9bb8 ec37 6049 89b8
00000030: 58ee 8337 a5bd 2738 0a99 2038 bf63 e3b8
00000040: 2cf2 65b6 6ddf 5e38 529d 36b7 66a2 3db8
00000050: c257 1f38 4e05 8b37 2ecd 3836 8ddb c4b8
00000060: ce19 5ab7 1d09 d1b8 b8c2 34b8 cc25 0839
00000070: d55a 1538 94de a5b6 2dde 9eb7 7507 b938
00000080: c2f9 1fb8 b6e4 60b8 2e0d b3b7 722a ad38
00000090: ec6b 7834 5262 b838 49b4 2d38 2bb5 0db9
000000a0: d8f1 afb7 7e9f a2b7 d11c d7b7 2a6e 0539
000000b0: 5f6d 6737 aebc 06b8 f6c8 b7b6 d17a b138
000000c0: a596 6eb5 aebb e237 37ca 2fb7 ae8a f437
000000d0: deb8 8036 56fb 01b8 5206 bbb6 a9e2 8ab7
000000e0: c576 1a38 0089 0139 f8ff 7d38 c4d7 36b9
000000f0: a589 85b5 4e3a 5538 66c1 5fb7 e8b7 ccb8
00000100: bce3 8636 959a 79b8 8dde b4b7 7310 0e38
00000110: ab25 b9b7 b394 2b38 85dd f137 90bd 9ab7
00000120: f7f8 0437 0707 abb7 78aa 4237 9351 9a34
00000130: f5d1 2eb7 047d 1138 a772 6db6 8c22 ebb7
00000140: c7a7 79b6 b23b 1f37 772f 2238 ffa6 91b8
00000150: fcfe f3b7 0240 b7b8 6853 89b6 de69 f738
00000160: 8974 09b7 95a2 bd37 5174 b737 0fc6 d3b7
00000170: c0ff e936 91e2 4e38 50e9 6836 cb69 0bb8
00000180: 1ef6 01b6 be8d 4837 31df ba38 61a7 61b9
00000190: 07b5 7b37 18b6 4db8 20b1 30b5 21de 3e38
000001a0: 9c86 93b7 3b08 d3b8 42cb a4b7 1e64 9e38
000001b0: 250e 9eb7 cdfb 85b8 a10d 6ab8 6dec 7639
000001c0: d572 f5b7 5e0f 9fb8 4331 ecb7 703a 0939
000001d0: bea1 24b6 66eb 66b8 02d9 d7b7 bff6 1839
000001e0: 6895 1bb8 b01e 87b7 4b55 23b7 30f5 ef38
000001f0: 1518 bc37 2c0b 0639 ad40 4938 acfe 8bb9
00000200: 338c 9f37 cd4a 8b38 7777 6fb8 6db9 65b7
00000210: d5e0 8e35 ebab 40b7 8ad5 6eb7 7d15 c338
00000220: 9652 bc37 f971 e1b7 b13c 1a37 8922 2bb8
00000230: 2fee 9937 6af2 b838 a4a2 e037 b960 a5b8
00000240: 3bd7 3538 f84c 5338 2728 df36 2a69 d6b7
00000250: 6233 76b6 29ad cb38 1405 4438 88b4 c0b8
00000260: 837c bc37 6044 3fb8 f8f8 13b8 b1b2 85b8
00000270: 2d4f f2b7 6d6b ac38 5ba7 b137 29a8 94b8
00000280: 201f 37b7 acf1 aab6 1c3e d6b7 c9ec eb37
00000290: 3a86 3c37 a0d8 6ab8 cdd1 a5b8 3389 ec38
000002a0: 045a 15b8 d664 8337 0a6a 8336 4ac0 3838
000002b0: 8b2e e337 4288 e938 3871 0537 c2b5 23b9
000002c0: 324d 7937 4603 de37 fcea 2eb7 4447 67b8
000002d0: cd6e 5b37 3637 d938 91d6 af38 340d 4bb9
000002e0: 1709 a037 56a2 8cb8 0c3f 82b8 e2e3 1239
000002f0: 6144 53b7 12cd 3138 06ee 5137 deb7 b7b8
00000300: cbe8 1737 d25e a6b8 f661 b7b7 b127 3139
00000310: 138a 5ab7 3ed6 3338 09c6 b8b6 96e8 4238
00000320: 97ae 34b7 13ab 37b8 c065 bdb7 5c6c 6f38
00000330: c556 8db7 e6bf cbb8 97cb ecb7 081f b037
00000340: 8070 cab7 c7eb 84b8 f8d0 7cb8 64ef fb38
00000350: f0cb e5b7 8d5a 1cb8 7ce1 84b7 4490 48b7
00000360: 46c2 d636 3f0a c138 11f0 2338 9fc3 56b9
00000370: 2d90 b4b7 b27c 12b8 49be f3b6 b3f7 0cb9
00000380: 1b4d bc37 f928 8538 e6b1 9e38 0b64 99b8
00000390: 8084 cfb5 f486 c8b8 f587 1037 e989 dc38
000003a0: 9d39 0437 57bb d9b7 6bb5 4e38 756d 4437
000003b0: bf75 8837 359d 2db8 ed35 d9b7 3002 02b8
000003c0: 6973 5236 9682 aa37 ad39 4fb8 caa8 4a37
000003d0: 9497 bab7 f178 a1b8 258d 6937 eb8d a138
000003e0: 915a 01b9 db7d c9b8 8916 ae38 ce2b a938
000003f0: ad7b fb36 6182 b137 9e47 0337 62a6 98b8
-4.603389e-05 2.8524062e-05 -1.7944853e-05 5.6406134e-06 -1.5679547e-06 7.274363e-05 5.567697e-05 -0.00017622221
-3.7097615e-07 5.489452e-05 2.8219356e-05 -6.546336e-05 1.5727404e-05 3.9992523e-05 3.82895e-05 -0.00010842783
-3.4264622e-06 5.3137006e-05 -1.0884674e-05 -4.5212357e-05 3.7990285e-05 1.6572561e-05 2.7537567e-06 -9.386903e-05
-1.2999821e-05 -9.967594e-05 -4.309669e-05 0.00012984051 3.5608962e-05 -4.9432947e-06 -1.8938526e-05 8.8228764e-05
-3.814116e-05 -5.3618765e-05 -2.13446e-05 8.257189e-05 2.3136062e-07 8.792117e-05 4.1414318e-05 -0.00013514298
-2.0974243e-05 -1.9386174e-05 -2.5643416e-05 0.00012724908 1.3794138e-05 -3.212381e-05 -5.47722e-06 8.462894e-05
-8.8881126e-07 2.7028695e-05 -1.0477895e-05 2.9151644e-05 3.8362186e-06 -3.099007e-05 -5.57377e-06 -1.6556429e-05
3.6827074e-05 0.00012353435 6.055829e-05 -0.00017437252 -9.949332e-07 5.0837458e-05 -1.3336865e-05 -9.761733e-05
4.020023e-06 -5.9510192e-05 -2.1561305e-05 3.3870758e-05 -2.2071259e-05 4.0908064e-05 2.8832592e-05 -1.8446503e-05
7.92578e-06 -2.038806e-05 1.1602991e-05 2.8744088e-07 -1.0420093e-05 3.4687124e-05 -3.5382488e-06 -2.803027e-05
-3.720155e-06 9.491037e-06 3.8668015e-05 -6.945244e-05 -2.9086594e-05 -8.7380424e-05 -4.092628e-06 0.00011797597
-8.192969e-06 2.2606264e-05 2.1869464e-05 -2.5245388e-05 6.9737143e-06 4.9325234e-05 3.47065e-06 -3.323871e-05
-1.9365757e-06 1.1953931e-05 8.910744e-05 -0.00021520026 1.5002915e-05 -4.9045397e-05 -6.582286e-07 4.5506404e-05
-1.7586448e-05 -0.00010062797 -1.9644973e-05 7.5526754e-05 -1.8841654e-05 -6.388836e-05 -5.580264e-05 0.00023548464
-2.9259749e-05 -7.584573e-05 -2.8156332e-05 0.00013087108 -2.453205e-06 -5.5055505e-05 -2.573105e-05 0.0001458777
-3.7094025e-05 -1.6107544e-05 -9.735416e-06 0.00011442078 2.242256e-05 0.00012783398 4.798237e-05 -0.0002670189
1.9019562e-05 6.641969e-05 -5.70933e-05 -1.36926365e-05 1.0645259e-06 -1.148412e-05 -1.4235624e-05 9.302327e-05
2.2449804e-05 -2.6875163e-05 9.193246e-06 -4.080174e-05 1.8349934e-05 8.818957e-05 2.6778616e-05 -7.885829e-05
4.335421e-05 5.0378003e-05 6.6505922e-06 -2.5559759e-05 -3.6686765e-06 9.712048e-05 4.673477e-05 -9.1889e-05
2.2469327e-05 -4.5601628e-05 -3.52794e-05 -6.375218e-05 -2.8885517e-05 8.221609e-05 2.1177975e-05 -7.088512e-05
-1.0914897e-05 -5.094529e-06 -2.553971e-05 2.8124445e-05 1.1236925e-05 -5.5991695e-05 -7.9068916e-05 0.00011278912
-3.5608202e-05 1.5663372e-05 3.916449e-06 4.40481e-05 2.7082182e-05 0.00011135686 7.953779e-06 -0.00015612601
1.485953e-05 2.6465987e-05 -1.042592e-05 -5.5141063e-05 1.3079215e-05 0.0001035765 8.3846164e-05 -0.00019364507
1.907772e-05 -6.705958e-05 -6.2106265e-05 0.00014008538 -1.2592501e-05 4.2391075e-05 1.251279e-05 -8.760368e-05
9.054503e-06 -7.9331585e-05 -2.1860917e-05 0.00016894822 -1.30259605e-05 4.2876454e-05 -5.5066816e-06 4.6469817e-05
-1.0769486e-05 -4.3789925e-05 -2.2577937e-05 5.7082958e-05 -1.6848915e-05 -9.715538e-05 -2.8228196e-05 2.0995285e-05
-2.4132663e-05 -6.3381674e-05 -6.02761e-05 0.00012013203 -2.7393893e-05 -3.727763e-05 -1.5840626e-05 -1.1954518e-05
6.4003134e-06 9.204866e-05 3.9085808e-05 -0.00020481505 -2.152481e-05 -3.4925244e-05 -7.2641164e-06 -0.00013443716
2.2447251e-05 6.349566e-05 7.567163e-05 -7.314243e-05 -1.5461264e-06 -9.56188e-05 8.614724e-06 0.00010516105
7.881227e-06 -2.5955653e-05 4.9283186e-05 1.1707995e-05 1.6267293e-05 -4.1392825e-05 -2.5893527e-05 -3.0996453e-05
3.1359616e-06 2.0326388e-05 -4.940636e-05 1.20794375e-05 -2.2243512e-05 -7.699605e-05 1.3920745e-05 7.7035125e-05
-0.00012336137 -9.607869e-05 8.301164e-05 8.066707e-05 7.4947807e-06 2.1160757e-05 7.824883e-06 -7.278916e-05

exp_avg_sq f4 [256, 4]
00000000: 1c7e 8c33 6f29 9733 beb2 6133 8bb6 ce34
00000010: eb43 2732 f316 7b33 af8d b332 a4ea 8034
00000020: 01d6 4e32 9237 a033 8a1b b132 3ab8 9d34
00000030: cf02 d331 ee66 cf33 186f 0033 b5e7 ce34
00000040: 70a3 2435 1a72 2534 ac6d 4335 5e6f 7434
00000050: f930 fc31 d5d0 a234 bb4a d232 dfa5 9634
00000060: 2327 e031 3e71 8b33 4ca3 bd32 997b 7334
00000070: 0361 2532 4c26 b233 3edf 0433 9c0e 7634
00000080: bd79 0f32 cee6 b933 f3ea fb32 2b9e 9834
00000090: e1ab 9332 05a4 2934 7c23 1433 3e83 9234
000000a0: 341f 3e32 5694 9633 108e b932 c8f6 6634
000000b0: fdb5 0a32 478a a833 d07b d132 a929 5534
000000c0: 8ea6 0132 2dc2 a133 7eec e432 32ad 5634
000000d0: 6a57 2f32 e400 d133 394b f132 f299 8434
000000e0: 951b f531 41a9 9a33 64a2 0b33 56c3 6734
000000f0: a1a4 1632 5998 9e33 a564 ec32 ba86 5d34
00000100: cad6 d931 098b 9133 6ff7 f632 ac4f 6b34
00000110: 55b7 be31 fd72 8933 12b4 c432 1647 5334
00000120: e56b fc31 08c7 a933 0ea7 ce32 dbe2 5734
00000130: a12a e531 68de 8c33 198e b732 82bd 4334
00000140: 6a2f fb31 9398 9a33 ed6b ee32 2bf2 7134
00000150: 8727 4b32 109e 9233 d883 ed32 3c67 8c34
00000160: 22b0 ed31 b2e4 8233 3f64 f532 b42f 6134
00000170: 2750 d431 0761 8133 0eaa c832 367e 5534
00000180: 1804 0832 3218 ab33 96b8 ed32 741e 6934
00000190: cecc 1532 4b85 ad33 c8eb 1033 1f15 9334
000001a0: 1dbd d031 1e44 9f33 be74 f032 2943 4734
000001b0: 16b0 ec31 77c6 9233 9d2e b732 99cb 7134
000001c0: 72df 0932 b6be 9833 8f00 e432 1d0c 7c34
000001d0: 0437 d131 18e0 8a33 564a c732 385a 3934
000001e0: 6524 8233 a50b 9633 d83c a633 5cab 6834
000001f0: 2f36 0432 24d0 9433 f42e 0733 63e6 8234
00000200: cc55 fe31 e99f 9333 1d38 f632 e185 7034
00000210: 7515 f831 37fa a933 d73e ea32 8720 7434
00000220: 9d6f 0332 82cc 9433 d6dd e732 93a2 6d34
00000230: dc9d fd31 fff9 af33 90b5 f032 1d40 8c34
00000240: 4f82 5b32 00a8 6433 e8de 4733 4aab 6534
00000250: c51e ec31 75ff be33 55ba e332 0bd1 8434
00000260: c1a7 0132 05cd ac33 ae85 f832 a61b 8034
00000270: c675 cf31 6033 9733 9976 d432 e8cd 7834
00000280: 02f5 4532 9716 a533 5cea e232 414a 6e34
00000290: 5d33 2032 14b0 9533 0dd5 1833 2b75 5d34
000002a0: 29a5 bb31 d321 8b33 1135 e832 5571 8234
000002b0: aab6 ef31 e689 a733 0df4 c132 b365 7634
000002c0: 6af3 2332 d8d8 8933 ac3b df32 3ac1 4f34
000002d0: c517 f231 6b3a 8933 55d8 ca32 8f04 4634
000002e0: 2a45 fa31 d843 8033 0481 c732 ec18 4c34
000002f0: 92da 0b32 f339 d733 ab94 0d33 ee72 8034
00000300: 0d34 1032 5ecf aa33 d90b c632 69e3 7334
00000310: cb7d f731 3594 a133 0691 0a33 b16b 8934
00000320: 2bc7 d331 d92a 9a33 59bf e432 e96f 6134
00000330: a68d d931 7ddb 9f33 1042 f732 5a06 8334
00000340: b75e fb31 5709 8833 14de a632 f7d0 5634
00000350: 3011 5032 1100 8033 95fd d632 52f4 3f34
00000360: 4c50 1032 553b ab33 a5b4 1033 da07 8034
00000370: 32f0 e531 c8cb 8f33 8f4d bf32 e32d 4234
00000380: 626a 0b32 40fe 8433 95e6 ea32 4c12 6834
00000390: 8a0b f231 9412 a733 e83a cd32 4b87 8834
000003a0: 14b6 d931 fcab a933 275e d932 20cc 6234
000003b0: 648d 2532 fab6 9333 a5a8 f032 cb3d 6434
000003c0: 10e6 fb31 d35b 9633 c9f4 db32 a914 7234
000003d0: e36f 2432 c753 9133 5180 1e33 7aea 5434
000003e0: 8c46 f634 dc79 9433 8a2d 3735 034b 9834
000003f0: 1bc9 bd31 26a8 bc33 e89c f032 14e3 7334
6.542197e-08 7.039022e-08 5.254946e-08 3.8503308e-07 9.736122e-09 5.8461364e-08 2.0902773e-08 2.4012581e-07
1.2039437e-08 7.460689e-08 2.0618035e-08 2.937757e-07 6.1412275e-09 9.6579114e-08 2.990336e-08 3.853908e-07
6.1332594e-07 1.5408332e-07 7.2802754e-07 2.2764786e-07 7.339733e-09 3.0326797e-07 2.4481201e-08 2.8060364e-07
6.5237074e-09 6.4932905e-08 2.2076755e-08 2.2676103e-07 9.626322e-09 8.295737e-08 3.0936683e-08 2.291585e-07
8.351376e-09 8.656717e-08 2.9327088e-08 2.842729e-07 1.7191214e-08 1.5799021e-07 3.4491208e-08 2.729011e-07
1.106655e-08 7.0119015e-08 2.1601437e-08 2.1510198e-07 8.0740366e-09 7.848262e-08 2.4387106e-08 1.9852327e-07
7.546658e-09 7.532467e-08 2.6650238e-08 1.9993311e-07 1.0206216e-08 9.732483e-08 2.80903e-08 2.4698926e-07
7.133574e-09 7.201971e-08 3.2511153e-08 2.1584614e-07 8.768581e-09 7.38516e-08 2.7519784e-08 2.0631242e-07
6.33995e-09 6.777379e-08 2.8750689e-08 2.1915065e-07 5.5505702e-09 6.400476e-08 2.289929e-08 1.9676767e-07
7.3464315e-09 7.905879e-08 2.4057524e-08 2.0105965e-07 6.6696235e-09 6.5597135e-08 2.1368622e-08 1.8229733e-07
7.310452e-09 7.198937e-08 2.7755926e-08 2.2532974e-07 1.1825143e-08 6.827406e-08 2.7650387e-08 2.6152145e-07
6.917632e-09 6.095196e-08 2.856734e-08 2.0972112e-07 6.1791243e-09 6.02468e-08 2.3360396e-08 1.9883086e-07
7.917173e-09 7.967209e-08 2.7674371e-08 2.1710895e-07 8.719509e-09 8.080186e-08 3.3742054e-08 2.739625e-07
6.0750964e-09 7.416405e-08 2.7992765e-08 1.8557752e-07 6.8885226e-09 6.834755e-08 2.1325201e-08 2.2518942e-07
8.025255e-09 7.112742e-08 2.6542947e-08 2.3473736e-07 6.088955e-09 6.466888e-08 2.3200453e-08 1.7262289e-07
6.060217e-08 6.9870374e-08 7.741045e-08 2.1669024e-07 7.695731e-09 6.9296476e-08 3.147484e-08 2.4382015e-07
7.402127e-09 6.8743084e-08 2.8663687e-08 2.2400447e-07 7.2201893e-09 7.9151896e-08 2.7269762e-08 2.2736104e-07
7.6505815e-09 6.928987e-08 2.6992819e-08 2.2131489e-07 7.3812156e-09 8.1945466e-08 2.8022242e-08 2.612368e-07
1.27771065e-08 5.3238182e-08 4.653603e-08 2.1389602e-07 6.872002e-09 8.894032e-08 2.6511012e-08 2.4739015e-07
7.546931e-09 8.046667e-08 2.893179e-08 2.3861975e-07 6.037882e-09 7.0408305e-08 2.473398e-08 2.3171708e-07
1.15226175e-08 7.68752e-08 2.6416437e-08 2.219249e-07 9.324904e-09 6.9703816e-08 3.5584026e-08 2.0624854e-07
5.461193e-09 6.4788445e-08 2.7032486e-08 2.4296847e-07 6.976582e-09 7.801627e-08 2.2579139e-08 2.2947533e-07
9.543195e-09 6.419003e-08 2.5987752e-08 1.9348673e-07 7.0458293e-09 6.390186e-08 2.3614271e-08 1.8441845e-07
7.2838207e-09 5.972805e-08 2.3225319e-08 1.9008047e-07 8.140562e-09 1.00222586e-07 3.2964333e-08 2.392548e-07
8.393738e-09 7.953962e-08 2.3055621e-08 2.271387e-07 7.202947e-09 7.5241054e-08 3.2262527e-08 2.5596594e-07
6.163551e-09 7.178978e-08 2.6629708e-08 2.099547e-07 6.3316348e-09 7.443939e-08 2.8784626e-08 2.4405273e-07
7.3158293e-09 6.3346924e-08 1.9425933e-08 2.0006324e-07 1.21111015e-08 5.9604766e-08 2.5028195e-08 1.7877144e-07
8.400161e-09 7.9736004e-08 3.3691908e-08 2.384757e-07 6.692084e-09 6.696024e-08 2.2270596e-08 1.8084351e-07
8.1150535e-09 6.192977e-08 2.7346042e-08 2.161334e-07 7.044439e-09 7.779923e-08 2.3891928e-08 2.5430413e-07
6.336231e-09 7.9009595e-08 2.530494e-08 2.112215e-07 9.636413e-09 6.878504e-08 2.8016368e-08 2.1256635e-07
7.3312165e-09 7.001622e-08 2.560627e-08 2.2545522e-07 9.5714965e-09 6.767328e-08 3.6903945e-08 1.982934e-07
4.58724e-07 6.913953e-08 6.823908e-07 2.8366784e-07 5.523487e-09 8.785018e-08 2.801103e-08 2.2713749e-07

exp_avg f4 [12, 4]
00000000: 169e 06b5 5db4 2f34 f8bf a035 ff2b 4cb5
00000010: 34ef 96b3 0d9f 91b5 79e6 4a34 ecba 9235
00000020: 0596 2f36 f187 5cb6 561d 8b36 9ce5 6fb6
00000030: 2fc1 2137 fea2 3eb6 b23a 2fb7 5749 8836
00000040: 719f 1735 3774 4ab4 2254 8034 746c 0fb5
00000050: cd91 0232 0277 bcb1 d52d ae33 d73d f8b3
00000060: b522 d335 2724 1436 97d0 8bb5 5d27 35b6
00000070: d06d 97b6 5f2d 05b6 8912 9636 0b85 0736
00000080: ad23 8bb7 1e88 78b6 5956 c937 ae3d 8ab6
00000090: 3861 34b8 7f5f 3fb7 7bfb 9638 719f 9bb7
000000a0: f220 6037 9ca2 3a37 9c34 04b8 9ace fb36
000000b0: 3f76 8d38 7325 c437 8de4 13b9 b302 5a38
-5.0148935e-07 1.6363761e-07 1.1976799e-06 -7.6059945e-07 -7.02843e-08 -1.0849632e-06 1.8896561e-07 1.0932249e-06
2.6164355e-06 -3.2861683e-06 4.145938e-06 -3.5747425e-06 9.641327e-06 -2.840708e-06 -1.0444479e-05 4.0616537e-06
5.64839e-07 -1.8854995e-07 2.3903073e-07 -5.342947e-07 7.600147e-09 -5.4850497e-09 8.110843e-08 -1.15596485e-07
1.5730826e-06 2.2074762e-06 -1.0417015e-06 -2.6994014e-06 -4.5129345e-06 -1.9844954e-06 4.472506e-06 2.0194009e-06
-1.6586704e-05 -3.703411e-06 2.4001276e-05 -4.119901e-06 -4.3005886e-05 -1.1406722e-05 7.199399e-05 -1.8551686e-05
1.3359111e-05 1.1124324e-05 -3.152025e-05 7.5044345e-06 6.745429e-05 2.338246e-05 -0.00014104154 5.1977764e-05

exp_avg_sq f4 [12, 4]
00000000: 7ff2 5b2f 0360 1e2f 412c 9b2f 6d60 5c2f
00000010: 01b2 a02d b7bb 722d 69be ed2d 891d 3a2d
00000020: 0390 2730 47e5 f42f 8407 9a30 eb70 ac2f
00000030: 53ab 9330 2b35 2330 c7e0 fd30 ede0 7a30
00000040: c988 9a2e baf9 6e2e 036e b62e a68a 672e
00000050: 95a5 5e2d d6d1 fd2c 5cc6 3e2d 1238 182d
00000060: 744b 3130 c591 882f 74ac 8f2f 9b8f 4830
00000070: af71 d52f 9fb3 b02f aa72 ae2f 0e6b fc2f
00000080: 9652 4434 4aec e533 7a11 9934 25a2 5833
00000090: 6fcd d933 ae9c 6533 2f86 1e34 1137 0633
000000a0: 69e4 4634 3df4 ce33 1d74 a534 8ac4 4633
000000b0: f6aa 5c35 7a47 de34 d729 b435 776b 3834
2.0004086e-10 1.4404127e-10 2.822578e-10 2.0043141e-10 1.8268944e-11 1.3797788e-11 2.702834e-11 1.0579434e-11
6.09589e-10 4.4546253e-10 1.1207111e-09 3.136685e-10 1.0744351e-09 5.937461e-10 1.8472058e-09 9.126911e-10
7.027407e-11 5.4336736e-11 8.295944e-11 5.2646464e-11 1.2656006e-11 7.213989e-12 1.0844294e-11 8.65265e-12
6.449945e-10 2.484183e-10 2.6134084e-10 7.296365e-10 3.882525e-10 3.2141842e-10 3.173189e-10 4.59146e-10
1.8283967e-07 1.0706624e-07 2.8511187e-07 5.043889e-08 1.0142218e-07 5.3460717e-08 1.4763712e-07 3.124939e-08
1.8523282e-07 9.637049e-08 3.0818128e-07 4.627922e-08 8.220517e-07 4.1402728e-07 1.3423222e-06 1.7175431e-07

exp_avg f4 [4, 4]
00000000: 8be8 f4b7 eaac 9cb6 ef12 01b8 62c0 e5b7
00000010: 6f8a 6539 50c1 f838 f733 0d39 3a0a ee37
00000020: 6381 a638 f1f1 1b38 f338 c035 74f6 84b7
00000030: 6053 f5b9 5fdf 88b9 a50b 9cb9 a8eb 1cb9
-2.9195353e-05 -4.669292e-06 -3.077363e-05 -2.7388513e-05 0.00021890712 0.00011861569 0.00013466166 2.8376573e-05
7.939597e-05 3.7180205e-05 1.4321689e-06 -1.585039e-05 -0.0004679216 -0.00026106366 -0.00029763315 -0.00014965108

exp_avg_sq f4 [4, 4]
00000000: 3fbc 1135 21f8 0534 8041 e234 54dd 9134
00000010: bbff a736 da2e a535 ff6c 7d36 d0ae 1f36
00000020: 6997 cd35 6cdd c434 0e38 a635 4a99 5535
00000030: 3cf3 6837 571b 6036 0ed5 3337 3bf1 e136
5.4290643e-07 1.2476859e-07 4.2143438e-07 2.7169392e-07 5.006759e-06 1.2307094e-06 3.7763382e-06 2.37946e-06
1.5317756e-06 3.666895e-07 1.2384278e-06 7.957175e-07 1.388491e-05 3.3394515e-06 1.0718837e-05 6.7336055e-06

exp_avg f4 [16, 4]
00000000: c2df 6b36 9b41 2cb8 956d b138 74bf 4cb8
00000010: f5e8 d1b6 afb7 c8b7 66ea 7d38 1e21 04b8
00000020: 38a6 8cb7 ced8 4238 0c1d 43b8 6e06 9b37
00000030: 17d9 82b7 b0b3 cb36 c73f 0a38 c49b c3b7
00000040: 5b41 7db8 958f a1b8 fddb 2e38 d273 c138
00000050: 1808 6fb8 1c63 9ab8 1b0b 5c37 85ee ef38
00000060: 4428 7239 b385 8039 7fb2 a0b9 752c 25b9
00000070: 1d71 3237 6a0d d1b7 6638 5d38 e092 25b8
00000080: 4fdd 45b8 85e8 96b7 ce8e 3337 fb0d 6038
00000090: bcd9 0938 c566 7d38 25cf 78b8 d8a7 02b8
000000a0: 21a8 edb7 fc41 8138 762c edb8 439b ac38
000000b0: 1972 85b7 78e3 fa37 a76c 2cb8 49fb ec37
000000c0: 03bd 0fb6 eae5 6a38 f398 78b8 cc22 0037
000000d0: 50c3 9537 71f2 a738 0eb8 d9b8 b6bb 1d37
000000e0: 1b64 aa37 e9aa 9238 0083 84b8 ce5b cbb7
000000f0: 85b1 1237 4fdc 90b7 d65e 3c38 98e5 1bb8
3.5147973e-06 -4.1069095e-05 8.460429e-05 -4.8815695e-05 -6.255805e-06 -2.3927392e-05 6.05382e-05 -3.1502095e-05
-1.6766702e-05 4.645512e-05 -4.6518675e-05 1.8480434e-05 -1.5598298e-05 6.07079e-06 3.296116e-05 -2.3318345e-05
-6.0380768e-05 -7.7038225e-05 4.1689713e-05 9.2245304e-05 -5.698958e-05 -7.361753e-05 1.31156075e-05 0.00011440836
0.00023093919 0.00024513676 -0.00030650568 -0.00015752188 1.0635963e-05 -2.4920988e-05 5.274303e-05 -3.9475854e-05
-4.717457e-05 -1.7989669e-05 1.0702481e-05 5.3418782e-05 3.2866126e-05 6.0415612e-05 -5.9320726e-05 -3.1150732e-05
-2.8330893e-05 6.16349e-05 -0.00011309322 8.230519e-05 -1.5907966e-05 2.9908246e-05 -4.1109186e-05 2.8250406e-05
-2.141868e-06 5.600407e-05 -5.9270253e-05 7.637496e-06 1.7853134e-05 8.008339e-05 -0.00010381649 9.401634e-06
2.0312194e-05 6.993657e-05 -6.318651e-05 -2.4242236e-05 8.74361e-06 -1.7268727e-05 4.4911016e-05 -3.7168706e-05

exp_avg_sq f4 [16, 4]
00000000: 0f5a ae34 5dbf d233 8f10 dd34 4ff4 b133
00000010: 4627 f733 ed0f 2d33 eb0b 0f34 1664 3333
00000020: b29a 9f34 1db1 2934 081a 0335 b384 d433
00000030: 81e6 2b33 94ea 4a32 9dfb 6033 a713 6b32
00000040: 685a e034 95bb 6834 1205 1a35 b473 5634
00000050: d99a de34 ef01 7934 0471 2435 48b1 6034
00000060: 78ba c834 5c46 9f34 7c81 0c35 a5a5 4034
00000070: 5ba6 bc33 c567 9d32 3e73 f233 2598 6f32
00000080: e3e5 d432 e0a5 6e32 a753 2233 9d27 7932
00000090: 5352 6833 438a 5033 4d86 0034 7fb1 e732
000000a0: 8950 4c35 4c63 1335 729f 8635 1e41 ea34
000000b0: be2b 8834 dc2a d533 9eda 8a34 0d5a 0034
000000c0: 765c 4635 c185 8f34 44bf 4335 3bfe b534
000000d0: 1041 5c35 d256 d634 2fc3 5335 2434 ff34
000000e0: b540 8f34 4762 1934 6801 b034 b407 0d34
000000f0: c987 0b34 0092 2833 ff02 3034 c1b6 0b33
3.2475552e-07 9.813696e-08 4.1176506e-07 8.286644e-08 1.15089776e-07 4.0294186e-08 1.3322249e-07 4.1767713e-08
2.9728614e-07 1.5803785e-07 4.8839183e-07 9.896157e-08 4.0023682e-08 1.1811284e-08 5.2382905e-08 1.3683269e-08
4.178903e-07 2.1674926e-07 5.737685e-07 1.9972396e-07 4.146339e-07 2.3190636e-07 6.125922e-07 2.092612e-07
3.7388577e-07 2.966725e-07 5.234249e-07 1.7941655e-07 8.784692e-08 1.8324394e-08 1.12899656e-07 1.3946225e-08
2.4784589e-08 1.3891139e-08 3.7794646e-08 1.4502715e-08 5.4091583e-08 4.8554522e-08 1.1969787e-07 2.6972655e-08
7.6113116e-07 5.4906263e-07 1.0030183e-06 4.3633275e-07 2.53638e-07 9.9263815e-08 2.5863568e-07 1.1953689e-07
7.3895296e-07 2.6733144e-07 7.292149e-07 3.3898854e-07 8.2051065e-07 3.9923776e-07 7.8887655e-07 4.753539e-07
2.6682906e-07 1.4284988e-07 3.2783578e-07 1.313445e-07 1.2994782e-07 3.9248334e-08 1.6392367e-07 3.2529673e-08

exp_avg f4 [4, 16]
00000000: f5d1 a7b8 de9d abb8 4d6e b337 e8ab 5cb6
00000010: 7a4d 2ab7 f8c1 7436 ddf1 18b9 d58b 51b8
00000020: 0256 b936 9e6c 0238 1595 12b8 cc4a 68b7
00000030: 8d86 4cb8 b454 b1b8 25d4 1fb7 9805 c3b8
00000040: d83c 7938 989e 8438 0bf5 cf37 d508 0ab8
00000050: 9961 1f38 7bd6 2438 ce2a c1b9 ff71 c237
00000060: 6c90 3038 6419 78b8 2f24 bb38 2d9c 70b8
00000070: 6bca f0b7 a4fe c536 de08 9137 6962 a038
00000080: 6d49 f238 e485 9b38 1888 c236 e432 0b37
00000090: 9cdb 9738 6652 a938 d2c1 4838 2557 8938
000000a0: bae4 a738 f47b 90b8 edf3 8037 c3b9 5eb8
000000b0: 3d12 b8b7 aff5 4a37 0eeb c2b6 548e 0e39
000000c0: ca59 9b38 691d 9838 c2d4 f8b8 e2bc c138
000000d0: 8ad4 ccb8 70f2 29b9 2ba0 a439 0771 c638
000000e0: 311a 32b9 7816 20b7 680b c1b8 d706 0339
000000f0: cb07 3c39 5327 2839 6cff 21b7 0a9e 7738
-8.002288e-05 -8.1833205e-05 2.1389826e-05 -3.2882617e-06 -1.01508285e-05 3.6471738e-06 -0.0001458595 -4.995971e-05
5.5234423e-06 3.1095573e-05 -3.4947956e-05 -1.3845693e-05 -4.87627e-05 -8.455795e-05 -9.526532e-06 -9.2993665e-05
5.942289e-05 6.323791e-05 2.479043e-05 -3.290999e-05 3.799945e-05 3.9300397e-05 -0.0003684372 2.3179686e-05
4.2096173e-05 -5.9151454e-05 8.9235946e-05 -5.736591e-05 -2.8704488e-05 5.9007016e-06 1.7289476e-05 7.647725e-05
0.00011553136 7.415915e-05 5.797494e-06 8.2968945e-06 7.2411465e-05 8.073896e-05 4.7864225e-05 6.548901e-05
8.005784e-05 -6.889543e-05 1.5372376e-05 -5.310193e-05 -2.1943002e-05 1.2097341e-05 -5.8090145e-06 0.00013595197
7.4077005e-05 7.253403e-05 -0.00011865191 9.238139e-05 -9.7670665e-05 -0.00016207411 0.00031399852 9.462429e-05
-0.0001698516 -9.541975e-06 -9.205082e-05 0.00012495682 0.0001793198 0.00016036378 -9.655818e-06 5.9036574e-05

exp_avg_sq f4 [4, 16]
00000000: b016 3534 3357 5d33 5a43 f631 bc87 c132
00000010: 5cde 3f33 444f 6b33 acf7 b734 9735 a333
00000020: 1ed8 6f33 783a a933 b643 bb32 7507 0633
00000030: 68f1 6832 4c8d 8932 e57d a331 a394 5e34
00000040: 9379 c435 de12 4135 38f2 5533 8a0d 0434
00000050: ca3c da34 4865 0035 951d 1336 ae62 0e35
00000060: 5843 0535 61a8 5135 d8b7 ba34 ddd1 9634
00000070: e071 ea33 a1ec 9834 3d5a 1233 e688 0136
00000080: acbb bc34 b6ba 5434 7921 5d32 b235 ed32
00000090: 29f7 ca33 5d66 ed33 cb2a eb34 842a 0334
000000a0: 2221 f833 500d 4934 2522 f833 2574 8933
000000b0: c628 c932 dde4 af33 37dd 0a32 73f4 fc34
000000c0: 6bb2 8e36 5732 0536 5010 0734 320d a534
000000d0: 9992 a135 f35c bc35 c9af a436 28d4 cd35
000000e0: b9a4 c435 ba9a 1736 5bf4 5735 f6bd 5f35
000000f0: 9f7c 9534 9741 2d35 17ec b033 410a bc36
1.6865192e-07 5.153488e-08 7.1671993e-09 2.2529882e-08 4.4672888e-08 5.4787293e-08 3.426661e-07 7.600027e-08
5.584308e-08 7.880311e-08 2.1800457e-08 3.120609e-08 1.3559067e-08 1.6013153e-08 4.758237e-09 2.0729435e-07
1.4638521e-06 7.192556e-07 4.9813224e-08 1.2298383e-07 4.0649894e-07 4.78311e-07 2.1921926e-06 5.304272e-07
4.964436e-07 7.810359e-07 3.4778964e-07 2.8092373e-07 1.0917188e-07 2.8484376e-07 3.4075345e-08 1.9302183e-06
3.5154278e-07 1.9811964e-07 1.2871504e-08 2.7614849e-08 9.451316e-08 1.1054792e-07 4.3803297e-07 1.2215793e-07
1.1554427e-07 1.8724427e-07 1.1554611e-07 6.400686e-08 2.3418021e-08 8.1907025e-08 8.082956e-09 4.7116518e-07
4.2527004e-06 1.9847846e-06 1.2578789e-07 3.0743246e-07 1.20381e-06 1.4034143e-06 4.908045e-06 1.5335436e-06
1.4651079e-06 2.2590816e-06 8.0449325e-07 8.3350403e-07 2.7844087e-07 6.454297e-07 8.238583e-08 5.6040303e-06

exp_avg f4 [12, 4]
00000000: aefc 4b36 af40 d436 116d 31b7 2a2f b435
00000010: 0b32 61b6 7be5 a735 5e1e 2cb6 fd0d a036
00000020: d591 8236 d8e8 7936 4198 4bb7 cc2d 9f36
00000030: 81f5 83b6 a576 9cb5 4c88 e835 1288 6236
00000040: 9309 58b6 c9b4 8ab6 b03d d434 8b93 0037
00000050: 41bd d635 2267 c535 50cc e9b5 b1cd a7b5
00000060: 7c06 21b6 b7a0 ceb5 c2ce ad35 46ec 3236
00000070: 86e5 1335 91ed cc35 9ddc 8134 0e2e 12b6
00000080: c38d 23b8 b585 7db6 6c94 be38 2d97 51b8
00000090: 32e5 7137 4cda 5937 0238 6db8 59f0 fc37
000000a0: 743e 1138 3bd3 6537 afad 9bb8 e33b e337
000000b0: 7778 82b7 0fca 50b7 8615 9138 83da 32b8
3.0396436e-06 6.3256225e-06 -1.0575416e-05 1.3424772e-06 -3.3556742e-06 1.2509257e-06 -2.5647673e-06 4.77e-06
3.891279e-06 3.7239424e-06 -1.2135192e-05 4.7439007e-06 -3.9326846e-06 -1.1657436e-06 1.7325015e-06 3.3755828e-06
-3.219208e-06 -4.1337667e-06 3.953296e-07 7.663747e-06 1.5999323e-06 1.4707659e-06 -1.7419316e-06 -1.2502334e-06
-2.3994644e-06 -1.539497e-06 1.2949679e-06 2.6661596e-06 5.509577e-07 1.5268325e-06 2.418864e-07 -2.1782503e-06
-3.8994254e-05 -3.7777766e-06 9.087552e-05 -4.9970276e-05 1.4418083e-05 1.2985034e-05 -5.6557365e-05 3.0152662e-05
3.4628858e-05 1.3698645e-05 -7.423327e-05 2.7088396e-05 -1.5553303e-05 -1.2444812e-05 6.918148e-05 -4.2642012e-05

exp_avg_sq f4 [12, 4]
00000000: 6fd6 7730 ddb6 5530 d5d6 0931 0581 db2f
00000010: 8e02 2630 ed83 5e30 256f dd30 5299 892f
00000020: cd9f 3830 79ba f42f 3000 b130 0684 2b30
00000030: c1d0 5630 c02e 8430 25ea 0d31 41be 0630
00000040: 1bde f72f 9ce2 1230 5086 652f 914a c130
00000050: d406 2e30 3e93 3030 06ef 7830 dbd7 1030
00000060: 4f30 322f e5e4 0630 ad09 932f bccd 8730
00000070: c8ff 9430 ef4a 0b30 76ab 1531 2b06 d82f
00000080: 9b97 ab34 8ba2 3d34 c4d3 4f35 9068 0e33
00000090: f2f5 4334 58e3 d033 444a dd34 2972 9b32
000000a0: b32d 3934 f8da d833 be9f e434 3f03 8c32
000000b0: b90a 1034 60be 8233 0280 a934 eb58 1532
9.0162805e-10 7.7748813e-10 2.0058242e-09 3.9927542e-10 6.039408e-10 8.095061e-10 1.6111456e-09 2.5029095e-10
6.71659e-10 4.4515838e-10 1.2878498e-09 6.2397054e-10 7.8149404e-10 9.617551e-10 2.0651296e-09 4.9019283e-10
4.5086854e-10 5.343652e-10 2.0875146e-10 1.4063791e-09 6.3310535e-10 6.423767e-10 9.0561547e-10 5.2693644e-10
1.6206168e-10 4.9074195e-10 2.674602e-10 9.881016e-10 1.0841115e-09 5.067439e-10 2.1779818e-09 3.9294554e-10
3.196154e-07 1.766113e-07 7.742167e-07 3.315705e-08 1.8250265e-07 9.7271084e-08 4.1218493e-07 1.8096289e-08
1.7246093e-07 1.0098114e-07 4.2584537e-07 1.6299621e-08 1.3414946e-07 6.088226e-08 3.157184e-07 8.693159e-09

exp_avg f4 [4, 4]
00000000: a32f c238 8ab5 9fb8 5200 edb8 58f7 d738
00000010: 2a80 e2b8 358e 3b39 8c0b 4139 35ce 8fb9
00000020: 8451 a138 72ca 5cb8 668c 01b9 3149 6438
00000030: 441c 2eb8 9ad6 0ab9 f6df f437 285c 4839
9.259514e-05 -7.615525e-05 -0.000113011 0.0001029807 -0.00010800392 0.00017886686 0.00018410216 -0.00027428722
7.692262e-05 -5.264063e-05 -0.00012354701 5.44276e-05 -4.1511157e-05 -0.00013240651 2.9191357e-05 0.00019107817
