out-tss50/ckpt_iter_4500.pt (torch, 48135 bytes, 64 tensors)

transformer.wte.weight f4 [5, 4]
000000 fa ee bf be 93 01 ca be 56 58 d6 3e 1c 4b 68 3e
       -0.37487012 -0.39454326 0.4186427 0.22684902
000010 2f c9 12 3e fe bc a7 3e fa 6f e5 bd 7b cf 82 be
       0.14334558 0.32761377 -0.112029985 -0.2554892
000020 e9 de 55 3d cf 2b 92 3d 00 ed 1b be 84 58 cb 3d
       0.052214537 0.07137262 -0.15227127 0.099289924
000030 0a cd bc 3d 10 0b 11 bc 57 a9 20 be 5e e5 d7 3d
       0.092187956 -0.008852735 -0.15689598 0.10541795
000040 82 c6 80 3e 8e fc e9 3c e4 02 1d be 4e 8c f8 bd
       0.2515145 0.02856281 -0.15333134 -0.12136136

transformer.wpe.weight f4 [256, 4]
000000 77 e1 14 3e 8b 7c 2b 3d 82 35 c2 bd e5 70 88 bd
       0.14539133 0.04186682 -0.09482862 -0.06662158
000010 ea e8 e2 3d c4 4b 6d 3d 43 b7 1d be 18 48 89 bc
       0.11079581 0.057933584 -0.1540194 -0.01675801
000020 39 b5 2b 3d fa 51 aa bc c5 7f db bd 3d 3e df 3b
       0.041920874 -0.020791043 -0.107177295 0.0068128393
000030 dc 32 1d 3d ab eb 84 3c 02 39 98 bd 66 94 4b 3b
       0.03837858 0.016225656 -0.074327484 0.0031063794
000040 2d ee 63 3d c2 17 0f 3d ed 23 82 bd 98 da f4 bc
       0.055647064 0.034934767 -0.063545085 -0.02988939
000050 6d 41 05 3c 39 7b 73 bc 5b a8 46 bd 86 2c 09 bc
       0.0081332745 -0.014860922 -0.0485004 -0.008372432
000060 bb bb 7a 3d 42 30 58 bb f1 f1 5e bd 2a 8f a4 3b
       0.06121419 -0.0032987748 -0.054429952 0.0050219493
000070 a1 18 00 3d 08 5a 6c bc 63 72 f1 bc cc 9c 21 3c
       0.031273488 -0.014425762 -0.02947349 0.009864043
000080 9e b3 1d 3d 2e 1c 49 bc 3b e4 22 b8 7e bd 94 3c
       0.038501374 -0.012274785 -3.8836366e-05 0.018156763
000090 91 6d 88 bc a1 5f 11 bd 0e a1 0d bd 06 2a ad ba
       -0.016653808 -0.03549159 -0.03457742 -0.0013211376
0000a0 0f d1 79 bc 60 3f 4c bc 7b bc b8 bb e8 d5 0e bb
       -0.015247597 -0.012466282 -0.005637703 -0.0021794979
0000b0 dc c7 4f 3c 10 26 e9 bc 20 b6 1b bd 30 7a b0 3c
       0.0126819275 -0.028460532 -0.038015485 0.021542639
0000c0 61 33 42 3c dd b7 4c bc bc 62 44 3c 4d 69 39 3b
       0.01185307 -0.012495008 0.011986431 0.0028291524
0000d0 17 b9 1c bc cd 55 bf bc c7 3b a2 bc 5e 86 91 bb
       -0.009565613 -0.023356343 -0.019803895 -0.0044410666
0000e0 90 22 81 3c bf 6d 18 bc 3c 12 dd 3c 05 90 47 3c
       0.015763551 -0.009303509 0.026986234 0.012180333
0000f0 66 5c d5 3a 85 91 3a 3a 82 c9 eb ba a2 80 5d 3c
       0.0016278147 0.0007117021 -0.0017989131 0.013519438
000100 c1 a2 d5 3c d0 4e 50 bb b7 2a cc 3c 77 37 78 bc
       0.026078584 -0.0031785257 0.024922712 -0.015149943
000110 b0 8e 62 3c 67 49 a4 bb 34 9f 38 bd ff cd e1 3b
       0.013827965 -0.005013633 -0.045073703 0.0068910117
000120 72 a6 9f bc ad 97 84 bb cf d3 1f bc da 65 76 3c
       -0.019488547 -0.0040464015 -0.009755089 0.015038932
000130 f5 d0 2c 3d 8b 25 8f 3a 9a 86 99 bd 84 e5 30 3a
       0.042191464 0.0010921223 -0.07496376 0.00067480677
000140 c7 5b 24 3c 2a 65 ee 3a 35 4b 06 bc 44 b5 d1 bb
       0.010031647 0.0018188108 -0.008196642 -0.0063997824
000150 e3 b9 f0 bc d1 9d cd bc 5a d8 56 bc 8a 5e 0c 3d
       -0.029385513 -0.025099667 -0.013113106 0.034269847
000160 2a 7d 1a 3d 5d b9 97 bc ca 93 a9 bc bd 5b 8a 3b
       0.037717022 -0.018521005 -0.020700354 0.004222362
000170 89 56 f6 b9 f1 56 1b 3c f9 33 ab 3b c2 e1 3a 3c
       -0.0004698525 0.009481178 0.0052247015 0.011406364
000180 36 74 2c bd 39 4b 06 bc e8 a2 ed bc 07 5a e2 3c
       -0.042103015 -0.008196645 -0.029008344 0.027630819
000190 f5 5b 43 3d dd ef 79 bc e1 aa 3a bc 6b 87 e8 3b
       0.04769512 -0.015254942 -0.01139328 0.007096221
0001a0 d8 c3 43 3d dd b5 a3 3c ed cd 25 3c b8 08 c0 3b
       0.047794193 0.01998418 0.010119897 0.0058604144
0001b0 82 e0 51 3d 4a 7d 99 bc 6a c3 32 bc a3 85 80 3c
       0.051239498 -0.0187365 -0.010910848 0.015688723
0001c0 90 ab 1a 3c cd 80 e0 bb 9d 78 69 3b 5b b4 1c bc
       0.009440318 -0.0068512917 0.003562487 -0.0095644845
0001d0 5b 17 81 3d 33 ee 13 3c fa 80 c6 bc 5c 8a ae 3c
       0.06303283 0.009028959 -0.024231423 0.02130621
0001e0 51 9d 88 3c ba eb 43 bc 15 b7 2b bd 22 41 bf bb
       0.016676577 -0.011958057 -0.041922648 -0.005836622
0001f0 12 15 90 3c e9 10 72 bc 73 06 34 3c 56 f3 25 bc
       0.017588172 -0.0147745395 0.010987866 -0.010128817
000200 4c 37 32 3d 75 a0 07 bd c4 1f 52 3c 4d e2 05 3d
       0.043509766 -0.033112008 0.012824956 0.03268652
000210 91 0f 76 3b fd e2 0f bc 9d fe f4 bb 7c 24 03 3c
       0.00375459 -0.008782146 -0.0074766413 0.008004304
000220 13 d4 2d 3c a6 50 38 3c 63 31 bd bc 73 85 ad 3c
       0.010609644 0.011249697 -0.023094838 0.021181798
000230 ca a0 fb bb 16 e9 6c bb 2a 35 a4 ba 1b 1d b1 3c
       -0.0076790797 -0.0036149672 -0.0012528051 0.021620324
000240 3b 7d 74 bc f5 c1 ba 3c 7c 5d 90 3c bc b1 02 3c
       -0.014922435 0.022797564 0.017622702 0.0079769455
000250 f9 7a f0 3c af b4 56 3b 63 46 03 bb 1d 80 e2 3c
       0.029355513 0.0032761504 -0.0020030967 0.02764898
000260 b2 96 ca 3b 67 86 72 3c f1 09 65 3b 7e b1 d3 3c
       0.006182515 0.014802552 0.0034948552 0.02584147
000270 73 fa 43 bc c2 b2 d9 bb 69 dc 9c bb 56 3d 86 3c
       -0.011961567 -0.006643624 -0.004787017 0.01638667
000280 5c d3 fa 3c 38 c5 2c 3c f2 11 67 bc 01 f4 4c 3d
       0.030618362 0.0105450675 -0.0141034 0.050037388
000290 c5 2a 19 3c 91 91 00 bd 85 95 c0 3b be 46 10 bc
       0.009348576 -0.031388823 0.005877199 -0.008805929
0002a0 54 c4 26 3d f2 9e 75 bc 53 d7 e0 bc a8 d8 4a bc
       0.040714577 -0.014991509 -0.027446425 -0.012380756
0002b0 dd b6 7f 3c 11 70 94 bb c6 de c3 bc a4 d0 12 3d
       0.015607563 -0.004529961 -0.023909938 0.035843506
0002c0 20 79 be bc 57 08 05 bd 2b 29 48 bc a5 c7 15 3c
       -0.023251116 -0.032478657 -0.012216846 0.009141837
0002d0 c0 56 f6 3b 1d 18 0e bd 9d c9 fc bc f0 ef 05 3b
       0.0075176656 -0.034690965 -0.030857855 0.0020437203
0002e0 a5 85 08 3c 52 6b 33 3c 77 d1 e8 bc 8e 5a 05 3d
       0.008332645 0.01095088 -0.028420193 0.032557063
0002f0 81 d7 e7 3c f1 02 17 bc 68 1f 84 3b cc d4 1f 3d
       0.028301002 -0.00921701 0.004032064 0.0390213
000300 e6 c1 ee 3b 7c 37 9a bc cc 06 0e bc 6c 46 e4 bb
       0.007286298 -0.018825285 -0.008668613 -0.0069664028
000310 c5 ce 4b 3d 9a e3 07 3c 2b d2 c8 3c 6b 68 db 3c
       0.049757738 0.008294011 0.024514278 0.026783189
000320 53 68 0a 3d 33 6a 87 bc 0f c7 92 3b 86 08 03 3c
       0.033790898 -0.016530132 0.004479296 0.007997638
000330 66 15 01 bc 4b 58 71 bb b5 3c bf bb 72 7f 23 3d
       -0.007878637 -0.0036826308 -0.0058360943 0.039916463
000340 af 10 ba 3c 5f e8 8e bb 61 cf f0 bc 72 1d b1 3a
       0.022713033 -0.004361197 -0.029395761 0.0013512804
000350 5a 36 d5 3c f0 54 45 3c e6 64 17 bd b3 6e cc 3c
       0.026026893 0.012044176 -0.03696146 0.02495513
000360 81 a5 d9 b9 dd 1a 26 bc da 63 ce 3b 02 bf 8e 3c
       -0.00041512775 -0.010138241 0.0062985243 0.017425064
000370 7f e4 18 3d 01 87 0a 3c 61 51 d4 bc 0b cf c4 3c
       0.037327286 0.008455039 -0.02591771 0.024024507
000380 48 ea 19 3d 5e 76 c5 bc 9a 48 29 bc 45 46 84 3c
       0.037576944 -0.024104293 -0.010332251 0.016146788
000390 6c 8e 79 3c 05 74 7d bc ad f3 56 bc 2f a5 8c 3c
       0.01523171 -0.015469556 -0.01311962 0.01716861
0003a0 cf 6f 73 bc 4f 71 52 bc 2e 5a 83 3c ae 57 99 3c
       -0.0148582 -0.012844398 0.016034212 0.018718567
0003b0 bb 0d 86 3d 04 c6 a3 bc 2c 1e 23 bc 5e 37 be 3c
       0.06545588 -0.019991882 -0.009955924 0.02321976
0003c0 e5 4c cf bb c1 a0 72 bc ae 91 63 bc d3 5f 71 b9
       -0.006326305 -0.0148088345 -0.013889713 -0.00023019248
0003d0 60 a5 74 3d 40 af 0e bd 2e 60 8e bc d9 93 34 bc
       0.059728026 -0.0348351 -0.017379846 -0.011021578
0003e0 a4 3d 09 3d c1 d4 7b bc df d7 5e 3c 17 4e f6 3c
       0.03350605 -0.015370549 0.013601272 0.030066533
0003f0 3e c8 15 3d 3c 52 a1 3c 70 00 1e 3c c8 a6 8c bb
       0.03656792 0.019692533 0.009643659 -0.004292343

transformer.h.0.ln_1.weight f4 [4]
000000 95 c5 95 3f 83 2e 90 3f d0 f4 95 3f a1 ec 9d 3f
       1.1700922 1.1264194 1.1715336 1.2337838

transformer.h.0.attn.c_attn.weight f4 [12, 4]
000000 2a a4 c6 bd 7a e0 8b bd 30 17 d0 3d 8c bc 54 3d
       -0.096992806 -0.06829925 0.10160673 0.051937625
000010 e9 ae 53 bd c0 b2 4a bd 7a 0e a5 3d d2 c3 79 3b
       -0.05168048 -0.049486876 0.08059402 0.0038111103
000020 dd f0 0a 3e 50 a0 29 3e 1c 71 69 be 35 06 05 bd
       0.13568445 0.1656506 -0.22797054 -0.032476623
000030 c8 fb d4 3d 08 9e 1a 3e 0c cb 19 be 16 44 96 bd
       0.10399586 0.15099347 -0.15018862 -0.07337205
000040 5a d4 ac 3d e2 26 b9 3d 57 a5 fd bd 85 37 8b bd
       0.0843894 0.090406194 -0.12385052 -0.06797699
000050 59 f1 08 3e 6d db 07 3d b1 43 6d bd f4 b3 c7 bd
       0.13373317 0.033168245 -0.057925884 -0.0975112
000060 c4 09 3d be e5 57 09 be 2b cc fb 3c 73 85 92 3e
       -0.18460757 -0.13412435 0.030737003 0.2861744
000070 af 46 00 be 81 30 43 be b6 07 a7 3d b8 da 37 3e
       -0.12526964 -0.19061472 0.081557676 0.17954528
000080 bf 0b a9 3d c3 f2 5c 3d ca 7a 14 be ef 9c 4e 3b
       0.082541935 0.053942453 -0.14499965 0.0031526645
000090 59 26 4c 3d 97 61 6f 3b 83 1e f0 bd f7 7f ca 3d
       0.04984126 0.0036526674 -0.1172457 0.098876886
0000a0 fe cd b8 3d 5a 62 9e 3d 05 3e 07 bd b0 73 4d be
       0.09023665 0.07733603 -0.03301813 -0.20063663
0000b0 11 20 15 3d 7e bf 88 3d 0f cb e5 bc bb d3 57 be
       0.036407534 0.06677149 -0.028050927 -0.21076863

transformer.h.0.attn.c_proj.weight f4 [4, 4]
000000 59 e2 e0 3d 08 40 af 3d ca 4f 12 3e c7 dc 16 3e
       0.109806724 0.08557135 0.1428825 0.14732657
000010 5b 15 be 3c f6 9b 0e bd ca 5b 81 3d cc 90 c3 3d
       0.023203542 -0.034816705 0.063163355 0.09549102
000020 0f 61 28 be f3 96 d7 bd a8 f5 ba bd 17 a2 f4 bd
       -0.16443275 -0.10526838 -0.091288865 -0.11944979
000030 37 b1 88 3c ad b8 6e 3d 71 45 8a bc ab 9f 8a bd
       0.016686065 0.05828159 -0.016878815 -0.067687355

transformer.h.0.ln_2.weight f4 [4]
000000 03 5c a9 3f 93 59 ca 3f 22 db ba 3f 9e 24 c3 3f
       1.3231205 1.5808586 1.4598124 1.524555

transformer.h.0.mlp.c_fc.weight f4 [16, 4]
000000 15 e6 21 3d 11 c7 73 bd d0 d5 5c 3b 43 f2 06 3d
       0.039526064 -0.059516016 0.0033696778 0.032945883
000010 16 cb 25 3c 84 06 52 bd 9c f9 b8 3d 08 dd 13 3d
       0.01011922 -0.051275745 0.09031984 0.036099464
000020 31 b5 9a bd a2 cd 23 3e 91 c8 11 bd ce ac 26 3d
       -0.07554091 0.15996411 -0.035591666 0.040692143
000030 7b 62 7d 3d 29 b7 7a be 78 e6 e3 bd 7a 70 9a 3e
       0.061861496 -0.24483933 -0.11127943 0.30163938
000040 6d 67 67 3c 1d 36 8b 3c e3 47 b4 bc 44 f8 15 bd
       0.01412378 0.016993577 -0.022006935 -0.036613718
000050 8a 74 c3 bb 06 f0 60 3c 22 9b 27 bd 6f 5e b2 bc
       -0.0059648203 0.013729101 -0.04091943 -0.021773545
000060 80 4c b5 be 1e 0e 07 bf 9c 5f ba 3e 1b d1 e6 3e
       -0.35409927 -0.52755916 0.3640107 0.4508141
000070 ee 8b 91 3d 84 e1 e5 bd 9b 35 78 bd 9d 24 32 3e
       0.071067676 -0.11224654 -0.060597997 0.1739678
000080 d7 1a 5f bb 23 5c eb 3d d4 7f 0c be 01 fb 88 3d
       -0.0034043097 0.11492183 -0.13720638 0.066885
000090 ce 0e 62 be f0 75 90 3d d3 90 77 3d f8 e7 24 3e
       -0.2207596 0.07053745 0.06044085 0.16104114
0000a0 c6 e2 9d bd ff 09 88 3e 69 5a 1c 3d 92 68 1f be
       -0.07709269 0.26570126 0.03817216 -0.15567234
0000b0 50 7a bf bc 15 cc c7 bd a2 15 11 3e d1 e3 9d 3c
       -0.023373753 -0.097557224 0.14168409 0.01927367
0000c0 f0 d3 41 3d 4c 2f 2b be c8 3b e9 3d ac fd 29 bd
       0.04732126 -0.16717261 0.113883555 -0.041501686
0000d0 61 67 74 3d be 9b 63 bd 47 ee 18 3e 9a 3a b6 bd
       0.059668902 -0.05556845 0.14934646 -0.08897896
0000e0 e0 df 99 bd 83 59 21 bc d5 70 c5 3d 3c 47 0c 3c
       -0.07513404 -0.009848001 0.096406616 0.0085619055
0000f0 00 2e ab bc bb c5 09 be c9 9c d0 3d a5 43 88 3d
       -0.020895958 -0.13454334 0.101861544 0.06653527

transformer.h.0.mlp.c_proj.weight f4 [4, 16]
000000 50 2b ac bd 5b 82 bf bc b5 42 b4 3d b2 9b 81 bd
       -0.08406699 -0.023377588 0.08801786 -0.06328525
000010 2b a2 bb 3d 95 d9 8a 3d 4c cf 88 3e 20 09 d6 bd
       0.091617905 0.06779782 0.26720655 -0.10450959
000020 d6 39 81 3d 76 25 f3 3d 7a f7 56 3e 0c 58 5e 3c
       0.063098595 0.118723795 0.20992842 0.013570797
000030 0e d8 f8 3c 41 34 4d 3d f9 4e 66 3d 98 aa 90 bd
       0.03037646 0.05009866 0.056227658 -0.07063788
000040 aa 6f ec 3c d8 a1 56 3d 8b f7 07 3e 0c 43 00 3e
       0.02886184 0.05240044 0.13278024 0.12525576
000050 50 04 b3 bd d2 b0 c1 bd a8 a5 60 3e 68 8a 92 3d
       -0.08741057 -0.09457554 0.21938193 0.07155305
000060 48 ab 96 3c c1 e8 a3 3d 5b 1c 3d 3d b0 43 85 3d
       0.01839222 0.08003379 0.04616962 0.06507051
000070 4e 90 76 3c 87 81 ab bc aa 92 1b 3b bf 73 19 3c
       0.015049053 -0.020935787 0.0023738542 0.009365975
000080 38 bd ed bd c4 17 b0 bd 51 8c cd 3c 69 d4 06 be
       -0.11608356 -0.08598283 0.025091322 -0.13166966
000090 d5 b0 28 bd c1 b0 43 bc b4 84 a8 be 0e 75 d1 bd
       -0.041184265 -0.011943997 -0.32913744 -0.102274045
0000a0 f2 60 63 bd 46 aa 51 bd a0 e8 c9 ba f8 0d 3b bc
       -0.055512376 -0.051187776 -0.0015404411 -0.011416905
0000b0 73 73 4e 39 ce 45 2c 3d 39 24 f2 3d 54 c2 91 bd
       0.00019688699 0.04205876 0.11823315 -0.07117143
0000c0 fc 19 87 3c dd 49 c3 3c 11 96 9b bd 25 25 11 bd
       0.016491883 0.023838932 -0.07596982 -0.035435814
0000d0 ef 5a 69 3c b5 6f 68 bc b0 19 04 be bc 9a ba 3a
       0.014242872 -0.014186789 -0.12900424 0.0014236788
0000e0 80 63 1a bd ee f1 50 bd b0 37 db bd 53 bb 08 bd
       -0.037692547 -0.051011972 -0.10703981 -0.03338177
0000f0 bb 3a 44 bd 9b 97 3f bd 50 39 a2 bc 92 e8 02 39
       -0.047907572 -0.04677544 -0.01980272 0.00012484405

transformer.h.1.ln_1.weight f4 [4]
000000 94 9d 96 3f 91 2f 95 3f 75 ce 95 3f b6 16 a7 3f
       1.1766839 1.1655141 1.1703631 1.3053806

transformer.h.1.attn.c_attn.weight f4 [12, 4]
000000 4d 12 0c be b1 db 13 be b0 8e 74 3e ba 2b a9 3b
       -0.13678856 -0.14439274 0.23882556 0.0051626833
000010 57 eb 24 be e1 d7 f8 bd ce 3a 5f 3e b2 b0 a6 3c
       -0.161054 -0.12150551 0.21799776 0.020347927
000020 1f ba 07 be b4 ab 1c be a0 99 78 3e c9 d8 4a 3d
       -0.13254593 -0.15299875 0.24277353 0.04952315
000030 4d cd 21 be 5d 44 2b be c5 2d 84 3e ef 5e 1e 3d
       -0.15800972 -0.16725297 0.2581617 0.038664754
000040 2f bc 37 3e 89 fb 35 3e a7 7d 08 bd be c4 8d be
       0.1794288 0.17771734 -0.033322956 -0.27689165
000050 09 2a 1b 3e 89 57 f2 3d 54 7a d7 bd a1 b1 40 be
       0.15152754 0.11833102 -0.10521379 -0.1881776
000060 da bd 28 3e 55 72 19 3e b7 98 b1 bd 58 b8 79 be
       0.16478673 0.1498502 -0.08671706 -0.24386728
000070 5e 7d 47 3e 44 cb 2a 3e 9e c7 1a be 23 60 4a be
       0.19481418 0.16679102 -0.1511521 -0.19763236
000080 d1 7c be bd ab eb 86 bd f8 db 1b 3d d1 b6 a7 3e
       -0.093011506 -0.06587919 0.038051575 0.32756665
000090 bc 3c c5 3d 3a 4b 90 3d 03 f0 a8 bd 02 43 d9 bd
       0.09630725 0.07045598 -0.082489036 -0.10608484
0000a0 a4 4c d5 3d ec 6d eb 3d fc 87 d6 bd 26 29 7c be
       0.10415009 0.11495575 -0.10475156 -0.24625072
0000b0 f3 b3 a5 bd 60 78 ed bd aa 7c 0f 3e d9 31 33 3e
       -0.08090963 -0.11595225 0.140124 0.17499484

transformer.h.1.attn.c_proj.weight f4 [4, 4]
000000 fa 7f 38 be ea 15 11 3e 71 3e 15 3e 6b 81 f8 bd
       -0.18017569 0.14168516 0.14574601 -0.121340595
000010 90 e7 d0 bd ba 90 1e 3d bb 94 56 3d 59 73 09 bd
       -0.10200417 0.03871224 0.052387934 -0.03355727
000020 c2 94 ee 3d df 81 14 be 4c e9 19 be eb 9a 15 3e
       0.11649467 -0.14502667 -0.15030402 0.14609878
000030 79 51 b0 3d a9 c5 aa bb 55 e2 ea bc d2 40 e2 3b
       0.0860929 -0.005211551 -0.028672377 0.0069047

transformer.h.1.ln_2.weight f4 [4]
000000 df be 95 3f 0a 9b a7 3f f5 d3 99 3f 47 af a3 3f
       1.1698874 1.3094189 1.2017809 1.2787865

transformer.h.1.mlp.c_fc.weight f4 [16, 4]
000000 da 49 69 3d b0 2a 42 be 93 71 80 bd 6a 43 8b 3e
       0.056955196 -0.18961596 -0.062716626 0.2719987
000010 ea ee 30 3e 04 27 eb bb 6e 91 30 bd ab e1 a0 bd
       0.17278638 -0.007176282 -0.043107443 -0.07855543
000020 90 96 26 3c 37 b8 a9 3d 69 95 05 3d 21 ef 96 bd
       0.010167733 0.08287089 0.03261319 -0.07369829
000030 12 bd 76 bd 47 c5 1c 3e 2d f2 a6 3d d1 0a 15 be
       -0.060238905 0.1530963 0.0815166 -0.14554907
000040 d6 f9 eb 3d be c2 78 be ca bd 9c bd 75 d0 40 3e
       0.11522262 -0.24293038 -0.07653387 0.1882952
000050 99 d2 13 be e7 00 70 3e 64 47 19 bd 88 59 19 bd
       -0.14435805 0.23437844 -0.0374216 -0.0374389
000060 f7 ec 1d be b1 14 4b 3e 98 60 5d bd f9 93 10 3d
       -0.15422426 0.19832112 -0.054047197 0.035297368
000070 81 a4 fe 3d 4c ef 27 3d a1 7d 84 3c 47 77 d7 bd
       0.124337204 0.040999696 0.016173186 -0.10520797
000080 53 1c 31 3c 31 94 44 be c3 67 91 bd 61 ee af 3e
       0.010809976 -0.19197156 -0.07099869 0.34361556
000090 2e 4b 27 3e aa 79 06 bd e2 f6 a1 bc 79 79 a1 bd
       0.16337273 -0.03283087 -0.019771043 -0.07884497
0000a0 fa 24 24 3e 48 91 b0 3c 77 c1 f2 bc 5f f0 f8 bd
       0.1602973 0.02155365 -0.029633267 -0.12155222
0000b0 98 5a 46 bd 97 4f 11 bd e7 7b ef 3d cc 54 97 bc
       -0.04842624 -0.035476293 0.11693554 -0.018473051
0000c0 75 d7 21 bd 3d 17 51 be 59 d9 90 3c b7 2a 5a 3e
       -0.039512116 -0.20419021 0.017681764 0.21305357
0000d0 8a 47 b7 3c 86 9f 6e be cd 6e 3d 3e 51 77 b2 bd
       0.02237298 -0.23303041 0.18499298 -0.08714164
0000e0 c8 4b 19 3d 17 c3 1c 3e d0 82 c5 bd ab a8 2a bc
       0.037425786 0.15308796 -0.09644091 -0.01041619
0000f0 60 d5 8a bd 30 bc 06 3e 57 36 4d bd ae 34 34 bd
       -0.06778979 0.13157725 -0.05010065 -0.04399555

transformer.h.1.mlp.c_proj.weight f4 [4, 16]
000000 03 7c 4f bd f6 bc 79 bd 45 d8 f2 3d a6 8e 3a 3e
       -0.050655376 -0.060971223 0.118576564 0.18218479
000010 99 73 39 bd ad 39 20 3e e8 47 22 3e 83 36 12 3d
       -0.04527626 0.15647002 0.15847743 0.035696518
000020 20 ed ee bb e1 87 8f bd c1 c0 a9 bc e6 03 22 3d
       -0.007291451 -0.07008339 -0.020721795 0.0395545
000030 0b f1 65 bc 5e 4d a7 3d 1c 77 81 3b c3 99 26 3e
       -0.01403452 0.081690535 0.0039509665 0.16269593
000040 ab 78 33 3e d6 2c 3c bc 74 bd 14 bd eb 15 c4 3b
       0.175265 -0.011485299 -0.03631349 0.005984058
000050 09 a8 d4 3d ac b6 45 3d a4 a5 4f 3d 59 30 95 3b
       0.10383613 0.048269913 0.050695077 0.0045528826
000060 76 e8 2a 3e 6f 5c 55 ba bf 85 8a 3b a7 d4 ea bb
       0.1669024 -0.0008139079 0.0042273696 -0.0071664634
000070 d6 88 1b 3e aa 47 24 3e 0f f2 34 3c 38 ed 9b bd
       0.15188918 0.16042963 0.011044039 -0.07613605
000080 a3 c8 ef bd b9 72 de bd 5f 0a 11 be e5 43 07 be
       -0.1170819 -0.10861725 -0.14164113 -0.13209493
000090 55 79 4a be af 8c 97 bd dd dd 91 bd 60 06 0e be
       -0.19772847 -0.0739988 -0.07122395 -0.1386962
0000a0 bb 32 07 be 73 df 09 be 9f 68 c3 bd 90 13 33 bd
       -0.13202946 -0.13464145 -0.09541439 -0.043719828
0000b0 88 b3 60 bc 8f e0 85 bd 62 d2 1a bd dc 55 8a bd
       -0.013714679 -0.06536972 -0.037798293 -0.067546576
0000c0 ee 7e 9c bd 97 72 3d 3d 4d 0f 04 3d 34 56 15 bc
       -0.076413974 0.04625186 0.032241154 -0.009114791
0000d0 01 63 d1 bc d4 bc 4a bd 78 74 75 bd 34 9e 86 3d
       -0.025559904 -0.049496487 -0.059925526 0.065731436
0000e0 12 5a c3 bd d5 c0 63 3d 08 41 ee 3c a6 1e f5 3b
       -0.09538664 0.05560382 0.029083744 0.00748046
0000f0 9b 1e aa bd a1 7b 72 bd 5e 07 d7 bc c6 d5 81 bc
       -0.08306619 -0.059199933 -0.02624863 -0.015849005

transformer.h.2.ln_1.weight f4 [4]
000000 53 19 91 3f cf 89 95 3f 42 df 95 3f 20 74 aa 3f
       1.1335853 1.1682681 1.1708758 1.3316689

transformer.h.2.attn.c_attn.weight f4 [12, 4]
000000 b0 05 32 3d 12 42 64 bd 9b e7 0b 3d 97 2b 73 bd
       0.043462455 -0.055727072 0.034156423 -0.059367742
000010 4b ba 59 bd ce 27 ef bc 1a 3d 47 3d d8 58 bb 3c
       -0.05315618 -0.029193785 0.048642255 0.022869512
000020 88 c3 ea bd 23 e3 9d bd 24 7a 13 3e 39 0e 87 bd
       -0.11463076 -0.077093385 0.14402062 -0.0659451
000030 3f 96 c7 3d 53 b0 d8 3d 6e fc 26 be 3d 6d 0b 3c
       0.09745454 0.10580506 -0.16307232 0.008509931
000040 df bd 9f bb 30 74 bb bc cb f3 24 bc 7c 32 4c 3d
       -0.0048749293 -0.022882551 -0.01006789 0.049852833
000050 c8 0c 88 3d b4 38 42 3d 93 20 89 bd 5c 57 bd bd
       0.06643063 0.047417358 -0.06695666 -0.09245178
000060 32 92 36 bd 9b 3e c7 bc 33 a5 97 3c 42 a2 1d bd
       -0.044573016 -0.024321845 0.01851139 -0.03848482
000070 bb f7 a8 bd 8b 26 b1 bc 7f 04 03 bc 44 d2 0e 3e
       -0.08250376 -0.021624824 -0.007996677 0.13947397
000080 c9 f9 1c bd e4 55 a1 bd 9b 3a b0 3d db c0 86 be
       -0.03832415 -0.078777105 0.08604928 -0.26319012
000090 0d 45 95 bd 53 c7 d4 bd 62 2c aa 3d 1d ee 15 3e
       -0.07288561 -0.103895806 0.083092466 0.14641614
0000a0 36 e6 93 3d 55 be a5 3d 3c a0 b5 bd 5d a7 41 be
       0.072216436 0.080929436 -0.08868453 -0.189115
0000b0 de 58 70 3d 14 d2 45 3d e2 20 2d bd 74 81 96 be
       0.0586785 0.04829605 -0.042267688 -0.2939564

transformer.h.2.attn.c_proj.weight f4 [4, 4]
000000 0d 36 2e bd ed ba e3 bd f2 66 de 3d 28 74 fb 3d
       -0.042532016 -0.11119638 0.10859479 0.122780144
000010 33 0a 79 3d 64 a6 1a bd d4 51 e4 3c 27 ab 86 3d
       0.060800742 -0.03775634 0.02787105 0.065756135
000020 15 a6 12 3e e6 4b 2c 3e 63 d8 21 be 16 48 0c be
       0.14321168 0.16825828 -0.15805201 -0.13699374
000030 f6 c0 a1 bd 22 7e 4b 3c 73 d5 de bc 29 a1 30 bd
       -0.078981325 0.012420209 -0.02720139 -0.043122444

transformer.h.2.ln_2.weight f4 [4]
000000 76 b9 97 3f f9 ba 9c 3f 23 9d 8e 3f 7f 5b a2 3f
       1.1853473 1.224456 1.1141704 1.2684172

transformer.h.2.mlp.c_fc.weight f4 [16, 4]
000000 4c 83 9d bc dd 7d 7f 3d d6 e9 52 bc e4 63 20 bd
       -0.019227646 0.062375892 -0.012873134 -0.039157763
000010 b5 00 4a bd 45 ac f2 bd e0 93 f4 3c af 16 85 3d
       -0.04931708 -0.11849264 0.029855669 0.06498467
000020 44 49 60 3d 7a ba b1 bb 51 e4 72 3d 48 c8 0b be
       0.05475737 -0.005423841 0.05929977 -0.1365062
000030 cf 94 8e bd 36 d6 d3 bd 05 eb fb 3c 17 fb 27 3e
       -0.06961977 -0.10343592 0.030751714 0.16404377
000040 66 6a 4b bd ee f0 ca 3d fe 8d 63 bc ab 24 12 be
       -0.049662016 0.09909235 -0.013888834 -0.142718
000050 3a af a7 bd 39 0c ce bd 36 3b 0e bc f7 c4 4f 3e
       -0.08187719 -0.10060925 -0.008681109 0.2028998
000060 eb 7c 08 3e ae 53 80 bd 39 75 17 3e 84 2e a2 be
       0.13328902 -0.06265961 0.1479081 -0.31676114
000070 53 44 d7 bd 82 a9 3b bd 2a f1 2f bd 78 32 3d 3e
       -0.10511079 -0.045815952 -0.0429546 0.18476284
000080 67 2a ae bd dc 31 02 be 9a 8d 48 bc 62 ea 07 3e
       -0.08504181 -0.12714332 -0.012240792 0.13273004
000090 e1 fd 82 bd 29 73 80 bb 13 45 01 bc cf a2 9a 3d
       -0.0639608 -0.003919978 -0.007890004 0.075505845
0000a0 f8 ae c7 3c e9 28 79 3d 20 22 8b 3d 9c a7 0d be
       0.024375424 0.06083003 0.06793618 -0.13833469
0000b0 59 c6 87 bd 06 d9 d6 bd 29 32 63 bc b9 34 10 3e
       -0.06629629 -0.10490613 -0.01386694 0.14082612
0000c0 ba 53 57 3b ec f5 06 3e 0b ed 26 3d 96 0c 97 bd
       0.0032856301 0.13179749 0.040753406 -0.073754475
0000d0 46 38 4b 3e b7 d5 6e be 7a ad 98 bd 78 d2 e9 3d
       0.19845685 -0.23323713 -0.07454963 0.11417097
0000e0 eb fc af bd e2 62 1c 3e 62 ee 27 be dc 2c 12 3e
       -0.08593162 0.15272096 -0.1639953 0.14274925
0000f0 a7 6f b5 3c bc 82 f6 3d 59 53 78 3d 71 8b 1d be
       0.022147967 0.12036654 0.06062636 -0.15385224

transformer.h.2.mlp.c_proj.weight f4 [4, 16]
000000 5c dd 03 3e 65 7b 81 bc 95 5d 3b 3d 51 f2 59 3c
       0.1287741 -0.01580591 0.045743544 0.013302402
000010 44 ef 0b 3e 0f 34 a5 3c 06 f1 d0 3d 5c 6a 32 3d
       0.13665491 0.020166425 0.102022216 0.043558463
000020 ca 0e 10 3b 01 0a a0 3d 8d 77 14 3e b2 f5 17 3b
       0.0021981471 0.07814408 0.1449873 0.0023187217
000030 a1 4b 25 3e bd 63 e1 bd 08 8a 06 3e b5 7e 41 3e
       0.16142131 -0.11005352 0.13138592 0.18895991
000040 26 e0 b6 bd d5 06 5a 3d 92 b3 9b bc 92 e8 b0 3d
       -0.08929472 0.05322917 -0.019006524 0.08638109
000050 27 41 fb bd 1e 41 9d 3d e0 22 c4 3d cc 65 d2 3d
       -0.12268286 0.07678436 0.095769644 0.102733225
000060 0a 92 52 3d 10 53 31 3d 19 97 11 bd dd 4d 7c 3d
       0.051408805 0.043292105 -0.03554449 0.061597694
000070 fd cc 87 bd 10 71 d5 3d 15 2b 62 3b 57 9f 6b bd
       -0.06630895 0.104219556 0.0034510542 -0.057525005
000080 a5 d3 e4 bc 28 aa 85 3d e9 51 dd bd e9 da 3e 3d
       -0.027932951 0.06526595 -0.10806639 0.046595488
000090 b1 15 92 bc c4 89 72 3d 3d 16 64 be bc ea 49 3d
       -0.017832609 0.059213415 -0.22274108 0.049296126
0000a0 5a 71 94 3d 0f 8b 85 3d 66 32 c3 bd 8f 7b a1 3d
       0.072481826 0.06520664 -0.09531097 0.07884895
0000b0 3c 22 cb bd aa 42 e6 bd 7c 02 9e bd 19 09 ee bd
       -0.09918639 -0.11243184 -0.077153176 -0.11622829
0000c0 e5 35 84 bb 1e 25 7f bd ae 87 08 bc eb f0 63 bd
       -0.004034745 -0.062291257 -0.00833313 -0.05564968
0000d0 e5 55 87 3b 9d f8 99 bd d3 42 49 3c d6 c4 f3 bd
       0.0041301125 -0.07518122 0.012283999 -0.11902778
0000e0 22 de 94 bd b1 9a 54 bd 77 79 c7 3c e2 a0 ac bd
       -0.07268931 -0.051905338 0.024349911 -0.084291235
0000f0 fa 77 a5 3c 31 63 28 bc 63 0a 76 bd 46 6f 37 3d
       0.02019881 -0.010277555 -0.0600685 0.044783853

transformer.ln_f.weight f4 [4]
000000 8a bb cd 3f 2f 6e c4 3f c7 74 ca 3f d5 cb b8 3f
       1.6072857 1.5346125 1.5816888 1.4437205

lm_head.weight f4 [5, 4]
000000 fa ee bf be 93 01 ca be 56 58 d6 3e 1c 4b 68 3e
       -0.37487012 -0.39454326 0.4186427 0.22684902
000010 2f c9 12 3e fe bc a7 3e fa 6f e5 bd 7b cf 82 be
       0.14334558 0.32761377 -0.112029985 -0.2554892
000020 e9 de 55 3d cf 2b 92 3d 00 ed 1b be 84 58 cb 3d
       0.052214537 0.07137262 -0.15227127 0.099289924
000030 0a cd bc 3d 10 0b 11 bc 57 a9 20 be 5e e5 d7 3d
       0.092187956 -0.008852735 -0.15689598 0.10541795
000040 82 c6 80 3e 8e fc e9 3c e4 02 1d be 4e 8c f8 bd
       0.2515145 0.02856281 -0.15333134 -0.12136136

exp_avg f4 [5, 4]
000000 5d 86 01 39 7a a7 83 3a 65 93 0d ba e2 68 2d ba
       0.00012352453 0.0010044419 -0.00054006866 -0.0006615055
000010 83 09 eb 3a df 5a 92 ba f9 05 04 3a f8 dd 98 ba
       0.0017931912 -0.0011165998 0.00050362904 -0.0011662832
000020 bf c4 36 3b be 79 1d 3a eb 29 35 bb ee c4 9b 3a
       0.0027888266 0.00060072157 -0.0027643393 0.0011884251
000030 a4 38 f7 ba 6e cc 3d b9 09 4d 9c 3b 65 a9 a6 b9
       -0.0018861485 -0.000181006 0.0047699255 -0.00031788196
000040 bc f5 03 ba 7d ab 53 3b 56 8e 75 bb 96 5c 5c 3a
       -0.00050338707 0.003229826 -0.0037468872 0.00084061304

exp_avg_sq f4 [5, 4]
000000 78 26 ad 36 94 1b 32 36 6e 54 2f 36 95 f0 bf 36
       5.16028e-06 2.654012e-06 2.6126177e-06 5.720251e-06
000010 23 33 e0 39 fa 0f 1d 39 35 aa 68 3a 8c 10 94 38
       0.0004276271 0.00014978639 0.00088754605 7.060272e-05
000020 e0 24 b2 39 c8 31 b5 38 e0 c6 40 3a e0 64 c3 38
       0.0003397828 8.640025e-05 0.00073538534 9.317114e-05
000030 5a 91 d8 39 3d 37 b2 38 14 03 6e 3a 34 4c 91 38
       0.00041307026 8.49799e-05 0.0009079438 6.928333e-05
000040 9a 7d 18 3a ac 86 2d 39 01 fb 79 3a fa d7 b6 38
       0.0005817056 0.00016548735 0.00095359987 8.718665e-05

exp_avg f4 [256, 4]
000000 1d 14 a5 37 47 1f 58 b8 09 0b 11 37 f5 81 ca 38
       1.9678899e-05 -5.1527542e-05 8.645243e-06 9.656317e-05
000010 cc 50 2a 39 67 30 f5 38 e0 dd 4b 38 4f c0 d7 b8
       0.00016242563 0.00011691526 4.860561e-05 -0.00010287819
000020 b5 3d 0a 38 50 73 20 38 61 dd 6d 38 90 12 02 b8
       3.2959233e-05 3.8254366e-05 5.671138e-05 -3.1011703e-05
000030 a1 c8 3b b9 d1 30 6c b7 ca 15 75 38 2d 4d f6 37
       -0.0001790845 -1.4078062e-05 5.8432845e-05 2.9361423e-05
000040 ea 5e 16 38 0d 15 3c 39 c1 2d 7c 38 52 6b 69 b9
       3.5851182e-05 0.00017936919 6.0124094e-05 -0.00022260592
000050 c4 3b fe 38 a2 84 bd 39 0e 16 18 38 a6 62 e6 b9
       0.00012122796 0.00036147708 3.6260164e-05 -0.00043942517
000060 f1 40 09 38 27 13 52 39 41 89 f4 37 84 d2 1a b9
       3.2723827e-05 0.00020034295 2.915098e-05 -0.00014765008
000070 16 53 0a 39 cc f0 81 39 56 fe 5b 37 6d e4 9a b8
       0.00013191657 0.00024784205 1.3112634e-05 -7.38584e-05
000080 ed 55 9e 37 12 68 f7 38 d2 0c b5 38 e2 63 ef b8
       1.887508e-05 0.000117972624 8.6331405e-05 -0.00011415013
000090 f5 8f ed 38 59 32 89 b8 59 f8 f8 b6 78 80 da b7
       0.00011327855 -6.542047e-05 -7.4198874e-06 -2.6047448e-05
0000a0 97 3c cc 38 ec 50 4b 39 4d 31 a1 37 a4 83 67 b9
       9.738764e-05 0.00019389734 1.9215653e-05 -0.00022078917
0000b0 70 01 90 38 7e 54 fe b8 98 13 3d b8 e5 d9 a8 37
       6.866723e-05 -0.00012127402 -4.507936e-05 2.0128626e-05
0000c0 68 b5 60 37 38 94 b7 b9 4f a2 19 37 a2 35 2f 39
       1.3393677e-05 -0.00035014912 9.157301e-06 0.0001670928
0000d0 eb 9e 51 38 3a fe 22 b9 34 9a 91 b6 59 1c 40 b8
       4.9977487e-05 -0.0001554423 -4.3392884e-06 -4.5802768e-05
0000e0 29 dd c1 38 0f 96 81 39 13 c1 0c 35 bc f5 a9 b9
       9.2441514e-05 0.000247166 5.2435024e-07 -0.00032417278
0000f0 d2 99 bc 38 be 1f 08 39 c4 f8 a2 b8 fc 2d cc b8
       8.99319e-05 0.00012981796 -7.771098e-05 -9.736043e-05
000100 1f 7b 59 b8 bb 06 f3 37 e3 de d7 b5 4c 56 a2 b8
       -5.1851497e-05 2.8970991e-05 -1.6083617e-06 -7.740836e-05
000110 90 d7 26 37 a4 d0 2e 38 af 99 52 38 33 99 9b b8
       9.944561e-06 4.1679144e-05 5.021103e-05 -7.4195115e-05
000120 13 85 c0 37 43 ba f4 38 87 74 83 b7 c6 9f 96 b8
       2.2950151e-05 0.000116695206 -1.567068e-05 -7.1823175e-05
000130 f7 56 9c b8 80 01 1c b9 ca 08 d8 33 38 c6 3f 39
       -7.454858e-05 -0.00014877878 1.00598825e-07 0.00018289022
000140 98 07 8c b7 ed 77 f6 35 33 da 43 b8 0d 43 af b7
       -1.6692837e-05 1.8363331e-06 -4.6694837e-05 -2.0892849e-05
000150 32 fe b0 38 fe 66 0d b9 ba 20 53 37 d6 d0 9b 39
       8.4396816e-05 -0.00013485175 1.25842e-05 0.000297195
000160 f4 8b 82 38 40 4f 21 39 4a a5 78 38 25 dc 92 b9
       6.224951e-05 0.0001538368 5.9281745e-05 -0.0002801131
000170 fd 0c 95 38 d1 74 72 38 f9 32 23 37 53 aa 05 b8
       7.107293e-05 5.780609e-05 9.727425e-06 -3.1868298e-05
000180 ea c0 56 b6 aa dc f2 37 c4 16 0a 38 49 64 17 38
       -3.2000776e-06 2.8951403e-05 3.2922966e-05 3.6094603e-05
000190 8e fe 43 b8 1c db 99 39 93 47 95 38 9a 62 6b b9
       -4.6728695e-05 0.00029345683 7.1182054e-05 -0.00022448078
0001a0 b0 74 2c 39 86 94 9d 38 b9 35 2b 38 3a 67 14 b9
       0.00016446668 7.514008e-05 4.081961e-05 -0.00014152835
0001b0 7a f6 1c 39 6e 69 a9 b6 ca 6e 15 b8 68 c1 7b 38
       0.00014969139 -5.048866e-06 -3.562755e-05 6.0023187e-05
0001c0 8a d4 d2 b7 6f 75 5d 39 21 c8 a7 b8 28 c3 41 37
       -2.5132922e-05 0.0002111995 -8.0004575e-05 1.1549135e-05
0001d0 00 c6 b0 b7 9a 28 2a 39 27 25 b0 b7 cb e5 ce 38
       -2.1073036e-05 0.00016227589 -2.0998135e-05 9.865648e-05
0001e0 63 2c 58 b8 92 84 53 38 75 08 04 b8 39 95 94 b8
       -5.153975e-05 5.0429786e-05 -3.147913e-05 -7.084985e-05
0001f0 52 60 0b 38 a7 8f b6 38 d8 a7 1c 38 31 2f fe b8
       3.3229888e-05 8.7051936e-05 3.7349615e-05 -0.00012120454
000200 ed 74 b3 38 58 69 4f 38 21 9e 50 38 5e 8a 53 b9
       8.557164e-05 4.9450755e-05 4.9738333e-05 -0.00020174074
000210 f7 ce 8f 38 68 22 a6 b8 0c cb 86 b8 11 f5 f9 37
       6.8573216e-05 -7.9219055e-05 -6.427438e-05 2.9797231e-05
000220 8a 36 79 38 da 0a 2a 39 c3 c5 4c 38 ca 77 cb b9
       5.941702e-05 0.00016216506 4.882157e-05 -0.00038808427
000230 12 fb b1 b6 ac 32 28 b7 ab 37 24 b8 57 22 f9 38
       -5.3042395e-06 -1.0025378e-05 -3.915249e-05 0.000118796415
000240 f3 e2 9c b8 e7 32 84 b9 4f 03 07 38 53 65 1d 39
       -7.480932e-05 -0.00025214927 3.218959e-05 0.00015010433
000250 60 94 c8 37 40 74 15 39 90 8d 09 38 e8 d8 9d 38
       2.391095e-05 0.00014253054 3.2795186e-05 7.526745e-05
000260 20 4e db 37 d2 55 3a 39 f4 01 8d b7 16 96 0a b9
       2.6143214e-05 0.00017770313 -1.680942e-05 -0.00013216617
000270 8e 6b 9b 38 d7 f4 14 b9 b9 10 4a b7 d9 3a 0a 39
       7.4110096e-05 -0.0001420559 -1.2044032e-05 0.00013182628
000280 87 39 d2 b7 20 e9 a4 b8 be 5d 2b 38 0c c2 18 b8
       -2.5060739e-05 -7.863552e-05 4.085688e-05 -3.6420344e-05
000290 36 0c 74 b8 2c d2 21 b9 63 57 90 38 1c b8 a0 38
       -5.8185506e-05 -0.00015432452 6.882732e-05 7.6636876e-05
0002a0 f5 e2 fb 36 60 b5 82 39 24 8f b1 37 56 0a 7f b8
       7.506804e-06 0.00024930667 2.11667e-05 -6.0806364e-05
0002b0 7f 94 fd 38 cb eb 5f b9 e9 c9 71 b8 5c 16 4b 39
       0.0001209164 -0.00021354777 -5.764692e-05 0.00019367918
0002c0 c1 57 75 b7 35 17 f1 38 f2 f1 7f 38 f9 cd 88 b9
       -1.462357e-05 0.00011496098 6.1022067e-05 -0.00026093403
0002d0 d9 9e 30 b9 43 5f 20 38 72 53 50 38 9a bd 15 39
       -0.00016843843 3.8235692e-05 4.966878e-05 0.0001428038
0002e0 8d 7e 77 b5 f6 88 9f 39 d8 85 2b 38 99 ef 06 b9
       -9.2198826e-07 0.00030428887 4.089423e-05 -0.00012868493
0002f0 5d e7 ad b7 1d fc 84 b7 2a 06 00 b7 73 92 8a 38
       -2.0730944e-05 -1.5853026e-05 -7.63083e-06 6.607631e-05
000300 f5 65 24 b7 90 3f 7c 39 2d 51 05 38 25 35 b8 b9
       -9.7989005e-06 0.00024056272 3.1785272e-05 -0.0003513481
000310 d7 ff 05 38 b6 ff 02 b8 e0 c0 9b b8 e4 46 e3 38
       3.194794e-05 -3.1232565e-05 -7.426902e-05 0.00010837408
000320 e4 0f e3 37 ea 9e ad b8 3f b3 3f b8 2f a7 09 38
       2.7067908e-05 -8.278883e-05 -4.5704885e-05 3.2819047e-05
000330 73 04 2a 38 75 d4 fa b8 61 52 99 36 b7 38 d9 38
       4.0535302e-05 -0.00011960502 4.5693455e-06 0.0001035793
000340 2b c0 df 37 98 09 6b b8 3a dd 6d b8 be 31 0c b8
       2.6673157e-05 -5.60373e-05 -5.6711237e-05 -3.3424927e-05
000350 68 67 09 38 f3 21 05 39 6f dd b7 b6 41 e8 04 b9
       3.275965e-05 0.00012696515 -5.4796033e-06 -0.00012675022
000360 da 0b 83 37 2f 8e bb b8 02 79 9c 38 f1 df 8b b7
       1.5621936e-05 -8.9433386e-05 7.461199e-05 -1.6674372e-05
000370 98 c5 5a 38 0f 7c 7d 39 88 5f 96 35 1c 9f 43 b9
       5.2159274e-05 0.00024174176 1.1203674e-06 -0.00018655922
000380 db 30 2f b9 34 f1 4a b9 54 1d a2 38 a4 47 77 39
       -0.000167075 -0.00019354076 7.730225e-05 0.00023582444
000390 d5 43 2b 38 fa de e7 38 d0 95 64 b8 44 59 cf b8
       4.083275e-05 0.00011056471 -5.449896e-05 -9.887156e-05
0003a0 16 9d fc 36 34 6a 81 38 9a 5c 8a b8 7e 32 cb 38
       7.5284725e-06 6.170981e-05 -6.597601e-05 9.689199e-05
0003b0 a5 ca 5f 38 8b d2 c4 38 38 2e 0e b8 2c 87 14 37
       5.335607e-05 9.385225e-05 -3.3898483e-05 8.85296e-06
0003c0 8f f4 6c 38 6c b4 3d b8 22 d9 32 37 33 09 80 b8
       5.6494548e-05 -4.5229142e-05 1.0660182e-05 -6.105229e-05
0003d0 a6 65 d4 b7 e4 db e1 37 1a 98 7f 38 61 2c 04 b9
       -2.5319703e-05 2.6924485e-05 6.0938393e-05 -0.00012605033
0003e0 dc f0 b4 b8 c0 84 c8 b8 73 94 13 b7 eb 2d 4d 39
       -8.6279324e-05 -9.56147e-05 -8.796446e-06 0.00019567429
0003f0 76 32 06 37 ed 65 27 39 c9 e2 85 38 a5 95 40 b9
       7.998771e-06 0.00015964331 6.384176e-05 -0.00018366294

exp_avg_sq f4 [256, 4]
000000 f4 f7 f8 35 a8 5c 87 35 db 74 dd 33 d0 00 3a 37
       1.8549604e-06 1.008525e-06 1.031237e-07 1.1086653e-05
000010 61 ce 56 34 74 d3 3b 35 db 9a 35 33 d1 40 8f 35
       2.0005383e-07 6.9970633e-07 4.2283187e-08 1.0673194e-06
000020 82 34 4c 34 54 76 08 37 f3 0a 49 33 2e d6 33 35
       1.9018083e-07 8.133782e-06 4.6808918e-08 6.699437e-07
000030 45 f3 06 34 16 16 2a 35 5e 63 4f 33 2d 8c 20 35
       1.2568223e-07 6.3362074e-07 4.8286317e-08 5.980863e-07
000040 0d a4 a6 33 33 4b b3 34 95 82 3e 33 7c cf 0b 35
       7.759818e-08 3.3396063e-07 4.4356586e-08 5.2083465e-07
000050 72 21 49 34 8d 9c 06 35 0b 19 e2 33 aa 15 14 35
       1.8731751e-07 5.01467e-07 1.05285004e-07 5.516582e-07
000060 8a 32 94 33 94 0e c0 34 b0 34 08 33 26 bf d6 34
       6.90098e-08 3.5773394e-07 3.1712887e-08 3.9999685e-07
000070 f1 8b 13 34 9a b4 9c 34 f3 82 5f 33 23 10 ca 34
       1.3741352e-07 2.918867e-07 5.204033e-08 3.7637173e-07
000080 1f 5e b4 33 83 22 ba 34 35 ce 6e 33 1a c7 f0 34
       8.399024e-08 3.467031e-07 5.5601237e-08 4.484835e-07
000090 31 ea c3 33 65 67 97 34 61 24 87 33 26 de be 34
       9.122994e-08 2.820117e-07 6.293045e-08 3.5551892e-07
0000a0 a2 90 9d 33 96 14 cd 34 be 60 41 33 49 1d c5 34
       7.337191e-08 3.8199204e-07 4.50243e-08 3.6715417e-07
0000b0 d4 87 c2 33 5d 96 9a 34 28 3a 45 33 c4 18 b1 34
       9.058536e-08 2.879414e-07 4.592053e-08 3.2986839e-07
0000c0 25 10 87 33 1d 11 ad 34 db dd 6e 33 bf 46 c1 34
       6.289364e-08 3.2236213e-07 5.561547e-08 3.6000526e-07
0000d0 fb 25 b4 33 80 2b 92 34 03 60 46 33 1f 7d d2 34
       8.388812e-08 2.722627e-07 4.618779e-08 3.9206586e-07
0000e0 3a 3d 9a 33 42 41 a8 34 c6 23 6a 33 90 21 d1 34
       7.182321e-08 3.133992e-07 5.4514906e-08 3.8953704e-07
0000f0 00 b5 9a 33 cb 00 8e 34 54 80 43 33 43 2e c8 34
       7.2041075e-08 2.6450138e-07 4.551869e-08 3.7286563e-07
000100 f5 34 8e 33 23 33 cc 34 c0 d1 4e 33 3f b1 ca 34
       6.622023e-08 3.8035168e-07 4.815388e-08 3.7754396e-07
000110 5a 09 98 33 9c 00 7d 34 4a 51 1c 33 2a 13 a7 34
       7.0797526e-08 2.3562683e-07 3.6395512e-08 3.1120118e-07
000120 be 13 ca 33 71 74 9d 34 ff d9 44 33 88 a7 ae 34
       9.409949e-08 2.932825e-07 4.5833072e-08 3.253192e-07
000130 d2 14 79 33 f6 e5 81 34 85 d1 f3 32 ba e2 9b 34
       5.7993766e-08 2.419544e-07 2.8384202e-08 2.9035965e-07
000140 0e 2f ae 33 37 a1 a2 34 9e ed 4b 33 1b 53 c2 34
       8.1110656e-08 3.029215e-07 4.7480732e-08 3.6195783e-07
000150 68 35 cd 33 49 7d a7 34 a8 ee 60 33 b4 a0 cb 34
       9.555771e-08 3.119733e-07 5.237112e-08 3.7928623e-07
000160 36 77 85 33 c0 82 8c 34 15 aa 2e 33 a1 10 ae 34
       6.2149795e-08 2.6172165e-07 4.066722e-08 3.2422125e-07
000170 f1 91 ba 33 4f f9 c5 34 a1 24 1e 33 de f6 c7 34
       8.6878465e-08 3.6875505e-07 3.6820555e-08 3.7246258e-07
000180 e5 90 96 33 60 72 99 34 23 51 36 33 be 16 a4 34
       7.0112755e-08 2.858169e-07 4.244897e-08 3.0563928e-07
000190 60 1a 6b 33 58 5c 99 34 7a a9 22 33 8e 08 b0 34
       5.473919e-08 2.856566e-07 3.7872702e-08 3.278878e-07
0001a0 50 3b a7 33 6c 37 b1 34 65 c3 46 33 ba 13 c8 34
       7.7873324e-08 3.3009144e-07 4.6278178e-08 3.7267256e-07
0001b0 c7 6d b4 33 28 52 99 34 fe 96 20 33 13 44 bc 34
       8.4018716e-08 2.8558247e-07 3.739023e-08 3.506726e-07
0001c0 54 f3 9f 33 2c e8 9d 34 9a 7a 3e 33 a7 3b ce 34
       7.4482756e-08 2.9412456e-07 4.4349328e-08 3.8413893e-07
0001d0 a8 c0 62 33 c8 6a 80 34 ab d3 18 33 f2 34 b0 34
       5.2794945e-08 2.3919551e-07 3.558277e-08 3.2821077e-07
0001e0 96 98 88 33 b7 a7 96 34 79 ef 45 33 09 cc bf 34
       6.360749e-08 2.8061706e-07 4.6085436e-08 3.5724977e-07
0001f0 85 8f 9c 33 3b af 9c 34 5f 68 50 33 35 21 ce 34
       7.290422e-08 2.918476e-07 4.85237e-08 3.839465e-07
000200 72 18 9e 33 87 30 97 34 12 d6 53 33 d4 f0 ab 34
       7.361895e-08 2.816125e-07 4.932196e-08 3.2026458e-07
000210 ab 4a a0 33 f3 2a 9d 34 33 95 2a 33 81 a8 b5 34
       7.4641626e-08 2.9274779e-07 3.9716905e-08 3.383648e-07
000220 8c c2 8f 33 da 70 92 34 ac ff 2c 33 c9 51 ae 34
       6.694344e-08 2.727673e-07 4.0279403e-08 3.2469532e-07
000230 c0 92 88 33 52 fd 7f 34 0f 44 68 33 60 45 b1 34
       6.359687e-08 2.3840883e-07 5.407861e-08 3.3019296e-07
000240 65 00 5f 33 0f 54 9a 34 ad 6b 40 33 4e 64 d9 34
       5.1921592e-08 2.8745896e-07 4.4801414e-08 4.049238e-07
000250 b2 43 87 33 fb dd 9c 34 f4 74 6b 33 8b 72 aa 34
       6.298741e-08 2.9218776e-07 5.482157e-08 3.1748309e-07
000260 e5 7f 62 33 b6 cd a8 34 b5 0e 53 33 2b 8f a2 34
       5.2736045e-08 3.1442113e-07 4.9140642e-08 3.027902e-07
000270 ca 88 95 33 ff 87 95 34 19 0d 5b 33 2c ff 9d 34
       6.963235e-08 2.7852363e-07 5.1001823e-08 2.942919e-07
000280 ac 90 8f 33 f6 28 9a 34 15 a8 27 33 c9 65 8c 34
       6.685272e-08 2.8714538e-07 3.9035587e-08 2.615109e-07
000290 31 1b cc 33 77 30 95 34 2c 9e 32 34 5d d1 d1 34
       9.504436e-08 2.7788676e-07 1.6635084e-07 3.9081615e-07
0002a0 2f 4c 8c 33 0c 8d a1 34 0e ef 29 33 85 ee a5 34
       6.533116e-08 3.0091212e-07 3.9565798e-08 3.090719e-07
0002b0 c6 ff 75 33 af ac 96 34 b7 a8 0a 33 48 48 9b 34
       5.7276132e-08 2.806532e-07 3.2284074e-08 2.892359e-07
0002c0 6b 1d dc 33 fa b4 44 35 18 88 43 33 6d 3e c5 34
       1.02498994e-07 7.3279045e-07 4.5525752e-08 3.673953e-07
0002d0 34 1a c1 33 39 e3 78 34 68 65 31 33 57 4d ad 34
       8.992029e-08 2.3179463e-07 4.1303252e-08 3.2280033e-07
0002e0 4f b1 17 34 11 ca 17 35 10 df 0d 33 d1 65 aa 34
       1.4127475e-07 5.654593e-07 3.3031995e-08 3.173905e-07
0002f0 b1 b0 80 33 52 c0 78 34 2d 75 42 33 f5 52 8b 34
       5.9926045e-08 2.3166766e-07 4.5275716e-08 2.5951127e-07
000300 db 33 8e 33 75 dc a0 34 69 7a 3e 33 4f 73 bd 34
       6.621823e-08 2.9962726e-07 4.4349154e-08 3.528789e-07
000310 86 8b 6d 33 b0 cc 78 34 79 fb 34 33 4a f5 9b 34
       5.530776e-08 2.3171265e-07 4.213823e-08 2.904947e-07
000320 5e 2b 7b 33 a3 3a 82 34 ce c1 4c 33 fc 62 b9 34
       5.8479934e-08 2.425705e-07 4.7673716e-08 3.4530956e-07
000330 4f bd c5 33 17 80 84 34 7e 2d 20 33 88 d6 92 34
       9.2079624e-08 2.4680114e-07 3.7294278e-08 2.735071e-07
000340 e3 6d 91 33 3a f8 ab 34 4e 36 26 33 f5 6e e2 34
       6.772077e-08 3.203184e-07 3.8699277e-08 4.2176512e-07
000350 d1 35 b3 33 35 ea 8f 34 34 ba 1c 33 2b 5c 9e 34
       8.345126e-08 2.6806234e-07 3.649093e-08 2.9496854e-07
000360 be 4e aa 33 99 6d a8 34 7a 44 53 33 ec 60 b7 34
       7.930565e-08 3.137218e-07 4.9189545e-08 3.4156926e-07
000370 fb bd 69 33 c0 dc 97 34 12 74 30 33 31 9a ad 34
       5.4422326e-08 2.8286559e-07 4.108376e-08 3.233595e-07
000380 c2 18 ed 33 27 30 96 34 dd 23 6b 33 9e d7 ab 34
       1.1040676e-07 2.7974713e-07 5.474782e-08 3.2008114e-07
000390 9e 6f 65 33 53 12 7b 34 db 9d 21 33 1e e4 8e 34
       5.3419733e-08 2.3382863e-07 3.7629302e-08 2.6615538e-07
0003a0 2a 8b b1 33 8c 1b 94 34 e8 80 2d 33 6b a4 af 34
       8.2675186e-08 2.758719e-07 4.039694e-08 3.271592e-07
0003b0 12 83 b4 33 0c 31 6a 34 e2 3e 41 33 85 ab 99 34
       8.405745e-08 2.1810791e-07 4.4993506e-08 2.8623268e-07
0003c0 05 b6 9b 33 0b 9c 92 34 2e 7c 28 33 5d 6d 8f 34
       7.250859e-08 2.7308155e-07 3.922849e-08 2.6715398e-07
0003d0 50 b9 95 33 cf a0 49 34 27 81 4d 33 0d 9f b8 34
       6.972061e-08 1.8778086e-07 4.7847745e-08 3.4388395e-07
0003e0 f5 98 cc 33 2b 51 66 34 21 b6 54 33 d2 6c a7 34
       9.527313e-08 2.1449948e-07 4.952574e-08 3.118535e-07
0003f0 51 ec 88 33 db 20 8a 34 d7 54 3e 33 02 f7 bd 34
       6.375979e-08 2.5728409e-07 4.4314984e-08 3.5383715e-07

exp_avg f4 [12, 4]
000000 bd 4c ab 36 c3 3a 5d b6 0d b2 0e 33 b8 ab 83 b5
       5.1051306e-06 -3.296577e-06 3.3223888e-08 -9.810237e-07
000010 5e cf 62 32 ad f9 0b b6 56 81 9d b5 d6 ac 5d 36
       1.3202081e-08 -2.0857944e-06 -1.1735053e-06 3.303217e-06
000020 b1 93 22 b7 9b 7f 7d 37 7a 58 2e 37 89 b6 94 b7
       -9.6903395e-06 1.5109686e-05 1.0391808e-05 -1.7727974e-05
000030 25 26 6a b7 44 2a 24 37 db bc fa 37 a5 06 f3 b7
       -1.3956368e-05 9.7850025e-06 2.9890265e-05 -2.8970951e-05
000040 2a 39 f2 b5 0f 3a 30 b5 52 a8 e7 34 b7 17 1d 36
       -1.8047042e-06 -6.5649596e-07 4.3149572e-07 2.3408627e-06
000050 58 8a c6 b2 8b 7b 94 33 c2 37 df b4 e9 61 1d b2
       -2.3113145e-08 6.9142594e-08 -4.1577556e-07 -9.160865e-09
000060 db 31 1a 36 b7 e1 52 36 ea ed 4d b5 17 97 33 b6
       2.2976808e-06 3.1423822e-06 -7.671466e-07 -2.6761024e-06
000070 a1 64 14 37 84 d4 8d 35 f6 f3 07 b7 6e e9 85 b4
       8.844917e-06 1.0567169e-06 -8.103429e-06 -2.4943023e-07
000080 2a c8 ed b7 73 a8 c2 37 ec 22 ca 37 8b d2 c1 b7
       -2.834581e-05 2.3205042e-05 2.4096538e-05 -2.3105435e-05
000090 b3 16 c9 b8 21 d2 e2 b8 c6 6c 2a 39 23 27 51 38
       -9.588655e-05 -0.00010815659 0.00016252985 4.9865932e-05
0000a0 36 74 d3 38 18 f3 d7 38 0d 7a 88 b9 36 39 67 38
       0.0001008291 0.00010297279 -0.00026030876 5.5127974e-05
0000b0 89 da b9 39 f4 f7 8c 39 a1 63 1b ba 82 03 40 b8
       0.0003544877 0.0002688762 -0.00059276266 -4.5779634e-05

exp_avg_sq f4 [12, 4]
000000 db 88 76 30 d2 3f b8 2f 39 ba 27 30 e4 82 3d 30
       8.968876e-10 3.3514752e-10 6.1018884e-10 6.8943806e-10
000010 f2 2b a6 2e 09 50 b9 2e dc 42 cc 2e f1 6e 9a 2e
       7.556612e-11 8.427043e-11 9.2887226e-11 7.0228164e-11
000020 2d cb e3 31 68 e3 c5 31 dd b6 cc 31 80 7e 03 32
       6.629668e-09 5.7593077e-09 5.9579706e-09 7.653966e-09
000030 0e a1 a0 32 ab 18 1d 32 29 7f 84 32 8e d9 4f 32
       1.869969e-08 9.144212e-09 1.5424648e-08 1.2098452e-08
000040 d2 5e 95 2f a1 72 50 2f bb f2 16 30 d1 98 95 2e
       2.7170316e-10 1.8958214e-10 5.4914623e-10 6.802881e-11
000050 8d d2 6f 2d 7e 14 3f 2d cf 36 45 2e 31 45 76 2c
       1.3632329e-11 1.0861643e-11 4.4841294e-11 3.4997112e-12
000060 be 30 2a 31 e6 65 15 31 8d 5f 69 31 4a 24 ab 31
       2.4765963e-09 2.1740276e-09 3.3960277e-09 4.9808806e-09
000070 ce 17 c3 31 ce af 99 31 b4 9d bf 31 3f eb 49 32
       5.677953e-09 4.4728727e-09 5.5767604e-09 1.1753229e-08
000080 f1 5b 93 35 eb 62 2e 34 e9 b1 a5 35 2b e4 92 33
       1.0979112e-06 1.6240999e-07 1.2345237e-06 6.840158e-08
000090 c5 3b 00 36 55 82 f1 34 55 3f 6b 36 9b 3d 0a 34
       1.9108277e-06 4.4984577e-07 3.5054593e-06 1.2874663e-07
0000a0 fb 89 d8 35 76 74 6d 34 64 93 3a 36 be f2 1a 34
       1.6133412e-06 2.2114713e-07 2.7801952e-06 1.4430677e-07
0000b0 be a4 c6 36 c6 55 59 35 98 6e 15 37 d2 64 70 34
       5.9200383e-06 8.0963616e-07 8.906842e-06 2.238842e-07

exp_avg f4 [4, 4]
000000 5f 1d d8 38 91 6e a1 38 13 05 f7 38 16 b2 0f 39
       0.000103051534 7.697673e-05 0.00011778823 0.00013703885
000010 01 23 19 39 0e 95 19 39 e0 71 a8 38 9c 0d cc 38
       0.00014604257 0.00014646744 8.032075e-05 9.730013e-05
000020 d4 4e 3c b8 9f 66 65 b8 9f 16 c7 38 df f4 4d 38
       -4.4896107e-05 -5.4693428e-05 9.493273e-05 4.9103863e-05
000030 3d ca 72 ba fc 38 2b ba 95 ca 23 ba d7 2c eb b9
       -0.0009261703 -0.00065316237 -0.00062481436 -0.000448561

exp_avg_sq f4 [4, 4]
000000 26 62 e5 35 26 3e 5e 35 e2 61 04 35 79 ca 96 34
       1.7090395e-06 8.279188e-07 4.931627e-07 2.8086995e-07
000010 7b ba 49 37 87 b4 bb 36 e8 fc 6d 36 de a5 01 36
       1.2023952e-05 5.5940504e-06 3.5462963e-06 1.9319045e-06
000020 1b 5b e8 35 d9 db 5c 35 d4 0c 33 35 b2 ae b2 34
       1.7311862e-06 8.2276307e-07 6.6701364e-07 3.328219e-07
000030 6d 31 b4 37 02 3f 20 37 99 02 d2 36 48 b6 64 36
       2.1480688e-05 9.551413e-06 6.25879e-06 3.408075e-06

exp_avg f4 [16, 4]
000000 a4 84 a1 38 73 41 00 b9 4a 9b 31 b7 b2 3a 2f 38
       7.7017845e-05 -0.00012231413 -1.0586178e-05 4.1777916e-05
000010 98 cd c4 37 89 67 dc 37 b5 0b 2a b9 d0 65 fa 38
       2.3460758e-05 2.6274256e-05 -0.00016216825 0.00011939893
000020 85 d1 9a 36 ca 92 fd b8 c6 97 be 38 7e d1 82 37
       4.613949e-06 -0.00012091322 9.088176e-05 1.559476e-05
000030 bc 57 25 39 c2 b2 75 39 28 f1 6a b8 dc b9 b8 b9
       0.0001576831 0.00023431613 -5.601454e-05 -0.0003523369
000040 06 41 82 b9 24 61 e8 38 23 a6 72 39 80 29 81 b8
       -0.00024843978 0.00011080716 0.00023140809 -6.158929e-05
000050 ad e4 ab b9 0c dd d0 38 20 5d 8a 39 9c 34 e1 36
       -0.00032786038 9.959386e-05 0.00026390795 6.711647e-06
000060 35 26 ac b9 c8 c5 b3 38 b2 c5 c6 39 76 d1 d0 b8
       -0.00032834863 8.572225e-05 0.00037912797 -9.957228e-05
000070 b9 b9 03 39 a8 46 46 38 1c 6e 0e b9 32 a8 4f b8
       0.0001256232 4.7272682e-05 -0.00013583194 -4.950929e-05
000080 7a 1a 9b b9 11 96 ea b8 95 2e 2c 3a ad f5 79 b9
       -0.0002958363 -0.000111859415 0.00065682206 -0.00023838012
000090 73 cf 0d 39 b1 13 a5 38 b6 c5 3b b8 f9 5f 3f b9
       0.00013524089 7.871481e-05 -4.4768407e-05 -0.00018250932
0000a0 5a 84 cb b8 c0 c7 6d b9 65 dc d9 38 44 17 69 39
       -9.704447e-05 -0.00022676494 0.00010388418 0.00022229279
0000b0 21 23 97 39 4f 48 c1 b8 2f 75 ed b8 9c b0 03 b9
       0.00028827137 -9.216426e-05 -0.00011322868 -0.00012558926
0000c0 1b 24 56 39 3e d9 43 39 3d 7d 8b b9 a4 98 10 b9
       0.0002042208 0.00018677578 -0.00026605456 -0.00013789773
0000d0 0b 0a 3f 39 9b 21 19 38 61 ca 85 b8 36 59 3b b9
       0.00018218921 3.650934e-05 -6.37963e-05 -0.00017866943
0000e0 f9 f0 11 b8 9e 18 66 38 ef 3a e1 38 d8 0c 04 b9
       -3.4795117e-05 5.48592e-05 0.00010739813 -0.00012593286
0000f0 c1 20 12 3a eb ef 7f 38 64 ef 21 ba e9 82 68 b8
       0.0005574339 6.102018e-05 -0.00061773346 -5.543503e-05

exp_avg_sq f4 [16, 4]
000000 3e 7f 00 35 5a d1 34 34 37 c9 2c 35 6c 6d 60 34
       4.786888e-07 1.6839968e-07 6.43678e-07 2.0901433e-07
000010 9a b8 36 34 aa aa ab 33 b3 7b 6f 34 e5 bc ca 33
       1.7017229e-07 7.9938516e-08 2.2303611e-07 9.440718e-08
000020 fa c8 70 36 c0 ea cd 35 a3 bc 15 37 a9 64 a1 35
       3.587977e-06 1.5342011e-06 8.9250125e-06 1.2024731e-06
000030 ed da 02 36 5c 47 9c 34 19 97 8a 36 7f 42 4c 35
       1.949894e-06 2.9109185e-07 4.1303106e-06 7.6092687e-07
000040 ab 2a 49 35 cf 45 c2 34 2f 6d 88 35 13 dc d9 34
       7.4940425e-07 3.6186108e-07 1.0164566e-06 4.0579525e-07
000050 14 af 02 35 35 94 74 34 10 f3 1f 35 c9 f9 84 34
       4.8683546e-07 2.2778188e-07 5.958582e-07 2.476866e-07
000060 75 3d 51 35 a3 6e 45 35 6b bc a9 35 c9 59 04 35
       7.7948e-07 7.3549216e-07 1.2646318e-06 4.9304487e-07
000070 f3 9a 35 35 f3 ce 04 34 c3 e7 90 35 80 e2 a7 34
       6.7653235e-07 1.2368746e-07 1.0796288e-06 3.1270974e-07
000080 e9 11 8b 35 16 89 0c 34 37 d3 2f 36 66 45 a9 34
       1.036152e-06 1.3088388e-07 2.6199975e-06 3.1529197e-07
000090 3a a1 ad 34 c6 14 15 34 7d d7 b5 35 76 c4 9e 34
       3.234107e-07 1.3884264e-07 1.3548266e-06 2.9572738e-07
0000a0 c3 53 68 36 29 2f fd 35 40 88 cd 36 48 7f cf 35
       3.461945e-06 1.8863694e-06 6.1253377e-06 1.5459746e-06
0000b0 dc 86 98 34 6f a2 65 33 45 2e ad 34 73 42 b1 33
       2.841033e-07 5.346595e-08 3.2257427e-07 8.254292e-08
0000c0 ec e3 e4 34 43 de f0 33 9a e3 13 35 9e bb 02 34
       4.2634144e-07 1.12163e-07 5.509297e-07 1.2175448e-07
0000d0 2f 61 d5 34 ae 23 da 33 a2 1d c4 34 0c 6f 30 34
       3.9745052e-07 1.0157906e-07 3.6529406e-07 1.6431676e-07
0000e0 55 02 1e 34 e9 26 c3 33 6b 87 91 34 e6 75 d6 33
       1.4715745e-07 9.087473e-08 2.7106884e-07 9.986597e-08
0000f0 74 14 16 35 6e b0 8c 33 88 d4 53 35 ee 90 84 33
       5.590912e-07 6.5513504e-08 7.89129e-07 6.1730915e-08
